code/experiments/random_long/ac/2/models/2.pth (torch, 251795 bytes, 4 tensors)

network.0.weight f4 [1024, 33]
0	0x3dc488d5	0.09596411
1	0xbe2bc07d	-0.16772647
2	0x3dfd3e28	0.12365371
3	0x3dca2cff	0.098718636
4	0x3df4574e	0.119307145
5	0x3d699246	0.057024263
6	0xbd93ca99	-0.07216377
7	0xbe1d2a5a	-0.15348187
8	0x3de18d8d	0.11013327
9	0xbd998d90	-0.07497704
10	0x3e146b5f	0.14494084
11	0xbe0058eb	-0.1253392
12	0xbc38ff0c	-0.011291277
13	0xbdf2f3d6	-0.11862914
14	0x3ddcffed	0.107910015
15	0x3e2bab32	0.16764525
16	0xbc93f54c	-0.018061303
17	0x3da067ff	0.07832336
18	0xbd9ec785	-0.07752899
19	0x3dd051a3	0.10171821
20	0x3ddf8b1b	0.10915204
21	0xbdcd5e3f	-0.10027742
22	0xbdb59ee6	-0.08868198
23	0x3da01d26	0.078180596
24	0x3d63383e	0.05547356
25	0x3dbc86d3	0.09205403
26	0x3d388e7f	0.04505777
27	0x3dc0098e	0.093768224
28	0xbdebca66	-0.11513214
29	0x3d8027b5	0.062575735
30	0xbe025585	-0.12727936
31	0xbd010bd9	-0.03150544
32	0xbd343b0f	-0.044001635
33	0xbc63228d	-0.013863218
34	0xbd8615a2	-0.06547095
35	0xbdbb49cb	-0.09144934
36	0xbd622a55	-0.055216152
37	0x3ce77263	0.028252786
38	0x3d8b668a	0.06806667
39	0xbc836cce	-0.016043093
40	0x3d84c313	0.0648252
41	0xbd7afa51	-0.061273877
42	0xbe064581	-0.13112451
43	0x3dc98235	0.09839288
44	0xbdda0edd	-0.10647366
45	0x3d503bac	0.050838158
46	0x3e2491a2	0.1607118
47	0x3d89f28f	0.067357175
48	0x3cbd7f23	0.023131913
49	0xbdb07216	-0.0861551
50	0x3b76d473	0.003766325
51	0xbd7feb55	-0.06248029
52	0x3e07477d	0.13210864
53	0xbd9a6d5f	-0.07540392
54	0x3dd9af30	0.106291175
55	0x3c4ec69d	0.012620595
56	0x3c86d043	0.016456729
57	0x3bdcf104	0.0067425985
58	0xbdd6482f	-0.10462987
59	0x3d9a98ab	0.0754865
60	0x3d863af6	0.06554215
61	0xbd591fbc	-0.05300878
62	0xbbb2140a	-0.0054345177
63	0x3dfd96d9	0.123822875
64	0x3e34bd86	0.17650422
65	0x3ddfd087	0.10928445
66	0xbe0c4d56	-0.13701376
67	0x3e19f8aa	0.15036264
68	0x3b83f815	0.0040273764
69	0x3da401d0	0.08008158
70	0xbb1f5954	-0.0024314718
71	0xbd13694e	-0.0359891
72	0x3e006843	0.12539773
73	0xbdbcd969	-0.09221155
74	0xbe21e68d	-0.15810604
75	0x3c8ab2e2	0.016931001
76	0x3d39b210	0.04533583
77	0xbb834b17	-0.004006754
78	0x3dbade0e	0.09124385
79	0xbdad3444	-0.084572345
80	0xbd7bcca2	-0.06147445
81	0x3d81aaec	0.06331429
82	0x3e18a68f	0.14907287
83	0x3daa40d9	0.0831315
84	0x3d6dbbaa	0.0580403
85	0xbdc9c16a	-0.09851344
86	0xbc5a7ca1	-0.013335378
87	0xbe02067c	-0.12697786
88	0x3d2abc31	0.04168338
89	0x3d8fbbc1	0.07018233
90	0xbe08eca3	-0.1337152
91	0xbdb27db5	-0.08715383
92	0x3da5138f	0.08060371
93	0xbda8e1b1	-0.08246172
94	0xbd534ffb	-0.051589947
95	0x3d93a61a	0.07209416
96	0x3d09deec	0.03365986
97	0xbd6d1486	-0.0578809
98	0xbd14822f	-0.036256965
99	0x3bc4cbd1	0.006005742
100	0x3bc38a32	0.005967402
101	0x3d662d34	0.056195453
102	0x3cf4062c	0.0297881
103	0x3e309fa0	0.17248392
104	0xbdc44a3e	-0.09584473
105	0x3e02ff8c	0.12792796
106	0xbc97662b	-0.018481335
107	0x3dbc64a6	0.09198885
108	0xbd8a1f4f	-0.06744253
109	0xbdb527bc	-0.08845469
110	0xbe1ddf34	-0.15417176
111	0xbd1bc44c	-0.038029
112	0x3dfb18a5	0.1226056
113	0x3d8cb28d	0.06869993
114	0xbcb90387	-0.02258469
115	0xbd12f70e	-0.03588014
116	0xbda8c93e	-0.08241509
117	0xbd033041	-0.03202844
118	0x3c0d63ab	0.00862972
119	0xbe363c95	-0.17796548
120	0xbc9a13c2	-0.01880825
121	0xbd8a1f01	-0.06744195
122	0x3d234db2	0.039869018
123	0xbd0f354a	-0.03496293
124	0xbe28b8f4	-0.16476804
125	0xbe212a45	-0.15738781
126	0xbdfce532	-0.12348403
127	0xbbef04b4	-0.007294262
128	0xbd9758cc	-0.073899835
129	0x3d7be8d1	0.061501328
130	0x3d1b6d8b	0.037946265
131	0x3d95687f	0.07295322
132	0xbdc370c4	-0.09542993
133	0x3da562ec	0.080755085
134	0xbde80838	-0.113296926
135	0xbb6275e9	-0.0034555143
136	0xbde17ee1	-0.11010528
137	0xbe208c75	-0.1567858
138	0xbd71819f	-0.058961507
139	0x3d070480	0.032963276
140	0xbc8c9e12	-0.017165218
141	0x3e288e0e	0.1646044
142	0x3d6e59bf	0.058191057
143	0xbd879861	-0.06620861
144	0xbc874bd7	-0.016515655
145	0x3d8d92b2	0.069127455
146	0x3e2879df	0.1645274
147	0xbc625c1a	-0.013815904
148	0xbd182b6d	-0.03715079
149	0x3d738cda	0.0594605
150	0xbd043977	-0.032281365
151	0xbc98bfdd	-0.018646175
152	0xbc56c7c4	-0.013109151
153	0xbd34353a	-0.043996073
154	0x3da7c2d0	0.081914544
155	0x3e274384	0.16334349
156	0x3d7e0266	0.062014006
157	0x3de80daf	0.11330735
158	0x3e022785	0.12710388
159	0xbdd97334	-0.106176764
160	0xbd50ad99	-0.050946806
161	0x3c67b834	0.014143039
162	0x3e8eb529	0.2787259
163	0x3e900918	0.28131938
164	0x3d522900	0.051308632
165	0x3e104ebf	0.14092539
166	0x3b928241	0.004471094
167	0xbd5aa75d	-0.053382266
168	0x3e218f85	0.15777405
169	0xbe220d33	-0.15825348
170	0xbe437a48	-0.19089615
171	0x3dfb46f3	0.12269392
172	0xbd48d653	-0.04903252
173	0x3d234e5d	0.039869655
174	0x3dbc4fce	0.09194909
175	0x3dbd6b66	0.09249
176	0x3e294c8b	0.16533105
177	0xbda7b161	-0.08188129
178	0xbdea210d	-0.11432085
179	0x3e2158c4	0.15756518
180	0x3e25e7b4	0.16201669
181	0xbe19b784	-0.15011412
182	0xbdd49f4a	-0.103819445
183	0xbd94982e	-0.072555885
184	0xbbbee498	-0.0058255903
185	0xbdd200c5	-0.10254053
186	0xbbed71b7	-0.007246222
187	0xbb70793d	-0.0036693357
188	0x3d883a1e	0.0665171
189	0xbd399911	-0.04531199
190	0xbe07c350	-0.132581
191	0x3d886a04	0.06660846
192	0x3e074d31	0.1321304
193	0xbcdff46f	-0.027338235
194	0xbe2b4ab9	-0.16727723
195	0x3e01b430	0.12666392
196	0xbddecbf1	-0.108787425
197	0x3b93d021	0.004510895
198	0x3d7360f3	0.05941863
199	0xbd82503f	-0.06362962
200	0x3d68178f	0.056663092
201	0xbcc2cd16	-0.023779433
202	0x3d038a9a	0.032114603
203	0xbe1acfed	-0.1511838
204	0xbd98225e	-0.0742843
205	0xbe03c3c1	-0.12867643
206	0xbdc5cfa0	-0.09658742
207	0xbbc498a3	-0.005999641
208	0xbd1899d0	-0.037256062
209	0xbc44ab00	-0.01200366
210	0xbda4c3fc	-0.080451936
211	0xbca9512a	-0.020668585
212	0x3e184915	0.14871629
213	0xbd640143	-0.055665266
214	0xbe0ed0c5	-0.13946827
215	0xbcd9d82c	-0.026592337
216	0x3dee5671	0.11637581
217	0xbd0dfea7	-0.034666684
218	0xbd51ceaa	-0.05122248
219	0x3e434138	0.19067848
220	0x3d7f9eb0	0.062407196
221	0xbd9bffc7	-0.07617145
222	0x3d59b2fe	0.053149216
223	0xbd3e8dd6	-0.046521984
224	0x3de70b67	0.11281472
225	0x3dc83503	0.09775736
226	0xbdbf4873	-0.093399905
227	0xbde5218e	-0.11188041
228	0xbd0a5e9d	-0.033781637
229	0xbd88194a	-0.066454485
230	0xbcded229	-0.027199822
231	0x3d7a4ee4	0.061110392
232	0x3d99dc38	0.075127065
233	0x3ddf7f0f	0.109129064
234	0xbd5ba868	-0.0536274
235	0x3dae5220	0.08511758
236	0x3dee8c49	0.11647851
237	0xbe0532b4	-0.13007623
238	0x3c5e53bd	0.013569769
239	0xbe1d5585	-0.15364654
240	0xbca3bf2a	-0.019988615
241	0xbdaeadf1	-0.085292704
242	0x3e069fa4	0.13146836
243	0x3d339f4f	0.0438531
244	0xbd64901d	-0.0558015
245	0xbca6a9b2	-0.020344589
246	0xbe181793	-0.14852743
247	0xbe02ac6c	-0.12761086
248	0xbd0e696f	-0.034768518
249	0x3cb26d3e	0.021780606
250	0xbe18a06b	-0.14904945
251	0xbdae8572	-0.085215464
252	0x3d20c37b	0.039248925
253	0xbdb25d63	-0.08709218
254	0xbd85174b	-0.064985834
255	0xbdb5bea7	-0.08874255

network.0.bias f4 [1024]
0	0xbd9e1a22	-0.07719828
1	0xbe0790a4	-0.1323877
2	0x3b07381e	0.0020632814
3	0xbe126c91	-0.14299227
4	0xbe1ea99e	-0.15494391
5	0x3ddf8712	0.109144345
6	0x3de09b69	0.10967142
7	0xbd867917	-0.06566065
8	0x3e068762	0.13137582
9	0xbdb4c21f	-0.08826088
10	0x3e02ac4f	0.12761043
11	0x3df9aa68	0.121907055
12	0xbe32f2a8	-0.17475379
13	0xbd903a13	-0.07042327
14	0xbd5daa85	-0.0541177
15	0xbe49822a	-0.1967856
16	0xbda77b41	-0.08177806
17	0xbbcb6769	-0.006207396
18	0xbe36a61a	-0.178368
19	0x3e7d5476	0.2473925
20	0xbd6d0838	-0.057869166
21	0xbdc1512a	-0.09439309
22	0xbd86d158	-0.06582898
23	0x3d8f1cfe	0.06987952
24	0xbde2b77e	-0.110701546
25	0x3e80d953	0.25165805
26	0x3e1978d1	0.14987494
27	0xbc9f1753	-0.019420302
28	0xbcf7da61	-0.030255498
29	0xbdc9efe4	-0.09860209
30	0x3dd8ee88	0.10592371
31	0x3d63524a	0.0554984
32	0xbe28ab6a	-0.1647164
33	0xbe1a85a2	-0.1509004
34	0x3cec412e	0.028839674
35	0x3e688ba2	0.22709516
36	0xbd970f65	-0.07375983
37	0x3e58b0ff	0.21161269
38	0x3e1b71f6	0.15180191
39	0xbd3f4d5c	-0.046704635
40	0xbe24a91d	-0.16080137
41	0x3e547b9f	0.20750283
42	0xbdec7a0a	-0.115467146
43	0xbe18a720	-0.14907503
44	0x3de1722e	0.11008106
45	0x3d26408e	0.040588908
46	0x3e31d50e	0.1736643
47	0xbd672841	-0.056434873
48	0x3e0027e2	0.12515214
49	0xbdf28f43	-0.11843731
50	0xbdfe0239	-0.12402768
51	0x3e48d06a	0.19610754
52	0xbd491c6e	-0.04909938
53	0xbdd17ac4	-0.10228494
54	0x3e0a39cb	0.13498609
55	0xbe41f527	-0.18941174
56	0xbe2e9d8d	-0.17052288
57	0xbe8275cc	-0.25480497
58	0xbe3f5f73	-0.18688755
59	0xbe2b89c1	-0.16751768
60	0x3e1d8393	0.15382223
61	0x3df37487	0.1188746
62	0x3e5f3d01	0.21800615
63	0x3cc91645	0.024546752
64	0x3c0c54f8	0.00856518
65	0xbcae0746	-0.021243703
66	0x3da41597	0.080119304
67	0xbc9dc06f	-0.019256799
68	0x3e52755c	0.20552582
69	0xbdd9b3e7	-0.10630017
70	0x3d4b9c2b	0.04970948
71	0x3de05103	0.10952952
72	0xbe0bd30d	-0.13654728
73	0x3d6fafdf	0.058517333
74	0xbd46a2b9	-0.04849503
75	0x3e6f693b	0.23379986
76	0x3d70790f	0.0587092
77	0x3e1d5102	0.15362933
78	0xbe149418	-0.14509618
79	0xbd0f1e56	-0.03494104
80	0xbe2ca817	-0.16860996
81	0xbd89b6c4	-0.06724313
82	0xbddb103a	-0.10696454
83	0xbe304ed1	-0.17217566
84	0x3e368833	0.17825393
85	0xbd4ddc91	-0.050259177
86	0xbc9094dc	-0.017649107
87	0xbd83ad96	-0.06429593
88	0xbddd5c3a	-0.108086064
89	0x3dc81e33	0.09771385
90	0x3e171764	0.14755017
91	0x3e21d199	0.15802611
92	0x3e228b26	0.15873393
93	0xbc025ba3	-0.007956418
94	0xbcc3bcf8	-0.023893818
95	0xbe742049	-0.23840441
96	0x3db3f7cf	0.087875
97	0x3d71ed6b	0.05906431
98	0x3df3c4fd	0.11902807
99	0xbe2c58d6	-0.16830763
100	0xbd58a79e	-0.052894227
101	0xbe618b1f	-0.22025727
102	0x3df57144	0.11984494
103	0x3d7f91ce	0.06239491
104	0x3e298655	0.1655515
105	0x3e311a9c	0.17295307
106	0xbe1901e6	-0.1494213
107	0x3e01f5ad	0.12691374
108	0x3dcc8158	0.09985608
109	0xbe13c39c	-0.14430088
110	0xbe20aada	-0.15690175
111	0xbe093707	-0.13399898
112	0x3ddfe5da	0.109325126
113	0xbe520d47	-0.20512877
114	0x3e382e59	0.1798643
115	0x3e2e1636	0.1700066
116	0xbd91d52c	-0.071207374
117	0x3d0711a6	0.032975815
118	0x3e1a2f23	0.15057044
119	0xbd26bf2b	-0.040709656
120	0x3e4651e1	0.19367172
121	0xbe48eb7a	-0.19621077
122	0x3ca91bf4	0.020643212
123	0xbe25e6c8	-0.16201317
124	0x3dc8d8a5	0.09806947
125	0x3e52f6f8	0.20602024
126	0xbe2828a8	-0.16421759
127	0xbdc42fe9	-0.09579451
128	0xbd36f8b9	-0.044670794
129	0xbbc79974	-0.006091291
130	0x3e49156a	0.19637075
131	0xbc64adf0	-0.013957486
132	0x3dba9694	0.09110752
133	0x3e04b463	0.12959437
134	0xbdcc3864	-0.09971693
135	0xbd7092be	-0.058733694
136	0x3dbdacc3	0.09261467
137	0xbe4642c0	-0.193614
138	0xbe3d3600	-0.1847763
139	0xbe29d587	-0.1658536
140	0xbe2f2e4b	-0.17107503
141	0xbdbb16b2	-0.09135188
142	0xbcf1bd77	-0.02950929
143	0xbe685aea	-0.22690931
144	0xbe137e2e	-0.14403602
145	0x3d6c086b	0.057625216
146	0xbe006739	-0.12539376
147	0xbcbbcd6e	-0.022925105
148	0x3e779642	0.24178413
149	0x3e1c9d88	0.15294468
150	0xbdeaa62a	-0.114574745
151	0x3e816a5a	0.25276452
152	0x3e456c64	0.19279629
153	0x3c012cd6	0.007884225
154	0xbcd6470f	-0.02615693
155	0xbe24ecef	-0.16106008
156	0xbc0563ae	-0.008141441
157	0x3d897255	0.0671126
158	0xbc157ad5	-0.009123524
159	0x3e0ef1a7	0.1395937
160	0xbd8fa770	-0.07014358
161	0x3c3582de	0.011078564
162	0x3de6cd04	0.112695724
163	0x3e1a4734	0.15066224
164	0x3e6d9a82	0.23203471
165	0xbded6440	-0.11591387
166	0x3e1366ec	0.1439473
167	0xbe119f1f	-0.14220856
168	0x3e48a863	0.19595484
169	0x3e6e71ad	0.23285551
170	0xbe1a2419	-0.15052833
171	0x3d82e458	0.06391209
172	0x3ba1b162	0.0049344758
173	0xbe3d277f	-0.18472098
174	0xbe2a5431	-0.16633679
175	0xbdfddf2a	-0.12396081
176	0x3c92f404	0.017938621
177	0xbe47fdb8	-0.1953038
178	0x3e24fe20	0.16112566
179	0x3db177df	0.08665442
180	0xbd9e03d2	-0.077155724
181	0xbd38bb0f	-0.045100268
182	0x3defde42	0.11712314
183	0xbd987654	-0.07444444
184	0xbdefdfae	-0.117125854
185	0x3b1df184	0.0024100253
186	0xbe0f2bef	-0.13981603
187	0xbc93bacc	-0.018033408
188	0x3e56abce	0.20963976
189	0x3e21fe46	0.15819654
190	0xbcce26b0	-0.025164932
191	0x3e2aaa5a	0.16666546
192	0xbddbe719	-0.10737438
193	0x3e2d0f5d	0.16900392
194	0xbe357a89	-0.17722525
195	0xbe03e9ce	-0.12882158
196	0x3e34d383	0.1765881
197	0x3def1376	0.11673634
198	0x3e82652f	0.25467822
199	0xbe532f9b	-0.20623629
200	0x3e928c70	0.2862277
201	0x3ca3f634	0.02001486
202	0x3d127d4c	0.035764024
203	0x3e811f58	0.25219226
204	0xbdbd33f2	-0.092384234
205	0x3dbffde4	0.09374598
206	0xbe000bb6	-0.12504467
207	0xbe116a23	-0.14200644
208	0xbdf9c282	-0.121953025
209	0x3dfd649f	0.123727076
210	0xbe4569ce	-0.19278643
211	0xbde7c19c	-0.11316225
212	0x3ded02b4	0.11572781
213	0xbd2a6119	-0.041596506
214	0xbe4d36e5	-0.20040472
215	0xbd832b5d	-0.06404755
216	0x3d889c43	0.066704296
217	0xbe6050fa	-0.2190589
218	0xbe76d329	-0.24103989
219	0xbdd25da5	-0.102717675
220	0x3dfd6e6e	0.123745784
221	0x3e175d33	0.14781646
222	0xbd7ebb7a	-0.06219051
223	0x3dd37eb0	0.10326898
224	0xbe1c181a	-0.15243569
225	0x3d5cab87	0.05387452
226	0xbdf351c5	-0.11880831
227	0xbe1c483e	-0.15261933
228	0xbdfc62c9	-0.12323529
229	0x3d9c38b8	0.07628006
230	0xbd63a4a4	-0.055576935
231	0x3e84506f	0.25842616
232	0xbe19442c	-0.14967412
233	0x3d05a1b5	0.03262492
234	0xbdd4bb2c	-0.10387263
235	0x3cdb49e4	0.026768632
236	0xbe090321	-0.133801
237	0xbe27c285	-0.16382797
238	0x3e2bfd0c	0.16795748
239	0x3e1cd8c9	0.15317072
240	0xbd839559	-0.0642497
241	0x3d71fbaf	0.059077915
242	0x3ca603ef	0.020265548
243	0xbdd3c577	-0.10340398
244	0xbe55cc7e	-0.20878789
245	0xbe2a8f4b	-0.16656224
246	0x3e433843	0.19064431
247	0x3da6b5dd	0.081401564
248	0x3e113c46	0.14183149
249	0xbd628a10	-0.055307448
250	0xbdf77fd3	-0.120849274
251	0xbe0ef0b0	-0.13959002
252	0xbdb756fc	-0.08952138
253	0x3cbe3b6c	0.023221694
254	0x3ddb8a14	0.10719696
255	0x3dfeaacb	0.1243492

network.2.weight f4 [27, 1024]
0	0xbc8ab930	-0.016934007
1	0x3ac7b58b	0.0015236599
2	0x3ba0a94e	0.004902995
3	0xbc4c0f81	-0.012454868
4	0xbd518eff	-0.051161762
5	0x3c4506e8	0.012025572
6	0x3c97a380	0.01851058
7	0xbc23d573	-0.009999621
8	0x3c79dd57	0.015250525
9	0x3d1214b6	0.035664283
10	0xbbae372b	-0.005316635
11	0x3bb9f500	0.005674958
12	0xbc68e83a	-0.014215523
13	0xbb8cb6d1	-0.0042942544
14	0x3c2dc4ac	0.010605972
15	0xbcdff1f6	-0.027337056
16	0xba06df7a	-0.0005144995
17	0xbc302e30	-0.010753199
18	0xbc9d47b8	-0.019199237
19	0x3cd7bffb	0.02633666
20	0x3c615b6f	0.01375471
21	0x3c33aba6	0.010966217
22	0xbccd1eaa	-0.025039036
23	0xb9c83b77	-0.00038191277
24	0xbcd155ff	-0.025553701
25	0x3b9d8a74	0.0048077647
26	0x3cadc612	0.021212611
27	0xbd847606	-0.06467824
28	0xbd5fad14	-0.05460842
29	0xbd431c37	-0.04763433
30	0x3c95c273	0.018281197
31	0x3cc7ef9c	0.024406247
32	0x3cabb10f	0.020958452
33	0x3ba1ebc2	0.0049414346
34	0xbb9fa495	-0.0048719146
35	0x3c8ed0d7	0.017433567
36	0xbcc5e8c2	-0.02415884
37	0x3c26aba1	0.010172755
38	0x3c29c81e	0.010362653
39	0xbc5b4543	-0.0133832125
40	0x3bcaf972	0.006194287
41	0x3c573902	0.01313615
42	0xbdd8226e	-0.10553442
43	0xbbec6b1a	-0.007214916
44	0x3ae1fe0d	0.0017241851
45	0x3c0100f7	0.007873765
46	0x3cd30b9c	0.025762372
47	0xbd5687b5	-0.052375514
48	0x398ccfd3	0.00026857722
49	0xbd6dfe33	-0.05810375
50	0xbbd45618	-0.0064799897
51	0x3cc9960b	0.024607679
52	0xbab229fc	-0.0013592835
53	0xb95fc8c4	-0.00021341728
54	0x3c90fc61	0.017698469
55	0xbc3907ae	-0.011293335
56	0xbcdf9c0b	-0.027296087
57	0xbdfbf13f	-0.123018734
58	0xbc9b4733	-0.018954849
59	0xbb88048d	-0.004150933
60	0x3cd86dfe	0.026419636
61	0x3cce2c07	0.025167478
62	0x3bbb757d	0.005720793
63	0xbca8d742	-0.020610455
64	0xbc879ad1	-0.016553314
65	0xbb15dfa8	-0.0022868905
66	0xbbc6b3e8	-0.006063927
67	0xbb972fd5	-0.0046138563
68	0x3bdb3c03	0.0066905036
69	0xbcdbc703	-0.026828295
70	0x3c8de361	0.017320337
71	0xbc87e06e	-0.016586509
72	0xba5b54c9	-0.0008366821
73	0xbba6d9e3	-0.005091892
74	0x3bc58324	0.006027596
75	0x3cd7fc90	0.026365548
76	0x3bee97d4	0.007281283
77	0x3c8233d9	0.015893864
78	0xbb815140	-0.0039464533
79	0x3d7dd0c5	0.061966676
80	0xba937388	-0.0011249641
81	0xbb5dd6fc	-0.0033850065
82	0x383af268	4.4571614e-05
83	0xbb836440	-0.0040097535
84	0x3cd70ed4	0.026252188
85	0xbcd3a641	-0.025836112
86	0xbbcb12e6	-0.006197321
87	0xbc29c182	-0.010361077
88	0x3ab9e8f8	0.001418381
89	0x3bfecc1b	0.007775796
90	0x3c8b4677	0.017001374
91	0x3d0ac539	0.033879492
92	0xbb8e764e	-0.004347599
93	0xbc80f938	-0.015743837
94	0xbcd99e5c	-0.02656477
95	0xbc6b43c6	-0.01435942
96	0x3cc48c63	0.023992723
97	0x3c9c2c47	0.019064082
98	0x3bb51326	0.0055259643
99	0xbcd4f997	-0.02599792
100	0x3c00f333	0.007870483
101	0xbd09f381	-0.03367949
102	0x3c402414	0.011727352
103	0xbc8ead37	-0.01741658
104	0x3b6658ab	0.0035148065
105	0x3b910487	0.0044255885
106	0xbcbab8dd	-0.022793228
107	0x3cab54ca	0.020914454
108	0x3c21ffd9	0.009887659
109	0xbcc43b86	-0.023954164
110	0x3c53acd3	0.0129196225
111	0xbc520283	-0.012817982
112	0x3a74dffe	0.0009341239
113	0xbc2e67ee	-0.010644896
114	0x3cb13609	0.021632211
115	0x3bebce69	0.007196237
116	0xbd748048	-0.05969265
117	0xbbb4c1de	-0.005516275
118	0x3c7872a8	0.015164055
119	0x3b819eab	0.0039556823
120	0x3c5dc7c5	0.013536398
121	0xbdd2745c	-0.102761
122	0x3cc0c343	0.023530608
123	0xbcbf07df	-0.023319183
124	0xbbe84f60	-0.0070895404
125	0x3acc8525	0.0015603645
126	0xbcb74a25	-0.022374222
127	0xbc384a99	-0.011248254
128	0xbc6893a6	-0.014195358
129	0xbd37ed78	-0.044904202
130	0x3bc187d8	0.0059060864
131	0xbcc865f7	-0.024462683
132	0xbc2677e8	-0.010160424
133	0x3c4bb106	0.012432342
134	0xbc5095d3	-0.012731033
135	0x3c4bca9c	0.012438443
136	0xbc73098f	-0.014833822
137	0xbcb0ceaf	-0.02158293
138	0xb78cf312	-1.6802489e-05
139	0xbcbbf4e9	-0.02294393
140	0xbc890938	-0.016728029
141	0x3c7c7f09	0.015411147
142	0x3b9b1ccc	0.0047336575
143	0x3b70c9d9	0.0036741404
144	0xbc84f662	-0.016230766
145	0xbbe7323e	-0.00705555
146	0xbbfff774	-0.007811481
147	0x3b00b78b	0.001964065
148	0x3cc919b9	0.024548398
149	0x3c423670	0.011853799
150	0xbca3ca13	-0.019993817
151	0x3b33e235	0.0027448062
152	0xbc0b85d1	-0.008515791
153	0xbc2c6c96	-0.010523936
154	0xbc2bf900	-0.010496378
155	0xbc683855	-0.014173587
156	0x3b8a69ff	0.0042240615
157	0x3c14f233	0.009090948
158	0xbc060d3c	-0.008181866
159	0xbc869e33	-0.016432857
160	0xbb4c94fe	-0.0031216736
161	0x3b9448e6	0.0045252917
162	0xbb52e43b	-0.0032179493
163	0x3c4f4f7c	0.012653228
164	0xbb393cc5	-0.0028264981
165	0x3bb9dbc3	0.0056719496
166	0x3ce4271b	0.027850678
167	0x3ba4c38f	0.005028195
168	0x3c5716cb	0.013127993
169	0x3c882e85	0.016623745
170	0xbcbf2807	-0.023334516
171	0x3c8479a4	0.016171284
172	0xbae91fea	-0.0017786
173	0xbccaa587	-0.024737133
174	0xbcb0fea2	-0.021605793
175	0xbd576835	-0.052589614
176	0x3b97b8bb	0.004630176
177	0xbcf7db62	-0.030255977
178	0x3a8eb9b2	0.0010889082
179	0xbb7d8829	-0.0038685894
180	0xbb4ed0ad	-0.0031557486
181	0x3b7bd234	0.0038424851
182	0x3c7135bd	0.014722285
183	0x392d0411	0.0001650008
184	0x3ae70fa2	0.001762856
185	0xbc3bfaef	-0.011473401
186	0xbcaf4577	-0.021395428
187	0x3c2a15f6	0.010381212
188	0x3ccb907d	0.02484917
189	0x3cd78243	0.02630723
190	0x3bd2ce71	0.006433301
191	0x3cb4239e	0.02198964
192	0xbc268e55	-0.010165771
193	0x3ccd17e7	0.025035812
194	0xbd47f0b0	-0.04881352
195	0xbc523ca4	-0.012831841
196	0x3c6c202b	0.014411966
197	0xbc005310	-0.007832304
198	0xb80da15b	-3.3767294e-05
199	0xbaaa899b	-0.001301098
200	0x3ce71495	0.028208056
201	0x3cbbd19d	0.0229271
202	0xbbf75bc0	-0.0075487792
203	0x3cb18bdc	0.021673135
204	0x3c600756	0.013673624
205	0x3c8743a8	0.016511753
206	0xbc76ab31	-0.015055464
207	0x3c27f06e	0.010250194
208	0xbbda207a	-0.0066567035
209	0x3cf64e3e	0.030066606
210	0xbd0461fc	-0.032320008
211	0x3c03cbf3	0.008044231
212	0x3cf027f9	0.029315935
213	0xbc69e18d	-0.014274967
214	0xbca8b19d	-0.020592505
215	0xbdaa072f	-0.083021514
216	0xbbf6099d	-0.00750847
217	0xbc84d775	-0.01621602
218	0xbce373ec	-0.027765237
219	0xbc3a0fe5	-0.011356329
220	0x3c4b54d9	0.012410366
221	0x3b891887	0.004183832
222	0xbcbbbd21	-0.022917332
223	0x3c31e67d	0.010858175
224	0xbc77db1b	-0.015127922
225	0xbc5534e8	-0.013013102
226	0xbc2ecd07	-0.0106689995
227	0xbc885ca6	-0.01664574
228	0xbcefb3b9	-0.029260503
229	0xbc5d4ffd	-0.01350784
230	0xba1c05c1	-0.0005951785
231	0x3cb06ff0	0.021537751
232	0x3be50e1d	0.006990208
233	0x3bb2d5d2	0.0054576183
234	0xbd14defd	-0.03634547
235	0x3d592f4a	0.053023614
236	0x39fcdee9	0.00048231267
237	0xbc84fc63	-0.016233629
238	0x3c87c49a	0.01657324
239	0x3cab9bc8	0.020948306
240	0xbcb1032f	-0.021607963
241	0x3c3cf1fb	0.011532302
242	0x3c6976cb	0.014249514
243	0xbc0bb15e	-0.008526174
244	0xbb069ed4	-0.0020541446
245	0xbbf428cc	-0.0074511524
246	0xbb26a2c8	-0.0025426615
247	0x3c522af2	0.012827622
248	0xbc40d9d7	-0.011770687
249	0xbcb46afe	-0.022023674
250	0xbd2142f4	-0.039370492
251	0xbd6c95c1	-0.057760004
252	0x3c19750d	0.009366286
253	0x3c7bcdd9	0.015368902
254	0x3cbb4b10	0.022862941
255	0x3c43b648	0.011945315

network.2.bias f4 [27]
0	0x3d654273	0.055971574
1	0x3d75238c	0.059848353
2	0x3d3c56fb	0.04598139
3	0x3d94d403	0.072670005
4	0x3d14a77a	0.03629253
5	0x3d9b1bb1	0.07573641
6	0x3d6238f7	0.055230107
7	0x3d035810	0.032066405
8	0x3d279517	0.040913668
9	0x3cdc2ea7	0.026877714
10	0x3d2afef9	0.041747067
11	0x3d937d04	0.07201579
12	0x3da4dcbb	0.080499135
13	0x3d6d4465	0.057926554
14	0x3d991a4b	0.07475718
15	0x3d51f938	0.051263064
16	0x3d20c212	0.03924758
17	0x3da79c77	0.0818414
18	0x3d434fe8	0.047683626
19	0x3d44b585	0.048024673
20	0x3d81733e	0.06320809
21	0x3d8e5062	0.069489256
22	0x3d07a329	0.033114586
23	0x3d1be44e	0.038059525
24	0x3d71397d	0.058892716
25	0x3d8eeb38	0.06978458
26	0x3d85d149	0.065340586
