code/experiments/random_long/ac/2/models/4.pth (torch, 251795 bytes, 4 tensors)

network.0.weight f4 [1024, 33]
00000000: 4522 ad3d 3513 1fbe 4e3a ce3d f8c6 c83d
00000010: 78bc e73d 0563 2d3d efb7 88bd 26c1 1bbe
00000020: 4437 dd3d 908d 99bd 5f6b 143e eb58 00be
00000030: 0cff 38bc d6f3 f2bd edff dc3d 32ab 2b3e
00000040: 4cf5 93bc ff67 a03d 152e b6bd 20ab e93d
00000050: 4187 b03d 46c4 cebd bc39 c2bd ac05 823d
00000060: 205d 793d 1759 bf3d e5e1 2f3d f93a b93d
00000070: 0669 e9bd cbcd 703d 48d3 02be ebdc 8ebc
00000080: c72e 45bd 2949 adbc 3a45 86bd d3f3 9dbd
00000090: 19ca 80bd 5dad 343c 7537 753d 6d3e c0bc
000000a0: 16ad 833d 9b8c 86bd 8145 06be 3582 c93d
000000b0: dd0e dabd ac3b 503d a291 243e 8ff2 893d
000000c0: 237f bd3c 1672 b0bd 73d4 763b 95e3 8ebd
000000d0: bc2f 073e df2e 7abd 1efa c93d 8de0 96bb
000000e0: c049 073c d8b3 32ba 2c5e d7bd 1289 913d
000000f0: f4e5 c43d 0189 87bd cbd3 803a dd4b 233e
00000100: b759 553e 621b f93d e3f9 ebbd f331 213e
00000110: 7fb2 4d3b 93ca cd3d 2e25 80bc d60f 48bd
00000120: 3ac6 023e 3698 b8bd a4c1 22be e2b2 8a3c
00000130: 10b2 393d 174b 83bb 0ede ba3d 4434 adbd
00000140: a2cc 7bbd ecaa 813d 8fa6 183e d940 aa3d
00000150: 477e a33d 6f4e bbbd 750c 69bc 4d44 dabd
00000160: b93e e93c 2dd0 6a3d ac8e 06be 823c aebd
00000170: 675d a33d 9bd6 91bd d369 17bd 82ad 363d
00000180: a808 513d aca9 7fbd 4e01 5fbd 679e 913c
00000190: ee06 1b3a af19 833d 095e ce3c d8a0 293e
000001a0: 4c94 bebd ad5e 053e 9721 55bc 47e0 b83d
000001b0: 4f1f 8abd bc27 b5bd 34df 1dbe 4cc4 1bbd
000001c0: a518 fb3d 8db2 8c3d 8703 b9bc 0ef7 12bd
000001d0: 3ec9 a8bd 00f5 a5bc 9d3c 553b 323b 2ebe
000001e0: e7bb bfbc 2c1c 98bd f4b8 2e3d d7b8 05bd
000001f0: 4d1e 23be 39ec 22be 21c5 96bd f599 cebb
00000200: 1eda aebd 103b f53c 1bdf 4f3d bb49 8f3d
00000210: e9db cdbd b2f6 ac3d 21dc fdbd 305a 123c
00000220: 4ea4 cebd 2b80 30be 5ff2 79bd eb8b ff3c
00000230: e5a3 d8bc 0e8e 283e bf59 6e3d 6198 87bd
00000240: d74b 87bc b292 8d3d df79 283e 1a5c 62bc
00000250: 6d2b 18bd da8c 733d 6110 19bd 43e2 74bc
00000260: 08b3 c2bc 5277 01bd 639d ba3d ce4f 173e
00000270: 0391 753d c26d e43d 964d f13d 3e14 d7bd
00000280: 1548 4ebd c04a 943d c80c 9d3e 9f0a ad3e
00000290: fa12 6d3d 1ed8 e33d 9058 d73b cd2f 46bd
000002a0: 2499 233e d84d 11be 75fe 38be 9756 ec3d
000002b0: e301 49bd ed89 263d ce4f bc3d 666b bd3d
000002c0: 8b4c 293e 61b1 a7bd 0d21 eabd c458 213e
000002d0: b4e7 253e 84b7 19be 4a9f d4bd 6a5d d1bd
000002e0: 5e1d 74bb cec4 c7bd b840 acbb 7ad8 4f3c
000002f0: ab32 9d3d f978 57bd 52ce 07be b607 8a3d
00000300: 23d8 0a3e 3376 77bb ceeb 31be bb56 0b3e
00000310: e99f cdbd 1431 3e3c 52fb 263d ad85 6fbd
00000320: 252e 8d3d 6c43 603c f729 d7ba 9dfa 1dbe
00000330: 456b 91bd 4290 04be c991 c7bd a398 c4bb
00000340: d099 18bd 00ab 44bc fcc3 a4bd 2a51 a9bc
00000350: 1549 183e 4301 64bd c5d0 0ebe 2cd8 d9bc
00000360: dd23 c83d 62c9 f1bc 6989 1fbd 8e9f 693e
00000370: 94b5 ea3c 0755 a2bd bc20 673d b9bf 41bd
00000380: 3e49 e53d d662 d33d f709 b2bd 1cd9 04be
00000390: ffa3 e6bc 1c36 cbbc c0d5 e4bc 10f6 3a3d
000003a0: 0fd2 a43d 8b01 ee3d 15ad 29bd 0987 ac3d
000003b0: e30a de3d e4be cbbd 57b7 503c 58f4 1cbe
000003c0: 2abf a3bc f1ad aebd a49f 063e 4f9f 333d
000003d0: 1d90 64bd b2a9 a6bc 9317 18be 6cac 02be
000003e0: 6f69 0ebd 32ed ce3b 4225 13be f602 a0bd
000003f0: cebe 523d 7a28 b4bd b198 95bd 0330 6ebd
0.08453802 -0.1553467 0.100697145 0.09803575 0.113152444 0.04233076 -0.066757075 -0.15210399
0.10801557 -0.07497704 0.14494084 -0.1253392 -0.011291277 -0.11862914 0.107910015 0.16764525
-0.018061303 0.07832336 -0.08895508 0.11409593 0.08619548 -0.1009603 -0.09483668 0.06348738
0.060879827 0.093431644 0.04294004 0.09044451 -0.11396985 0.05879001 -0.1277591 -0.017439326
-0.048140313 -0.02115305 -0.06556173 -0.077125214 -0.06288547 0.011027661 0.05986734 -0.023467267
0.06429498 -0.06569787 -0.13112451 0.09839288 -0.10647366 0.050838158 0.1607118 0.067357175
0.023131913 -0.0861551 0.003766325 -0.069770016 0.13201803 -0.061079856 0.09862159 -0.0046044053
0.008257329 -0.000681696 -0.10516009 0.07106222 0.096141726 -0.06617928 0.0009828744 0.15946908
0.20835005 0.12163426 -0.115222715 0.1574171 0.003138691 0.100484036 -0.015642729 -0.048843227
0.1277093 -0.09013407 -0.1589418 0.016931001 0.04533583 -0.004006754 0.09124385 -0.084572345
-0.06147445 0.06331429 0.14907287 0.0831315 0.0798307 -0.091458194 -0.014224161 -0.106575586
0.028472291 0.05732744 -0.13140363 -0.08507635 0.079767995 -0.07121011 -0.036966156 0.044599064
0.051033646 -0.06241767 -0.054444604 0.017775727 0.00059138134 0.06401383 0.025191324 0.16565263
-0.09305629 0.13024397 -0.013008497 0.090271525 -0.06744253 -0.08845469 -0.15417176 -0.038029
0.1226056 0.06869993 -0.02258469 -0.03588014 -0.08241509 -0.020258427 0.003253735 -0.17014769
-0.023405029 -0.07427248 0.042656854 -0.03264698 -0.15929528 -0.15910424 -0.07361818 -0.006304974
-0.08537696 0.02993539 0.05074988 0.06996485 -0.1005171 0.08445491 -0.12395502 0.008932635
-0.100899324 -0.17236392 -0.06102216 0.031194648 -0.026445339 0.1646044 0.058191057 -0.06620861
-0.016515655 0.069127455 0.1645274 -0.013815904 -0.03715079 0.0594605 -0.037369136 -0.014946523
-0.02376701 -0.031607933 0.091120504 0.14776537 0.059952747 0.11153747 0.117823765 -0.10501908
-0.05036171 0.0724082 0.30673814 0.33797166 0.057879426 0.111252055 0.006571837 -0.04838543
0.15976387 -0.14189851 -0.18065818 0.11539953 -0.049074065 0.04065888 0.09194909 0.09249
0.16533105 -0.08188129 -0.11432085 0.15756518 0.16201669 -0.15011412 -0.103819445 -0.102228954
-0.003724895 -0.097543344 -0.0052567385 0.012685889 0.0767568 -0.052605603 -0.13262299 0.06739752
0.13559012 -0.0037759661 -0.17375109 0.13607304 -0.10040266 0.011608381 0.04076702 -0.058477093
0.06893567 0.01368795 -0.0016415705 -0.15427633 -0.07100538 -0.12945655 -0.09744603 -0.005999641
-0.037256062 -0.01200366 -0.080451936 -0.020668585 0.14871629 -0.055665266 -0.13946827 -0.026592337
0.097724654 -0.029514972 -0.038949404 0.22814772 0.028651036 -0.07926374 0.056427702 -0.04730198
0.111956105 0.10321586 -0.08693307 -0.12973446 -0.028154371 -0.024806075 -0.027933955 0.04564482
0.08047878 0.11621388 -0.04142483 0.084241934 0.1084192 -0.09948519 0.012739024 -0.15327585
-0.019988615 -0.085292704 0.13146836 0.0438531 -0.0558015 -0.020344589 -0.14852743 -0.12761086
-0.034768518 0.006314897 -0.14369681 -0.07813065 0.051451497 -0.08796783 -0.07304514 -0.058151256

network.0.bias f4 [1024]
00000000: c72f b0bd 73a6 03be c18b 76bc 0ed0 1ebe
00000010: 11a1 15be 7a67 f33d bbd6 af3d b3a3 99bd
00000020: dbdb 083e 1b01 b7bd 8a93 0a3e 11a8 033e
00000030: eac6 4bbe 0f95 8dbd 46d5 9abd 92ee 81be
00000040: f12b c7bd fe01 8cbc 6447 3ebe fb34 793e
00000050: 559e a7bd ac12 f6bd 126b 9ebd bb66 823d
00000060: 1338 e6bd e18f 853e 324b 143e 1664 84bc
00000070: 4d1f 04bd 6e09 03be 887e bc3d 9f90 693d
00000080: 2d36 2dbe 9967 32be de47 4f3c 1194 643e
00000090: 30ee 97bd f009 5e3e f404 153e 3bf0 83bd
000000a0: 42dd 36be 6f05 5c3e 63cb 02be 2289 31be
000000b0: ffc2 fc3d c7b5 c63c f0ba 3d3e 1dd9 0ebe
000000c0: f5f6 ec3d 0fd5 eabd 3ee2 0dbe e015 3f3e
000000d0: 30a2 66bd 87a5 f5bd 6ef7 143e 708a 4ebe
000000e0: 0ed9 37be b5f9 9dbe fb67 51be b8d1 3cbe
000000f0: cc5e 1e3e b205 f53d 6cbe 543e 7ddb d63b
00000100: c1fd 0e3c 6dd1 1ebd c9f5 a83d 7cc9 13bd
00000110: 4bef 533e cd69 06be 1f18 043d 697a db3d
00000120: 3922 2abe 6a92 883d 6882 79bd 8ab5 733e
00000130: 8d5e 533d 6c2b 1c3e daf7 20be ad63 55bd
00000140: 4da6 39be 9eb5 babd e104 f7bd 8060 3bbe
00000150: 41b1 303e b222 86bd 00cb 22bd 00a2 a5bd
00000160: 2a35 cdbd d615 d43d b93c 033e e81a 203e
00000170: b3f7 233e ec8d 96bc b877 13bd 64ab 8bbe
00000180: e2d7 d63d 7acf 463d 6b4a fc3d eca2 37be
00000190: 34f5 97bd bf55 63be a27f 033e 8337 273d
000001a0: 1292 1f3e 61b0 333e 0cc3 1bbe af29 053e
000001b0: 96f1 cd3d dd7e 0dbe 1612 2ebe 7b06 1fbe
000001c0: a4f4 ef3d 6267 57be 42b2 3c3e ca01 353e
000001d0: 08c3 23be 6f31 1e3c 8844 0d3e 1e21 3ebd
000001e0: 8bdb 403e fa67 72be dcf8 bc3c b4f4 32be
000001f0: 3cdc c93d 09ba 583e 2fa7 38be 5274 e5bd
00000200: 3b80 43bd b029 87bc 27fd 4d3e 687a e2bc
00000210: 582b ae3d 8387 013e 51dd d7bd 4ee3 a1bd
00000220: ef58 a63d a857 56be 855b 5abe f980 3dbe
00000230: 424a 4bbe 9fb9 d2bd dd87 42bd e15b 7cbe
00000240: 5f2e 1dbe 4948 5d3d 9591 09be e513 49bd
00000250: 1f9c 783e 0f9f 1e3e d63c c6bd c54d 7e3e
00000260: c6ea 453e 1e3b 953a daa3 e3bc cf76 33be
00000270: b486 9dbc 5ace 4e3d 590b 30bc 53c5 0d3e
00000280: 2859 8cbd ae29 433c 6775 ee3d db49 1c3e
00000290: ea9c 743e c530 1abe caed 0f3e 516e 21be
000002a0: ffe6 3f3e 1e04 6e3e da7b 35be 20e3 743d
000002b0: aa75 a73c dba1 5bbe 55c0 40be 80be aebd
000002c0: 3147 fe3b 02dc 67be bee1 273e d994 b13d
000002d0: 9950 9fbd 9dcc 39bd 7bd1 dd3d 8386 aebd
000002e0: 19ea 0ebe d885 84bc cf53 18be 365d 02bd
000002f0: 086f 603e ce85 103e d57e 02bd 6b17 283e
00000300: 77af f5bd 2993 2f3e d94f 41be 4307 24be
00000310: 58df 313e d200 c23d 713a 853e 1507 62be
00000320: 1f78 953e 2fb1 cc3c 1228 213d a503 853e
00000330: 63ca eabd 4cca c43d 871b 16be 2a45 18be
00000340: 2bfc 0abe bcc2 053e eac1 51be fd02 f7bd
00000350: 02ee ed3d 9e9d 4dbd 7c89 5ebe ed24 e1bd
00000360: 7d85 503d 3f0d 69be 0aad 80be b9fd 03be
00000370: b257 ff3d c7d2 1d3e 3f3f aebd 299b da3d
00000380: 285f 20be b063 1b3d db5c 0fbe 26cc 2cbe
00000390: 9028 01be 7732 af3d 6e03 99bd 67b4 833e
000003a0: 9710 28be c133 783c e808 d6bd 703a 713d
000003b0: 4f0b 14be aa33 34be 1307 1f3e f60b 193e
000003c0: 9948 b1bd 207b 463d 4d2c 363c 6367 debd
000003d0: 6e0f 60be 20c1 37be f178 3c3e 788f 6c3d
000003e0: 2db1 0f3e f237 9bbd 5f51 debd e8b2 0dbe
000003f0: aacd d2bd e3c8 aa3b 547e e53d 935f 043e
-0.08602863 -0.12856464 -0.015047968 -0.15509054 -0.14612223 0.11884971 0.085858785 -0.07501926
0.13365118 -0.08935758 0.13532844 0.12857081 -0.19900098 -0.06913196 -0.0756021 -0.25377327
-0.09725178 -0.017090794 -0.18581921 0.24336617 -0.08184496 -0.1201528 -0.07735266 0.063672505
-0.11241164 0.26086333 0.1448181 -0.016161006 -0.032256413 -0.12796566 0.092038214 0.057022687
-0.16915198 -0.17422332 0.012651412 0.22322108 -0.074184775 0.21683478 0.1455267 -0.06442305
-0.1785784 0.21486448 -0.12772898 -0.17337468 0.1234188 0.0242566 0.18528342 -0.1395001
0.11570541 -0.11466419 -0.13855836 0.18660688 -0.056307018 -0.119944625 0.14547512 -0.20169997
-0.17953894 -0.30854574 -0.20449822 -0.18439376 0.1546585 0.11963977 0.20775765 0.0065569268
0.008727492 -0.038773943 0.08250005 -0.036080822 0.20696752 -0.13126297 0.032249566 0.10716707
-0.16614617 0.06668551 -0.06091538 0.2379972 0.051603843 0.15250939 -0.15719548 -0.05209701
-0.18129845 -0.09116672 -0.120614775 -0.1829853 0.17255117 -0.06549586 -0.039744377 -0.0808754
-0.10019906 0.103557274 0.12816133 0.15635264 0.16012459 -0.01837822 -0.036002845 -0.27279198
0.10490395 0.04853771 0.123188816 -0.17933244 -0.07419816 -0.22200678 0.12841657 0.040824424
0.15583065 0.17547752 -0.15211123 0.13004182 0.100558445 -0.13817926 -0.16999087 -0.15529816
0.11716583 -0.21035531 0.18427375 0.17676464 -0.15992367 0.009655341 0.13795674 -0.0464183
0.18833749 -0.23672476 0.023067884 -0.1747616 0.098564595 0.21164717 -0.18032525 -0.11203827
-0.047729712 -0.01649937 0.20116101 -0.027646258 0.08504361 0.1264935 -0.1054026 -0.07904683
0.081224315 -0.20931876 -0.21323974 -0.1850623 -0.19852546 -0.10289311 -0.04749285 -0.24644424
-0.1534972 0.054024015 -0.13434441 -0.04909124 0.24278305 0.15490364 -0.09679572 0.24834354
0.1932784 0.0011385416 -0.027788091 -0.1752579 -0.01922927 0.05048976 -0.010744893 0.13844804
-0.06852943 0.011911793 0.116434865 0.15262549 0.23887983 -0.15057667 0.14055553 -0.15764739
0.18740462 0.23243758 -0.17723027 0.059786916 0.020441849 -0.21448462 -0.18823369 -0.08532429
0.0077599515 -0.2264252 0.16394708 0.086709686 -0.07779045 -0.04536115 0.10830971 -0.0852175
-0.13956489 -0.016177103 -0.1487572 -0.031827174 0.21917355 0.14113542 -0.031859238 0.16415183
-0.11996358 0.17145981 -0.18878116 -0.16018395 0.17370355 0.09472813 0.2602115 -0.22073014
0.29193208 0.024986831 0.039344855 0.25979343 -0.114643835 0.096088976 -0.14658938 -0.14870134
-0.13572757 0.13062567 -0.20484129 -0.12061117 0.11617662 -0.050199144 -0.21732134 -0.10993371
0.050908554 -0.22758959 -0.25132018 -0.12889756 0.124678984 0.15412436 -0.08508157 0.10674126
-0.15661299 0.037936866 -0.14000265 -0.16874751 -0.1261313 0.08554547 -0.07471357 0.25723574
-0.16412579 0.015149058 -0.104509175 0.05889362 -0.14457439 -0.17597833 0.15530042 0.14945969
-0.08656425 0.048457265 0.011118961 -0.10859563 -0.21880886 -0.17944765 0.1840551 0.05775401
0.14032431 -0.0757903 -0.10855364 -0.13837779 -0.102931336 0.005211936 0.11205736 0.12927084

network.2.weight f4 [27, 1024]
00000000: 2dc6 4cbc 72d1 f2bb 4a2a a6bb 71cb 0cbc
00000010: 20be 89bd 46ee 433c 43aa 933c 04a1 fdbb
00000020: 9949 cf3c 2e8c 1d3d e8d7 133b 880b dd3b
00000030: 3660 f1bb 637d 9fbc ecc0 4b3c 4204 5dbd
00000040: 0364 32bb ee9c 16bd 1cb8 01bd 140a 253d
00000050: 40ee a53b ceda 033b 5d8a d7bc dfb8 c838
00000060: a556 a3bc 7788 843b 4a1a 803c 5750 9abd
00000070: 1c12 90bd c48c c3bd 74f9 653c c14e af3c
00000080: b931 143c dae2 8dba cfa3 14bc ab31 ac3c
00000090: e637 02bd 4ccd c03b 367b e13b 8c66 6bbc
000000a0: 34fb 0bbb f953 5f3c 6000 fbbd c91c 82bc
000000b0: 2edc e93b 735c 1a3b 5c0d ca3c 247c 90bd
000000c0: 234d f43b 36b5 32bd 15f8 27bc ecb8 cb3c
000000d0: 87e6 aabb e89a a43a 1a19 573c 7439 2ebc
000000e0: 4967 8fbc b9f5 e3bd 0d49 62bc 1817 03bc
000000f0: 315b 0b3d ae6e ae3c 4b74 3c3c 4b63 70bc
00000100: 6c0e 3dbc d316 a9bb 39b3 a73b 8004 6cbb
00000110: 856a d23b 4610 93bc de57 323b 75ac 55bc
00000120: a14c cc3a 6344 b23b 9899 7d3c 78a8 b83c
00000130: 2ef3 543b fef2 863c 86dc 20bc 6abd d13d
00000140: be7f 02bc 4543 79bc 202a 8ab9 d139 20bc
00000150: 60e4 8c3c 7757 16bd 3174 3abc 0f3d abbb
00000160: d949 783a 6c15 5d3c d063 893c f4cc 043d
00000170: bd73 39bb dda9 3cbc 7499 0ebd d73d 1ebd
00000180: 0360 723c 31d7 423d d928 ca3b 6550 efbc
00000190: 527f d03a 8194 c6bc 3c69 3b3c b4e3 85bc
000001a0: 484f 16b9 cc22 e43b 641a a2bc 853f a53c
000001b0: b6fe 633c 0ba3 cfbc 6f51 a6bb ffc8 27bc
000001c0: 914e c93b 1284 6bbc fb6d d33c 02ba 073c
000001d0: 2e98 d9bd b3b4 54bb 9867 8f3c 247e 23bc
000001e0: f7c3 2d3c d04a 05be c327 923c a7ac c3bc
000001f0: a024 fb39 360d 013b 584e adbc b8d5 25bc
00000200: 9c44 b4bb 1e03 63bd 5864 073c 54ad a5bc
00000210: 50d7 5ebc 9fe9 e63b 0e59 9abc b911 013c
00000220: c415 36bc 3555 4ebc fb0d 6abc 671b 98bc
00000230: f975 59bc 6637 333c 3a46 0cbc 4e6b 33bc
00000240: 5063 65bc 6dc7 02bc a911 febb 363d 63ba
00000250: 8ff0 993c f55b 153c b32f b7bc 9a21 323b
00000260: 0dba 6dba 558d 8ebb 34a8 d6bb 033a 49bc
00000270: bc04 f13a d694 133c 73cc 8ebc 82c1 75bc
00000280: 5d92 06bc 5c5e 743c e58e 83bb b316 2e3c
00000290: c429 c1ba aa4c 8cba ec61 b63c 13e7 a7bb
000002a0: 584b 433c 122e 8b3c e448 97bc 4410 293c
000002b0: db50 933b b78e 8abc a954 f5bc dd34 bdbd
000002c0: f568 323b c22e ffbc 2844 0d3b 4a88 cab9
000002d0: 7f66 15bb eaaf 44bb 16db 173c 9d7a 17ba
000002e0: 8100 44bb 863a 92bc dda4 d5bc aa9e 0d3c
000002f0: 3d11 ca3c 1159 c33c 51f4 203b c1c8 973c
00000300: b58c 19bc 62ae df3c 1185 7ebd 66bf 4abc
00000310: 8bd2 c13c 6613 a9bb 963e bd3a 8373 aabb
00000320: 890a d23c 6131 b83c 601d 14bb 4c99 bc3c
00000330: fc73 393c 89bd 793c 3928 6fbc 75c9 e03b
00000340: 77c3 76bc 78d5 ed3c e541 d8bc 42e3 9a3b
00000350: 64b0 963c 4e38 96bb 3cde 6dbc c751 e8bd
00000360: 0e6a fbbb 8cea 5dbc b2cf c5bc 7b42 1dbc
00000370: 116e 3e3c bf91 053c 00b0 8ebc e160 233c
00000380: 0b98 99bc 6b3c 12bc 1358 1fbc a311 7bbc
00000390: bace babc 78fa 06bc 90fa 29bc dc86 8b3c
000003a0: 6ef3 d33b 67b2 c4b9 de12 1bbd 3a22 8d3d
000003b0: 4132 92ba f83e 7bbc f388 b73c 1c2a 663c
000003c0: 22e1 89bc 08e3 39ba 2626 4e3c dc20 bcbb
000003d0: 53a7 7ebb 51f3 79bc 1911 b1ba 2dca 473c
000003e0: e181 26bc fd9d c5bc d7d3 3abd b429 3bbd
000003f0: 39e6 f939 dd2b 343c 49e2 9e3c c934 243c
-0.012498421 -0.0074102217 -0.005070959 -0.008593426 -0.067257166 0.011958664 0.018025523 -0.007740142
0.025303649 0.038463764 0.002255911 0.0067457594 -0.0073662056 -0.019468969 0.012436133 -0.05395914
-0.0027220256 -0.036770754 -0.03166972 0.040292814 0.005063802 0.0020119431 -0.026311094 9.571178e-05
-0.019938776 0.004044588 0.015637536 -0.07534855 -0.07034704 -0.09548333 0.014036525 0.021399857
0.009045058 -0.0010825053 -0.009072258 0.021019777 -0.03179159 0.0058838483 0.006881143 -0.014367711
-0.0021359446 0.0136308605 -0.12255931 -0.015882866 0.007136843 0.002355364 0.024664573 -0.07054928
0.0074554845 -0.043629847 -0.010252018 0.024868451 -0.0052154693 0.0012558373 0.013128543 -0.010633815
-0.017505305 -0.11130852 -0.013811362 -0.008001111 0.034022514 0.02129301 0.011502336 -0.014672111
-0.011539083 -0.0051601916 0.0051178006 -0.0036013424 0.0064213895 -0.017952096 0.0027213017 -0.013041605
0.0015586802 0.0054402812 0.015478514 0.02254127 0.003249358 0.01647329 -0.009818202 0.10241206
-0.007965026 -0.015213792 -0.00026352797 -0.0097794095 0.017198741 -0.036704507 -0.011380241 -0.0052257846
0.00094714534 0.013493877 0.016771227 0.03242202 -0.0028297745 -0.011515108 -0.034814313 -0.038633194
0.014793399 0.047568504 0.00616942 -0.02921314 0.0015907085 -0.024240734 0.011438664 -0.016343929
-0.0001433465 0.006962156 -0.019787975 0.02017189 0.013915708 -0.0253463 -0.0050756256 -0.010240792
0.006143399 -0.01437475 0.025809279 0.008284094 -0.10624729 -0.0032456338 0.017505452 -0.009978805
0.010605804 -0.1301682 0.017841225 -0.023886038 0.00047901738 0.0019691712 -0.021155521 -0.010121755
-0.005501343 -0.055422895 0.00826367 -0.02022425 -0.013601139 0.007046893 -0.018841293 0.007877761
-0.011113588 -0.012593557 -0.01428556 -0.018567754 -0.013272756 0.010938501 -0.008561665 -0.010950876
-0.014000729 -0.007982117 -0.00775357 -0.0008668484 0.018791465 0.009116163 -0.022361612 0.0027180673
-0.0009068556 -0.004350344 -0.006550813 -0.0122818975 0.0018388252 0.009007653 -0.017431473 -0.014999749
-0.008213607 0.014915075 -0.004014837 0.010625529 -0.0014737179 -0.0010704 0.02226349 -0.0051239817
0.011919819 0.016989741 -0.018467374 0.010318819 0.0044957227 -0.016913755 -0.029947596 -0.092385985
0.0027223204 -0.031150226 0.0021555517 -0.00038629986 -0.0022796688 -0.003001208 0.009268543 -0.00057784637
-0.0029907527 -0.017850172 -0.02607959 0.0086437855 0.024666423 0.023846181 0.0024559686 0.018528344
-0.009371926 0.027304832 -0.06213862 -0.0123747345 0.023659965 -0.005159783 0.0014438208 -0.0052017584
0.02563979 0.022484483 -0.0022600517 0.023022316 0.011319157 0.015242943 -0.014596992 0.006859953
-0.015061251 0.029032454 -0.026398608 0.0047267983 0.018394656 -0.0045843488 -0.014518317 -0.11343723
-0.007672555 -0.01354469 -0.024146888 -0.00959837 0.011622922 0.008152424 -0.017417908 0.009971828
-0.018749258 -0.008925538 -0.009725588 -0.015324029 -0.022803653 -0.008238427 -0.01037468 0.01703208
0.006468228 -0.00037516953 -0.03785979 0.06891294 -0.0011153893 -0.015334837 0.02240417 0.014048126
-0.016830985 -0.000709102 0.0125823375 -0.005741222 -0.0038857057 -0.015255765 -0.0013509124 0.012194199
-0.0101628015 -0.024123186 -0.045612182 -0.045694068 0.0004766451 0.010996786 0.01939501 0.010022351

network.2.bias f4 [27]
00000000: da82 7d3d dce0 863d bf06 583d d2fe 9f3d
00000010: 935b 2d3d d889 a33d 77bd 7b3d 5a37 203d
00000020: 232f 453d 2ba0 073d 8908 483d 8d75 9d3d
00000030: 8458 af3d 55ac 823d 34ef a43d 2a10 6c3d
00000040: 133a 3a3d 0bce b03d bfde 5c3d 76fd 5f3d
00000050: 4572 8d3d 16bc 983d a1ac 243d ebe2 3b3d
00000060: 3e80 863d 8586 9a3d ea96 923d
0.061892368 0.06585857 0.05274081 0.07812275 0.04232366 0.07985276 0.061459985 0.039115287
0.048140656 0.033111732 0.048836265 0.07688437 0.08561805 0.06380526 0.08053437 0.057632603
0.04546554 0.086330496 0.053923365 0.05468508 0.06906561 0.074577495 0.040203694 0.045870703
0.06567429 0.07545189 0.07157691
