code/experiments/old/ac/14/models/0.pth (torch, 108435 bytes, 4 tensors)

network.0.weight f4 [512, 24]
0	0x3dfd1061	0.1235664
1	0xbe08a0e2	-0.13342622
2	0x3d8e74c3	0.06955864
3	0xbde6bc44	-0.112663776
4	0x3bf93b18	0.0076059215
5	0xbd71ae9d	-0.059004415
6	0xbc2e65c1	-0.010644377
7	0xbbba6045	-0.0056877458
8	0x3e4bf113	0.19916181
9	0x3e3fcdb5	0.18730815
10	0x3d26b883	0.040703308
11	0x3da60b49	0.08107621
12	0xbdd026f3	-0.10163679
13	0x3de0342c	0.10947451
14	0xbd6afd4f	-0.05737048
15	0x3ddbd6dd	0.10734341
16	0xbd0944a5	-0.03351273
17	0x3d9464b2	0.072457686
18	0x3b583b83	0.0032994456
19	0xbd9e6472	-0.07734002
20	0xbbbceefd	-0.0057657943
21	0xbd863776	-0.06553547
22	0x3e37b448	0.17939866
23	0xbd3a2bcb	-0.04545192
24	0xbe253194	-0.16132194
25	0xbe10d270	-0.14142776
26	0x3c9cbceb	0.019133052
27	0xbd375a4d	-0.044763852
28	0xbe263195	-0.16229852
29	0xbd49b1e5	-0.04924192
30	0x3e121113	0.14264326
31	0x3d10c308	0.035342246
32	0x3c3c0037	0.011474661
33	0xbdd1348f	-0.10215103
34	0x3e13458c	0.14381999
35	0x3e23f1c8	0.16010201
36	0xbdabcd85	-0.08388809
37	0xbe03f261	-0.12885429
38	0xbda79b77	-0.081839494
39	0x3e15d4b0	0.14631915
40	0x3e179765	0.14803846
41	0x3e0bf7e9	0.13668789
42	0xbc859745	-0.016307482
43	0xbdbe074f	-0.09278738
44	0x3d7a2f46	0.06108024
45	0xbe043c2a	-0.12913576
46	0x3d039102	0.032120712
47	0x3d8a3bbf	0.06749677
48	0x3d07dec7	0.03317144
49	0x3e240db4	0.16020852
50	0x3ce1d8a9	0.027569132
51	0xbd690772	-0.056891866
52	0xbdc80e94	-0.097684056
53	0xbd88ef0c	-0.066862196
54	0xbcfb0465	-0.030641744
55	0x3e03f8e1	0.12887909
56	0xbc91d1e2	-0.017800275
57	0xb8b1823b	-8.464275e-05
58	0x3d41f84c	0.047355935
59	0xbe2c34db	-0.16817038
60	0xbe2b0f77	-0.16705118
61	0x3dc2eeaf	0.095181815
62	0x3ddb06db	0.10694667
63	0xbdd3c381	-0.10340024
64	0xbd82b18a	-0.06381519
65	0xbc117eab	-0.008880298
66	0xbd49743e	-0.049183123
67	0x3da95043	0.08267262
68	0xbd9042ec	-0.07044014
69	0x3e6c9a7c	0.23105806
70	0x3dbe06ab	0.092786156
71	0x3e1c4e83	0.15264325
72	0x3db38722	0.08766009
73	0x3da845b1	0.082164176
74	0xbd8efb00	-0.06981468
75	0xbe132dbd	-0.14372917
76	0xbe005f74	-0.12536412
77	0x3dd4d282	0.10391714
78	0x3daba4ce	0.083810434
79	0x3e34de74	0.17662984
80	0x3d7ae02d	0.061248947
81	0x3dd239b7	0.102649145
82	0xbe256614	-0.16152221
83	0xbd8de796	-0.06928937
84	0x3d945ecc	0.072446436
85	0x3d910c12	0.0708238
86	0xbe00d42a	-0.12580934
87	0x3d5038cf	0.050835427
88	0xbd16c51e	-0.03680908
89	0x3e37fa59	0.17966594
90	0x3c7806af	0.015138312
91	0x3d5d41b3	0.054017734
92	0xbccfe870	-0.02537939
93	0x3e493284	0.19648176
94	0xbd4e6676	-0.050390683
95	0xbe24a166	-0.16077194
96	0xbd030239	-0.03198454
97	0xbe3844dd	-0.1799502
98	0x3d55c1a7	0.052186634
99	0xbde5ed69	-0.11226923
100	0xbe267f68	-0.16259539
101	0xbdb519ba	-0.088427976
102	0x3d04cfb4	0.032424644
103	0x3c8b18db	0.016979625
104	0xbdf0c242	-0.11755802
105	0xbe1e3ba5	-0.1545244
106	0x3dd0511c	0.101717204
107	0x3e3f8750	0.18703961
108	0x3d91d21b	0.071201526
109	0xbc7bfcc5	-0.015380089
110	0x3d39dc65	0.0453762
111	0xbe0483c7	-0.12940894
112	0x3d847ff5	0.06469718
113	0x3e4482b6	0.19190487
114	0xbccf465a	-0.0253021
115	0x3e4b6374	0.19862157
116	0xbdfa4c09	-0.12221534
117	0xbdde4d86	-0.1085463
118	0x3c692af8	0.014231436
119	0xbd0a6565	-0.033788104
120	0x3dc23c33	0.09484138
121	0x3e90d59d	0.28287974
122	0xbe356d50	-0.1771748
123	0x3dc56bbe	0.09639691
124	0xbdbe2c26	-0.092857644
125	0x3e0cafe5	0.13738973
126	0x3d0d3ef0	0.03448385
127	0x3c29cfa0	0.010364443
128	0xbd7ead13	-0.062176775
129	0x3e79175f	0.24325322
130	0x3d0f59a2	0.03499759
131	0xbd3b07ef	-0.045661863
132	0x3d0eff02	0.034911163
133	0x3d23ba36	0.039972506
134	0x3e00a3b3	0.12562446
135	0xbcf6ae25	-0.030112335
136	0x3e39d2d8	0.18146837
137	0x3df1a625	0.11799268
138	0xbe4de716	-0.20107684
139	0xbe178b2d	-0.14799185
140	0xbd60cdf5	-0.054883916
141	0x3d8bf57a	0.0683393
142	0x3d97c213	0.074100636
143	0xbdebfbbc	-0.11522624
144	0x3dd1dbb5	0.10246984
145	0xbd195bd2	-0.037441082
146	0x3d725b3d	0.059169043
147	0xbe430f7a	-0.19048873
148	0x3b52e8a8	0.003218213
149	0xbd2030f2	-0.039109178
150	0xbd4cd2ff	-0.05000591
151	0xbdacd886	-0.08439736
152	0xbe3ae7d9	-0.18252505
153	0xbe26987c	-0.16269106
154	0x3e023e71	0.12719132
155	0xbcb70fd9	-0.022346424
156	0xbe4b1ac5	-0.1983443
157	0x3d5c11bf	0.05372786
158	0x3e55d1df	0.2088084
159	0x3dbc5674	0.09196177
160	0xbcfe4416	-0.031038325
161	0x3e343e01	0.17601778
162	0xbd3aed0b	-0.045636218
163	0xbd79db4a	-0.061000146
164	0x3d9913d1	0.07474483
165	0x3e3c126e	0.18366405
166	0xbdb073ba	-0.08615823
167	0x3d23b43a	0.0399668
168	0x3da3d667	0.079998784
169	0xbe625bf8	-0.22105396
170	0xbd869f8c	-0.065734
171	0xbe0c78e9	-0.13717999
172	0xbe50644f	-0.20350765
173	0x3e3868a5	0.18008669
174	0x3d6cd77c	0.05782269
175	0x3dbe4d78	0.0929212
176	0xbc420938	-0.011843018
177	0xbda7ed6e	-0.08199583
178	0xbdf2caee	-0.11855112
179	0x3e0f6d47	0.1400653
180	0x3de32ca0	0.11092496
181	0x3e1695c6	0.14705572
182	0xbd2244d3	-0.039616417
183	0x3d1d7d59	0.03844962
184	0x3d8927f6	0.06697075
185	0xbe21b5a8	-0.15791953
186	0xbda49c3a	-0.0803761
187	0x3d3c976f	0.046042856
188	0x3de69372	0.11258592
189	0xbdd5dcfe	-0.104425415
190	0xbd5609a9	-0.052255306
191	0x37baa8ab	2.225147e-05
192	0x3e2052f2	0.15656641
193	0xbe20ae7d	-0.15691562
194	0xbd93e499	-0.07221336
195	0xbdeffd59	-0.11718244
196	0x3dbfe244	0.093693286
197	0x3d4b1583	0.049581062
198	0x3cc6c9eb	0.024266204
199	0xbe26c535	-0.16286166
200	0xbd90725a	-0.07053061
201	0x3cf3a804	0.029743202
202	0x3dafc806	0.08583073
203	0xbcfc2b18	-0.030782267
204	0xbc92efb5	-0.017936567
205	0xbdfd629a	-0.123723224
206	0x3e0e1c6e	0.13878033
207	0xbe1a72b2	-0.15082815
208	0x3e29e8f4	0.16592771
209	0xbe12768e	-0.14303038
210	0xbdf962f0	-0.12177074
211	0xbde4820e	-0.111576185
212	0x3e30ac0e	0.17253134
213	0xbe31046c	-0.17286843
214	0x3d28c452	0.04120285
215	0x3cc60787	0.024173511
216	0x3e407bd6	0.1879724
217	0xbe11bbf2	-0.14231852
218	0xbde24c72	-0.11049737
219	0xbdf42516	-0.11921136
220	0xbe31ab29	-0.17350449
221	0xbd5cb677	-0.05388495
222	0x3c88e650	0.016711384
223	0x3e3e9cdb	0.18614523
224	0xbcfd7a5a	-0.03094213
225	0xbd85eedc	-0.065396994
226	0x3dfde5dd	0.123973586
227	0xba2b210b	-0.0006528056
228	0xbd64b931	-0.055840675
229	0xbe010d6b	-0.12602775
230	0xbc16c141	-0.009201349
231	0x3df90b98	0.121604145
232	0xbe3c8005	-0.1840821
233	0xbdd47c54	-0.10375276
234	0xbdfd1fe3	-0.123595975
235	0x3e0c8171	0.13721253
236	0x3e44778a	0.19186226
237	0x3df6693b	0.1203179
238	0xbd0a9a9a	-0.033838846
239	0xbddd311d	-0.10800383
240	0x3e53de68	0.2069031
241	0x3e65f630	0.22457194
242	0x3dde6f53	0.10861077
243	0xbdd4ffec	-0.10400376
244	0x3e46a118	0.1939739
245	0x3d774203	0.060365688
246	0xbd1191d3	-0.03553946
247	0x3e15d705	0.14632805
248	0xbd20f6af	-0.039297756
249	0xbc0ff44c	-0.008786272
250	0x3d875d88	0.066096365
251	0xbc408e2f	-0.011752649
252	0xbd0398b4	-0.03212805
253	0xbd156b1d	-0.036479104
254	0x3b039c39	0.002008213
255	0xbbdfa785	-0.00682539

network.0.bias f4 [512]
0	0x3c392ee2	0.011302682
1	0xbe12dc7a	-0.14341918
2	0xbdea0064	-0.11425856
3	0x3e51c069	0.20483555
4	0x3d7d72e3	0.061877143
5	0xbe2439eb	-0.16037719
6	0xbe099f54	-0.13439685
7	0x3db8a091	0.090150006
8	0x3e4f9efd	0.20275493
9	0xbe098cfe	-0.1343269
10	0xbe89dfb0	-0.26928473
11	0x3e356ab3	0.17716484
12	0x3e089caf	0.1334102
13	0x3de0410a	0.10949905
14	0xbde8d397	-0.113684826
15	0xbd4408a2	-0.047859795
16	0x3e026730	0.12734675
17	0x3d5db3bd	0.05412649
18	0x3e650860	0.22366476
19	0x3cdce31c	0.026963763
20	0xbe248d5f	-0.16069554
21	0x3d728de7	0.05921736
22	0x3cec99b8	0.028881893
23	0xbe22fe22	-0.15917256
24	0x3dd5342f	0.10410344
25	0x3e6ae15c	0.2293753
26	0xbdcefce2	-0.10106827
27	0xbe1fb743	-0.15597253
28	0x3d24f934	0.04027672
29	0x3dad9ec1	0.084775455
30	0xbe411148	-0.18854249
31	0xbe1560ba	-0.1458768
32	0x3d2e04f3	0.04248519
33	0x3de55784	0.11198333
34	0xbe0649f5	-0.1311415
35	0x3da9dabf	0.08293676
36	0xbc9562f3	-0.01823566
37	0x3e19dd22	0.15025762
38	0xbd9428e6	-0.07234363
39	0xbc9ee2f4	-0.019395329
40	0xbc95f05d	-0.01830309
41	0xbda6d774	-0.08146563
42	0x3db0e9b0	0.08638322
43	0x3e2e80e5	0.17041357
44	0xbe7df19d	-0.247992
45	0x3d8da855	0.069168724
46	0x3d85e13e	0.06537102
47	0x3d4ffc2a	0.05077759
48	0x3de93c35	0.11388437
49	0xbdf4c72a	-0.1195205
50	0x3de7e848	0.11323601
51	0x3d502582	0.05081702
52	0x3b3904eb	0.002823169
53	0xbd72a2bf	-0.059237238
54	0xbd7a1f29	-0.061064873
55	0x3df4f246	0.119602725
56	0x3ddd915a	0.10818739
57	0x3db8690a	0.090044096
58	0xbdc24f93	-0.09487834
59	0xbe4db48e	-0.20088407
60	0xbe551559	-0.20808925
61	0xbd7a79f6	-0.061151467
62	0xbe4a94f0	-0.19783378
63	0x3cfa98a5	0.030590365
64	0xbdcb2265	-0.099186696
65	0x3e4a62f8	0.19764316
66	0x3e1e7695	0.15474923
67	0x3e11de0d	0.14244862
68	0x3de3eead	0.11129508
69	0x3cffbaf2	0.031217072
70	0xbe75b73b	-0.23995678
71	0x3e05972a	0.13045946
72	0xbcefe58f	-0.029284267
73	0x3cf66fc4	0.03008259
74	0xbe38c146	-0.18042478
75	0x3e4e1657	0.2012571
76	0xbe33b416	-0.17549166
77	0x3cd2eefd	0.025748724
78	0x3e0291ca	0.12750927
79	0x3d606541	0.054784063
80	0xbdf74646	-0.120739505
81	0xbde606d6	-0.112317726
82	0x3cf9345a	0.030420471
83	0x3e21b750	0.15792584
84	0x3d2bb930	0.041924655
85	0xbc978d6a	-0.018500049
86	0x3de19eb3	0.110165976
87	0xbd3080ea	-0.043091692
88	0xbe297e0e	-0.16551992
89	0xbe00df0e	-0.12585089
90	0x3dcce59d	0.10004733
91	0x3d5ebae2	0.054377444
92	0xbd8e61a9	-0.06952221
93	0xbdbe9a0d	-0.093067266
94	0x3ace8526	0.0015756234
95	0x3e293da4	0.1652742
96	0x3d8e16e1	0.069379576
97	0xbe01a5a1	-0.12660839
98	0xbc4bea86	-0.012446051
99	0x3e1120b4	0.14172632
100	0xbe09e101	-0.13464738
101	0xbd1948fe	-0.037423126
102	0x3e0fde31	0.14049603
103	0x3d240544	0.040044084
104	0x3d59d3ab	0.053180378
105	0x3e559af8	0.20859897
106	0x3e59f35f	0.21284245
107	0x3e485e08	0.1956712
108	0xbe1a5f3c	-0.15075392
109	0xbe0df430	-0.13862681
110	0xbbfbe161	-0.0076867794
111	0xbdf7a963	-0.12092855
112	0xbde16e3b	-0.11007353
113	0x3db5d14b	0.0887781
114	0xbbf2587c	-0.007395802
115	0xbdd17f87	-0.10229402
116	0x3e3072a7	0.17231236
117	0x3dc1db77	0.09465688
118	0x3e5568ef	0.2084081
119	0x3d02281d	0.031776536
120	0x3d525414	0.051349714
121	0x3dc64dce	0.09682809
122	0x3d7c1ffc	0.06155394
123	0x3d4e4050	0.050354302
124	0x3c67c4df	0.014146059
125	0xbe4a2935	-0.19742282
126	0xbdd74237	-0.10510676
127	0x3e30cd3a	0.17265788
128	0xbe4fc738	-0.2029084
129	0xbe36de1c	-0.17858166
130	0x3e5d7818	0.21627843
131	0x3bc1e449	0.0059171063
132	0x3e547846	0.20749006
133	0x3d6d1bf9	0.057888005
134	0x3ca86599	0.020556258
135	0xbe2609ce	-0.16214678
136	0xbe2aa0ef	-0.16662954
137	0x3e13a479	0.1441821
138	0xbdd2d2e7	-0.10294133
139	0x3dd16363	0.10224035
140	0xbe41f97b	-0.18942825
141	0xbe4b1cdb	-0.19835226
142	0xbbe0dcec	-0.0068622734
143	0x3dca8797	0.09889143
144	0xbe185c1b	-0.14878885
145	0x3d13e0fa	0.036103226
146	0xbe190ee8	-0.14947093
147	0xbdd87aa4	-0.10570267
148	0x3a3a3fd2	0.0007104847
149	0x3e495970	0.19663024
150	0x3e653f1d	0.22387357
151	0x3e17ea32	0.14835432
152	0xbe235a4a	-0.15952411
153	0x3dfde143	0.12396481
154	0xbdb8e21e	-0.090275034
155	0xbe243cf9	-0.16038884
156	0x3e0ef854	0.13961917
157	0xbe2855bf	-0.1643896
158	0xbdfc8a3d	-0.12331054
159	0x3e07a74c	0.13247412
160	0xbdf20786	-0.11817841
161	0x3e1728f2	0.14761713
162	0x3e4e5142	0.20148185
163	0x3d207a46	0.03917911
164	0xbc69af77	-0.0142630255
165	0x3e4d9737	0.20077215
166	0xbd875331	-0.066076644
167	0xbe1249ff	-0.1428604
168	0x3e098a6a	0.13431707
169	0xbe37e626	-0.17958888
170	0x3e3b5216	0.18293032
171	0xbb766477	-0.0037596503
172	0x3ca45bdb	0.020063331
173	0xbe3a9014	-0.18219024
174	0xbdc19f6a	-0.09454234
175	0xbe37c088	-0.17944539
176	0x3e663498	0.22481
177	0xbe2f2ba5	-0.17106493
178	0x3e2eaa7c	0.17057222
179	0x3d12122f	0.035661872
180	0x3d814c77	0.06313413
181	0x3d0fae7c	0.03507851
182	0x3e3565be	0.17714593
183	0xbd336f2d	-0.043807197
184	0x3e088496	0.13331828
185	0xbd28bd63	-0.04119624
186	0xbdacc960	-0.08436847
187	0x3e439eca	0.19103542
188	0xbd1f6ab9	-0.038920138
189	0xbd6a7e80	-0.057249546
190	0xbdc76204	-0.09735492
191	0x3e829258	0.25502276
192	0xbd5c26a7	-0.0537478
193	0xbcf632d9	-0.030053543
194	0xbe2555b2	-0.16145971
195	0x3e0491eb	0.12946288
196	0x3c6d1697	0.014470718
197	0x3e2c264a	0.16811481
198	0xbdf6ba17	-0.120472126
199	0x3e62ed30	0.22160792
200	0xbe3d318b	-0.1847593
201	0xbde360a0	-0.11102414
202	0x3e0f7427	0.14009152
203	0xbe061e95	-0.13097604
204	0xbe0bbe09	-0.13646711
205	0x3e391b05	0.18076713
206	0x3e343092	0.17596653
207	0xbdd3d9e4	-0.10344294
208	0x3db6f663	0.08933713
209	0xbd7f8903	-0.062386524
210	0x3dfd9489	0.123818465
211	0xbc13a1ed	-0.009010774
212	0x3dbe7851	0.09300292
213	0x3e4eba63	0.20188288
214	0xbd556be0	-0.05210483
215	0x3e0d31a7	0.13788472
216	0xbdcef05a	-0.10104437
217	0x3d00d97f	0.03145742
218	0x3e3c2de0	0.18376875
219	0xbc51800a	-0.012786875
220	0xbe06e4ba	-0.1317319
221	0x3b9ced7a	0.0047890516
222	0xbcea681e	-0.0286141
223	0x3da9fd8e	0.08300315
224	0x3db0d283	0.08633902
225	0xbcc18b5f	-0.023626028
226	0x3d9676fa	0.07346912
227	0x3db64726	0.08900289
228	0x3dc16a66	0.09444122
229	0x3d82d822	0.0638888
230	0xbc3699e8	-0.011145093
231	0x3e4e2398	0.20130765
232	0x3e6ba736	0.23013005
233	0x3e1eb326	0.15498027
234	0xbe2fe84f	-0.17178462
235	0x3d84fb0e	0.064931974
236	0xbe027338	-0.12739265
237	0x3d1c9ae9	0.03823367
238	0xbccd8040	-0.025085568
239	0x3cbb2a3f	0.022847293
240	0x3d3477c3	0.044059526
241	0x3e02c775	0.127714
242	0xbc9587eb	-0.018253287
243	0xbe059df3	-0.13048534
244	0xbe1b879a	-0.15188447
245	0x3e0e7c38	0.13914573
246	0x3dbf16a7	0.093304925
247	0x3db8e398	0.09027785
248	0xbd9008b3	-0.07032909
249	0x3e198cc0	0.14995098
250	0xbd9893cf	-0.07450067
251	0xbd794b16	-0.060862623
252	0xbd9cf8ff	-0.0766468
253	0x3b74d2dd	0.003735713
254	0x3e2e99a0	0.17050791
255	0xbe24e292	-0.16102055

network.2.weight f4 [27, 512]
0	0xbc8f8f67	-0.017524434
1	0xbc8eb53c	-0.017420404
2	0xbb71d59a	-0.0036900998
3	0x3ca06f5e	0.019584354
4	0x3c4d2e37	0.0125232255
5	0xbd876b30	-0.06612241
6	0x3cd8e6ea	0.026477296
7	0x3c7c52fc	0.015400644
8	0xbd0001f1	-0.03125185
9	0x3b74a7d8	0.0037331488
10	0xbde4054c	-0.11133823
11	0x3cca5201	0.024697306
12	0x3c4324b9	0.011910611
13	0x3cc4b47a	0.02401184
14	0xbba3c67b	-0.004998026
15	0x3ce5be09	0.028044717
16	0x3b2b5190	0.0026141144
17	0xbb635139	-0.0034685864
18	0x3d22b88e	0.039726786
19	0x3d23b9c2	0.039972074
20	0xbc8ef282	-0.017449621
21	0xb9849ffb	-0.00025296197
22	0x3cb0219e	0.021500405
23	0xbc26f66c	-0.0101905875
24	0xbc02f311	-0.007992522
25	0x3cb42a0d	0.021992708
26	0x3d3997ee	0.045310907
27	0xbc2b3643	-0.010449949
28	0x3ce5ffec	0.028076135
29	0x3d314244	0.043276086
30	0xbdde873b	-0.10865637
31	0x3c4862b8	0.012230568
32	0x3cb74a62	0.022374336
33	0x3d168675	0.036749322
34	0xbc8b47aa	-0.017001946
35	0xbc23b6b4	-0.00999229
36	0x3bf34cd0	0.0074249282
37	0x3c5ecbe6	0.013598418
38	0x3ca6f03c	0.020378225
39	0x3c9f39c8	0.019436732
40	0x3cf299bd	0.029614324
41	0x3c844c1f	0.016149579
42	0x3c3d5e13	0.011558074
43	0x3cd1dfce	0.025619414
44	0xbc2bacf3	-0.010478246
45	0x3bfe1316	0.00775374
46	0x3cf51655	0.029917875
47	0xbb2694bb	-0.002541824
48	0x3a582908	0.000824586
49	0x3b6e7e94	0.0036391364
50	0xbb325b85	-0.0027215194
51	0x3c8df6ac	0.017329536
52	0xbd046d4b	-0.032330792
53	0xbda54b29	-0.08070976
54	0xbc8d8f26	-0.017280173
55	0x3ca56d0b	0.020193597
56	0xbcb60b3d	-0.022222156
57	0x3c8a2a24	0.016865797
58	0xbc80da05	-0.01572896
59	0xbc13e4c7	-0.009026713
60	0x3cd5c9d3	0.026097214
61	0xbcb17a95	-0.021664897
62	0xbc01a5d1	-0.007913069
63	0x3cdd7601	0.027033808
64	0xbc1adddf	-0.009452312
65	0x3b8f67bc	0.00437638
66	0xbb86370c	-0.0040959176
67	0x3cc10a20	0.023564398
68	0xbcba4fc5	-0.022743115
69	0xbd0c5ae9	-0.034266386
70	0xbd12d1ca	-0.0358446
71	0x3c443f37	0.011977962
72	0xbd4e8d88	-0.050427943
73	0xbd570446	-0.05249431
74	0x3ccb2876	0.024799567
75	0x3c4673de	0.012112586
76	0x3cbb8905	0.022892484
77	0xbcb92bbf	-0.022603868
78	0x3c8f65d6	0.017504614
79	0xbc9d2201	-0.019181253
80	0x3d1611ac	0.036637947
81	0xbc869e69	-0.016432958
82	0xbce7e3ed	-0.028306926
83	0x3b55701d	0.0032568045
84	0x3c767f13	0.015044945
85	0x3c89669b	0.016772559
86	0x3c723784	0.014783744
87	0xbccaa870	-0.02473852
88	0xbd22b605	-0.03972437
89	0xbc830ce6	-0.015997361
90	0x3d3d9caf	0.046292003
91	0xbcb42400	-0.021989822
92	0xbca52a31	-0.02016172
93	0xbcb6aeb7	-0.022300107
94	0x3cd05628	0.025431708
95	0x3cc07abd	0.023496026
96	0x3bf2fdb8	0.0074154995
97	0x3c26688a	0.01015676
98	0xbc975c1a	-0.018476535
99	0x3c5b1776	0.013372293
100	0x3c98c03a	0.018646348
101	0x3c2f6308	0.010704763
102	0x3b27a9ed	0.0025583461
103	0x3d0c10a6	0.034195565
104	0xbc99b03b	-0.018760791
105	0x3d07bc47	0.03313854
106	0x3cc06f68	0.023490623
107	0x3c5fc6fa	0.01365828
108	0xbc563651	-0.0130744735
109	0xbccf2372	-0.025285456
110	0x3d39da19	0.04537401
111	0xbd244137	-0.040101256
112	0x3b2e8dd9	0.002663484
113	0x3c826e49	0.015921729
114	0xbaab9b91	-0.0013092627
115	0x3c68d2f7	0.014210454
116	0x3d082ba8	0.03324476
117	0x3ceb9f20	0.0287624
118	0xbbe5dc13	-0.0070147603
119	0xbd077df5	-0.033079106
120	0x3b882ea1	0.004155949
121	0x3cad40ae	0.021149006
122	0xbc716ab5	-0.014734914
123	0xbcae84a2	-0.021303479
124	0x3cef4d03	0.029211527
125	0xbd877b7a	-0.06615348
126	0x3cd0bd2f	0.025480835
127	0x3c412819	0.011789345
128	0xbced441a	-0.028963137
129	0xbd035e0b	-0.03207211
130	0x3d50889f	0.050911542
131	0x3d09ff6d	0.03369086
132	0x3c627c8a	0.013823638
133	0xbd808c7a	-0.06276794
134	0xbd126e51	-0.035749737
135	0xbc4a1023	-0.012332949
136	0xbc5c58ac	-0.013448875
137	0xbd096284	-0.033541217
138	0xbd032ab9	-0.032023165
139	0xbbb6e41f	-0.0055813934
140	0x3cd1cad1	0.025609406
141	0xbcdc3725	-0.026881764
142	0x3c6e05b8	0.014527731
143	0xbc454795	-0.012040992
144	0x3d3d1737	0.046164718
145	0xbd118739	-0.03552935
146	0x3d1a2ce4	0.037640467
147	0x3c829f0a	0.015944976
148	0x3d1c4da5	0.038159985
149	0xbc9997df	-0.018749176
150	0x3d012ed8	0.031538814
151	0xbc9b115a	-0.018929172
152	0xbc0eeff1	-0.008724199
153	0xba053d98	-0.00050827255
154	0x3d1e87f0	0.03870386
155	0xbcc48957	-0.02399127
156	0x3c59ef50	0.013301685
157	0x3ab6c2d3	0.001394356
158	0xbcd31d45	-0.025770793
159	0x3ce9b951	0.028530749
160	0xbb9a9502	-0.00471747
161	0xbcbb3359	-0.022851633
162	0x3c93fa85	0.018063793
163	0x3d12e328	0.035861164
164	0xb9006fea	-0.00012248722
165	0x3b37d261	0.002804898
166	0x3ca24414	0.019807853
167	0xbc7348e0	-0.014848918
168	0xbbdae3b8	-0.006679978
169	0x3c27139f	0.010197549
170	0xbc7d1c5d	-0.015448657
171	0xbc557711	-0.013028876
172	0x3cc00580	0.023440123
173	0xbc26b6d6	-0.010175427
174	0xbc68148f	-0.014165058
175	0x3dabe75f	0.0839374
176	0xbc0868c1	-0.0083257565
177	0x3c887813	0.016658818
178	0x3c9b0b0b	0.018926164
179	0x3d2e7588	0.042592555
180	0xbcd1d8ed	-0.025616134
181	0xbcb3041d	-0.021852547
182	0x3c6a8818	0.014314674
183	0x3af1bd19	0.0018443196
184	0xbb90e9f8	-0.0044224225
185	0x3d3f937a	0.046771504
186	0xbbe01c59	-0.006839317
187	0x3c59dd99	0.013297462
188	0x3d00b6ed	0.03142445
189	0xbc0f9cfc	-0.008765455
190	0x3d6a970c	0.057272956
191	0x3cc749b8	0.024327144
192	0x3c9733e4	0.01845736
193	0x3ba6a853	0.005085984
194	0x3c268e97	0.010165832
195	0xbc49470e	-0.012285007
196	0x3c7c2936	0.015390685
197	0xbcd89738	-0.026439294
198	0xbc43d567	-0.011952735
199	0x3c0991a0	0.008396536
200	0xbc85f823	-0.016353672
201	0xbd032cfb	-0.03202532
202	0xbcff6b4f	-0.031179098
203	0x3c12a73b	0.008951004
204	0x3b900371	0.0043949415
205	0x3bc2a90f	0.0059405635
206	0x3cb3c4c8	0.021944419
207	0x3b93e4b8	0.0045133494
208	0x3d6c7157	0.057725277
209	0x3ce66d33	0.028128242
210	0xbc39e244	-0.01134545
211	0xbd06220c	-0.032747313
212	0x3ce5fd46	0.028074872
213	0x3b85ee70	0.004087262
214	0x3cc35368	0.023843482
215	0xbc883009	-0.016624467
216	0x3d3d3a5c	0.046198234
217	0xbb7bdb65	-0.003843033
218	0x3d0ab7a0	0.033866525
219	0xbbb116a8	-0.005404312
220	0xbcdfb2d0	-0.027306944
221	0xbd522f4e	-0.051314645
222	0x3cfa17a6	0.030528855
223	0x3ce7af79	0.028281914
224	0x3d06b3d7	0.032886352
225	0x3d052ee8	0.032515436
226	0xbcdbfc21	-0.026853623
227	0xb908958e	-0.00013025684
228	0x3ca3ac35	0.019979576
229	0xbc109e85	-0.0088268565
230	0x3ad3d636	0.0016161862
231	0x3d08f149	0.033433232
232	0x3ca46b8c	0.020070814
233	0x3cb6ef80	0.022331
234	0x3c1d1dd4	0.009589631
235	0x3c58cf66	0.013233041
236	0xbb99f108	-0.0046979226
237	0xbca98269	-0.020692067
238	0x3ce9761f	0.028498707
239	0x3d422e80	0.047407627
240	0xbcf48ad6	-0.029851358
241	0x3b29df0c	0.00259203
242	0xbca4fc34	-0.020139791
243	0x3cd5b474	0.026087023
244	0x3c0aacef	0.008464082
245	0xbb7025aa	-0.0036643543
246	0x3c1d6532	0.009606646
247	0x3c9e31f8	0.019310936
248	0x3ccd39d5	0.02505199
249	0x3c05b37d	0.008160469
250	0x3bbb7e01	0.005721808
251	0x3b903b58	0.0044016056
252	0xbb6b17e1	-0.0035872387
253	0xbb8c59a9	-0.0042831493
254	0x3ca54e1c	0.020178847
255	0x3bd30b8e	0.0064405864

network.2.bias f4 [27]
0	0x3d3a2893	0.04544885
1	0x3d12288f	0.03568321
2	0xbb8397d9	-0.0040159044
3	0x3d04de59	0.03243861
4	0xbc2a7d7f	-0.010405897
5	0x3d2a131e	0.041522138
6	0x3cf99acb	0.030469319
7	0x3c9515d2	0.018198881
8	0xbbb1b289	-0.0054228944
9	0xbcc4e38a	-0.02403428
10	0xbb8eda5f	-0.004359528
11	0xbc926e8a	-0.017874975
12	0x3c644725	0.013932978
13	0x3cd25dbd	0.025679464
14	0x3d67c598	0.056584924
15	0x3c5f8937	0.013643554
16	0x3c06fa1b	0.008238341
17	0x3c5330fc	0.012890097
18	0xbcdfb71c	-0.027308993
19	0xbcbbbe2d	-0.022917831
20	0xbc03dd11	-0.008048312
21	0xba8828f5	-0.0010388183
22	0xbcf6bdd8	-0.030119821
23	0x3d58f113	0.05296428
24	0x3d365bc2	0.0445211
25	0xbc1faffa	-0.009746546
26	0xbcc19dd8	-0.023634836
