code/experiments/target_mode/ac/12/models/1.pth (torch, 251795 bytes, 4 tensors)

network.0.weight f4 [1024, 33]
0	0x3d000b6d	0.031260896
1	0x3d58515e	0.052811973
2	0x3e1b29f6	0.15152726
3	0x3e526589	0.20546545
4	0xbbf7221f	-0.0075419093
5	0x3dd3a437	0.10334056
6	0xbd68a85e	-0.056801192
7	0x3ddd82e2	0.108159795
8	0xbe2b6e18	-0.16741216
9	0xbc661a3a	-0.014044339
10	0xbcce76b2	-0.025203083
11	0xbd9cefcc	-0.07662925
12	0x3e15d1a2	0.1463075
13	0x3dc8bb4f	0.09801351
14	0x3c6391c6	0.013889736
15	0x3dc3f556	0.095682785
16	0xbca3d383	-0.019998318
17	0xbe09e785	-0.13467224
18	0xbe28d13a	-0.16486064
19	0xbe0b6d32	-0.13615873
20	0x3dbcbffb	0.09216305
21	0xbd6074a4	-0.054798737
22	0x3d96d527	0.07364874
23	0x3de0b54d	0.109720804
24	0xbd8c44f7	-0.068490915
25	0xbc996dee	-0.018729176
26	0x3e094275	0.13404258
27	0xbdc732d6	-0.09726493
28	0xbe3a184e	-0.18173334
29	0x3e237a59	0.1596464
30	0xbd94d041	-0.07266284
31	0xbd50e51c	-0.050999746
32	0x3d8fabdd	0.07015202
33	0x3e545a55	0.20737584
34	0xbe6fd652	-0.234216
35	0x3db5913a	0.088655904
36	0xbd96479e	-0.07337879
37	0x3e952b81	0.29134753
38	0x3de6b184	0.11264327
39	0x3d780b8d	0.06055789
40	0x3d4e4f33	0.0503685
41	0xbdfc637f	-0.12323665
42	0x3ab7fc4f	0.0014036986
43	0x3d45ceb8	0.048292845
44	0xbc239d33	-0.00998621
45	0xbcdc197e	-0.026867624
46	0x3c4c4516	0.012467643
47	0xbc8b5d69	-0.017012315
48	0x3d62e1e6	0.055391215
49	0x3d962f22	0.073332086
50	0x3d40074f	0.04688197
51	0x3d26830d	0.040652324
52	0xbd68d609	-0.056844745
53	0xbc88badf	-0.01669067
54	0xbd712b19	-0.05887899
55	0x3d185d23	0.037198197
56	0x3cb6a5dd	0.022295887
57	0xbda3aff9	-0.079925485
58	0xbde4d544	-0.1117349
59	0xbd538bfb	-0.051647168
60	0xbc7b395d	-0.015333501
61	0xbe8562e9	-0.26052025
62	0xbe73e638	-0.2381829
63	0x3d1fceb6	0.039015494
64	0xbcfb3543	-0.030665046
65	0x3e112576	0.14174446
66	0xbdc27c6b	-0.09496387
67	0xbdd2423b	-0.10266539
68	0xbd4740de	-0.048645847
69	0xbe07aba3	-0.13249068
70	0x3d9aa391	0.07550729
71	0xbe127841	-0.14303686
72	0xbdc8317d	-0.09775064
73	0xbe247a88	-0.16062367
74	0x3de67be2	0.112540975
75	0xbd7c4bd6	-0.06159576
76	0x3dd9b973	0.10631075
77	0x3e2fd8d7	0.17172562
78	0x3bc87476	0.006117399
79	0x3d541f02	0.051787384
80	0x3e0f2b9f	0.13981484
81	0xbdd9d4dd	-0.106363036
82	0xbe10a5ac	-0.14125699
83	0xbd89b133	-0.06723251
84	0xbdaae9ea	-0.08345397
85	0xbd0bdb46	-0.034144662
86	0xbe24458d	-0.16042157
87	0x3c0a30d9	0.008434498
88	0xbdf5d3b6	-0.12003271
89	0xbc339366	-0.0109604355
90	0xbd7cf455	-0.06175645
91	0xbd14e49c	-0.03635083
92	0xbe0ca446	-0.1373454
93	0xbde184af	-0.110116355
94	0x3dd08dd3	0.10183301
95	0xbe300b66	-0.17191848
96	0xbb0cbffd	-0.0021476739
97	0x3d2f6d2f	0.042828735
98	0x3df94451	0.121712334
99	0x3c115ddc	0.0088724755
100	0x3e026467	0.12733613
101	0xbe1ee44d	-0.15516777
102	0xbe05a7a7	-0.13052236
103	0x3dcdca87	0.10048395
104	0x3cdb8c35	0.026800254
105	0xbe183358	-0.14863336
106	0xbdf1b8b2	-0.11802806
107	0xbd0f1b0c	-0.034937903
108	0x3dad1629	0.08451492
109	0xbcea6353	-0.028611815
110	0xbd3e5c1d	-0.046474565
111	0xbcbeea7a	-0.023305167
112	0xbc8a8164	-0.016907401
113	0x3d036865	0.03208198
114	0xbce2a1d4	-0.027665056
115	0xbe1523a9	-0.14564385
116	0x3e260259	0.16211833
117	0xbcad7ba9	-0.02117713
118	0x3e311909	0.17294706
119	0x3daa7494	0.08323017
120	0x3d8050e0	0.06265426
121	0xbcc7c621	-0.024386467
122	0x3db8e0f0	0.090272784
123	0x3dd405bd	0.10352657
124	0xbe087ed2	-0.13329628
125	0x3d9cf642	0.076641575
126	0x3d9e305c	0.077240676
127	0x3d204753	0.03913052
128	0xbd7c9633	-0.06166668
129	0xbd85ac74	-0.065270334
130	0xbe17d8ea	-0.1482884
131	0x3d78e69e	0.06076681
132	0xbe723c32	-0.23655775
133	0xbd7d3f82	-0.061828144
134	0xbdadd987	-0.08488756
135	0x3c80c668	0.015719607
136	0x3e84ab5b	0.25911984
137	0xbdb623b1	-0.08893526
138	0x3d176e0d	0.036970187
139	0xbda26b6f	-0.079306476
140	0xbda956cb	-0.082685076
141	0x3d4a0275	0.04931875
142	0x3d296759	0.041358326
143	0x3d543039	0.0518038
144	0xbdfb64f5	-0.122751154
145	0x3cc730fa	0.024315346
146	0xbdb153ec	-0.08658585
147	0x3d0bb864	0.034111395
148	0xbd662042	-0.056183107
149	0xbd896a64	-0.067097455
150	0xbc9c46f4	-0.019076802
151	0x3d307fd4	0.043090656
152	0xbd5bb740	-0.053641558
153	0x3d4f1b07	0.050562885
154	0x3dfaebd0	0.12252009
155	0x3e01cf39	0.12676705
156	0xbe025413	-0.12727384
157	0x3db7c291	0.089726575
158	0x3e11338c	0.1417982
159	0x3c59b211	0.013287083
160	0xbe118e9f	-0.14214562
161	0xbe132113	-0.14368086
162	0xbddda15b	-0.10821792
163	0x3d8598ca	0.06523283
164	0x3c9414f7	0.018076403
165	0x3e0e98ed	0.13925524
166	0xbd0134e2	-0.031544574
167	0x3d7fb4db	0.062428337
168	0xbe1e53e6	-0.15461692
169	0x3d793c30	0.060848415
170	0x3aa6cc0d	0.0012725607
171	0x3cd268e3	0.02568478
172	0xbd120785	-0.035651702
173	0xbd2707a1	-0.04077876
174	0x3c99a4dd	0.01875537
175	0x3d6bc442	0.057560213
176	0xbd6d95bf	-0.058004137
177	0x3d621202	0.055192955
178	0xbc576479	-0.013146513
179	0xbd4f9d38	-0.050687045
180	0xbdb4b664	-0.08823851
181	0xbd5528a5	-0.052040715
182	0x3e16e8d2	0.14737251
183	0xbd0a9c78	-0.033840626
184	0xbd31e230	-0.0434286
185	0x3dc174f3	0.094461344
186	0xbe2c60dc	-0.16833824
187	0x3d0dbfd4	0.03460677
188	0xbe0acf27	-0.13555585
189	0x3dba32b0	0.09091699
190	0xbd32ae0d	-0.04362302
191	0x3cae6330	0.02128753
192	0xbccbd01f	-0.024879513
193	0x3e365a63	0.17807917
194	0x3de46828	0.11152679
195	0xbb9b1728	-0.004732985
196	0x3e4d3fba	0.20043841
197	0xbc2adb30	-0.010428235
198	0x3da324fd	0.07966039
199	0xbdcb8211	-0.099369176
200	0xbd9b4231	-0.075809844
201	0x3e22dbaf	0.15904115
202	0xbd895bb3	-0.06706943
203	0x3d831dce	0.06402169
204	0xbdc51258	-0.096226394
205	0x3e1eb130	0.15497279
206	0x3d9361f3	0.07196417
207	0xbd22af14	-0.03971775
208	0x3dbb4621	0.091442354
209	0xbd163ac5	-0.03667714
210	0xbda7f7b3	-0.08201542
211	0xbb2a015a	-0.0025940747
212	0xbce3a7f7	-0.027790053
213	0xbd3f7f7b	-0.046752434
214	0x3e0fa8cd	0.14029236
215	0x3e073117	0.1320232
216	0x3dc7388c	0.09727582
217	0x3dc250ec	0.09488091
218	0x3bd1cb05	0.0064023756
219	0x3d5c9117	0.053849306
220	0x3dcaccb0	0.09902322
221	0xbdba0a04	-0.090839416
222	0xbdbf564d	-0.093426324
223	0x3bc88ffd	0.0061206804
224	0x3c869018	0.016426131
225	0x3d8ee440	0.06977129
226	0x3d554752	0.05206997
227	0xbc0a77ed	-0.008451444
228	0xbdd2f8c8	-0.103013575
229	0xbd8b8748	-0.06812912
230	0xbd164504	-0.036686912
231	0xbdffcbaf	-0.124900214
232	0xbe2a9311	-0.16657664
233	0x3e50d90b	0.20395295
234	0xbc270c0c	-0.010195743
235	0xbe308605	-0.17238624
236	0x3d185324	0.037188664
237	0xbd95217c	-0.07281777
238	0xbe112ee4	-0.14178044
239	0xbe04fe7a	-0.129877
240	0xbd1428eb	-0.036171835
241	0x3e1725c4	0.147605
242	0xbd434236	-0.047670566
243	0xbd9d2dcb	-0.0767475
244	0xbbed65e0	-0.0072448105
245	0xbd5833b4	-0.052783683
246	0x3ce60c14	0.028081931
247	0xbe187208	-0.1488725
248	0x3d98f93e	0.07469414
249	0x3e14ac8a	0.14518943
250	0xbdd7922f	-0.10525929
251	0xbd98cea3	-0.07461288
252	0x3e06171f	0.13094757
253	0xbddae3a1	-0.10687948
254	0xbdfb5718	-0.12272471
255	0x3e2e85b6	0.17043194

network.0.bias f4 [1024]
0	0x3d9513f8	0.07279199
1	0xbdecaed4	-0.11556783
2	0x3d5d92e8	0.05409518
3	0x3d6549fa	0.055978753
4	0x3dbee312	0.09320654
5	0x3e1a8db1	0.15093113
6	0x3dd80fe4	0.10549906
7	0xbdfce878	-0.123490274
8	0xbcc7138f	-0.024301318
9	0x3c0a4099	0.008438253
10	0x3db81e20	0.08990121
11	0x3e26405a	0.16235486
12	0x3b42dc31	0.0029733295
13	0x3e4d7b80	0.20066643
14	0xbb7820f5	-0.003786144
15	0xbc6ec711	-0.014573828
16	0x3dca60e3	0.09881761
17	0xbe019b49	-0.12656893
18	0xbc76795d	-0.015043584
19	0xbcad0c86	-0.021124136
20	0x3dac7546	0.08420806
21	0x3cfc992a	0.030834753
22	0xbb2a4dc7	-0.00259863
23	0xbe0eaa37	-0.1393212
24	0x3ca90adf	0.020635067
25	0xbe336204	-0.17517859
26	0x3da62063	0.08111646
27	0xbd0fa7b7	-0.035072055
28	0x3e16ffb8	0.14745986
29	0xbd9e7dba	-0.07738824
30	0x3d1a09ac	0.03760688
31	0xbd5b50b8	-0.053543776
32	0xbd0a6349	-0.033786092
33	0x3e3b2ed2	0.1827958
34	0xbdab0e2d	-0.08352313
35	0xbdfabdd9	-0.12243242
36	0x3e4aa335	0.19788821
37	0xbdbda08b	-0.09259137
38	0x3b20b86a	0.0024523982
39	0xbe041b03	-0.12900929
40	0xbda99a92	-0.08281435
41	0x3e1d4fe3	0.15362506
42	0xbdc5c880	-0.09657383
43	0x3e36334c	0.17793006
44	0xbd207326	-0.039172314
45	0x3d7c62be	0.061617605
46	0x3e3cc105	0.18433006
47	0x3defef7f	0.11715602
48	0xbd283f29	-0.04107586
49	0x3ced5c53	0.028974688
50	0xbdb86d32	-0.09005202
51	0xbddab795	-0.10679547
52	0xbdbd0662	-0.09229733
53	0x3a202235	0.0006108613
54	0x3a46199c	0.00075569167
55	0xbdcf6706	-0.10127072
56	0xbd731516	-0.05934628
57	0xbbf23bbf	-0.007392376
58	0x3c8b3dd2	0.016997252
59	0x3dd15e12	0.102230206
60	0x3c773890	0.015089169
61	0xbdbb2889	-0.09138591
62	0x3d101482	0.035175808
63	0x3da50a3d	0.080585934
64	0x3e36b310	0.17841744
65	0xbd86ddd1	-0.06585277
66	0xbdc5b759	-0.096541114
67	0xbe23c8af	-0.15994523
68	0xbdedb2e5	-0.11606387
69	0x3dd9b22a	0.10629685
70	0xbe0090ae	-0.12555191
71	0xbd3c6874	-0.04599805
72	0xbde2770a	-0.11057861
73	0xbc9836d8	-0.018580839
74	0xbd7617ab	-0.060081165
75	0x3e17c982	0.14822963
76	0x3dc54823	0.096328996
77	0xbe12cb95	-0.14335473
78	0x3dee3aef	0.116323344
79	0xbcf1faf0	-0.029538602
80	0xbe038650	-0.12844205
81	0x3e00d952	0.12582901
82	0x3e5fbc29	0.21849121
83	0xbda98acc	-0.082784265
84	0x3dd0c9b8	0.10194725
85	0x3df4bfc4	0.11950639
86	0x3e3e971f	0.18612336
87	0xbd873197	-0.066012554
88	0xbdfbaf7d	-0.12289331
89	0xbd82e91f	-0.063921206
90	0x3d216222	0.039400227
91	0x3def6946	0.11690001
92	0x3d43292e	0.047646694
93	0xbdc0805c	-0.093994826
94	0xbd41d935	-0.047326285
95	0xbaa9d842	-0.0012958127
96	0x3dcf66d9	0.101270385
97	0xbcfb2b7e	-0.030660387
98	0x3c20a545	0.009805028
99	0x3cba0b7a	0.02271055
100	0x3e12a3fa	0.14320365
101	0xbc6121f8	-0.013741009
102	0x3d8fdf4f	0.070250146
103	0xbe4a919e	-0.19782111
104	0xbda1f0ac	-0.07907233
105	0x3c18378e	0.009290589
106	0x3d0061b4	0.031343177
107	0x3e0ca5db	0.13735144
108	0x3e222e1b	0.158379
109	0xbc1363c0	-0.00899595
110	0x3d48853b	0.048955183
111	0xbe35cb68	-0.17753375
112	0xbddcf526	-0.10788946
113	0x3a409e22	0.00073477824
114	0x3dbf7c21	0.093498476
115	0x3cd41739	0.02588998
116	0x3b911058	0.004426997
117	0xbe19c0a2	-0.1501489
118	0xbe01f0bf	-0.12689494
119	0xbe072c73	-0.1320055
120	0xbc7d665e	-0.015466301
121	0xbd11717e	-0.035508625
122	0x3d4f658a	0.050633945
123	0x3e454efc	0.19268411
124	0xbc7a2b72	-0.015269147
125	0xbe0bd3e6	-0.13655052
126	0x3d9c8707	0.07642942
127	0xbe055252	-0.13019684
128	0x3e03e9e5	0.12882192
129	0x3d94f697	0.07273596
130	0xbc459eaa	-0.012061754
131	0x3e1f79f1	0.1557386
132	0xbc1e0e3b	-0.0096469475
133	0xbe0d7350	-0.1381352
134	0x3c6e24e4	0.014535163
135	0x3b8f0c31	0.004365467
136	0x3dc3699e	0.09541629
137	0xbdf62476	-0.12018673
138	0x3e0d5d41	0.13805105
139	0xbd2f8b04	-0.042857185
140	0xbe5641f4	-0.20923597
141	0xbe03c268	-0.12867129
142	0x3d8a8593	0.067637585
143	0x3e5896ef	0.21151327
144	0x3aa99811	0.0012938996
145	0xbd441f39	-0.04788134
146	0xbd45d76c	-0.048301145
147	0x3de6291c	0.1123831
148	0xbd7645e1	-0.060125235
149	0x3e2e1e0d	0.17003651
150	0x3ce37286	0.02776457
151	0x3dce3812	0.10069288
152	0x3c978552	0.01849619
153	0x3e4980f1	0.19678093
154	0x3c90cfb0	0.017677158
155	0x3e05cb3e	0.13065812
156	0xbe4b14bb	-0.19832127
157	0x3d4cb9de	0.049981944
158	0xbe2f6c96	-0.17131266
159	0xbe1ff8f2	-0.15622309
160	0x3e19c309	0.15015806
161	0xbc624200	-0.013809681
162	0x3e269d91	0.16271044
163	0xbd8505ba	-0.06495233
164	0x3da533f2	0.080665484
165	0xb9ac3b2e	-0.0003285049
166	0xbddd7581	-0.10813428
167	0x3e0c6cde	0.13713405
168	0x3ce2ad25	0.027670452
169	0x3e2b19b5	0.16709025
170	0x3c911f17	0.01771502
171	0x3e12a16f	0.14319395
172	0xbda1374d	-0.07871876
173	0x3d0b5471	0.034016076
174	0x3d83d4ad	0.06437049
175	0xbdebf719	-0.115217395
176	0x3cdc89c9	0.02692117
177	0xbe02585e	-0.12729022
178	0x3e0beb4e	0.1366398
179	0x3e3fb2a2	0.18720487
180	0x3cd12dff	0.025534628
181	0x3e1d8eaa	0.15386453
182	0xbd852e57	-0.06502979
183	0x3e5ebd5f	0.21751927
184	0xbe10b234	-0.14130479
185	0x3df7fcdd	0.12108777
186	0xbc895c3e	-0.016767617
187	0x3cc19019	0.023628281
188	0xbd9c9c41	-0.076469906
189	0xbde58c74	-0.1120843
190	0x3cafa9cd	0.021443272
191	0x3e031de5	0.12804373
192	0xbca7278b	-0.020404598
193	0xbda4b76e	-0.08042799
194	0x3d88a33f	0.06671762
195	0x3b89b817	0.0042028534
196	0xbde32e8d	-0.11092863
197	0x3e30a84e	0.17251703
198	0xbdc67004	-0.09689334
199	0x3e0a649f	0.13514946
200	0xbd2c63b2	-0.042087264
201	0x3d589e66	0.052885436
202	0xbcb7ed44	-0.022452004
203	0x3d143b52	0.036189385
204	0x3e57a314	0.21058303
205	0x3e0a4213	0.13501768
206	0x3dec9857	0.11552494
207	0xbe0e76ff	-0.13912581
208	0x3dcb1a13	0.09917083
209	0xbe2f55ef	-0.17122625
210	0x3e15fa24	0.14646202
211	0xbe76fabf	-0.2411909
212	0x3d1b2884	0.037880436
213	0x3e32ff93	0.17480306
214	0x3da73d55	0.08165995
215	0x3e0f4771	0.13992096
216	0x3db34ccc	0.08754882
217	0xbc893782	-0.016750101
218	0x3de31ae8	0.11089116
219	0x3c6004bd	0.013673005
220	0x3da090a3	0.07840087
221	0xbcb74c97	-0.022375388
222	0x3dc1f99d	0.09471438
223	0xbd9bd093	-0.07608142
224	0x3de75e1f	0.11297249
225	0x3d687be4	0.056758776
226	0xbe1b2a23	-0.15152793
227	0x3e0cfef0	0.13769126
228	0x3ce7c279	0.028290974
229	0xbd9f870b	-0.07789429
230	0xbd5dd702	-0.054160126
231	0x3cdc6d5a	0.026907612
232	0x3e2b7f33	0.16747741
233	0xbc915c10	-0.017744094
234	0x3e4a715f	0.1976981
235	0xbe15b290	-0.14618897
236	0xbe0e4603	-0.13893895
237	0xbdb7dcb3	-0.08977642
238	0x3cbabce1	0.022795143
239	0xbe12c587	-0.14333163
240	0x3d4cb364	0.049975768
241	0x3e2f727a	0.17133513
242	0x3d04e7aa	0.032447495
243	0xbe396300	-0.18104172
244	0xbdb92ba7	-0.09041529
245	0xbcaf41c7	-0.02139367
246	0x3d4a1ae0	0.049342036
247	0x3dc4a841	0.096024044
248	0xbcf4d64e	-0.029887345
249	0x3cc5a94f	0.024128584
250	0x3dfbcfd4	0.122954994
251	0xbdeca262	-0.115544096
252	0xbe5c75d1	-0.21529318
253	0x3d867e0b	0.065670095
254	0xbe2c07e8	-0.16799891
255	0x3df0140f	0.11722576

network.2.weight f4 [27, 1024]
0	0xba7eb829	-0.0009716773
1	0x3d89b3bd	0.067237355
2	0x3bb02894	0.005375931
3	0x3c8b4c18	0.017004058
4	0x3c7591af	0.014988347
5	0x3c4e5635	0.012593796
6	0x3c0572ec	0.008145075
7	0xbc769412	-0.015049951
8	0xbb326717	-0.002722209
9	0x3b0e7d8f	0.002174232
10	0x3bf1a8d0	0.0073748603
11	0x3d1ccb8c	0.038280055
12	0x3d04ce41	0.03242326
13	0x3d0151fd	0.03157233
14	0xbc6a9012	-0.014316576
15	0x3a8cea8d	0.0010751054
16	0x3bdae830	0.006680511
17	0x3cce12e8	0.0251555
18	0x3c3bb756	0.011457285
19	0xbe3637e3	-0.17794757
20	0x3c816638	0.015795812
21	0x3ca98930	0.020695299
22	0x3bbfa487	0.0058484706
23	0xbb9f2fc8	-0.004857991
24	0x3d315266	0.043291472
25	0xbc3c7404	-0.01150227
26	0xbc4e60a0	-0.012596279
27	0x3bdca128	0.0067330785
28	0xbb435439	-0.002980484
29	0x3b949dc7	0.00453541
30	0x3ca0e085	0.01963831
31	0x3cce123d	0.025155181
32	0xbca7033b	-0.020387283
33	0x3c6bc8bd	0.014391121
34	0xbc664ecd	-0.0140568735
35	0x3c765aca	0.015036294
36	0xbc035a43	-0.008017126
37	0xbbb6d6b6	-0.0055797948
38	0x3d6be58d	0.057591964
39	0x3c499a8c	0.012304913
40	0x3c2b1c0e	0.0104437005
41	0x3ca82a40	0.020527959
42	0xbc7c49e5	-0.015398477
43	0x3cbeaaa8	0.023274735
44	0xbd4cb7b0	-0.049979866
45	0x3c30df8e	0.010795487
46	0x3c3d1dbb	0.011542733
47	0xbbfface6	-0.0078025935
48	0x3c3698a3	0.01114479
49	0xbbc0e796	-0.005886982
50	0x3be17fef	0.006881706
51	0xbbce5dc6	-0.0062977998
52	0x3c6538df	0.01399061
53	0xbbb818d2	-0.005618193
54	0x3c33b236	0.010967782
55	0xbb98257d	-0.004643141
56	0xbc5ba97c	-0.013407107
57	0xbc000247	-0.007813043
58	0xbc0d8777	-0.008638254
59	0xbd57c433	-0.052677345
60	0xbb51b7e3	-0.0032000474
61	0xbc91c45e	-0.01779383
62	0x3aedbe4b	0.0018138377
63	0x3cc58b6c	0.024114333
64	0x3cac158b	0.021006366
65	0x3caccd35	0.021093944
66	0xbb4fd852	-0.003171463
67	0xbd38a84b	-0.04508237
68	0xbc9d6764	-0.01921434
69	0x3c6fb137	0.014629654
70	0x3ca257de	0.019817289
71	0xb9ce1aa6	-0.00039311236
72	0x3c929df2	0.01789758
73	0xbc5fab91	-0.013651744
74	0x3c365d1e	0.011130599
75	0xbc10e1d9	-0.008842909
76	0xbba1b90f	-0.004935391
77	0xbc1dd859	-0.009634101
78	0x3bfd9016	0.0077381236
79	0xbc595aaf	-0.01326625
80	0xbc902828	-0.017597273
81	0xbb459648	-0.003014939
82	0x3a66eb4c	0.00088088657
83	0xbc4abb3d	-0.012373743
84	0x39f9aba2	0.00047620857
85	0xbc4feac8	-0.012690254
86	0xbc553f14	-0.013015527
87	0xbc43dd18	-0.011954568
88	0x3c0d51d7	0.008625469
89	0xbbeb9c97	-0.007190298
90	0xbc59056c	-0.013245922
91	0x3d67d92b	0.056603592
92	0x3ae18687	0.001720623
93	0xbaa78b0a	-0.0012782526
94	0x3c696b14	0.014246721
95	0x3bba7274	0.0056899134
96	0x3b47f9d4	0.00305139
97	0xbc736c5f	-0.014857381
98	0x3a5f4842	0.0008517542
99	0x3d0024b5	0.031285007
100	0x3c74d919	0.014944338
101	0x3a809a5f	0.0009811631
102	0x39e9c6ec	0.00044589431
103	0xbc87822f	-0.016541569
104	0xbb36f071	-0.002791431
105	0x3bdbe9e1	0.00671123
106	0x3ade47e5	0.0016958682
107	0x3b2e7ee2	0.002662592
108	0xb9e8f33b	-0.0004443171
109	0xbaeb734b	-0.0017963437
110	0x3c35d43a	0.011097962
111	0xbc0e5852	-0.008688049
112	0xbaba6907	-0.0014221974
113	0xbb2a1cb7	-0.0025957057
114	0xbdb09f29	-0.086241074
115	0x3b16fe0a	0.0023039603
116	0xbbec09bd	-0.0072033093
117	0xbcee5bf0	-0.029096574
118	0x3b5dfad7	0.0033871436
119	0xbcb07c3a	-0.02154361
120	0x3c0b4104	0.008499388
121	0xbc178bc2	-0.009249629
122	0xbae905c7	-0.0017778211
123	0xba750af2	-0.0009347639
124	0xbb8f36cb	-0.0043705455
125	0xbc13da98	-0.009024285
126	0xbc99d634	-0.018778898
127	0xbb60e780	-0.0034317672
128	0x3cc38918	0.023869082
129	0x3c5c8973	0.013460505
130	0x3c82083c	0.015873067
131	0xbc28151d	-0.01025894
132	0x3a387882	0.0007037
133	0xbc2fdbcf	-0.010733559
134	0xbc9a6665	-0.018847654
135	0x3c8982b0	0.01678595
136	0x3bc5a2f6	0.0060313893
137	0x3b2e99d1	0.0026641975
138	0x3bedfc4b	0.0072627417
139	0xbb0027f3	-0.0019555062
140	0xbdd0f9a1	-0.10203863
141	0x3c36003b	0.011108453
142	0xbd0795b6	-0.03310176
143	0x3cc5c550	0.024141937
144	0xbc21eea2	-0.009883555
145	0xbc747b8f	-0.014922037
146	0xbb5645e1	-0.003269546
147	0x3be663f0	0.0070309564
148	0x3bafa0da	0.005359751
149	0x3bb2a89b	0.0054522282
150	0x3c955b6d	0.018232072
151	0xbca40745	-0.020022998
152	0x3ae4d821	0.0017459431
153	0x3c66f479	0.014096373
154	0xbc01bb0b	-0.00791813
155	0x3bdd712b	0.0067578754
156	0xbc0de43e	-0.008660374
157	0x3b0b7939	0.002128197
158	0x3b4f5bc7	0.0031640397
159	0xbcc9fd05	-0.024656782
160	0xbb8f26d9	-0.0043686447
161	0x3ca02771	0.019550057
162	0x3c8cf5cc	0.017207049
163	0x3d17a32f	0.03702086
164	0x3cbd51ba	0.02311026
165	0x3c18b91b	0.009321476
166	0xbcefbf9b	-0.02926617
167	0x3b939ed0	0.004505016
168	0xbc20b286	-0.009808188
169	0x3c060c08	0.008181579
170	0x3ce88c06	0.02838708
171	0xbcaf56ed	-0.021403754
172	0x395bb29b	0.00020952003
173	0x3c2f4eb7	0.010699919
174	0xbacf5011	-0.0015816708
175	0xbbe0ddd6	-0.0068623824
176	0x3d006211	0.031343523
177	0xbaf51854	-0.0018699267
178	0x3c89bccf	0.016813664
179	0xbc03ecf2	-0.008052098
180	0x3c2a4d09	0.010394343
181	0x3a86becd	0.0010280252
182	0x3d2501ac	0.040284798
183	0x3c00d48d	0.007863176
184	0xbbf9216a	-0.00760286
185	0x3b528216	0.0032120994
186	0x3c10983e	0.00882536
187	0x39b36653	0.00034217778
188	0xbd76687a	-0.06015823
189	0xbc05fd9e	-0.008178143
190	0x3ce75360	0.028237998
191	0x3a9e62d3	0.0012083895
192	0xbbd00bf6	-0.006349082
193	0xbcd628ba	-0.026142467
194	0x3bdf1264	0.0068076123
195	0x3b927fac	0.004470786
196	0xbbc8cbed	-0.0061278255
197	0x3c0831c7	0.008312649
198	0xbaacb3de	-0.0013176163
199	0xb9a27d3c	-0.00030992355
200	0x3891c459	6.9507114e-05
201	0xbc06b614	-0.008222122
202	0xbc33cb0c	-0.010973703
203	0x3ac5636b	0.0015059536
204	0xba1a6427	-0.00058895577
205	0x3b987fa2	0.004653887
206	0xbb822ef3	-0.003972882
207	0xbb685e11	-0.0035456459
208	0x3b879024	0.004137056
209	0xbb815936	-0.0039474024
210	0x3a58626e	0.0008254413
211	0x3d7e544f	0.06209212
212	0x3cca1fc2	0.024673346
213	0x3bc64957	0.0060512233
214	0x3bdcc3d9	0.006737214
215	0x3a7e4c4f	0.0009700702
216	0x3b47deba	0.0030497746
217	0xbc36357f	-0.011121153
218	0xbb88e0d4	-0.004177192
219	0xbd5d14c2	-0.053974874
220	0x3c10f41c	0.008847263
221	0xbc5d0f43	-0.013492408
222	0x3b82a317	0.003986727
223	0x3bb7a05d	0.0056038336
224	0x3c8bf37a	0.017083872
225	0x3ca0eff1	0.019645663
226	0xb9a4d4e4	-0.00031439133
227	0x3af1365a	0.0018403039
228	0xbca47398	-0.02007465
229	0x3ac88813	0.0015299342
230	0x3cc334d4	0.023828901
231	0x3c6464cf	0.01394005
232	0xbbad3be5	-0.005286681
233	0x3b1129f4	0.002215025
234	0xbc97dde2	-0.01853842
235	0xbb612234	-0.0034352662
236	0xbc5c441c	-0.013443973
237	0x3c4df84d	0.012571407
238	0xbe1516c4	-0.14559466
239	0xbbf1416c	-0.007362535
240	0x3c4d70e9	0.012539127
241	0x3d72ca3d	0.0592749
242	0xbbbc2adf	-0.0057424153
243	0x3adcd20b	0.0016847266
244	0x3bcd24b4	0.006260479
245	0xbc14225a	-0.009041393
246	0xbbdac784	-0.006676616
247	0xbc0337f3	-0.008008945
248	0xbcae4571	-0.021273347
249	0xbc39e208	-0.011345394
250	0xbc2ac306	-0.010422474
251	0xbd956e8b	-0.07296475
252	0x3c4e75b2	0.012601303
253	0x3c2ca2e2	0.010536881
254	0xbcd2c386	-0.025727998
255	0x3c2b36fe	0.010450123

network.2.bias f4 [27]
0	0xbbbf1303	-0.005831124
1	0xbc0305c7	-0.007996983
2	0xbc1e80f4	-0.0096742995
3	0xba4f0632	-0.00078973465
4	0x3c0b25c2	0.008492889
5	0xbb82594c	-0.00397793
6	0x3d0e612f	0.03476065
7	0x3c1dd766	0.0096338745
8	0x3d19d2ba	0.03755448
9	0x3d2bae94	0.041914538
10	0xbbc84070	-0.006111197
11	0x3d2ff0e5	0.042954344
12	0x3d210a11	0.03931624
13	0x3c296ca4	0.010340843
14	0x3b23043d	0.0024874352
15	0x3bf1181d	0.007357611
16	0x3c8f5df3	0.017500853
17	0x3c4290cb	0.011875342
18	0xbae38719	-0.0017358988
19	0x3d312497	0.043247785
20	0x3b8fd3af	0.0043892483
21	0x3ccd3d97	0.025053782
22	0xbc79b4d6	-0.015240869
23	0x3ad23383	0.001603708
24	0xbbef8677	-0.0073097306
25	0x3c76c574	0.015061725
26	0x3b8e221f	0.0043375636
