code/experiments/first_runs/dqn/46/models/0.pth (torch, 108435 bytes, 4 tensors)

network.0.weight f4 [512, 24]
-0.07243442 -0.02274066 0.0052056815 0.18599564 -0.044562668 0.06347111 -0.15571263 0.07135935
0.14653292 -0.08678473 -0.20174448 0.12395527 -0.10820155 0.19345076 0.063678205 -0.08262823
-0.17694859 -0.0130070625 0.11588964 0.11318196 0.09726994 -0.19737074 -0.18672377 0.039460164
-0.038625855 -0.13778569 -0.059648726 -0.07629051 -0.03389524 -0.16014221 0.11206154 0.0935068
-0.19446914 0.15244333 -0.11301893 -0.004481747 -0.10067405 -0.18073504 -0.12765135 -0.019813886
0.028218508 0.14935395 -0.13588355 0.053097386 0.036234517 0.026362969 0.16153917 -0.16095844
0.005647149 -0.06955154 -0.09646871 -0.1195436 0.06965392 0.07057336 -0.13450812 -0.17929685
-0.060659576 -0.011737043 -0.13378325 0.041161936 -0.09383589 -0.15907253 0.052046593 -0.03415481
-0.14103949 0.060572132 -0.03881429 -0.024059162 0.20812698 -0.030688187 0.24680187 -0.07714134
-0.17975473 -0.1639257 0.035033345 -0.14732601 0.1140574 0.18820424 0.1564981 -0.10827933
0.06753967 -0.014063802 -0.090545215 -0.19190328 0.17736955 0.042738084 -0.07969551 0.14309603
0.011252333 -0.16708666 -0.016979253 0.13922153 0.19528574 -0.15596077 -0.1758393 0.05909691
-0.079813614 0.019049685 0.17950684 0.087066494 0.13277134 -0.038266152 -0.06818171 -0.00057377445
0.05025762 -0.17700285 -0.024760833 0.029601283 -0.14845829 0.079212405 0.09102981 -0.0047462843
0.028759304 0.10991081 0.20457768 -0.13729374 -0.024891136 -0.12011127 0.095751405 -0.002384144
-0.16086896 0.0020124216 -0.13171293 0.19468258 0.03400836 -0.07303268 -0.19054003 0.11524651
0.19976944 -0.19201078 0.15406625 -0.011004987 -0.14589241 -0.16564871 0.14237583 0.14695127
-0.054232337 -0.13017341 -0.07931871 0.003205505 -0.021656347 0.18686794 -0.16679677 0.014073943
0.05000234 0.15956755 -0.05528238 0.14383255 0.023131697 0.1869616 -0.14162569 0.11189868
-0.17821413 0.15061475 -0.006814388 0.11095337 0.14121167 0.08000071 -0.032886155 0.1243131
-0.19448544 0.02121954 0.08982773 0.00066349254 -0.13817662 -0.15711273 -0.06227481 0.14812706
0.036785007 -0.013113399 -0.13367896 -0.087410584 0.16028887 -0.2042033 -0.002339213 -0.006521845
-0.02546724 -0.0039608674 0.12841338 -0.03265255 -0.091955334 -0.19980896 -0.19404349 -0.17131184
0.070636064 -0.05287449 -0.06647733 0.015504262 -0.02611791 -0.16523938 -0.1089704 -0.026401144
0.056414075 0.15394016 0.022640275 0.10225883 -0.13520367 0.11509973 0.09339751 0.09414852
0.1503082 0.08175688 0.097353995 0.06479181 -0.16219492 0.052874178 0.01975631 0.08827854
0.07707915 0.10084136 -0.025210721 0.13112338 -0.15688005 0.08617137 -0.14234075 0.01585633
-0.0024018232 -0.019381324 0.08732693 0.086950734 -0.053239398 0.01634433 -0.12436929 -0.0011534984
-0.19481352 -0.19868329 0.10588674 -0.14004861 -0.012423537 -0.12230896 -0.10013106 0.19120143
0.009765183 -0.117758065 0.086348474 -0.111886226 0.008702389 0.12654725 -0.13215134 0.058421385
-0.15260713 -0.13702093 -0.09384539 0.03198205 -0.06382808 -0.04219337 0.011372576 -0.08549889
-0.15757966 -0.02564916 0.05557444 -0.16982532 0.13563742 -0.17036405 -0.11051997 -0.1654344
00000000: 7f58 94bd 9f4a babc 6c94 aa3b a475 3e3e
00000010: 5887 36bd 24fd 813d 2273 1fbe da24 923d
00000020: ba0c 163e 31bc b1bd 1b96 4ebe 43dc fd3d
00000030: c698 ddbd f517 463e b869 823d fd38 a9bd
00000040: 0332 35be 931b 55bc 8c57 ed3d f2cb e73d
00000050: 7635 c73d 8e1b 4abe 8434 3fbe fba0 213d
00000060: 2536 1ebd b117 0dbe 3952 74bd 333e 9cbd
00000070: bcd5 0abd 52fc 23be 8580 e53d 7e80 bf3d
00000080: eb22 47be 1b1a 1c3e 7876 e7bd 9edb 92bb
00000090: 322e cebd 9b12 39be 09b7 02be bb50 a2bc
000000a0: 802a e73c 3ef0 183e 0f25 0bbe a57c 593d
000000b0: a56a 143d 27f7 d73c 866a 253e 4ad2 24be
000000c0: b80b b93b 0a71 8ebd 6391 c5bd 46d3 f4bd
000000d0: b7a6 8e3d c488 903d 7fbc 09be 9899 37be
000000e0: 2d76 78bd ba4c 40bc 7afe 08be 6b99 283d
000000f0: 082d c0bd e9e3 22be cf2e 553d eae5 0bbd
00000100: a86c 10be 7c1a 783d bcfb 1ebd b817 c5bc
00000110: 3d1f 553e cb65 fbbc a1b9 7c3e 47fc 9dbd
00000120: a011 38be 24dc 27be 207f 0f3d a1dc 16be
00000130: ed96 e93d 9db8 403e 0a41 203e 8ec1 ddbd
00000140: 3d52 8a3d dc6b 66bc c56f b9bd 4b82 44be
00000150: 5da0 353e 210e 2f3d 6637 a3bd c487 123e
00000160: b55b 383c c418 2bbe 1318 8bbc 1790 0e3e
00000170: fcf8 473e 2eb4 1fbe 380f 34be 9a0f 723d
00000180: 5275 a3bd 160e 9c3c a4d0 373e eb4f b23d
00000190: 36f5 073e f8bc 1cbd daa2 8bbd 5a69 16ba
000001a0: efda 4d3d 3c40 35be 3bd7 cabc 647e f23c
000001b0: 7305 18be 1d3a a23d d66d ba3d b886 9bbb
000001c0: a298 eb3c eb18 e13d d07c 513e bb96 0cbe
000001d0: 7fe8 cbbc e6fc f5bd 5019 c43d 4d3f 1cbb
000001e0: d5ba 24be d5e2 033b c1df 06be df5a 473e
000001f0: 5a4c 0b3d 2892 95bd ed1c 43be 5d06 ec3d
00000200: 5c90 4c3e 799e 44be 8bc3 1d3e 434e 34bc
00000210: d264 15be d19f 29be f8ca 113e 657a 163e
00000220: ba22 5ebd 2e4c 05be d971 a2bd 7313 523b
00000230: a768 b1bc 4f5a 3f3e c6cc 2abe 6596 663c
00000240: 41cf 4c3d ad65 233e c76f 62bd d748 133e
00000250: af7e bd3c dd72 3f3e 5306 11be 232b e53d
00000260: c47d 36be c13a 1a3e 3b4b dfbb 853b e33d
00000270: cb99 103e 6ad7 a33d a2b3 06bd de97 fe3d
00000280: 3127 47be 9ad4 ad3c 9af7 b73d 3bee 2d3a
00000290: 2c7e 0dbe 29e2 20be df13 7fbd 9fae 173e
000002a0: e0ab 163d 95d9 56bc 23e3 08be 5204 b3bd
000002b0: c422 243e ab1a 51be 7b4d 19bb 33b5 d5bb
000002c0: aca0 d0bc 2aca 81bb cc7e 033e aebe 05bd
000002d0: 1453 bcbd b89a 4cbe 56b3 46be 5f6c 2fbe
000002e0: a4a9 903d ec92 58bd 4425 88bd 9705 7e3c
000002f0: 3af5 d5bc 8334 29be e02b dfbd 3647 d8bc
00000300: 7212 673d 7da2 1d3e 1978 b93c 146d d13d
00000310: d572 0abe 68b9 eb3d 3247 bf3d f0d0 c03d
00000320: 65ea 193e 2770 a73d 8861 c73d 92b1 843d
00000330: 6d16 26be 9892 583d fcd7 a13c 61cb b43d
00000340: acdb 9d3d ea85 ce3d b786 cebc 3545 063e
00000350: 2aa5 20be 9e7a b03d c6c1 11be 22e5 813c
00000360: e867 1dbb 95c5 9ebc 76d8 b23d 3a13 b23d
00000370: 8e11 5abd 8be4 853c 54b5 febd fc30 97ba
00000380: 327d 47be a273 4bbe 26db d83d e768 0fbe
00000390: 178c 4bbc 1f7d fabd 8311 cdbd 4fca 433e
000003a0: 25fe 1f3c 242b f1bd 78d7 b03d 9b24 e5bd
000003b0: 7794 0e3c 9a95 013e ae52 07be 434b 6f3d
000003c0: 0b45 1cbe 374f 0cbe 0332 c0bd 9cff 023d
000003d0: 4cb8 82bd f5d2 2cbd 0a54 3a3c 0b1a afbd
000003e0: 905c 21be 301e d2bc 06a2 633d b0e6 2dbe
000003f0: 89e4 0a3e ea73 2ebe 4b58 e2bd a367 29be

network.0.bias f4 [512]
-0.08304128 -0.0053757266 0.2276112 0.049463373 0.1078205 -0.09264401 0.038607486 -0.085967444
-0.13680626 -0.012757962 0.16146941 -0.19796664 0.010177947 0.00057756837 -0.13824245 0.14238045
0.10326664 -0.076927684 0.10401342 -0.035616774 0.06351312 0.119602546 0.089615986 -0.010686316
-0.011697912 0.010001652 0.045674533 0.24482231 0.20521553 -0.014215843 0.08184066 0.055278987
-0.10844086 0.19831558 0.019131446 -0.15313916 -0.2251527 0.04139121 0.081255384 0.19869317
0.060180668 -0.080460586 -0.0995516 0.18691337 -0.093181975 0.18584132 0.14003225 -0.031003132
0.013023421 0.16843395 -0.10753698 -0.08132653 0.033402156 0.048484504 0.060126945 0.052961346
-0.20559956 0.1178113 0.25043237 -0.03677405 -0.09969811 0.17554043 0.028403973 0.24192597
0.01274612 -0.09726406 0.1930915 -0.17484783 0.19175673 0.069924615 -0.08485741 -0.19688247
0.01742791 0.23807354 -0.020146301 0.15202928 0.11616488 0.16931084 -0.16619197 0.08630861
0.1532642 0.22319555 0.060294066 -0.009356876 -0.038462054 -0.18649107 0.029687922 -0.020496953
0.1996434 0.06854288 0.0577323 -0.02219303 -0.0043876953 0.17153753 0.12991041 0.002203577
0.15593982 0.16612613 -0.14023793 -0.067079715 0.038442787 0.22653314 0.21093962 0.09973182
0.008379208 -0.017935151 0.17409268 0.16947785 0.05651858 0.17215535 -0.16616605 0.0855554
-0.10864952 0.13632421 -0.08819738 -0.029338928 0.22328506 0.021235757 -0.07680516 -0.08659311
-0.17833558 0.19735122 0.037912134 0.040340845 0.10107931 -0.08352773 -0.096729994 0.006223408
-0.08607478 -0.08385345 0.13256523 0.113280565 -0.095911354 0.12073415 -0.015614039 0.24980599
0.20595355 0.27236217 -0.10960108 0.21208511 0.23046647 0.0033332817 -0.11992884 0.12833832
0.13577132 0.24443482 0.1460473 -0.03239739 -0.045787513 -0.12342453 -0.06217624 -0.097726725
0.17150028 0.24920778 -0.11599486 0.20907936 0.024894914 0.2342556 -0.13214348 -0.013552634
-0.13657919 0.17781879 0.19703043 -0.12912293 -0.15364632 -0.11271783 -0.10694333 -0.017118003
-0.1389089 -0.22882397 -0.049954507 0.018021956 -0.1032456 0.061118342 0.15257497 -0.1686325
-0.1276079 0.036198027 0.019099886 0.1392377 0.20221591 0.19234546 0.14660987 0.0054261833
0.22311357 0.10856452 -0.080741934 0.19922394 -0.11366804 -0.15845156 0.023932347 -0.11445508
0.026859935 0.11426997 0.0061034886 -0.091639645 -0.18069999 0.14828 -0.17187864 -0.10097579
0.16770986 -0.09995599 -0.031866234 0.016733631 0.09813897 -0.1804355 -0.20320225 -0.10009766
-0.10656925 0.10847843 -0.1717673 -0.06815651 -0.11673488 0.02081979 -0.05796233 -0.0791649
-0.034401532 0.09215636 0.06170677 -0.11021487 -0.117695384 0.038353484 -0.042592954 0.08047037
-0.1690148 -0.12780052 -0.043071657 0.079831116 0.04256148 -0.028844278 0.12782058 0.20586693
-0.12484022 0.018969232 0.22490418 0.06931721 0.19974253 0.28561208 0.12861598 -0.17361878
0.18182921 -0.13539182 0.12633665 0.0512748 -0.044593886 -0.1501696 0.08356402 -0.13823834
0.118636355 0.15594493 0.0847491 -0.139819 0.047035355 0.09228318 -0.13260873 -0.026645962
00000000: 8c11 aabd dd26 b0bb e912 693e 1b9a 4a3d
00000010: ffd0 dc3d 25bc bdbd e222 1e3d b30f b0bd
00000020: f116 0cbe c506 51bc 3d58 253e c4b7 4abe
00000030: 67c1 263c f567 173a 6e8f 0dbe 2ecc 113e
00000040: 767d d33d 438c 9dbd fd04 d53d e5e2 11bd
00000050: 2b13 823d 2ef2 f43d 9688 b73d a815 2fbc
00000060: 99a8 3fbc f8dd 233c 3815 3b3d b3b2 7a3e
00000070: 0524 523e 91e9 68bc 139c a73d 386c 623d
00000080: 3e16 debd 3d13 4b3e 8db9 9c3c 83d0 1cbe
00000090: 6e8e 66be d489 293d 3969 a63d 3976 4b3e
000000a0: 0180 763d 85c8 a4bd b6e1 cbbd 3866 3f3e
000000b0: 31d6 bebd 304d 3e3e 9d64 0f3e 48fa fdbc
000000c0: 3060 553c f379 2c3e 593c dcbd 868e a6bd
000000d0: b3d0 083d b097 463d ac47 763d ffed 583d
000000e0: b188 52be 0d47 f13d ac38 803e 63a0 16bd
000000f0: 862e ccbd dfc0 333e 73af e83c 71bb 773e
00000100: 1ad5 503c 6132 c7bd c7b9 453e 4f0b 33be
00000110: e05b 443e a334 8f3d b9c9 adbd 8f9b 49be
00000120: fac4 8e3c 8dc9 733e db09 a5bc 90ad 1b3e
00000130: dae7 ed3d d25f 2d3e 3a2e 2abe 92c2 b03d
00000140: 4af1 1c3e 608d 643e e9f6 763d 954d 19bc
00000150: 638a 1dbd 84f7 3ebe 1634 f33c 3ae9 a7bc
00000160: 526f 4c3e 3660 8c3d b478 6c3d 28ce b5bc
00000170: a8c6 8fbb 89a7 2f3e 3c07 053e e369 103b
00000180: b0ae 1f3e f81c 2a3e 889a 0fbe 1761 89bd
00000190: 2f76 1d3d 4ef8 673e 8e00 583e 3240 cc3d
000001a0: f248 093c bdec 92bc 5a45 323e 9a8b 2d3e
000001b0: 0780 673d 7e49 303e 6f27 2abe ab37 af3d
000001c0: a483 debd 9398 0b3e d4a0 b4bd 3158 f0bc
000001d0: d7a4 643e 9cf6 ad3c 064c 9dbd ba57 b1bd
000001e0: 9a9d 36be 7016 4a3e c149 1b3d 713c 253d
000001f0: ab02 cf3d 9610 abbd 601a c6bd bbed cb3b
00000200: f947 b0bd 5cbb abbd 2ebf 073e a4ff e73d
00000210: 2c6d c4bd 7743 f73d 07d2 7fbc 24cd 7f3e
00000220: 7de5 523e 0e73 8b3e 8876 e0bd d72c 593e
00000230: 67ff 6b3e 3073 5a3b 409d f5bd 1f6b 033e
00000240: a307 0b3e 1f4d 7a3e 6c8d 153e 20b3 04bd
00000250: b08b 3bbd 00c6 fcbd 83ac 7ebd f324 c8bd
00000260: c59d 2f3e 5330 7f3e b78e edbd e618 563e
00000270: 6bf0 cb3c b3e0 6f3e 9f50 07be de0b 5ebc
00000280: 6adb 0bbe 2116 363e 58c2 493e cd38 04be
00000290: 7655 1dbe 9bd8 e6bd 1b05 dbbd 0e3b 8cbc
000002a0: 223e 0ebe d550 6abe 199d 4cbd c8a2 933c
000002b0: 6e72 d3bd 3a57 7a3d 9d3c 1c3e 00ae 2cbe
000002c0: a5ab 02be 6244 143d 5d77 9c3c 5494 0e3e
000002d0: b011 4f3e 35f6 443e e620 163e 20ce b13b
000002e0: e277 643e 1357 de3d 075c a5bd 5c01 4c3e
000002f0: caca e8bd 2041 22be c50d c43c 6d67 eabd
00000300: 5e09 dc3c 6006 ea3d c6ff c73b 91ad bbbd
00000310: 6b09 39be b6d6 173e f400 30be 65cc cebd
00000320: 22bc 2b3e bab5 ccbd 2b86 02bd f814 893c
00000330: 16fd c83d 15c4 38be 4014 50be 0100 cdbd
00000340: fb40 dabd f029 de3d c4e3 2fbe a495 8bbd
00000350: b212 efbd 448e aa3c e869 6dbd 3521 a2bd
00000360: 9fe8 0cbd 79bc bc3d 3dc0 7c3d 55b8 e1bd
00000370: 470a f1bd 8b18 1d3d f375 2ebd a6cd a43d
00000380: 3712 2dbe 24de 02be e86b 30bd 7f7e a33d
00000390: f254 2e3d d64a ecbc 66e3 023e c8ce 523e
000003a0: 3bac ffbd 5d65 9b3c 484d 663e 2ef6 8d3d
000003b0: 4e89 4c3e bf3b 923e e8b3 033e 1fc9 31be
000003c0: 7031 3a3e 27a4 0abe 655e 013e 8605 523d
000003d0: 14a8 36bd 0fc6 19be 9d23 ab3d 5a8e 0dbe
000003e0: 9ef7 f23d 07b0 1f3e f090 ad3d b62c 0fbe
000003f0: 25a8 403d f7fe bc3d 95ca 07be a248 dabc

network.2.weight f4 [27, 512]
-0.01819542 0.012367065 0.040645707 -0.0014134814 -0.007954342 -0.03263442 -0.020084416 0.0054298933
-0.022545442 -0.04023862 0.0056921854 -0.03881488 -0.007517788 -0.0028909156 -0.014655357 0.008054792
-0.03172743 0.00132697 0.011034184 0.011350622 0.008745101 -0.019292025 -0.024055796 0.0044484166
0.014721948 -0.022829087 0.028901102 0.011611886 0.014055371 0.019259613 0.0075510535 0.0039581996
-0.029933473 -0.0023915225 0.008095301 0.024913922 -0.009591317 0.03230894 0.03951169 -0.0010893691
0.0074402485 0.021314824 -0.045208775 0.043220166 -0.0026169852 0.046965115 0.054018993 -0.041684575
0.015530477 0.042935304 -0.03880316 0.017017558 -0.023436286 -0.03687818 -0.005458093 -0.021386016
-0.047454834 0.0056196228 0.03716321 -0.012728759 -0.01577969 0.04150698 -0.029905975 0.049798246
0.055921894 0.020514358 0.042967528 -0.042694896 0.011622874 0.04164328 -0.004924528 0.020918177
-0.015426734 0.056099255 -0.033717662 -0.009008134 0.009667991 0.026420366 -0.012643419 0.020887282
-0.021268986 -0.0018580137 0.026739884 -0.031358667 0.0002441921 -0.012478528 0.013345809 -0.03178827
0.06617137 -0.03667671 0.015492236 -0.0080299545 0.012782378 -0.010887864 0.053189956 -0.017463168
-0.00091769453 0.025712444 0.031147264 0.015089591 0.040543385 0.020530647 0.0216154 0.020924242
0.0034646871 0.003419525 0.03993482 0.009172859 0.043818478 -0.021028472 -0.02195098 0.0134013705
-0.010759126 -0.0052320645 -0.029874079 -0.025566688 0.016221268 -0.006738571 0.008109298 0.008065243
-0.034498394 -0.0008168897 0.009172634 0.033897486 -0.0034479164 -0.024081264 0.015258985 0.0048942696
-0.0074908896 0.018267833 0.010745543 0.014666003 0.003648408 0.017609488 0.0014699057 0.013009689
0.048035815 0.03089916 -0.016548034 -0.012693001 0.020161092 -0.00640945 0.028566495 0.040643886
0.001962945 0.042643152 0.0080660805 -0.011424027 -0.03214755 0.007037321 0.040494304 -0.017756617
-0.007121705 0.039145153 0.004380614 0.061570227 0.058089904 0.03752597 -0.045600604 -0.01489664
0.018080788 0.04752366 0.022986589 -0.014234775 -0.014913492 0.005329438 -0.010611714 -0.0056888876
0.012204693 -0.033498466 0.003135134 0.02882451 -0.017268846 -0.032890253 0.021896075 0.014041414
-0.01329852 -0.041521706 0.029762853 0.006168667 0.013889739 -0.018443376 0.037246887 -0.01857821
0.030602058 -0.05692525 0.0018137515 0.022423992 -0.016072724 0.0014679165 0.0111353155 0.01247416
-0.029937498 0.0061244634 0.04720587 -0.028290518 0.0060384623 -0.0046889293 -0.051873248 -0.053530812
0.02398428 -0.003379595 -0.0034338448 -0.030499076 -0.014018924 -0.037581638 -0.019828597 -0.038982864
-0.034992438 0.010349855 -0.047937293 -0.004212837 0.0002890476 -0.018290544 -0.0028123376 -0.008901813
0.008726909 0.010445971 0.012717857 -0.0025118943 0.012093217 0.05179091 0.038114376 0.017088374
0.011499157 -0.0049492815 -0.021569703 0.0038487315 0.0054220837 0.011504356 -0.0143440915 0.018905027
0.00927267 -0.0065080393 -0.0044673523 0.022723312 0.038992457 0.06458079 -0.018371256 -0.036547814
0.007967546 0.0010838433 -0.009256644 0.009560663 0.0058159665 -0.005091644 -0.0030064834 0.026071608
0.010819083 0.008448213 0.039741706 -0.019600116 0.010013649 -0.005372843 0.013549096 0.01451622
00000000: 900e 95bc 3b9f 4a3c 1d7c 263d 9144 b9ba
00000010: ee52 02bc abab 05bd 1388 a4bc 3fed b13b
00000020: 38b1 b8bc 40d1 24bd 8385 ba3b 5afc 1ebd
00000030: c757 f6bb 8475 3dbb 061d 70bc 3ff8 033c
00000040: 9ff4 01bd baed ad3a b9c8 343c f6f7 393c
00000050: 9d47 0f3c 4f0a 9ebc a910 c5bc 06c4 913b
00000060: 5334 713c 1104 bbbc 01c2 ec3c c83f 3e3c
00000070: 8048 663c 56c6 9d3c d46e f73b c9b3 813b
00000080: 0b37 f5bc 17bb 1cbb 27a2 043c 4818 cc3c
00000090: e624 1dbc 6156 043d 03d7 213d 29c9 8eba
000000a0: 54cd f33b 6d9c ae3c d62c 39bd a107 313d
000000b0: ba81 2bbb 7e5e 403d 0543 5d3d 72bd 2abd
000000c0: 8b73 7e3c eedc 2f3d 10f0 1ebd 6868 8b3c
000000d0: 74fd bfbc 930d 17bd cdd9 b2bb ba31 afbc
000000e0: 0060 42bd d024 b83b 7338 183d 498c 50bc
000000f0: 6944 81bc 3903 2a3d 60fd f4bc 3ff9 4b3d
00000100: 5b0e 653d ba0d a83c b8fe 2f3d d8e0 2ebd
00000110: de6d 3e3c 2592 2a3d ef5d a1bb 995c ab3c
00000120: 6ac0 7cbc 55c8 653d 881b 0abd da96 13bc
00000130: 7e66 1e3c 866f d83c 5826 4fbc ce1b ab3c
00000140: 4c3c aebc 9888 f3ba 9a0d db3c f271 00bd
00000150: e906 8039 bd72 4cbc 61a8 5a3c 6b34 02bd
00000160: db84 873d 513a 16bd 26d3 7d3c 1290 03bc
00000170: 2e6d 513c 0363 32bc b6dd 593d eb0e 8fbc
00000180: 7091 70ba e7a2 d23c 8c28 ff3c 553a 773c
00000190: d210 263d e32f a83c c812 b13c 5169 ab3c
000001a0: ce0f 633b 1c1a 603b b292 233d c249 163c
000001b0: 017b 333d e743 acbc 8bd2 b3bc 6c91 5b3c
000001c0: 0c47 30bc bd71 abbb 7cba f4bc 3b71 d1bc
000001d0: 77e2 843c 3bcf dcbb dcdc 043c 1524 043c
000001e0: 304e 0dbd 8a24 56ba d148 163c 17d8 0a3d
000001f0: 70f6 61bb 1246 c5bc d200 7a3c 1c60 a03b
00000200: 2376 f5bb 6ca6 953c 130e 303c ad49 703c
00000210: 211a 6f3b c641 903c daa9 c03a 9726 553c
00000220: 34c1 443d 3c20 fd3c be8f 87bc 4ef6 4fbc
00000230: e028 a53c 5d06 d2bb 4804 ea3c 347a 263d
00000240: c1a4 003b 96aa 2e3d 9827 043c d82b 3bbc
00000250: 26ad 03bd 5499 e63b 5bdd 253d 5376 91bc
00000260: 315d e9bb ab56 203d 418b 8f3b 1031 7c3d
00000270: aeef 6d3d d5b4 193d b3c7 3abd 0911 74bc
00000280: 291e 943c 2ba8 423d 5f4e bc3c f938 69bc
00000290: b857 74bc 91a2 ae3b c1dc 2dbc d969 babb
000002a0: 31f6 473c b035 09bd d276 4d3b 6121 ec3c
000002b0: 6577 8dbc eeb7 06bd 665f b33c f50d 663c
000002c0: 09e2 59bc aa12 2abd 3ad1 f33c 8822 ca3b
000002d0: ca91 633c 9016 97bc 3190 183d 5531 98bc
000002e0: 2bb1 fa3c 732a 69bd 67bb ed3a 85b2 b73c
000002f0: f2aa 83bc 1b67 c03a e670 363c 6b60 4c3c
00000300: 7c3f f5bc b9af c83b f15a 413d 84c1 e7bc
00000310: 4bde c53b 97a5 99bb 0b79 54bd 2043 5bbd
00000320: ae7a c43c 327c 5dbb 5b0a 61bb 33d9 f9bc
00000330: a1af 65bc 34ef 19bd 956f a2bc 7fac 1fbd
00000340: 3b54 0fbd 7092 293c e559 44bd d70b 8abb
00000350: 508b 9739 0dd6 95bc 324f 38bb e9d8 11bc
00000360: 4ffb 0e3c 9425 2b3c 8f5e 503c 989e 24bb
00000370: a122 463c b522 543d d21d 1c3d ebfc 8b3c
00000380: f666 3c3c 952d a2bb f2b2 b0bc 003b 7c3b
00000390: bcab b13b c47c 3c3c 7b03 6bbc b7de 9a3c
000003a0: 66ec 173c 6441 d5bb de62 92bb 3d26 ba3c
000003b0: 8eb6 1f3d ef42 843d 517f 96bc 29b3 15bd
000003c0: 4f8a 023c bf0f 8e3a 2ea9 17bc 54a4 1c3c
000003d0: dd93 be3b ced7 a6bb 6c08 45bb 2094 d53c
000003e0: 8642 313c 606a 0a3c 33c8 223d 6c90 a0bc
000003f0: 4a10 243c ac0e b0bb 07fd 5d3c 71d5 6d3c

network.2.bias f4 [27]
0.024400296 0.042238843 0.046497677 0.0229644 0.06274267 0.032282673 0.010985506 0.015668456
0.019603617 0.011671635 0.0075577213 0.07324675 0.015697677 0.037185285 0.043068312 0.0013042048
0.04163684 0.057881795 0.0138211595 0.055910118 0.053067725 0.032705586 0.037976235 0.022550948
0.06189091 0.0032841745 0.027525844
00000000: 21e3 c73c a302 2d3d 5974 3e3d d61f bc3c
00000010: 3b7f 803d d63a 043d 8dfc 333c 225b 803c
00000020: c497 a03c 633a 3f3c c3a6 f73b 6402 963d
00000030: 6a98 803c 994f 183d 6668 303d daf1 aa3a
00000040: 648b 2a3d 7615 6d3d 2572 623c 0202 653d
00000050: 8b5d 593d 4bf6 053d f88c 1b3d c4bc b83c
00000060: 5381 7d3d 4e3b 573b e17d e13c
