code/experiments/first_runs/dqn/2/models/1.pth (torch, 55187 bytes, 4 tensors)

network.0.weight f4 [256, 24]
00000000: e5fe ecbd d84f af3d a1c5 a33c 8c1b 43be
00000010: 9024 f6bd b8ed 07bd e7d9 893c 3c56 3f3e
00000020: ab34 bb3d 386b bcbd b02a c33d 9551 c6ba
00000030: 0eb6 04be 9d02 38bc a175 84bd 91ed 613d
00000040: 417b 14be b528 28be e08b 15bd 8a60 753d
00000050: 978f 263e 836b df3d c2fb a93d 21a9 abbd
00000060: db8e 1fbd 61fa 583e fe31 ebbd f256 0d3d
00000070: cf5b cdbd a30d 0bbe 7ef0 90bd 14b3 3cbd
00000080: 645d 3abd 913b 003e 8e7e 65bd 4312 9bbc
00000090: 730c 443e d406 853d d62c 96bd a649 f3bd
000000a0: 73e9 05be 9163 e3bc 801f 7cbd 594a 26be
000000b0: b845 c2bd 07da a9bb 1d6f 55be 023d b3bd
000000c0: ce08 17bd a3e7 49bd 65c3 f23d cc9f bcbd
000000d0: 9f82 423e 6ed6 a63d a77f 203d 8a5f c2bd
000000e0: 83cb 30be de43 e33d 9aa0 33bd df0a 2abe
000000f0: 2f34 54be 8ea6 28be b5c5 0cbd 5afa d5bd
00000100: 67b7 d3bd 093d 8fbd 35e1 8dbc 7475 9e3d
00000110: b5b4 ba3d 7f18 ea3d 04ef a9bd d68f f23d
00000120: ff90 25be 9660 d0bd 1cc6 47be 3f02 2e3e
00000130: 9b5a 27be 4452 7ebd 78c4 42be 3939 5c3d
00000140: 9652 4ebd 7112 923c 1927 84be 0dbd 75bd
00000150: 1ae5 1f3e 8054 2e3d c853 28be 173a b33d
00000160: 2be9 8f3c 9284 063d 2d9f 813d 6861 1abc
00000170: 7349 843d f1c7 80bd 2e6b 0c3e 2ea0 8bbd
00000180: c4df 81bd 04bb 383e be4a df3c c33d 413e
00000190: b9f3 1f3e 6423 223e 82f4 49bb 21d6 ff3d
000001a0: 3072 5b3e c9ba 3b3e 8eef 223d 092a 02bd
000001b0: 0cd4 c53d 2ac5 363e 2a95 b4bc ad6d 693d
000001c0: e310 1d3e 54c3 3c3c 86de 773d ea24 bebd
000001d0: 22ce 95bd f0d5 df3d 0228 103e 8467 91bd
000001e0: 2db5 073e 49f1 d53d ffac 56bd 656b 1abe
000001f0: 55db b2bd 8000 353e 8f89 073e 9313 92bb
00000200: c3d3 c4bd 1930 29bd cf3c 3f3e 0916 a13d
00000210: 4d15 303d c679 823d 2427 bc3d d33f c4bd
00000220: 2f1b 873c 3f44 043e 8da8 703e f932 ddbd
00000230: 502d 1f3e bc05 febd 41fd 03bd e3ef 5dbd
00000240: 0221 7e3d 35a3 d23d 7e4d cebd 0429 6b3d
00000250: 001b 2a3e 10e9 a1bd 1bbb efbd d01c 583e
00000260: d265 3d3e 3cf5 b0bd 525c f0bd 4f96 703d
00000270: cae4 16be 90a6 b0bd fd67 203e c145 fbbc
00000280: c2a6 07be 696c d33d f1a4 283e 7586 5a3e
00000290: 074d fc3d 8027 4a3c 938a 173d fa5c a83d
000002a0: 3ad9 e03c 1f93 373e f9c9 af3c 249e 34be
000002b0: c262 57bc 490f 30bd 8335 2cbe 188d ecbd
000002c0: 737a 23be eac5 e93d fa24 22be 9906 003e
000002d0: f774 6ebb 3e41 bcbd f03e 263e bb88 27bd
000002e0: 1032 2fbe e208 26be 16b9 18be 83e3 78bc
000002f0: 7558 d7bd 9fa6 da3d 1818 fdbc 198c 97bd
00000300: 2be8 8d3d fbee 653d 4b4d 20be c202 e8bd
00000310: d10d f43d 83e2 71bd cc27 eb3c 6ae4 a13d
00000320: d221 cc3d c95f 3dbb 1373 4bbe 3cd2 1fbd
00000330: 9b1d 5fbd c5cc 43bd 5ff2 07be 791f 9f3d
00000340: db19 ac3d 1cec 203e 82c3 953e c804 9dbe
00000350: 3e68 063e 5a55 6b3d bfe6 e7bd 8c7e 263e
00000360: f285 e2bd 47cf 04be ed54 08be 8e6b 8a3c
00000370: 349e b13c 85b2 6ebe fbb0 f9bd 6445 3f3e
00000380: 5c8c 9cbc 9f4a 82bb 49be 10be 5220 38bc
00000390: 80a1 0ebd 41a5 f3bd bccd 6f3d e1a7 debd
000003a0: cda3 e6bc 91fe 633d 9966 46be ec4f 2e3d
000003b0: 56c5 2c3e 83a3 093e 04f5 4a3c ae4f 2b3e
000003c0: 232f 1d3e 4b67 f33d 54de d6bd ffb2 6b3e
000003d0: dbff e1bd d322 48be 6cd0 063e 1c09 273d
000003e0: 4d08 09bd 610d 633b 0eb9 383e 5812 9d3d
000003f0: 0c25 4abd 5b19 58bd 20f8 203c d65a 78bd
-0.11572055 0.08560151 0.019991698 -0.19053477 -0.120186925 -0.03318569 0.016827537 0.1868524
0.09140905 -0.09200138 0.09529626 -0.0015130515 -0.12960073 -0.011231092 -0.064677484 0.0551582
-0.14500143 -0.16421779 -0.03651035 0.05990652 0.16265713 0.10909178 0.08299972 -0.08381868
-0.038954597 0.21189262 -0.11484145 0.034506746 -0.10027277 -0.13579421 -0.0707712 -0.04606922
-0.04549922 0.12522723 -0.056028895 -0.018929606 0.19145374 0.06495443 -0.073327705 -0.11879282
-0.13077335 -0.027757438 -0.06155348 -0.16239299 -0.09485954 -0.0051834616 -0.20843168 -0.08751871
-0.03687363 -0.04929317 0.11853675 -0.09210166 0.1899514 0.08146368 0.03918424 -0.09490879
-0.17265134 0.11096929 -0.043854333 -0.1660571 -0.20723031 -0.16469786 -0.034368236 -0.104481414
-0.103377156 -0.069940634 -0.017319301 0.07737246 0.091164984 0.114304535 -0.08297542 0.11843841
-0.16168593 -0.10174672 -0.19509166 0.16993044 -0.16343157 -0.062090173 -0.1902026 0.05376551
-0.05037173 0.01783106 -0.2581108 -0.059994746 0.15614739 0.042561054 -0.1643821 0.08751314
0.017567238 0.032841273 0.063291885 -0.0094226375 0.06459322 -0.06288136 0.13712761 -0.06817661
-0.06341508 0.18040091 0.02725732 0.18871216 0.15620317 0.15833813 -0.0030815904 0.12492014
0.21430278 0.18332972 0.03977924 -0.03177837 0.09659585 0.1784865 -0.022043783 0.05698936
0.15338473 0.011521179 0.06051495 -0.092843845 -0.07314707 0.10929477 0.14077762 -0.07099822
0.13252707 0.10446412 -0.052411076 -0.1508003 -0.087332405 0.17675972 0.13236068 -0.0044579
-0.09610703 -0.041305635 0.1867554 0.07865531 0.042989064 0.06370883 0.09187153 -0.09582486
0.016492454 0.12916659 0.23501797 -0.10800738 0.15544629 -0.124034375 -0.032223944 -0.054183852
0.062043197 0.102850355 -0.10073374 0.057412162 0.16611862 -0.07905781 -0.117056094 0.21104741
0.18495873 -0.08640525 -0.11736359 0.058737095 -0.14735714 -0.08625519 0.15664668 -0.03067291
-0.13247207 0.10323412 0.1646917 0.21340354 0.12319379 0.012338519 0.03699739 0.08220859
0.027447332 0.17927216 0.021458613 -0.17638451 -0.013146104 -0.042983327 -0.16817288 -0.11550349
-0.1596468 0.11414702 -0.15834418 0.12502517 -0.0036385634 -0.091921315 0.16234946 -0.04090188
-0.17108941 -0.16214326 -0.14914355 -0.015190962 -0.10514919 0.10676312 -0.030895278 -0.073997684
0.06929048 0.056136113 -0.15654485 -0.11328651 0.11916698 -0.05905391 0.0287055 0.07904895
0.09967388 -0.0028896204 -0.19868116 -0.039018854 -0.054471593 -0.047802705 -0.13276051 0.07769675
0.08403369 0.15715069 0.29250723 -0.3066771 0.13125703 0.057454444 -0.11323308 0.16259211
-0.11060704 -0.12969695 -0.13313647 0.01689699 0.021681882 -0.23310287 -0.121919595 0.18678814
-0.019109897 -0.0039761807 -0.14135088 -0.0112381745 -0.034821987 -0.11896754 0.058545813 -0.10871864
-0.028154278 0.055662695 -0.19375075 0.04255669 0.16872153 0.13441281 0.012387518 0.16729614
0.15350012 0.11884936 -0.104916245 0.230175 -0.11035129 -0.19544534 0.13165444 0.04078017
-0.033455182 0.0034645426 0.18039343 0.076695144 -0.049351737 -0.052758556 0.009824783 -0.060633503

network.0.bias f4 [256]
00000000: 4184 adbc dd2f 053e ea1d fe3d 7e9d 9d3d
00000010: dc1f 5c3d af83 cabb 9f1f 093e 6eef 3d3e
00000020: b07c 17be 51bb e6bd a7b0 92bd 4a7d d2bd
00000030: edab 4d3e ca4b d3bd 513d 003e 45d4 58be
00000040: 5217 8a3e a993 153e 15be 20be c1d6 503e
00000050: ec00 833e 52a5 34be 5dd7 65bd 3287 303e
00000060: b8ca fe3d 785c 9c3d 3610 383d a18b 40be
00000070: 4a51 2a3e 8958 febc e742 1a3e 2531 093e
00000080: 1ef4 733d 6c20 fe3d d39c e3bd 9656 903e
00000090: a8e0 513d 0f64 973a de82 863e 58b4 52be
000000a0: 2636 13be 3461 563e b2da 0dbd 173c 433e
000000b0: e284 4bbe 0993 8d3d 6a68 303e 3fa4 233e
000000c0: 9096 fa3d 3698 d93b 3c9d b53d fd44 373e
000000d0: 1b23 193c 3f6d d63d 2330 943d 45b7 1fbd
000000e0: f4cf a53d bcd1 35be 56d0 5b3e 61a0 e8bd
000000f0: d1f5 14be 419b 0ebe cf5c 98bb 49b8 303d
00000100: 4898 d63d 9463 bdbc f152 763e 4d02 393e
00000110: 20f0 143e ef0f 673e 9840 693d c07c c53d
00000120: c4e8 b33c 0561 2bbe 80a8 10be 4e8b e0bd
00000130: 7fd2 6a3d b2d4 363e 5d9d 553e 8f2d 4f3d
00000140: 5637 d23d 2e70 75be 189e 533e 2aff 10be
00000150: 8b67 5b3e 8509 dc3d c234 843e ee00 41bd
00000160: a580 263e eeb1 10be 05d1 5c3e b81a 733d
00000170: 3d8b 8fbd ceb5 22be 269c 873d 533d a13d
00000180: 83cc 38be 7339 203e 7419 533e 0eb9 313e
00000190: 2725 633d 6f26 d5bd 9d39 cbbd 96a8 13be
000001a0: 1217 093e 9e42 78bd aa8b db3c f7a7 db3d
000001b0: 5653 9f3d 4baf 3dbe d60a 433e 88dc 803e
000001c0: 561e 9e3d 99f2 d1bd 90ae 3ebb 2fc5 2bbd
000001d0: bd40 483c 1db0 1d3e 591e 44be 0c1d 0a3c
000001e0: ec34 33bd d172 1dbd fac8 71be 62b5 0ebe
000001f0: 8506 0a3e 1650 ccbb 6d2c 763d 9cb1 683e
00000200: a7fa e2bd 91ac 863e 12ee 053d ca35 b9bc
00000210: 68e9 733e 8568 2d3e a734 4bbd 72e9 9d3d
00000220: e8d8 043e ba02 4abe 1e86 b6ba f8ef 2d3e
00000230: 91d9 1dbd a153 993e cc8b 3b3e 2fe4 c43c
00000240: c55b 2a3e aa57 343e 8cbf 293e e58c a33d
00000250: eda4 5dbc 790a 03ba 3831 323e ee13 2dbe
00000260: 6463 83bd fceb 423d 1326 553e f636 13bc
00000270: c76a 7a3e a817 f1bd 900b a0bd c1ea 2cbd
00000280: 88e1 2c3e 2205 febc 044a 933e 346a 893e
00000290: 0df4 24be 82df fbbd f404 0abe b5a5 d93d
000002a0: 6b69 8dbd a02d 6cbd d476 883b e33e 4cbe
000002b0: b174 bbbd b32f fd39 46ac 013e 299d c4bd
000002c0: 3348 453c 5599 b83d f16e f73d 6560 8e3d
000002d0: b282 20be 1bd1 5a3e d1a6 f93d fe76 49be
000002e0: 9609 603e c21a ce3c da55 24bd bdde 503e
000002f0: a511 1c3c 4a90 7e3e 3d89 e63d dc02 323e
00000300: 8e97 4f3d 4cb9 2cbe 13bb 99bd c639 bfbd
00000310: a91b c4bd f348 2c3e 9562 943d 7b42 363e
00000320: 9290 32bd 1eae 4a3e d531 023e edd8 41bd
00000330: 00ad d5bc 7c7b 183e 433e eb3d 8b35 4abd
00000340: c9ed 1bbe 24be 423e 5f24 d8bd 35ae 373d
00000350: 034f 823d 2f9f 013e 0b6a b93d 57b2 e83d
00000360: 0b5d 253e b364 393e 440b a73d 8937 73be
00000370: a934 363e 003e a73d e2a0 173d 22c3 7e3d
00000380: e293 0d3e af68 5ebe 1909 58bc 1603 29be
00000390: fb37 533d 7e46 be3d 8a47 563e 6a98 4d3e
000003a0: 8380 413e 5c85 2a3e db65 b2bd 8bb7 9f3d
000003b0: 89a2 373e fb1e 383d 4374 8fbb 2364 713d
000003c0: 5bd9 f9bc a0d8 653e 3b66 1ebe 6c69 6abd
000003d0: 7b68 253d fdd7 b03b 5dd9 b83d 0e00 963d
000003e0: 5cca efbd f0f8 873d 65e9 dd3d 15ab 1abe
000003f0: 111d 913d f013 68be 3ba3 5a3e 0ec7 22bd
-0.021181228 0.1300654 0.124080494 0.07696055 0.05374132 -0.0061802487 0.13390969 0.18548366
-0.14793658 -0.112661965 -0.071626 -0.10277803 0.20085116 -0.1031719 0.1252339 -0.21174724
0.26970917 0.14607109 -0.1569751 0.20394422 0.2558664 -0.1764119 -0.05611359 0.17239073
0.12441009 0.076348245 0.044937335 -0.18803264 0.16632572 -0.031048076 0.15064584 0.13397653
0.05955898 0.12408528 -0.11113896 0.2819106 0.05123964 0.0011550206 0.2627172 -0.20576608
-0.14376125 0.20935518 -0.034632392 0.19065891 -0.1987491 0.0691281 0.17227331 0.15980624
0.12235749 0.0066404594 0.08867881 0.1789741 0.009346749 0.10470056 0.07235744 -0.03899314
0.080963045 -0.17755789 0.21466193 -0.11358715 -0.14546897 -0.13926412 -0.0046497355 0.043144498
0.10478264 -0.023118772 0.24055077 0.18067284 0.14544725 0.22564672 0.056946367 0.09642935
0.021961577 -0.16736229 -0.14126778 -0.1096407 0.05732965 0.17854574 0.2086081 0.050580557
0.10264461 -0.23968574 0.20665777 -0.14159837 0.21426217 0.10744003 0.258215 -0.047120027
0.16260011 -0.14130375 0.2156411 0.059351653 -0.070089795 -0.15889665 0.0662158 0.07873025
-0.18046765 0.15646915 0.20615178 0.17355749 0.055455353 -0.10407721 -0.09923098 -0.14419779
0.13387707 -0.060610406 0.026799995 0.10725396 0.07779567 -0.185239 0.19047102 0.25168252
0.0772063 -0.1025135 -0.0029095747 -0.041936096 0.012222466 0.15399213 -0.19152202 0.008429777
-0.043751642 -0.038439576 -0.23611823 -0.1393638 0.1347905 -0.006235133 0.06010096 0.22724003
-0.110829644 0.26303533 0.032697745 -0.022608656 0.23819506 0.16934402 -0.04961076 0.07710542
0.12973368 -0.19727603 -0.0013925468 0.16986072 -0.038537566 0.29946616 0.18315047 0.024034588
0.1663657 0.17611566 0.16576976 0.07985858 -0.013528091 -0.0004998814 0.17401588 -0.16902134
-0.06415442 0.047588333 0.20815305 -0.008985272 0.24454795 -0.1177209 -0.07814705 -0.042216066
0.16882908 -0.031008307 0.28767407 0.2683884 -0.16108723 -0.1229849 -0.13478452 0.10627309
-0.069048725 -0.0576607 0.004164556 -0.19945864 -0.091531165 0.0004829146 0.12663373 -0.096002884
0.012041139 0.09013621 0.12081707 0.069519795 -0.15674856 0.2136883 0.12190021 -0.19674298
0.21878657 0.025159243 -0.040120937 0.20397468 0.009525691 0.2485973 0.11256645 0.17383903
0.050681643 -0.1686756 -0.07506385 -0.09337191 -0.09575588 0.16824703 0.072453655 0.17798798
-0.043594904 0.19792983 0.12714322 -0.047326017 -0.02608347 0.14890856 0.11486485 -0.04936747
-0.15227427 0.19017845 -0.10553812 0.04484387 0.063627265 0.1265838 0.09053429 0.113621406
0.16148774 0.1810482 0.081564456 -0.23751654 0.17793526 0.081661224 0.037018664 0.062197812
0.13825944 -0.21719621 -0.013185763 -0.16505083 0.05156706 0.09290789 0.20925727 0.20077673
0.1889668 0.16652435 -0.08710834 0.0779868 0.17933096 0.04495142 -0.004377873 0.05893339
-0.030499151 0.22445917 -0.15468685 -0.057229444 0.040382843 0.0053968416 0.09025834 0.07324229
-0.11708519 0.06639278 0.10835532 -0.15104325 0.07085622 -0.22663856 0.2135133 -0.039740615

network.2.weight f4 [27, 256]
00000000: 8aa3 75bd 8a68 85bb 73b7 6e3d 1588 8f3d
00000010: 6f09 573d fd55 b9bb ac91 d73c d9e8 d13c
00000020: bedc 1cbd 5765 8bbc a204 2f3d 57fd 063d
00000030: 6868 333c 3b2e 113d cd15 42bc d610 5ebc
00000040: cd21 2c3d 5709 6e3d 93b2 073d a63d 12bd
00000050: 92e2 963d f0e7 1ebc d8bc 8abb 5b55 813b
00000060: 915b cd3d 3833 f83b 7c5d 863d 5ca9 62bd
00000070: 41e5 b63c 4bc9 0fbc ab8a 913d 0ad4 4d3d
00000080: 759b b93c 6bb1 803c 8f20 1abd 61e9 6e3d
00000090: 804a 923d dc8d ce3c 13cb 943d 2780 6dbd
000000a0: cc0b b6bc 6b5d d93b 7d64 893d 8170 903d
000000b0: ee0d 88bc d2fa 803c 1250 61bd a1b9 85bc
000000c0: 6710 623d 9cef 1abd c06b d4bc 4e73 bf3c
000000d0: 7050 b9bd 77e6 393c bf01 683d a482 7b3d
000000e0: d488 a6ba 02da 153d 15bb abbb d741 ebbc
000000f0: d8db 3dbd b696 97bd 41de 633d b45c ef3c
00000100: a84d 31bc 2b5a 01bd 9c46 06bd a78a 643d
00000110: 6543 863d 13a7 e0ba 8066 c8bc 4b05 0b3c
00000120: 3dd2 283d 93e4 b83c 1f3c 863d 7bb8 a33c
00000130: b8b5 33bd fc11 d73c 832c ccbc aeeb 993d
00000140: 4cf2 a33c 7b29 a73c 6a53 823d 7c39 1dbd
00000150: f28f 063d 8f54 7e3d a7a3 e83c ed7e d93c
00000160: 65e9 38bd 2de8 08bd ab64 82bc be69 27bc
00000170: cb41 023b 1ea5 54bd 1f48 eb3c ee65 ed39
00000180: 37fc 0dbd 3abb 043c 655c f73c cf8d 9939
00000190: a190 8abd 31ce 05bd 7d37 c5bc 7bd6 133c
000001a0: e473 06bd f943 283d d508 c63c a871 54bd
000001b0: ca1e 453c 3d4c 91bd 2705 373d 5aac 443d
000001c0: b073 f4bc ee73 cebc d982 4a3b bc70 77bb
000001d0: 2716 113c 51e9 bebc 7c9a e13c e692 b43c
000001e0: 0a1b 9c3c 9fc1 af3b c770 e3bd 6918 68bd
000001f0: c6d6 993c ce2e 423d b9ee b1bc 105c 0a3d
00000200: 78d0 c7bd f230 9abb a3a0 cf3c ed0b e7bc
00000210: d96a 103b 3582 8c3c 66a3 b2bc efec eb39
00000220: a583 ee3c d582 7fbd 894a cbbc 18b8 263c
00000230: a717 f83b 4edb 8a3d e063 a73d 52a6 25bc
00000240: 66e2 d9bc 08a6 263c 769b 523d eac0 4f3b
00000250: 1023 3d3d 0798 153d 75dd 94bc b258 49bd
00000260: 0966 b4bc 2a04 23bd 7960 703c 9b9e 9c3c
00000270: b298 db3c 758b 56bd f9f5 c73c 442a bc3d
00000280: 2103 673d 6340 4c3d e39f fd3c 2f22 2cbc
00000290: 711a dbbd 6620 d93c 8813 7a3d ea34 9aba
000002a0: 548a e13c b22e 303d 5853 cb3c 1cdb 12be
000002b0: 1385 3abc 3af4 e63c efdd d53c 7289 7cbd
000002c0: aab1 5ebd 0a10 463d 2c1c 043c 2e3a ed3c
000002d0: 3617 ecbd 40b4 b73c e3f5 5ebc 61f7 9abb
000002e0: 3a75 3dbc dd2e 1abd b48f 0e3d 3af0 433c
000002f0: 00b9 d33d d87c 463d 5332 42bd 765b 2dbd
00000300: 65ab 463d 984d 30be 5aa4 4abb 6b7a bf3c
00000310: 039b 273d 0b5f 263d 59a9 39bd b610 2dbb
00000320: 4d9d 88bc 86b9 383d f2df c63c edb0 2abd
00000330: d0bc 563c f0a7 c43c 3e25 be3c 290b 8bbb
00000340: 5e5d 19bc 9932 323d 7772 76bc e04a 43bc
00000350: 2279 293d f634 ebbd f4ba 5a3b 9a84 acbd
00000360: 1d93 613c 7401 353d c44c 2b3c 22fa 0cbd
00000370: bffd 353d 5330 12bd 0312 6c3d f3dd 023d
00000380: 7957 963d b9d7 923d f00b 0c3d d79a 93bd
00000390: 7140 a53c 8566 8e3c 6451 b9ba 7e31 40bc
000003a0: 660d 7cbc b181 d23c 7bc3 8a3b 5bce 4e3c
000003b0: c35e 143d c2d7 8e3c a82b 84bd e796 7f3d
000003c0: 7823 d5bc 778d 373d 2edc 163d 2256 a1bd
000003d0: 7fe7 1abd cf40 9bbd 4dc2 c03c 3707 7abd
000003e0: 0383 a1bd ddd7 3ebd 4258 a8ba 7563 f5bc
000003f0: acbf 1ebd b293 b13c 8bfd b43c 1db0 c7bc
-0.059970416 -0.0040713 0.05828042 0.070083775 0.05249923 -0.0056560026 0.026314579 0.025623726
-0.038296454 -0.017016096 0.042729028 0.032956447 0.010950185 0.03544448 -0.011846018 -0.013553819
0.042024422 0.058114376 0.033129286 -0.035703324 0.073674336 -0.009698853 -0.0042339377 0.0039469427
0.100272305 0.007574465 0.065607995 -0.055337295 0.022326114 -0.008776019 0.07106527 0.050251044
0.022657136 0.0157096 -0.037628707 0.058328036 0.07143116 0.025214128 0.07265296 -0.057983544
-0.022222422 0.0066334507 0.0670862 0.070527084 -0.016608205 0.0157446 -0.055008 -0.016323866
0.055191424 -0.037826166 -0.025930285 0.023370411 -0.09048545 0.011346451 0.05664229 0.061403885
-0.0012705573 0.03658486 -0.005240808 -0.028717918 -0.046352237 -0.07401793 0.05563188 0.029219009
-0.010821737 -0.03158013 -0.032782182 0.05579629 0.06555823 -0.0017139636 -0.024462938 0.008485149
0.041216124 0.02256993 0.06554436 0.019985428 -0.043874472 0.026253693 -0.024923569 0.075156555
0.020012997 0.020405522 0.06363566 -0.0383849 0.03285212 0.06209236 0.028398348 0.02654978
-0.045144457 -0.033424545 -0.015917143 -0.010218082 0.0019875641 -0.05191528 0.028720913 0.00045280106
-0.03466436 0.008101279 0.030195424 0.0002928809 -0.06765867 -0.032667343 -0.02407431 0.009023304
-0.032825366 0.04108045 0.024174133 -0.051866204 0.0120312665 -0.070946194 0.044682648 0.04801593
-0.02984032 -0.025201764 0.0030900745 -0.0037756404 0.008855379 -0.023304613 0.027539484 0.022042703
0.019055862 0.0053636576 -0.11105495 -0.056663904 0.01877917 0.047407918 -0.021720277 0.033779204
-0.09756559 -0.004705542 0.025345152 -0.028203929 0.0022036342 0.017151931 -0.02180643 0.00044999222
0.029115507 -0.06238063 -0.024815815 0.010175727 0.007571179 0.0678011 0.081733465 -0.010110455
-0.026597213 0.010171421 0.05141779 0.003170068 0.046176016 0.036521938 -0.018172005 -0.049156852
-0.02202131 -0.039798893 0.014671438 0.019118598 0.02680621 -0.05237909 0.024409281 0.09187749
0.05639947 0.04986609 0.030960029 -0.010506197 -0.10698403 0.026504707 0.061053783 -0.0011765037
0.02753178 0.043013282 0.024820015 -0.14341396 -0.011384266 0.028192628 0.026106803 -0.061654516
-0.054368652 0.04835514 0.008063357 0.028958406 -0.11527865 0.022424817 -0.013608429 -0.004729197
-0.0115635935 -0.03764235 0.034805015 0.01195913 0.1033802 0.048458904 -0.047411274 -0.042323552
0.0485033 -0.172171 -0.0030920715 0.023373803 0.040919315 0.040617984 -0.045327518 -0.0026407666
-0.01667657 0.045098804 0.024276707 -0.041672636 0.01310654 0.02400586 0.023211118 -0.0042432738
-0.009360639 0.043505285 -0.015041939 -0.011919707 0.041375287 -0.11484711 0.0033375593 -0.08423729
0.013767985 0.04419084 0.010455314 -0.034418233 0.044431444 -0.035690617 0.057634365 0.03194995
0.07340903 0.07170052 0.034191072 -0.07207268 0.02017233 0.01738287 -0.0014138636 -0.01173055
-0.015384054 0.025696607 0.004234729 0.012622441 0.036223184 0.017436866 -0.06453639 0.06239977
-0.02601789 0.044812646 0.036831073 -0.07877757 -0.037818428 -0.07580721 0.02353015 -0.061042037
-0.078863166 -0.046592582 -0.0012843686 -0.029954651 -0.03875701 0.021676872 0.022093555 -0.02437597

network.2.bias f4 [27]
00000000: b7a7 263d 4381 703d 74ed 983c f958 07bc
00000010: b62a 15bd 9a80 893d 837c d0bc b6e5 ef3b
00000020: eb4b ccbc db58 053d cb05 983d 30b5 03bc
00000030: c9f9 803d aea8 8abc f394 b3bb 5aea 113b
00000040: 06f8 933d 033e 833d 5a09 543d d43e 6a3c
00000050: 22f4 3f3d 1f02 a33d 12e5 ad3d 7ac0 e03c
00000060: 2bcb 2dbc d20b 42bc dc20 b73d
0.04068729 0.058717024 0.018667914 -0.008260959 -0.036417685 0.06713982 -0.025449997 0.007321085
-0.024938544 0.032555442 0.0742298 -0.008038804 0.06297643 -0.016926136 -0.0054804026 0.0022264929
0.07225041 0.06408312 0.05176673 0.014297206 0.046863683 0.07959389 0.08490957 0.02743553
-0.010607521 -0.0118436385 0.08941814
