code/experiments/dist_thresh/dqn/8/models/1.pth (torch, 62355 bytes, 4 tensors)

network.0.weight f4 [248, 33]
00000000: fb1f bebc b2ad c23d 3c66 75bd f27e 9bbd
00000010: f954 483d b712 173e 317f 99bd da16 d0bd
00000020: a398 00bb db37 9dbd d36f aa3d 1fd8 253e
00000030: a9ac bb3d 0c28 dc3d 7677 e83d d29e c5bd
00000040: af45 1dbe b03a e8bd 9ca2 fc3c a179 51bb
00000050: 2fa8 ea3c 31f2 66bd 6f18 50bd f9cb d1bd
00000060: 34d8 52bd f5a1 f53d 9b86 fb3d ed4d efbc
00000070: 354d c0bc 83f7 843d ff74 2cbd 9ed1 dbbb
00000080: 34a8 053e e3e0 27bd dc61 0dbe d257 8fbd
00000090: 84f1 9fbd 04ac aa3d c61e b13d 4d6f 83bd
000000a0: 05aa 3dbb 4eb2 e4bd d065 06be 0b40 2b3d
000000b0: 7ef6 4d3d c8ff db3c 6c04 a33d 4004 b3bc
000000c0: a941 17bd f0a2 d93d 4ee3 24be 083d f43c
000000d0: 196f 2d3e e049 563c 328c e9bd fa87 a8bd
000000e0: 8dd6 35bd 6768 8c3d 9fae a2bd b65f c53a
000000f0: a566 1e3d e4e3 653c 160a 413d f96a 44bd
00000100: b29b 71bd b260 1a3e 4620 dd3d cf00 e33d
00000110: 9c8e 3cbd 53ea ef3d dbe3 d7bc b9c1 043e
00000120: a1f3 e53d 4d71 60bc bf3b f93c 92ac b2bd
00000130: 0cf9 8abd 9932 d83c 52a1 da3c 7409 8f3c
00000140: a7ef 973c e199 4cbc 1894 87bd 56cd 2dbe
00000150: da39 15be a3e2 d43d 5a29 5fbb b777 72bd
00000160: d982 873d 5427 0fbe 2e26 09be 9588 773d
00000170: a004 213e 83ef 90bd a013 723d 654e e43d
00000180: 79c8 ebbd 5ef9 fb3d 3026 3d3e 4346 05bd
00000190: 823c 8b3d aa96 bd3d 97fe 00bd 2393 4cbd
000001a0: 5a41 ecbd 3243 dcbb e5bd 9bbd a3a3 d0bd
000001b0: 524b b8bd 54a5 043c 9912 2e3d 14fd 01be
000001c0: a7e3 22bd 0741 bb3d 554d f63d 2ddd fabd
000001d0: 6118 ea3d 0a63 cdbc f0c5 653d c92e 3ebd
000001e0: f71d 8ebd 8ba9 c23d 0dc9 043e ae71 fcbc
000001f0: 00d3 20be d2a9 8ebc 58f4 8ebc 2e51 eebd
00000200: dcc9 793d 7250 a3bd 2960 973d 5e8d 223e
00000210: 6e07 b8bd 24e7 573d b8a1 513d efb1 983d
00000220: e1e3 993d 3cb7 5dbd eda9 f8bd 0cb9 9a3d
00000230: a532 a33d c6ae 0e3e 6f56 0a3e e4aa 6fbc
00000240: 8488 a0bd a0fd 063e 8e4a 17be 665b 49bd
00000250: 92b6 283e 4397 763d 5b6d 403e fae6 b1bc
00000260: c08f 2f3d 783b c73d 6733 1b3e 9094 993d
00000270: 2780 a13d 6cde 20be ca15 99bd ce94 923d
00000280: 5903 10bd 26f4 91bc 8168 aabd f814 823d
00000290: 35b9 593c 54c6 e1bd c3ce 59bd 3f1c f8bd
000002a0: ba5c 933c 8318 edbd 992f 0fbd 2c30 c6bb
000002b0: b892 0e3e 0f9c 1a3e a19b 14bd 585c 14be
000002c0: 5f1b 00be eb53 0c3e a9f1 dcbd f5c3 bb3d
000002d0: ccdb dd3d f09a 2a3e 0c07 cd3d 087b 0f3e
000002e0: 2916 29bd b612 f23d 8e22 dfbd e02d d8bd
000002f0: f15a 553c e81c b9bd cce0 de3c 3d2a 23bc
00000300: 70fe 90bd aad9 90bd 8e0e 093d 9c4e f0bc
00000310: 9c9c 3d3d cf9b c03d 11e0 39bd 47e4 37bc
00000320: 0ce1 d33d 0da7 01bd 79bf 9d3d 609c 7e3d
00000330: 2b28 193e ab36 273e 3dff d4bd df80 4abd
00000340: f662 07be 9ed5 2ebe a060 cebd 04b4 80bd
00000350: 8202 233c f4e9 b9bd 2b43 283b 8416 d3bd
00000360: 69b0 c93c d5fd ffbb 1dc9 653d 44c8 0c3a
00000370: f469 30bc 86c1 97bd 76c9 883d dcc4 1e3d
00000380: 5e46 fcbc 4ee5 5f3d 363f fa3d ae2a f5bd
00000390: 80d0 993d 15b3 a73d d243 17be e754 bc3d
000003a0: 754f 903c 9ce1 ab3d 6308 0c3e 5873 c43c
000003b0: 2536 08bd 0316 debd 3b63 d23c 720e 20be
000003c0: 294f 2bbe 3477 d63d d8e6 1d3e 2ce9 863d
000003d0: 0e98 31be 3de3 b5bd 7fd7 a9bd 7eda 6dbd
000003e0: 8aae e93d 8677 2a3c 9891 cc3d e3fd b4bd
000003f0: 93bc 96bc f263 203c 6425 0dbd 3f36 f13d
-0.023208609 0.09505786 -0.05991195 -0.07592572 0.04890916 0.14753233 -0.07494963 -0.101606086
-0.0019622229 -0.07676669 0.0832211 0.16195725 0.09163792 0.10749826 0.1135091 -0.09649433
-0.15358613 -0.11339319 0.030839257 -0.0031963366 0.02864465 -0.056383315 -0.05080455 -0.10243983
-0.05147572 0.119937815 0.12281533 -0.029211963 -0.023474315 0.064925216 -0.042103764 -0.006708338
0.13052446 -0.040985953 -0.13806862 -0.06999172 -0.07809737 0.083335906 0.08648448 -0.06417713
-0.002894045 -0.111668214 -0.13124776 0.041809123 0.0502839 0.026855364 0.07959828 -0.021852612
-0.036927853 0.10626781 -0.16102335 0.029814258 0.16936912 0.013079137 -0.11403693 -0.082290605
-0.044394065 0.06855851 -0.079434626 0.0015058431 0.03867211 0.014031384 0.04712876 -0.04795358
-0.058986373 0.15075949 0.10797171 0.110841386 -0.04603444 0.11714616 -0.026353767 0.12964524
0.11228109 -0.013698888 0.030423997 -0.087243214 -0.06785783 0.026391314 0.026688252 0.017460562
0.018546892 -0.012487859 -0.066200435 -0.1697286 -0.1457285 0.1039479 -0.0034051747 -0.0591962
0.06616754 -0.13979846 -0.1339347 0.06043299 0.1572442 -0.07076933 0.059100747 0.11147765
-0.115128465 0.123034224 0.18471599 -0.03253771 0.0679865 0.092572525 -0.031492796 -0.049945008
-0.11535902 -0.0067218775 -0.07604579 -0.10187461 -0.08998741 0.008096058 0.042498205 -0.12694198
-0.039767887 0.09143262 0.12026469 -0.12249217 0.11430431 -0.02507164 0.05609697 -0.046431337
-0.06939309 0.09504994 0.1296732 -0.030815925 -0.1570549 -0.017414961 -0.017450497 -0.116365775
0.060983524 -0.07974328 0.07391388 0.1587424 -0.08985792 0.052710667 0.051179618 0.07455813
0.075141676 -0.054129824 -0.12141786 0.07554826 0.07968644 0.13933858 0.13509534 -0.014628146
-0.07838538 0.13182688 -0.14774534 -0.04915943 0.16475895 0.06020285 0.18791716 -0.021716584
0.0428617 0.0972814 0.15156327 0.07499039 0.07885771 -0.15709847 -0.07474859 0.071572885
-0.035159443 -0.017816614 -0.08320714 0.06351656 0.013288786 -0.11024156 -0.0531757 -0.121147625
0.017988551 -0.11576941 -0.034957502 -0.006048223 0.13923156 0.15098594 -0.03628123 -0.14488351
-0.12510441 0.13703887 -0.107882805 0.09168235 0.108329386 0.16660666 0.1001111 0.14011776
-0.0412809 0.11819975 -0.10895263 -0.10555625 0.01302217 -0.090387166 0.0272068 -0.009958801
-0.0707978 -0.07072766 0.033461146 -0.029334359 0.046291932 0.09404718 -0.045379702 -0.011223859
0.10345659 -0.031653453 0.07702536 0.06216085 0.14956729 0.16329448 -0.10400245 -0.049439307
-0.13221344 -0.17073676 -0.100770235 -0.06284335 0.009949328 -0.09077826 0.00256748 -0.10307029
0.024620252 -0.0078122416 0.0561 0.0005370418 -0.010767449 -0.074099585 0.066790506 0.03876196
-0.030795272 0.05466204 0.12219088 -0.11971031 0.07510471 0.08188454 -0.14771965 0.09195881
0.017616013 0.08392641 0.13675074 0.023980781 -0.03325476 -0.10844042 0.025682082 -0.1563051
-0.16729416 0.10471955 0.15420091 0.06587443 -0.1734316 -0.08881233 -0.08293056 -0.0580697
0.11410244 0.010404473 0.09988707 -0.088374875 -0.018400466 0.009789454 -0.034459487 0.11777925

network.0.bias f4 [248]
00000000: d50e 0b3e f083 053e 397d 2d3e ea46 113e
00000010: b9ba 13be 563b 463d 6f16 ff3d 50e9 25bd
00000020: 0f61 bd3d 8e6f f7bd a6de 42bc 7f39 96bd
00000030: c85b 0e3c 0164 adbd 988a c23d 8977 593d
00000040: 82e0 b3bd 981b 903d c0eb f4bd 805d db3d
00000050: 53f0 563e 89e5 4b3e 4980 f63d b88f 2f3d
00000060: 8274 bebc 05f9 213c 0ba7 b7ba 8ddb 303e
00000070: e1f4 c3bd 01de 9b3c 1de8 5f3d 2d43 b6bd
00000080: d2ce b73d 2301 783e 55cd 093e e57b adbd
00000090: ed97 4a3e 18f0 29bc 7965 893d fc73 8d3d
000000a0: ac53 4cbe d4dc 9cbc 9f05 263c eeae 92bd
000000b0: fc4a 1dbe 66ab ef3d 1971 703d 1895 243e
000000c0: e662 e53d 2dbe 7cbc 6fad 2d3e 2469 5b3e
000000d0: b77e 613e 305b db3b b306 d33d 643d 1c3e
000000e0: d95f 18bd 50a1 f4bc 6382 07bd 8883 163d
000000f0: 864e 0bbd 43e9 c43c 285d 98bd ad66 6b3e
00000100: 1838 283e 0044 d63c 8a66 1bbd 6d67 5f3d
00000110: 652c d3bd 0b58 c43d d48b 4c3d 4add 02be
00000120: ca17 363d 86a4 cebd 35bc 57bd 4a94 b5bd
00000130: 5bed a53d a4b7 503e 95bc b2bd 7843 9ebd
00000140: 5f65 c6bd ebbc 1bbe db43 193d 3d1c bc3d
00000150: eca8 0abd 6af0 6dbd 78b6 143d d464 98bd
00000160: c350 643e c647 00be 4c91 fd3d ab9b 3d3e
00000170: 0835 2f3c 8211 f73d 02fb 693d 3922 edbd
00000180: 5a2f 003e eeab f03d 949d 0a3e 163c b3bd
00000190: a001 d33d 97d5 9e3d 38c3 2dbd bb20 583d
000001a0: f794 8fbd de9d 583d 2d53 0a3e c2b4 bc3d
000001b0: 65a9 c43d 24a1 da3d 39cc b33c 9a94 2e3e
000001c0: d222 31be 351e a63d 03c6 28be e6d1 52bd
000001d0: 78c7 463d a73b 53bc e175 a53d af02 8c3d
000001e0: 67c0 2abd d32a ffbd 91ec 8d3c e6aa febc
000001f0: cf4f 5c3b c1a9 8dbc 25e4 87bd 725f 983d
00000200: 0074 373c 128f f83c 22d4 93bd 1330 8c3b
00000210: ff4a 7f3e d3b7 31be 9a48 ce3d 80ed 083d
00000220: 64f7 283e f0b5 d9bc 7417 183d 9973 90bd
00000230: 8ecb 953c c8a6 b6bd b2dc 41bb 88e7 293e
00000240: 4272 9d3d 24f3 bebd 1f14 823c 5faf f4bd
00000250: 575a 103d dced c0bd 2ded 16be 3a8d 2c3d
00000260: 41dd ef3d 78d3 02be 54ff cdbd 9182 dcbd
00000270: 389c 17bd 3ec1 03bd 0205 2a3e 80d5 7f3d
00000280: 17be bd3d 8561 ccbd 2952 8f3d d1b1 ffbd
00000290: a144 b6bd 2aaa d53d 6ebf 11bd 7e37 fcbd
000002a0: be69 9ebd 7a1f 803c 461c f23d 14bc 3e3c
000002b0: d5a8 d63c d1db 3cbc d036 ea3d 94c8 13bb
000002c0: 333a 6b3e 5cf1 923d 4ffc 9e3c 2544 513e
000002d0: 5e8d 633e 06d4 c53d 54c2 4c3d 3e23 b5bc
000002e0: ffd9 36bc ea23 013d 112b a6bc 811f 88bc
000002f0: 09c6 04be dd7a 503d 9726 0a3e 90cb 5e3d
00000300: c1cf 76bd 2fee ce3c 6c19 dc3c cd53 cd3c
00000310: 2c8f d13d 734e f53d b1b8 9bbd 8686 91bc
00000320: 6c73 323e 6c07 673e 0395 1c3d b70e 283e
00000330: 72a5 943d 72b0 60bd b804 c5bd a904 d23a
00000340: 51f4 423e 70e6 e93d 13d2 293d 3274 683e
00000350: 7aed 243c 19a8 2c3d 0834 773e b075 073d
00000360: 1f99 4c3d 11f6 2ebd 1a86 bbbc 6e25 05bc
00000370: e912 bfbd 8a53 883e b049 18bd 8887 70bd
00000380: db1e cf3d bd61 7abd fa77 b7bb 455d bd3d
00000390: 1083 413e 673c 543e 2da8 23bc a066 373c
000003a0: 9735 9f3d daf2 e3bc f1fd 94bd 35b6 da3d
000003b0: 6542 0e3e 6dcf 7f3e 6578 f6bd 65a5 553e
000003c0: 02f6 10be 545b 6c3e 6871 89bd 0a93 14bd
000003d0: 22af cdbc 253f 903d 8b10 d7bd adce b53d
0.13579877 0.13038611 0.169423 0.14187208 -0.14426698 0.04839643 0.12455451 -0.040505707
0.09247028 -0.12081824 -0.011893904 -0.07335185 0.008688875 -0.0846634 0.09499091 0.053092513
-0.08783056 0.07036513 -0.11959028 0.10711193 0.20990114 0.1991178 0.12036187 0.04286167
-0.023248915 0.009886031 -0.0014011575 0.17271252 -0.09568191 0.019026758 0.05466472 -0.088995315
0.08974995 0.24219184 0.13457234 -0.08470897 0.19784518 -0.010372184 0.067088075 0.06906888
-0.19953793 -0.019148268 0.010133176 -0.071622714 -0.15360636 0.117026135 0.05870161 0.160725
0.11200504 -0.015426201 0.16960691 0.21426827 0.22020994 0.00669422 0.10304012 0.15257794
-0.037200782 -0.029862076 -0.03308333 0.03674653 -0.034010433 0.02403701 -0.07439643 0.22988386
0.16427648 0.026155472 -0.037939586 0.054541994 -0.10311202 0.09587105 0.049938038 -0.12779728
0.04445628 -0.10089974 -0.052669723 -0.088661745 0.081019126 0.20382553 -0.087273754 -0.077277124
-0.09687304 -0.15208785 0.037418228 0.091850735 -0.033852503 -0.058090605 0.03630683 -0.074411064
0.22296433 -0.1252738 0.12381229 0.18516414 0.010693796 0.12063886 0.057124145 -0.11578793
0.12518063 0.11751543 0.13536674 -0.08751695 0.10303044 0.07755583 -0.042422503 0.05276559
-0.07010835 0.05288493 0.13508292 0.09214164 0.09602622 0.106752664 0.021947967 0.17048874
-0.17298439 0.0811123 -0.16481785 -0.051469706 0.048530072 -0.01289264 0.08079124 0.06836449
-0.041687395 -0.1245934 0.017324718 -0.03108735 0.0033616906 -0.017292859 -0.06635312 0.0744008
0.01119709 0.030341659 -0.072181955 0.004278192 0.24930952 -0.1735528 0.100724414 0.033429623
0.16500622 -0.026576012 0.03713174 -0.070532985 0.018285539 -0.0891853 -0.0029581008 0.16592228
0.076878086 -0.09323719 0.015878735 -0.11947512 0.035242405 -0.09420368 -0.14738913 0.04212687
0.11712123 -0.12775981 -0.100584656 -0.10767091 -0.037014216 -0.032166712 0.16603473 0.06245947
0.092647724 -0.09979538 0.06998093 -0.12485088 -0.08899809 0.10432847 -0.035582952 -0.12315272
-0.077350125 0.01564001 0.11821799 0.011641521 0.026203552 -0.011527018 0.11436236 -0.0022549974
0.2297142 0.07174942 0.01940742 0.20436151 0.22221896 0.09659581 0.049990013 -0.022111531
-0.011160373 0.03152839 -0.020284208 -0.016616585 -0.1296617 0.05089842 0.13491283 0.05439335
-0.060256723 0.02526006 0.02686759 0.025064373 0.10232386 0.119778536 -0.076035865 -0.017764341
0.17426842 0.22561425 0.038228046 0.16411863 0.07258119 -0.05485577 -0.09620041 0.0016023117
0.19038512 0.114209056 0.041460108 0.22700575 0.010066384 0.042152498 0.24140942 0.03307122
0.049950715 -0.042715136 -0.022891093 -0.0081266 -0.09329779 0.26626235 -0.03717965 -0.058723003
0.10113307 -0.061128367 -0.005599019 0.092463054 0.18897653 0.20726167 -0.009988827 0.011193901
0.07773893 -0.027825762 -0.07274998 0.106792845 0.13892515 0.2498147 -0.12034682 0.20863874
-0.14156345 0.23081714 -0.06711084 -0.03627304 -0.025107924 0.07043294 -0.10501202 0.08877311

network.2.weight f4 [27, 248]
00000000: a8f9 783c 3a04 3e3d 50ad be3c e81b 54bb
00000010: 78e5 8ebc 364c 573b f696 cd3c 42a6 1a3d
00000020: 83f0 173c dc17 6cbc a410 873c d3da 38bd
00000030: 8ec5 f8b9 e3b0 163a 1a69 cf3c 082e f13b
00000040: 6e8b abbc 3fe5 f03b 03e1 e9bb ec9e 1b3c
00000050: efd5 d13b 85f4 2d3c 630b 1c3d 9201 cf3c
00000060: 9d8f 83bc f3a9 013d e249 8fbc f3f8 593c
00000070: bd4f 66bc 145a a0bb 1925 af3c 774e 8f3c
00000080: db22 c43a 2461 d4bb 7270 2d3c ecf3 30bb
00000090: 1c3c a03b b767 7a3c d149 0cbd cfdf a43c
000000a0: 0118 70bc 6948 e13c 3043 97bb 45cf 0bbb
000000b0: 1847 2e3d 4c76 213b 6380 eb3c 9009 9dbb
000000c0: bc71 4f3b c1ec b1b9 182e 643d fd58 f13c
000000d0: a272 193c 7d7f 37bc 72b1 a6ba 395a 583c
000000e0: 6f0e 013c f157 04bd 9f56 6fbc f322 f33b
000000f0: 0f5f 87bc 2d01 f6bc 2e7d 52bd 7fca ba3c
00000100: 32a6 eb3c 3ae6 00bc a712 6dbd aef4 163d
00000110: b792 a6bc 21d2 94bc af71 24bd d95b 8abc
00000120: 2683 bb3c 004b 91bb 936c 3abc ae9c fa3a
00000130: 757d dbbc eee6 bcba 08e1 90bc 3348 85bb
00000140: c09c c5bc 64a2 21bd 5ae9 02bc 4845 263c
00000150: 7628 aa3c 0c7d 7cbc 9e2e 17bd f76b fd3c
00000160: f566 99bc ea17 ec3c f7a0 d23b 1ad2 be3c
00000170: badd e73c 4128 d5bb b6e6 acbc 0a9c f23c
00000180: ae9f 05bd 6b6a eb3b e2d8 d53c 0fa8 5fbc
00000190: 9b36 123c 02df f33c 9ec4 01bd 7aab 593d
000001a0: 8336 a33c 856c d13c 9150 0abc 0675 31bc
000001b0: 5d7c ab3b 3da9 42bc cd72 70bc 4ec9 023c
000001c0: a841 b23b aac4 6539 db36 6bbd cc24 90bc
000001d0: 5364 313d f514 a7bc 725c f53c 1285 153d
000001e0: a408 933c aa4f 87bb 93e0 893c c07f da3c
000001f0: 9d06 86bc 9f16 fc3c 7bf2 043d cf2b 49bb
00000200: 5625 463c 3180 be3c 2cd5 98bb ac78 213d
00000210: 39b7 433c e557 20bb b75a b3bc 7283 913c
00000220: 3fc8 deba 85a9 5dbc cb85 743c 2b84 a0bc
00000230: 7f31 43bc 8e3e 42be 8c0e bdbc 3e62 273d
00000240: d9e2 2e3d 9dda 62bb 1f47 14bd 7762 613b
00000250: 1a23 1f3c 2579 303c f8c9 0e3c 113d 48bc
00000260: 391a 113c b2f1 84bb 9a88 90bd d3f5 17bd
00000270: cea8 4d3d 0853 4b3c 4713 683c 86aa 933b
00000280: d587 16bc 63c0 0f3c 98cc 8ebc 2f0f bc3b
00000290: 911f 27bc 8562 93bb cb15 e13c 480e 06bd
000002a0: dc86 eebb a143 48bb 53f4 183d 88b2 ca3c
000002b0: 3aa2 1ebb 8350 df3b b96d 413c 8e72 6b3d
000002c0: f3a0 c03c 2136 123d 6d23 d43b 6add 06bd
000002d0: 29e3 a83c a677 db3d 8423 6b3c 723f 86bb
000002e0: 76b3 f43b ca1e 103d 1b7f 55bc a93c 163d
000002f0: f933 d23c 2197 203c cfd4 863c 1014 8bbc
00000300: 62b5 d63c e7cf febc 847b a7bc 05ef 74bc
00000310: 3bd6 a53d 9e69 073d 62ea 9d3c da5e 0dbd
00000320: 8915 6a3d 3bd7 ae3a b8e6 3dbc 3c50 343d
00000330: dfe0 12bd 7e6f 87bc 016f c83b 1b3d 8a3c
00000340: c7ad 303d e25c 9a3c e931 03bd a7d5 913c
00000350: aaa9 e93b 42ae e1bc 279b 393c 74e2 8c3d
00000360: e975 a03a 224d 773b 0958 fdbb cfdd e2bb
00000370: 9acb a4bc f672 ad3b 9bac 7339 5dbf 08ba
00000380: 7aaf 523d 204b 01bc 3923 01bd aacd 86bc
00000390: dc84 033d 4f0f efbb 4aed bdbc 0e7f 6cbc
000003a0: 576a 5d3d b92d a23c ac75 90bb 4533 c73c
000003b0: 3e32 023d e9af af3c a51d 273c 209e 5d3d
000003c0: 7680 543b 9ff5 263e 78cd 54bc 9a42 0b3d
000003d0: 34f2 973c a1d1 ad3c 3980 82bc 298a 133b
000003e0: 098f c4bb ed1c 773c b583 873c 6ecb e5bb
000003f0: 56c7 81bc 70f8 0bbc fbfd a03c 7f25 583d
0.015196241 0.04639075 0.023276001 -0.0032365266 -0.017443404 0.0032851822 0.025096398 0.037756212
0.009273651 -0.014409985 0.016487427 -0.045130562 -0.00047449436 0.0005748404 0.025318671 0.0073602237
-0.020940509 0.007351547 -0.007137419 0.009498339 0.0064036767 0.01061738 0.038096797 0.025269303
-0.016059691 0.031656217 -0.017491285 0.013303983 -0.014057097 -0.0048935506 0.021379994 0.01749347
0.0014964001 -0.0064813066 0.010585891 -0.0027000858 0.004889978 0.015283517 -0.034250084 0.020126252
-0.0146541605 0.027500348 -0.0046161637 -0.002133326 0.04254827 0.002463716 0.028747743 -0.0047923997
0.0031653484 -0.00033936466 0.05570802 0.029461378 0.0093657095 -0.011199829 -0.0012717678 0.0132051045
0.007876976 -0.03231043 -0.014608054 0.0074199378 -0.01652482 -0.030029858 -0.051388912 0.022801636
0.028765772 -0.00786739 -0.057879116 0.03685444 -0.020333631 -0.018166604 -0.04014748 -0.0168895
0.022889685 -0.0044339895 -0.011378425 0.001912018 -0.026793221 -0.0014412084 -0.017685428 -0.0040674447
-0.024122596 -0.03946151 -0.007990206 0.010148354 0.020771246 -0.015410673 -0.036909692 0.03093527
-0.018725852 0.028819997 0.00642788 0.023293544 0.02830397 -0.006505043 -0.021106105 0.02961542
-0.032622986 0.007184317 0.026104394 -0.013650908 0.008924152 0.029769424 -0.03168165 0.05314205
0.019923454 0.025564441 -0.00844206 -0.010831123 0.005233331 -0.01188117 -0.014675808 0.007982565
0.0054399557 0.00021912405 -0.05742536 -0.017595671 0.043308567 -0.020395735 0.029951308 0.03650386
0.017948456 -0.0041293697 0.016830718 0.026672244 -0.016360575 0.030772505 0.03245781 -0.0030696278
0.0120938625 0.023254486 -0.004664084 0.039421722 0.011945539 -0.0024466452 -0.021893842 0.017762873
-0.0016996934 -0.013529186 0.014924477 -0.019594273 -0.011913656 -0.18969175 -0.023078226 0.040865175
0.042696808 -0.0034615167 -0.03620064 0.0034390965 0.009712959 0.010771071 0.008715145 -0.012221591
0.00885635 -0.0040571326 -0.07057305 -0.03709967 0.050209813 0.012409933 0.014164752 0.004506412
-0.009187658 0.008773896 -0.017431542 0.0057391147 -0.010200397 -0.0044978284 0.027476212 -0.032728463
-0.00727926 -0.0030557888 0.03734238 0.024743333 -0.0024205581 0.0068150177 0.011805945 0.057482295
0.023514247 0.035696153 0.0064739496 -0.032926 0.02061613 0.107161805 0.014351729 -0.0040969187
0.0074676825 0.035185613 -0.013030793 0.036678944 0.025659548 0.009801657 0.016458897 -0.01697734
0.026209537 -0.031104995 -0.020444639 -0.014949565 0.08097502 0.03305971 0.019276801 -0.034514286
0.057149444 0.001333929 -0.011590652 0.04402183 -0.035858985 -0.016532656 0.0061167483 0.01687484
0.043134477 0.018843118 -0.03203002 0.017802073 0.0071308212 -0.027548913 0.011328495 0.0687913
0.0012242171 0.0037735184 -0.007731442 -0.0069234143 -0.020116616 0.0052932454 0.00023238586 -0.00052165036
0.05143688 -0.007891446 -0.03152773 -0.01645549 0.032109126 -0.007295526 -0.023184437 -0.014434589
0.05405649 0.019797193 -0.004408559 0.02431644 0.031786196 0.021446185 0.010199939 0.054105878
0.0032425201 0.16304635 -0.012988441 0.033999063 0.018548109 0.021218123 -0.015930282 0.002251277
-0.0059984964 0.01508258 0.016542295 -0.007012776 -0.015842121 -0.008543119 0.019652357 0.052770134

network.2.bias f4 [27]
00000000: 73e0 253d e276 333c 2991 5d3d 90ad 9c3c
00000010: 49da 983c c0b7 a23d 89e1 5f3c 7826 83bb
00000020: 9b5b bfbb 56c5 693c 233b 933d 0db6 fb3c
00000030: 58fe 873d ff43 ea3c 4681 863c e8a4 993d
00000040: 6687 3c3d 5eec 953d e9fd 0b3d bf12 883d
00000050: 2634 7c3d ec82 4b3d ee49 c33c c74e 233d
00000060: 0b9e 833c 5339 1a3c 6078 8b3b
0.040497255 0.010953637 0.054093514 0.01912573 0.018658774 0.07945204 0.013664612 -0.0040023886
-0.0058397776 0.01426824 0.07189014 0.030726457 0.06640309 0.028596876 0.016419064 0.075021565
0.046027564 0.07320474 0.034177694 0.066442005 0.06157317 0.049685404 0.023838963 0.03987005
0.016066572 0.009413081 0.004256293
