code/experiments/target_mode/ac/0/models/0.pth (torch, 251795 bytes, 4 tensors)

network.0.weight f4 [1024, 33]
-0.0695673 -0.08085872 -0.015306204 0.09135568 -0.002997215 0.15987103 -0.16713603 0.0264542
0.028642004 0.04582187 -0.0029799703 0.067731805 0.11025997 -0.1754435 -0.18760897 0.087075025
0.115035534 -0.082526624 -0.0096639665 -0.030528964 0.10067582 0.09357617 0.12738144 0.05253305
-0.018217102 -0.029024808 -0.056082375 -0.1423166 -0.06335633 0.020538196 0.1627776 0.045010015
-0.14305457 -0.08020984 -0.120656 -0.09299494 0.04362263 -0.16934645 -0.08987444 0.031409632
0.067592256 0.08207438 -0.10067936 -0.036617823 0.013515267 -0.08554255 0.04869257 0.052886613
-0.020806206 0.103252776 -0.11708964 0.07902668 -0.15116802 -0.028248474 0.13120115 -0.03266322
-0.12689197 -0.08764046 -0.0028281251 0.086391926 -0.09620646 -0.20174344 -0.04771547 0.12038503
-0.026347034 -0.1486224 0.09184399 -0.12645689 -0.14293598 0.14386435 -0.002871279 -0.10932463
0.12469363 0.09729471 0.13551754 0.0290962 0.1230916 0.097869 -0.07693532 -0.091048226
-0.07686959 0.06469302 0.13156557 -0.05985394 0.120082594 0.008527217 -0.11277229 -0.17015539
0.050830554 -0.14420168 0.10017023 0.03206683 -0.013164736 -0.08743932 0.072804585 0.19604123
0.17757964 -0.0745469 -0.015640836 -0.15634835 0.06483022 0.12890767 -0.06298412 0.0013064394
-0.12941049 0.113898665 0.10502847 -0.034907155 -0.006512726 0.114870094 0.15721373 -0.081377104
-0.01807141 -0.0248875 -0.057807498 0.115184315 -0.08375631 -0.14182778 -0.14479421 -0.17562996
-0.07583508 -0.046748724 -0.22020932 0.0046071215 -0.07069911 -0.025159063 0.07067823 -0.0038173525
-0.1850616 -0.010838166 -0.049712803 0.07936922 -0.07959583 -0.011748684 -0.08857972 0.13691697
0.033186555 -0.047521953 0.07141278 0.028501555 0.15028836 -0.078339666 -0.0109740645 0.075543575
0.02754564 -0.16492477 -0.16843213 -0.073035106 -0.1392418 -0.1072395 0.19226547 -0.052879613
0.0110335 0.050354432 0.052716963 -0.037907954 -0.04746514 0.1266922 0.06871634 -0.040197387
0.014085879 0.04287795 0.10539933 0.15325592 -0.17238446 0.009627324 0.12504852 0.12900925
-0.14848089 0.1504468 0.09022715 -0.114926666 -0.053816162 -0.1714811 -0.07330551 -0.09726998
0.036395814 -0.0615811 -0.067981526 -0.035889395 -0.019423537 0.107599355 -0.13798398 0.04391696
0.12212058 -0.04483104 0.00789364 0.10693479 -0.101092175 -0.0801152 -0.09302795 -0.088776365
-0.14679612 0.06898452 0.18543294 -0.17608872 0.08500196 -0.1491552 -0.0971375 -0.08289362
-0.059869457 0.06159478 0.20523566 0.038544565 -0.026704041 0.14552164 -0.04381082 0.056090333
-0.051045638 -0.0818016 0.07332241 -0.066959426 0.083816774 -0.032867283 -0.0726107 0.07852801
-0.12335634 -0.11537664 0.16354707 -0.012703062 -0.08562856 0.026836842 0.033362895 0.034906104
0.0036079974 0.04686881 -0.07939537 0.0031358781 0.02717011 -0.089976415 -0.15789132 0.072731555
0.015203479 0.022243595 0.13346305 -0.16146779 0.12637958 0.03582237 -0.13410087 0.11308284
-0.14128363 -0.018227316 -0.09833892 -0.08555988 -0.13177902 -0.15491281 0.06486499 0.09101883
-0.09251253 0.0020738756 -0.07596406 -0.12695092 0.12236534 0.023003427 0.08323852 -0.08146261
00000000: 4d79 8ebd 4299 a5bd dfc6 7abc b018 bb3d
00000010: ec6c 44bb 3bb5 233e b525 2bbe 7ab6 d83c
00000020: a3a2 ea3c b7af 3b3d 9b4b 43bb f9b6 8a3d
00000030: fbcf e13d 76a7 33be 911c 40be 6454 b23d
00000040: c097 eb3d b803 a9bd 9d55 1ebc e117 fabc
00000050: 202f ce3d dda4 bf3d 4870 023e e52c 573d
00000060: 083c 95bc 6fc5 edbc a2b6 65bd 71bb 11be
00000070: f7c0 81bd b83f a83c 2caf 263e 6c5c 383d
00000080: e67c 12be 0e45 a4bd 7e1a f7bd 2274 bebd
00000090: a5ad 323d 2869 2dbe 1710 b8bd 63a7 003d
000000a0: cf6d 8a3d 9d16 a83d fb30 cebd 92fc 15bd
000000b0: 236f 5d3c ef30 afbd dc71 473d a29f 583d
000000c0: c771 aabc 3176 d33d b1cc efbd bdd8 a13d
000000d0: cacb 1abe 5869 e7bc 9859 063e dec9 05bd
000000e0: f8ef 01be d77c b3bd 1158 39bb 40ee b03d
000000f0: e407 c5bd d595 4ebe 4c71 43bd 6d8c f63d
00000100: bcd5 d7bc 7830 18be b418 bc3d ea7d 01be
00000110: cf5d 12be 2d51 133e 112c 3cbb 97e5 dfbd
00000120: 605f ff3d 7342 c73d 1cc5 0a3e 275b ee3c
00000130: 7317 fc3d 8b6f c83d 4490 9dbd 7e77 babd
00000140: ce6d 9dbd c67d 843d 20b9 063e 6829 75bd
00000150: dded f53d beb5 0b3c 29f5 e6bd 373d 2ebe
00000160: b333 503d 9ba9 13be 0d26 cd3d 8258 033d
00000170: e8b0 57bc 6313 b3bd 921a 953d 08bf 483e
00000180: 70d7 353e 0cac 98bd 3621 80bc c819 20be
00000190: b5c5 843d 5f00 043e d1fd 80bd d53c ab3a
000001a0: 2f84 04be b443 e93d 2b19 d73d cefa 0ebd
000001b0: b568 d5bb 0341 eb3d a3fc 203e 0aa9 a6bd
000001c0: 7e0a 94bc dfe0 cbbc 8ec7 6cbd c1e5 eb3d
000001d0: 6e88 abbd 4d3b 11be ef44 14be 57d8 33be
000001e0: 6c4f 9bbd 977b 3fbd 8d7e 61be 56f7 963b
000001f0: b2ca 90bd 611a cebc bfbf 903d 8c2c 7abb
00000200: ca80 3dbe 9092 31bc a79f 4bbd 548c a23d
00000210: 2303 a3bd 8d7d 40bc 4969 b5bd f633 0c3e
00000220: a0ee 073d 61a6 42bd dd40 923d 187c e93c
00000230: 31e5 193e 8c70 a0bd 90cc 33bc 97b6 9a3d
00000240: 65a7 e13c 0ae2 28be 7979 2cbe 6e93 95bd
00000250: 6795 0ebe 62a0 dbbd 3de1 443e 4b98 58bd
00000260: dac5 343c 7340 4e3d beed 573d 5f45 1bbd
00000270: cf6a 42bd 9abb 013e 27bb 8c3d 04a6 24bd
00000280: 75c8 663c caa0 2f3d 9bdb d73d 1fef 1c3e
00000290: 8d85 30be ecbb 1d3c b80c 003e 001b 043e
000002a0: 600b 18be ba0e 1a3e 03c9 b83d ac5e ebbd
000002b0: 566e 5cbd be98 2fbe 3321 96bd 7c35 c7bd
000002c0: c713 153d 773c 7cbd e639 8bbd c200 13bd
000002d0: 1c1e 9fbc 0d5d dc3d ac4b 0dbe 45e2 333d
000002e0: 5b1a fa3d c1a0 37bd 5354 013c a100 db3d
000002f0: 6a09 cfbd 7013 a4bd 7085 bebd 62d0 b5bd
00000300: b951 16be c247 8d3d 22e2 3d3e 9a50 34be
00000310: 8215 ae3d 24bc 18be 07f0 c6bd 21c4 a9bd
00000320: ad39 75bd cf4a 7c3d 4c29 523e e8e0 1d3d
00000330: 6fc2 dabc a003 153e f972 33bd fabe 653d
00000340: 3b15 51bd 9987 a7bd 0f2a 963d 0622 89bd
00000350: 21a8 ab3d d89f 06bd ebb4 94bd 4bd3 a03d
00000360: 40a2 fcbd 964a ecbd e278 273e 8120 50bc
00000370: 075e afbd f0d8 db3c 88a7 083d b4f9 0e3d
00000380: 2774 6c3b 82f9 3f3d 0a9a a2bd 4e83 4d3b
00000390: da93 de3c 8e45 b8bd 43ae 21be 48f4 943d
000003a0: 0318 793c 3338 b63c 8aaa 083e d057 25be
000003b0: a669 013e 7aba 123d bd51 09be fa97 e73d
000003c0: a8ac 10be 7451 95bc ea65 c9bd 053a afbd
000003d0: 14f1 06be 77a1 1ebe f0d7 843d 1568 ba3d
000003e0: 3677 bdbd dce9 073b 0c93 9bbd 6cff 01be
000003f0: ae9a fa3d af71 bc3c f578 aa3d ded5 a6bd

network.0.bias f4 [1024]
0.009362245 0.07408415 -0.05276057 0.12212257 -0.17284213 -0.14589055 -0.13482761 0.14678872
0.18903112 0.16663048 -0.13709114 -0.025396075 0.053243097 0.13632303 0.14873542 0.1231015
-0.041816585 -0.16816823 0.14725426 0.10408384 0.061808545 -0.1115062 0.0046463916 -0.08781097
0.05705148 -0.102960534 0.14685127 0.08386146 -0.16214474 -0.0037989432 -0.014368895 0.024622465
0.006652575 0.0150588425 0.072729714 0.14971647 -0.13661775 -0.03220016 0.15130861 -0.15490136
0.004636994 0.11309486 -0.08387576 -0.053197384 0.11725831 -0.031417314 -0.105968535 -0.16961293
0.09093704 0.10662374 -0.13441741 0.14969212 -0.014917618 0.07530558 -0.05787689 -0.032372948
-0.12647636 0.08425977 0.19181205 -0.061798163 -0.14345847 -0.12694612 0.053022888 -0.013189245
-0.11282661 -0.055322222 0.09500264 -0.040640835 0.11787541 -0.1268498 -0.09919403 -0.15381648
-0.04254056 -0.12683703 0.14841466 0.1474566 0.009170459 -0.16439489 0.12547609 0.07364913
-0.0136700785 0.11925857 0.08998717 -0.19137506 0.07127602 0.023672782 -0.07245549 0.04767569
0.00038616997 -0.1788291 -0.064013906 -0.21948992 0.06840447 -0.18774645 -0.08768212 0.13237682
0.06330123 0.01344536 -0.018894585 0.101798125 0.060923114 -0.14772817 -0.12685534 -0.0029403155
-0.16575308 0.17329668 -0.0019930538 -0.07738752 0.11897272 0.13245624 -0.022756176 -0.0058071506
0.079761826 0.103893295 0.11498575 -0.058830246 0.08106692 -0.10997641 -0.11251424 -0.02843571
0.008119922 -0.009439266 0.022257881 0.04923672 -0.121829726 0.21191093 -0.012747413 0.04995578
0.07427936 0.073954694 0.09784839 -0.20856434 -0.1360832 0.17240708 0.11584835 0.1687766
-0.16052501 0.062516496 -0.07079358 -0.07570537 0.11998087 -0.1656866 -0.09511134 0.12062356
0.16181308 -0.1482457 0.14826854 0.09863804 0.092082545 -0.15211087 -0.0072381105 0.14272667
0.02009677 0.032185376 0.16006969 -0.10539553 0.19632237 -0.1567583 -0.10411414 0.14020438
-0.025158355 0.047165874 -0.028485999 0.08774698 0.07540809 -0.030429605 0.04702152 -0.13606915
-0.15134472 0.12537341 0.076741725 -0.11918028 0.0140803065 0.11662551 -0.077760786 -0.0673638
-0.16448186 -0.17015496 -0.17492878 0.062803455 0.020316489 0.089661814 -0.16342789 0.15074363
-0.115501635 0.052083686 0.040714364 0.041218355 -0.09807399 -0.102612 -0.13404706 -0.1073364
0.056293257 -0.03133539 0.13007678 0.045793995 -0.051643804 -0.028222391 0.12504928 0.05322848
0.00044882216 0.0130365975 -0.089272894 0.21079654 -0.050192695 -0.0088342875 -0.003401327 0.030719917
0.058878783 0.15791677 0.16497646 0.20010482 0.027034253 -0.106882244 -0.1313813 -0.008944053
0.13778202 0.053383425 -0.023235885 0.10572939 -0.121957146 0.09737051 -0.053494606 -0.050170295
-0.14039272 0.070439585 0.1680559 -0.12794614 0.17431965 0.10508749 -0.18825805 0.17769778
0.13747773 0.1483586 -0.16778356 0.1774469 -0.17042002 0.15838082 0.022030873 0.028855419
0.10993032 0.06747163 0.100345664 -0.118231386 0.17007087 0.17454521 0.105791174 -0.013918242
-0.0030799285 0.076683454 0.013019237 0.15796332 -0.11774138 -0.10044744 -0.12127909 -0.0043816115
00000000: 1a64 193c 6eb9 973d 781b 58bd 661b fa3d
00000010: 87fd 30be 5564 15be 4010 0abe c84f 163e
00000020: 6091 413e 2ea1 2a3e 9f61 0cbe 6e0b d0bc
00000030: 6f15 5a3d 4498 0b3e 194e 183e a41c fc3d
00000040: de47 2bbd 4b34 2cbe d2c9 163e e929 d53d
00000050: f52a 7d3d 5d5d e4bd c240 983b 3dd6 b3bd
00000060: d0ae 693d f9dc d2bd 2e60 163e 8fbf ab3d
00000070: 4509 26be b1f7 78bb 846b 6bbc 0db5 c93c
00000080: d8fd d93b 5db9 763c 51f3 943d 464f 193e
00000090: 86e5 0bbe 51e4 03bd a5f0 1a3e 769e 1ebe
000000a0: edf1 973b 479e e73d 0ec7 abbd 80e5 59bd
000000b0: 2025 f03d 71af 00bd 0806 d9bd 03af 2dbe
000000c0: 333d ba3d 8c5d da3d b8a4 09be e448 193e
000000d0: 0669 74bc d039 9a3d 5110 6dbd 7f99 04bd
000000e0: 0583 01be 6390 ac3d 616a 443e 1220 7dbd
000000f0: c7e6 12be 2afe 01be 872e 593d b417 58bc
00000100: a311 e7bd 8e99 62bd be90 c23d 0177 26bd
00000110: aa68 f13d eae4 01be 3d26 cbbd 1182 1dbe
00000120: 033f 2ebd 91e1 01be 03fa 173e ddfe 163e
00000130: b13f 163c 2257 28be ce7c 003e 5bd5 963d
00000140: 77f8 5fbc d63d f43d 324b b83d d3f7 43be
00000150: 29f9 913d 6ced c13c 8b63 94bd 9647 433d
00000160: db76 ca39 fa1e 37be b919 83bd f7c1 60be
00000170: a517 8c3d 9b40 40be af92 b3bd ca8d 073e
00000180: 13a4 813d ed49 5c3c d1c8 9abc 897b d03d
00000190: 848a 793d 0e46 17be 5ee6 01be 4fb2 40bb
000001a0: 2dbb 29be af74 313e e59d 02bb 597d 9ebd
000001b0: f8a7 f33d 9ca2 073e 296b babc e949 bebb
000001c0: 2b5a a33d 02c6 d43d a67d eb3d fcf7 70bd
000001d0: 6a06 a63d 503b e1bd de6d e6bd 02f2 e8bc
000001e0: 6c09 053c 27a7 1abc 2956 b63c 71ac 493d
000001f0: dd81 f9bd 2eff 583e 86da 50bc 6f9e 4c3d
00000200: c71f 983d 8f75 973d bd64 c83d e491 55be
00000210: 6559 0bbe 7b8b 303e e641 ed3d c6d3 2c3e
00000220: ab60 24be a608 803d 39fc 90bd 6b0b 9bbd
00000230: 88b8 f53d c0a9 29be bcc9 c2bd 7c09 f73d
00000240: 54b2 253e b9cd 17be b5d3 173e be02 ca3d
00000250: c695 bc3d f4c2 1bbe ac2d edbb f126 123e
00000260: fba1 a43c d0d4 033d 4fe9 233e 9dd9 d7bd
00000270: bb08 493e 3f85 20be cb39 d5bd bd91 0f3e
00000280: e518 cebc 0131 413d 785b e9bc b0b4 b33d
00000290: 8f6f 9a3d 8247 f9bc a399 403d b655 0bbe
000002a0: 1cfa 1abe e361 003e c42a 9d3d ca14 f4bd
000002b0: 16b1 663c 5bd9 ee3d 0c41 9fbd 08f6 89bd
000002c0: ef6d 28be 1a3d 2ebe 8820 33be 199f 803d
000002d0: c46e a63c 9da0 b73d a459 27be 8a5c 1a3e
000002e0: 1f8c ecbd b455 553d 1bc4 263d 94d4 283d
000002f0: 04db c8bd 3e26 d2bd a243 09be 30d3 dbbd
00000300: c293 663d 8a59 00bd d932 053e 7c92 3b3d
00000310: 7488 53bd a532 e7bc eb0c 003e 1b06 5a3d
00000320: e44f eb39 7497 553c b5d4 b6bd 0cdb 573e
00000330: db96 4dbd b0bd 10bc cce8 5ebb 56a8 fb3c
00000340: e12a 713d efb4 213e 97ef 283e 47e8 4c3e
00000350: f076 dd3c 14e5 dabd d288 06be 148a 12bc
00000360: bb16 0d3e 94a8 5a3d 2f59 bebc a788 d83d
00000370: abc4 f9bd 316a c73d 291d 5bbd 5e7f 4dbd
00000380: 1cc3 0fbe a142 903d d916 2c3e 5004 03be
00000390: da80 323e 1c38 d73d b8c6 40be 68f6 353e
000003a0: f6c6 0c3e 51eb 173e 74cf 2bbe a4b4 353e
000003b0: 9682 2ebe 952e 223e 177a b43c 3362 ec3c
000003c0: 2623 e13d 912e 8a3d 0782 cd3d 4c23 f2bd
000003d0: 0f27 2e3e fbbb 323e 0ba9 d83d 5709 64bc
000003e0: a0d8 49bb 370c 9d3d a34e 553c 23c1 213e
000003f0: 6522 f1bd 63b7 cdbd 2c61 f8bd 9f93 8fbb

network.2.weight f4 [27, 1024]
0.012216016 0.020215748 0.009468018 -0.017596105 -0.024453245 -0.011191913 -0.006534428 -0.0036164687
0.018103266 -0.003366022 0.006222209 -0.0022067293 0.013513482 0.0034226447 0.010769999 0.0067656897
-0.017957794 -0.008249409 -0.0059106722 -0.0019964878 -0.004397086 0.023464514 -0.0013363549 0.02419797
-0.012701876 -0.023372643 0.0065781795 0.006208548 -0.0008318418 0.0045279465 -0.006694574 0.019310199
0.0051792813 0.01301901 0.010586059 -0.013752651 -0.010429768 0.000754022 0.012242057 -0.009233282
-0.0015011599 -0.00028288088 0.011104985 -0.0030579544 0.0154061625 0.00304907 0.0059770755 -0.020448316
-0.0035779458 -0.012347127 -0.0035969622 0.013856311 -0.0067716846 0.004378169 -0.005504458 -0.011528768
0.0021415236 0.008148393 0.023843598 0.0039868 -0.015273975 -0.028812038 0.009514949 0.012037451
0.0027252834 -0.0010983732 0.008110145 0.017726976 -0.005173521 -0.0066874553 -0.03122589 -0.013974142
0.023154378 -0.009200501 0.004489485 -0.0044428916 -0.016409807 -0.0060269004 0.0013681602 0.050784137
-0.009628909 0.013139447 0.005922083 -0.009842607 0.013554955 0.007790351 -0.01033709 0.023385294
-0.0056775943 -0.011781466 -0.03895465 -0.015037584 0.0075252736 -0.007339051 -0.011613654 -0.013217298
-0.001794479 0.018251827 0.0051786858 -0.0014408028 0.023646763 -0.012519058 -0.08936876 -0.00516209
-0.015659112 0.034173954 -0.0027308422 -0.01230153 0.021903254 0.011078769 -0.004350818 0.003915994
-0.031878468 -0.024023203 0.009564395 -0.013355811 0.010312823 -0.0039835493 -0.020998131 0.012608054
0.014479201 0.00092047005 -0.0050130794 0.028486826 0.024302093 -0.01533711 -0.006366876 -0.017024785
0.0034617507 -0.015611368 -0.022857489 -0.013911776 -0.01456 -0.005874167 0.004738109 -0.01283918
-0.023633517 0.010485472 0.012059059 -0.001953489 0.027148478 -0.013559055 0.013682412 0.018620672
0.03703132 -0.03019512 0.0073999213 0.006361933 -0.016622834 -2.304544e-05 0.03311767 0.015604995
0.011277219 -0.005340955 0.005342396 0.016180791 0.010460595 0.02812454 -0.012148433 0.018903458
-0.011562983 0.024274426 0.000563025 -0.016392788 -0.011454637 -0.000441803 -0.018784126 -0.004024256
-0.007179472 0.009291189 0.011752419 -0.024459587 -0.00958804 -0.0062851245 -0.010304326 0.0072127692
-0.01961728 0.018600188 -0.026319578 0.011525021 0.014462815 -0.013798075 -0.029422825 -0.0073168036
0.00036355373 0.009875924 0.006036108 -0.0010113448 -0.0007839743 0.011838607 -0.005866004 -0.0066553187
-0.0014621654 -0.019321453 -0.0052661095 0.00080735603 -0.009055433 0.005841664 -0.008798688 0.05784945
0.008838716 0.0019238641 -0.03745601 0.022666804 -0.0038220163 0.0034874217 -0.013660445 0.0031493441
-0.009985983 -0.0056248596 -0.0025286777 0.0067652375 0.010314448 -0.0095622325 -0.022026679 0.0067047263
0.013693381 0.00978748 -0.0017736952 0.007056145 -0.0062679676 0.0203758 -0.004582196 -0.020690253
0.009865822 0.008799671 -0.006367421 0.0019868799 0.026236571 0.017739208 -0.0042257737 0.02112817
0.002615659 -0.0049141883 -0.009367977 -0.0016670091 -0.0073039546 0.012651975 0.01760919 -0.0015337368
0.011118284 -0.004312769 0.0030720765 -0.010777737 0.00074118946 0.028075386 -0.025512584 0.017007558
-0.0037612289 0.01499638 0.025655616 -0.008228221 -0.01766377 0.014337285 0.0031026148 -0.01742958
00000000: af25 483c 7f9b a53c bf1f 1b3c b525 90bc
00000010: 2c52 c8bc 495e 37bc c11e d6bb 4702 6dbb
00000020: 4d4d 943c 7a98 5cbb ace3 cb3b c69e 10bb
00000030: a767 5d3c 734e 603b a674 303c b8b2 dd3b
00000040: 391c 93bc 8728 07bc 50ae c1bb 82d7 02bb
00000050: 6e15 90bb a738 c03c a128 afba d23a c63c
00000060: 881b 50bc fc77 bfbc c58d d73b 1371 cb3b
00000070: f50f 5aba 2b5f 943b 285e dbbb 6c30 9e3c
00000080: f6b6 a93b b04d 553c 2671 2d3c cd52 61bc
00000090: 9ee1 2abc 8fa9 453a e992 483c 3147 17bc
000000a0: 91c2 c4ba a14f 94b9 aff1 353c f667 48bb
000000b0: 216a 7c3c e8d2 473b 58db c33b 3a83 a7bc
000000c0: f87b 6abb 9b4b 4abc 03bb 6bbb 9505 633c
000000d0: 02e5 ddbb be76 8f3b be5e b4bb 28e3 3cbc
000000e0: ce58 0c3b d680 053c a653 c33c b4a3 823b
000000f0: b23f 7abc 3907 ecbc 97e4 1b3c bb38 453c
00000100: ab9a 323b 4af7 8fba 6ae0 043c 2a38 913c
00000110: a486 a9bb 7122 dbbb 70cd ffbc cdf3 64bc
00000120: 40ae bd3c b3bd 16bc 881c 933b ad95 91bb
00000130: dc6d 86bc 4e7d c5bb d753 b33a 0703 503d
00000140: 92c2 1dbc d646 573c 080e c23b e342 21bc
00000150: 9a15 5e3c 3346 ff3b e65c 29bc 8492 bf3c
00000160: 1d0b babb 0d07 41bc e98e 1fbd 3360 76bc
00000170: 9296 f63b 6c7c f0bb 3247 3ebc 5e8d 58bc
00000180: b934 ebba db84 953c f7b1 a93b 52d9 bcba
00000190: dbb6 c13c bc1c 4dbc f806 b7bd c026 a9bb
000001a0: 8a47 80bc fdf9 0b3d eef7 32bb 5b8c 49bc
000001b0: 746e b33c ba83 353c 4f91 8ebb bd51 803b
000001c0: ff92 02bd 4fcc c4bc fbb3 1c3c 55d2 5abc
000001d0: 1df7 283c 6f88 82bb 4604 acbc 0392 4e3c
000001e0: 2c3a 6d3c b34b 713a c244 a4bb 345d e93c
000001f0: 2f15 c73c 8048 7bbc 3aa1 d0bb 9077 8bbc
00000200: 8ade 623b d3c6 7fbc a13f bbbc 38ee 63bc
00000210: 118d 6ebc 167c c0bb 2442 9b3b 6d5b 52bc
00000220: 149b c1bc 42cb 2b3c 5c93 453c 1b06 00bb
00000230: 7c66 de3c cc26 5ebc 322c 603c 618a 983c
00000240: 27ae 173d c25b f7bc 0a7b f23b c377 d03b
00000250: 9c2c 88bc b551 c1b7 65a6 073d 18ac 7f3c
00000260: 16c4 383c 2e03 afbb 440f af3b 948d 843c
00000270: ea62 2b3c 6f65 e63c 390a 47bc 6ddb 9a3c
00000280: aa72 3dbc 29db c63c f897 133a 2b4a 86bc
00000290: 3bac 3bbc cba1 e7b9 2be1 99bc e8dd 83bb
000002a0: c741 ebbb 123a 183c 388d 403c 795f c8bc
000002b0: 2817 1dbc 72f3 cdbb 7ad3 28bc 1859 ec3b
000002c0: 6bb4 a0bc 6c5f 983c 289c d7bc 71d3 3c3c
000002d0: 71f5 6c3c 5211 62bc 2308 f1bc ccc1 efbb
000002e0: 5b9b be39 a1ce 213c 8bca c53b 1a8f 84ba
000002f0: a083 4dba b7f6 413c 9c37 c0bb dc14 dabb
00000300: 21a6 bfba 0648 9ebc 548f acbb bfa4 533a
00000310: 3d5d 14bc 6e6b bf3b 5f28 10bc 8bf3 6c3d
00000320: 43d0 103c 2b2a fc3a 796b 19bd bcaf b93c
00000330: cb7a 7abb 3a8d 643b 0fd0 5fbc 3a65 4e3b
00000340: 409c 23bc be50 b8bb 2cb8 25bb edae dd3b
00000350: eefd 283c e9aa 1cbc 4b71 b4bc 52b3 db3b
00000360: 345a 603c ab5b 203c 567b e8ba 3c37 e73b
00000370: 8663 cdbb 26eb a63c 3f26 96bb 9b7e a9bc
00000380: 42a4 213c 7f2c 103c cca5 d0bb 5036 023b
00000390: 14ee d63c d151 913c 5c78 8abb fc14 ad3c
000003a0: 7a6b 2b3b 3307 a1bb 257c 19bc 8b7f daba
000003b0: 0356 efbb 3b4a 4f3c 2641 903c ab07 c9ba
000003c0: 7729 363c 2152 8dbb e454 493b 1b95 30bc
000003d0: 624c 423a 5afe e53c c4ff d0bc 6f53 8b3c
000003e0: f37e 76bb 60b3 753c ba2b d23c a9cf 06bc
000003f0: 9cb3 90bc efe6 6a3c 3d55 4b3b 7bc8 8ebc

network.2.bias f4 [27]
0.034162704 0.0083143925 0.01861497 0.00046733266 0.025766058 0.022034958 0.0018105942 0.040807337
0.020014718 -0.0012573707 0.03354554 0.014033361 0.0057089482 0.032441363 0.02873255 0.008702172
0.045866426 0.015347539 0.011881666 -0.009955843 0.030620448 0.035824694 0.007338369 0.024944752
0.016770497 -0.0014340839 -0.00038757702
00000000: 31ee 0b3d 1739 083c 6c7e 983c 5404 f539
00000010: 5713 d33c a882 b43c 7651 ed3a 9825 273d
00000020: e8f5 a33c 5cce a4ba 0c67 093d 2fec 653c
00000030: 2112 bb3b 3ce1 043d 8660 eb3c 8e93 0e3c
00000040: 6fde 3b3d 3f74 7b3c 52ab 423c d51d 23bc
00000050: bcd7 fa3c eabc 123d b376 f03b f058 cc3c
00000060: 4862 893c dff7 bbba b533 cbb9
