code/experiments/old/dqn/10/models/0.pth (torch, 55187 bytes, 4 tensors)

network.0.weight f4 [256, 24]
00000000: f311 003e eed8 d53d f2d9 a13d f91f e8bd
00000010: 8634 123e 5875 f0bc 1ffa 123d fcce 3cbe
00000020: 5598 3ebe ae91 4d3d f079 edbd 1886 f73c
00000030: 3ad6 853d 42bc 023c 6dc9 853c 616a 41bd
00000040: f140 103e c481 cfbc b60c 19be c9f8 51be
00000050: cf1c 9bbd c0cb af3c a0d7 3abd 8f2f da39
00000060: 8585 9bbd dfdf 573e 2f56 54be 2a9f 92bd
00000070: b2e6 e83d d685 013e 22f3 213d 2ff0 b73d
00000080: e758 0bbc ddda 28be eee9 f5bd 66ed 563d
00000090: 499c f13d 7ec7 503d a5b0 483d 0d35 263d
000000a0: 0faa ccbb e65f 47bb e6c6 013e 03b1 453e
000000b0: 1d43 32bd b5ce 19be 1abc f8bd f701 b53d
000000c0: c3ab 163e 42ad 1b3e 0c85 013e e43e 003e
000000d0: ad96 e0bd 051b 3b3e 9b9c e6bb 54ab 0bbe
000000e0: b939 79bd d010 0f3e 5d74 f1bc 2b52 ba3d
000000f0: d3ce 883c e774 07bd d261 8f3c 05d1 3fbe
00000100: 660f 3a3e 1501 05bd 6a6c 313e ce67 22be
00000110: ac88 29be f9ae 78bc 5d83 183e 89f7 e93a
00000120: 30b4 34be acc5 2fbd 0575 ca3c a6dc b03b
00000130: c71a 48be 6a66 e43d a620 8e3d b836 303d
00000140: b6d5 243e 88c1 77bd 76ba 1cbe 175e 243e
00000150: f43d 16be 065b be3d be07 923d da2f 34be
00000160: d090 4f3e c352 0f3e 75a3 a9bd 7a5d ba3c
00000170: 1bc0 353e 55b1 23be 380c 6fbd b2d6 ad3d
00000180: 7807 373e 6530 c8bd 9065 e93d 7cd5 c03d
00000190: 3464 523d 0a32 64be 654d c93d 62e2 1fbe
000001a0: 4737 9fbd 3061 72bd ba73 8abc 4f5b 7dbd
000001b0: 2b1a 02bd 77da 0cbe 6dfb 083e 0923 ab3d
000001c0: 0437 383e df34 a83d cd89 3b3e f0a9 38bd
000001d0: 59fb e5bd 3ede 5b3e 0aae 7b3e 075d d5bc
000001e0: c03c 0b3d 6cd8 c6bd 8134 b5bc 0f51 d7bc
000001f0: bd21 04be 6938 b7bd 1d79 183e f1bb 343c
00000200: 028e 1cbd 2b27 06be 212c a2bd 680a 04be
00000210: f1e0 d6bd 6be9 9f3d 59b9 183d 4438 cf3d
00000220: db17 e5bd 1bd2 1abe b61b 6c3c 9d2f d53d
00000230: 6aae 3bbe b905 063e 7ba3 013c 7db1 ecbd
00000240: ff45 1b3c b436 0f3e 7d66 06be 13e6 2f3e
00000250: 37db 5e3d a0a8 1d3e aacf b93d a39e 493d
00000260: d35a a63c 7cb6 e0bc 7a4f 183c 9c5c 9cbd
00000270: 76eb 57bd 3ff1 debd a36a 2abd 8bc4 043e
00000280: e248 47bc e67e 48be 5bb2 c6bd dbb6 323e
00000290: 3323 153e 2fb6 afbb bfd3 3dbe d0d9 363d
000002a0: b47e ffbd fd8a 78bd a442 3a3e b266 e33d
000002b0: 3c91 aebd d5a3 373e 2f23 68bc 6758 063e
000002c0: 69f0 403e fa82 07be a82c 7ebd 46db 333e
000002d0: 8cca 2c3e b9cf 58bd c7fa 563d c45b 44be
000002e0: 16fb 2f3e eeed 29bd c734 213e 4eea 2bbe
000002f0: b984 7cbd 89c0 01be 7d60 12be 4bec 5dbd
00000300: 492f 173e 0e6c 113e 7169 adb9 fe0a 603c
00000310: 3416 f5bd 43ce 99bb c230 c2bd 282a f5bd
00000320: d538 513e b51e 013e 9292 4e3d 7e75 163e
00000330: 3b8d 90bd 5687 d43d 9da6 febd 8905 1b3e
00000340: d7e9 bcbd e9b5 e5bd 07fa 9bbd f31d b63d
00000350: e9a0 8e3c 82fc c1bd bec8 523d 400b 303d
00000360: 0387 363d cd65 c8bd 0906 3dbe 441b 96bd
00000370: efda 943d 2ddc 0b3e f4da 3ebd c037 41be
00000380: b5a6 bc3c 7045 0fbe eb98 173e c9ec 0cbd
00000390: 78b1 5a3e c14d fabd 10c2 1dbe c85e c3bd
000003a0: 0eb2 e73d d7c8 f53d 266e b7bd 1322 993b
000003b0: 2cf1 523d d87d 073c 61f7 b2bd df83 203d
000003c0: 6ad5 a7bc 545d e0bc 9e5e b0bd 6e8d 10be
000003d0: ac84 463e a501 12be fcad e73d aa58 aebc
000003e0: d923 a7bc 1b31 bf3c e8b1 6f3d 1440 fa3d
000003f0: b37b 7d3d 5edd 83bd 3a5f 9b3d 578c dfbd
0.12506847 0.10441767 0.07902898 -0.11334223 0.14277849 -0.029352829 0.035883065 -0.18438333
-0.18612798 0.05018776 -0.11595523 0.030215308 0.06535001 0.0079794545 0.016331399 -0.04722059
0.14087273 -0.025330432 -0.14946255 -0.2050506 -0.07573854 0.02145946 -0.045615792 0.00041615634
-0.07593826 0.21081494 -0.20736001 -0.071592644 0.11372127 0.1264871 0.03953851 0.08981358
-0.008505083 -0.1648974 -0.12007509 0.052472495 0.11797387 0.0509715 0.048996586 0.040577937
-0.0062458585 -0.003042215 0.1267353 0.19305806 -0.043521035 -0.15020259 -0.121452525 0.088382654
0.1471396 0.15202811 0.1264841 0.12523991 -0.10966239 0.18272026 -0.007037712 -0.13639575
-0.060846064 0.13971257 -0.029474432 0.090977035 0.016700184 -0.03307047 0.017502699 -0.18732078
0.18169937 -0.032471735 0.17326513 -0.15859911 -0.16556042 -0.0151784355 0.14893861 0.001785026
-0.17646861 -0.042913124 0.024714002 0.005397397 -0.19541465 0.111523464 0.06939821 0.043020934
0.16097149 -0.0604873 -0.15305504 0.16051517 -0.1467207 0.09294705 0.07130383 -0.17596379
0.20270085 0.13996415 -0.0828313 0.022749651 0.17749064 -0.15985616 -0.058361262 0.084882155
0.17873943 -0.097748555 0.11396325 0.09415719 0.051365092 -0.22284713 0.09829215 -0.15613702
-0.07774215 -0.059174716 -0.016900886 -0.061854657 -0.031763237 -0.13755213 0.13377161 0.08356292
0.17989737 0.08213209 0.18314286 -0.04508394 -0.112295814 0.21471497 0.2457811 -0.026045335
0.033993483 -0.09709248 -0.022119762 -0.026283769 -0.12903495 -0.08946306 0.14889951 0.011031137
-0.038221367 -0.13100879 -0.07918573 -0.12894595 -0.10492123 0.07808193 0.037286136 0.10118154
-0.11186191 -0.15119211 0.014410904 0.10409472 -0.18328252 0.1308812 0.007912512 -0.11557291
0.009477138 0.13985711 -0.13125034 0.1717761 0.05440828 0.15396357 0.09072812 0.049223553
0.02030698 -0.027430765 0.009296292 -0.07634851 -0.052714787 -0.10885858 -0.041605603 0.129656
-0.012163373 -0.19579658 -0.09701987 0.17452566 0.14564209 -0.005362294 -0.18537806 0.044641316
-0.124753386 -0.060679425 0.18189484 0.11103572 -0.08523795 0.1793359 -0.014168545 0.1311966
0.18841709 -0.13233557 -0.062054306 0.17564115 0.1687414 -0.052932475 0.052485254 -0.19175631
0.17185625 -0.041486673 0.15742789 -0.16788599 -0.06165001 -0.12671103 -0.1429462 -0.054180425
0.14764132 0.14201376 -0.0003307569 0.013674496 -0.119671255 -0.0046937778 -0.09481956 -0.11970931
0.20431836 0.1260937 0.05043275 0.14693257 -0.070581876 0.10377376 -0.12434123 0.1513883
-0.09224289 -0.11216337 -0.07616048 0.08892431 0.017410712 -0.0947199 0.051460974 0.04297948
0.04456235 -0.09785042 -0.18459333 -0.07329419 0.07268321 0.13658209 -0.04659553 -0.18868923
0.02302871 -0.13991332 0.14804427 -0.034405503 0.21356761 -0.12221862 -0.1540606 -0.095395625
0.11313258 0.12001198 -0.08956556 0.0046732514 0.05149953 0.00826975 -0.0873859 0.039188262
-0.020487506 -0.027388252 -0.08611797 -0.14116451 0.19386548 -0.1425844 0.11312482 -0.021282513
-0.020402836 0.023338845 0.058519274 0.12219253 0.061885547 -0.06438707 0.075865224 -0.109154396

network.0.bias f4 [256]
00000000: 6680 813e 3273 903d 09ce 9b3e ece9 283c
00000010: 0c23 803e acaf 36bc 0323 44be e65d 6b3d
00000020: e6d4 2dbd 0fed 21be a8cd d23c 8084 2bbe
00000030: 88b2 1cbe 0bc2 383e dceb ffbd 6337 7c3d
00000040: 6bfd 7c3e f758 8f3e 70f7 b23c c113 683e
00000050: 6570 e83b 2844 7d3e 271c 56bd 069b 663e
00000060: 57a6 323e 3a61 c3bd dc79 f8bd b9b8 783e
00000070: 78a7 1dbe 79a1 9a3c a6ea 1dbe 92a3 47bd
00000080: 1967 783e 8ebb 8c3c 26ac 943e 4cf7 3d3e
00000090: deb3 aebd c004 1c3d b4fc f23d 5b97 13be
000000a0: bbfd 943e d2d1 763d b5bf 5c3d 8c3c 9c3d
000000b0: e951 243e d909 173d c417 e3bd 058b b7bc
000000c0: 1b57 873d 91cc 1cbe 3035 553e e4ac e4bd
000000d0: fcdb 403e 4b44 54be eca7 003e af72 193e
000000e0: b75e 463e 880d a83e 5a6a 163e db94 7ebd
000000f0: 0735 34be 9e63 713e e2db f5bd 5436 413e
00000100: 4d91 123e 9c1c 303e 852e 43bd 1a20 f23d
00000110: c4ea 233c 5438 21bd 7563 a4bd 5014 fe3c
00000120: 4d15 74bd 1027 fabd 5524 2e3e d749 5e3e
00000130: a387 17be 88ca 373e e872 e6bd 2961 3c3d
00000140: 73b8 2abe edd2 8d3c 6918 343e 89ce 863d
00000150: 858c bebd 8940 ea3d be2a 483d 3014 45be
00000160: 4c92 c03d 8592 1cbe e6ce b53d 30ed 0f3e
00000170: 59ce 443d d642 ebbd b1e6 813e 5cc3 37be
00000180: 7f31 453e 93fa 0e3e d47a 493d 6737 04be
00000190: 35be 433c 0d9b 9e3e 3589 63bd 1e4d 0bbe
000001a0: ec73 cc3c 0771 1d3e 6249 933d de9e 7a3e
000001b0: 3a63 0dbe 36fd a2bd 8c4f 63bd 0d07 013e
000001c0: 4bac 573e 6d79 29be 904f 75bd 627c 233d
000001d0: da1e 1c3e 56c5 28be 1175 efbc a418 c1bd
000001e0: fc40 e03d 598f 06be 50dc acbc bc14 2fbd
000001f0: da29 86bd 7348 0c3e cbd7 513e 1294 2fbe
00000200: 948e 303e 7535 81bd 308c 0b3e e88a 393e
00000210: b9d4 2b3e d64b 853d 8d99 3fbe ff09 23bb
00000220: 7787 503e e01c c33c 784f 58be 0af2 2abe
00000230: 69a0 7e3e 42df 763c 35ad 26bc 8846 f23d
00000240: 597c 1e3e ba3c f53d ac02 993e a7b5 1dbd
00000250: 9408 3cbe 195a 6f3d 9dbc 4d3e 3c78 05be
00000260: 85e3 2b3d a0bc c33d 9c49 c73d 9754 ac3d
00000270: b3a3 2e3e a5b5 263e 102e 24be 4da0 99bd
00000280: 440e c1ba 6ba7 23be a40c 64bd f2ea 3b3e
00000290: 51ca 1c3e 6aea 68bd 0290 14be 1371 8a3d
000002a0: fd12 89bd 6f3a 62bd a2c5 653e 55cd 3abe
000002b0: f72d 39bd f435 963e 5a7a 883e 1e14 c6bd
000002c0: 2877 923e 63a1 81bd 6c6a d0bd c3f9 613e
000002d0: dfcc ce3d 2e0e 6b3e 5cda 03bd 4ed3 793d
000002e0: 490a f23d 397c a6bd 309b 9d3d 0f2b 3d3e
000002f0: aef4 5abe 2d76 253e 8615 bb3d 2351 17be
00000300: e571 423e 3b2d 0f3e 0b3a 0abe c293 e63a
00000310: 35e9 e5bd 0683 9c3d 6d73 a43e e1c2 52bc
00000320: 9de0 01be db43 7e3e c8fc 8cbc d82f 5c3e
00000330: eb72 bcbd 7e97 26bd 8736 843e de3a 923e
00000340: dd94 30be f53d bb3d ee1a 493d dccf 3a3e
00000350: 392b 36be 84bd 9b3e 2bbd 1fbb c4df 17be
00000360: 4a35 46be 4da5 f03d 2b08 f7bd d568 c13c
00000370: ac0f ebbd 9971 66bd 5f02 6c3d ce88 823e
00000380: 14bf 0b3e 37ed 8d3e 54e0 0ebd efd4 a5bd
00000390: b08c b63d 7f87 fa3d 496a 863e 9537 8d3d
000003a0: 42e9 fcbd 1cd2 d4bd 8ffa 643e 37f9 a33d
000003b0: 8003 f5bd 44b8 13be 7958 033d d7b7 8abb
000003c0: d483 713e 4eb6 613e 15f4 41bd 2121 58b9
000003d0: 2428 4ebe f270 f0bc 7a2c 0bbe f914 26bd
000003e0: 50a3 c2bd 62cb 19be 2b45 bdbd cb19 7fba
000003f0: a217 5a3e 8c8f 92bd 1d62 87bd 659e c73d
0.25293273 0.07053222 0.3043063 0.010309678 0.2502674 -0.011150282 -0.19153981 0.057462595
-0.042439364 -0.15813087 0.02573283 -0.16749763 -0.1530248 0.18042772 -0.124961585 0.06157626
0.24706046 0.27997562 0.021846503 0.22663786 0.0070934766 0.24733031 -0.052272942 0.22520074
0.17446266 -0.09540029 -0.12132618 0.24289216 -0.15395916 0.018875824 -0.15421543 -0.048739977
0.24258079 0.017179277 0.2903759 0.18551368 -0.08530401 0.038090467 0.118646055 -0.14413206
0.2909983 0.060258694 0.053893764 0.07628736 0.16046871 0.036874626 -0.11088517 -0.022405157
0.06608411 -0.15312411 0.2082107 -0.11165789 0.18833917 -0.20729177 0.12564057 0.14985155
0.19372068 0.32822824 0.14689007 -0.06215368 -0.17598353 0.23573157 -0.1200483 0.18868381
0.1431324 0.17198414 -0.047651786 0.11822529 0.010004703 -0.03936036 -0.080267824 0.031015545
-0.059590627 -0.12214482 0.17006047 0.21707855 -0.14797835 0.17948353 -0.112523854 0.045991097
-0.16671924 0.017312491 0.17587437 0.06582362 -0.09304146 0.1143809 0.048868887 -0.19245982
0.09402904 -0.15290268 0.08877353 0.14055324 0.04804835 -0.11487357 0.25371316 -0.17945617
0.19257163 0.13962774 0.049189404 -0.1291176 0.011947204 0.3097767 -0.055550773 -0.13603637
0.02495762 0.15375148 0.07191731 0.24474666 -0.13807383 -0.079584524 -0.055495784 0.12600346
0.21061818 -0.16550227 -0.05989033 0.039913543 0.15246144 -0.16481528 -0.029230626 -0.09428528
0.10949895 -0.1314062 -0.021101147 -0.042744383 -0.06550951 0.13699512 0.20492475 -0.17146328
0.17241889 -0.06309024 0.13627696 0.18119395 0.16780366 0.06508605 -0.18710919 -0.0024877784
0.20364176 0.02381748 -0.21124065 -0.16693893 0.24865879 0.015067877 -0.010173132 0.11829859
0.15477122 0.11974473 0.2988485 -0.038503315 -0.18362647 0.058435533 0.20091482 -0.13034147
0.041965026 0.09557462 0.09730837 0.08414572 0.17054634 0.1628023 -0.16033196 -0.07501278
-0.0014728983 -0.15981834 -0.055676118 0.18351343 0.15311553 -0.05686418 -0.1450806 0.067598484
-0.06693075 -0.055231508 0.22438672 -0.1824239 -0.04520985 0.29338038 0.26655847 -0.09671806
0.28606534 -0.0632961 -0.10176548 0.22067933 0.1009767 0.22954628 -0.032190666 0.06099253
0.11818368 -0.08129162 0.07695615 0.18473457 -0.213824 0.16158362 0.09134965 -0.14777045
0.1898876 0.13982098 -0.13498704 0.0017591643 -0.11226121 0.07642178 0.32119313 -0.012863846
-0.1268334 0.24830572 -0.01721038 0.21502626 -0.09201606 -0.040671818 0.2582285 0.28560537
-0.17244287 0.09142677 0.049097948 0.18243355 -0.17789926 0.30418026 -0.0024374228 -0.14831454
-0.19356266 0.117502786 -0.12062105 0.023609558 -0.114775985 -0.05626068 0.05761945 0.25495
0.1364711 0.27720043 -0.034881905 -0.080972545 0.08913553 0.12232875 0.26252964 0.06895367
-0.12349178 -0.10391638 0.22361206 0.08006518 -0.11963558 -0.1442576 0.032066796 -0.004233341
0.23585445 0.220422 -0.047351915 -0.00020611707 -0.201325 -0.029350732 -0.13591185 -0.040547345
-0.09503806 -0.1501899 -0.09241708 -0.00097313215 0.21298078 -0.07156286 -0.066105105 0.09747008

network.2.weight f4 [27, 256]
00000000: 2469 a1bc bc82 23bd 137f 8bbb 26e4 3dbd
00000010: 4dd1 c73d fc26 51bd 1256 80bc 0ac5 17bd
00000020: fcc2 c6bc b61c b5bc 0bb8 cfbc 019f 9bbc
00000030: be49 f73b 72ad 28bc ae8a 54bd 6938 f23c
00000040: a8bd ab3d bf1c 1c3d 8df4 07bc 2854 ec3b
00000050: b929 653d 6d4c 143c 84ae 51bc 09ab 183c
00000060: af8a 6a3d a32b 2fbc 6601 b43c e592 20bc
00000070: 4fed aabc 02ee 89bc 02b4 45bc 3eae e63b
00000080: b23f c8bc 8af1 e1bb bdd0 8d3d f0c5 543d
00000090: 08f8 613a a334 a23c 4991 3d3c d657 33bd
000000a0: 9c0c 7f3d 44e7 013d 7de1 96bc d85d ef3c
000000b0: 8667 653d cf5a 303d a25e 41bc 4559 74bc
000000c0: caf7 6dbb 502c 063d 601b 5ebb 72ab 8c3c
000000d0: 34d8 543c b458 dabc ff59 80bb 44dc 243d
000000e0: f231 183a 2bb2 123e 7b6f 633c 0caa 5b3c
000000f0: e229 313c b2ef 21bc c34d 47bd 9c67 d7bc
00000100: f4bc 113d db76 eb3c 79a7 d43c bf09 843d
00000110: 3283 d23b ea37 ae3c bb6d 25bd 484a 3d3d
00000120: e3f7 803c cd24 013d 8e32 a9ba de40 d138
00000130: 3be5 09bd 763e 3f3d eb6c 1abd 4d5a 5f3d
00000140: 8cdd fc3c e005 493d 456f 433d 5504 00bd
00000150: 05ae 143b 0651 c63c ba8c d23c edcf 2abd
00000160: fed0 473b 1859 f1bb 991c a23d 5b52 593a
00000170: e7d8 c6bb 3e72 d53c 4aaf 9b3c 062f b53a
00000180: 04c7 543d da81 653d e7d5 ba3c d017 ac3c
00000190: 4206 7a3c 26f5 6c3d 45d9 f53c 6fb3 68bd
000001a0: fbf3 59bd 08a4 a53c cbc2 033d 6e05 e23c
000001b0: d9c3 15bc cb7e 8dbd 3220 3fbd 82c0 91bc
000001c0: adda 2c3d 0d65 15bd 98a1 6d3b ea66 e53c
000001d0: bc8c c63c 9d55 f1bc 9b56 2f3c aa26 62bb
000001e0: 609d f73b d93b c8bc 96cc 2bbc 7ae4 b7bc
000001f0: 0ea9 8bbd 1a44 62bc 38bb 153d e5a4 bc3c
00000200: 9b0d a0bc 1fef 86bc 1412 093d def5 743c
00000210: 46df 723c 079c b33c 270f 853c 590b e8bc
00000220: ffc9 73bc fc6f 96bd 41f2 16bd 772f 873a
00000230: 2888 0b3d 49c6 a1ba a8f1 1abd f1bc dd3c
00000240: 6db2 c3bb ed7d 233d be58 0d3d 49cc 583b
00000250: 8b54 2dbd 9385 33bb e6f7 32bc df87 2e3c
00000260: 4a15 c5bc 669b 4d3d a232 f23b 79df b2bc
00000270: 09a1 323d 2dda 1abc 4d30 38bd e1c5 df3c
00000280: 1285 483c f2b9 2b3d 2e15 18bd 9a4e 103d
00000290: 4c7d c43c f703 4bbd e204 0d3d 62f4 083d
000002a0: c13c 1b3c d232 013d 1615 703d 3daf f2bb
000002b0: 14f7 173c f97c 833d 2251 f1bb bcbe 063d
000002c0: fe37 c93c 012a bcbc 3999 003c ba2d 9f3d
000002d0: 79e5 533a 1764 433d f481 793d a939 493c
000002e0: 6971 ea3c f48e af3c 868a cebc 7cf8 75bb
000002f0: cc6f a83c aa5c 333c 422b 253d 2b18 43bd
00000300: be02 233d 0183 593d 6ef6 e7bb fe3b 183b
00000310: 5d17 6c3c 4599 113d 8cb0 cd3d e444 0cbd
00000320: d642 6cbd fb29 203d abf3 143d 716e b5bc
00000330: fadd 7abc c3c8 3a3d f51d 073d 8b22 243d
00000340: 8997 2e3c 8127 023d e5a8 203d 1fe7 3e3d
00000350: 6182 52bd 9446 c23d 88fb 10bd b514 bb3c
00000360: 40dd 6dbb d665 2c3d 328d d53c 92d0 9a3d
00000370: e99d b53d 345b 12bc 69f0 b43c 8b4b 923d
00000380: 2ffa b03c baf2 093d a11a 52bb b4d9 47bd
00000390: 8a75 053b 65ab 863d 2a7a 013d d557 3ebc
000003a0: e24a 2bbd 42a7 643c f0b1 f63c ca27 b33c
000003b0: 41d5 14bd 2d4f 053d c3e9 b93b 9d34 e8bc
000003c0: 4a1c 9abc 9474 5a3d 1427 1b3d f0bf 463c
000003d0: 4117 dd3b 4fb2 ae3c f94a 46bd 1877 003d
000003e0: 22a3 b9ba 6cfe 30bc ff9d 84bc 0d6b fc3b
000003f0: 6733 2b3d 3875 b5bc b421 1b3c 137c bdbc
-0.019703455 -0.0399196 -0.004257092 -0.046360157 0.09756718 -0.05106257 -0.015666042 -0.037053145
-0.024262898 -0.022108417 -0.025356313 -0.018996717 0.0075466326 -0.010295259 -0.051890068 0.029567914
0.083857834 0.038113352 -0.008298052 0.0072121806 0.055947993 0.009051424 -0.012797955 0.009318122
0.057261165 -0.010691556 0.021973323 -0.009800647 -0.02086511 -0.016837124 -0.012066843 0.0070398143
-0.024444435 -0.006895249 0.06924579 0.05194658 0.00086200284 0.01980049 0.011570283 -0.04378494
0.062267885 0.031714693 -0.018418068 0.029219553 0.05600693 0.04305535 -0.011802347 -0.014913862
-0.0036311024 0.032757103 -0.0033890828 0.017171595 0.012991 -0.026653625 -0.0039169784 0.040249124
0.0005805782 0.14325778 0.0138815595 0.013407242 0.010813208 -0.009883808 -0.048658144 -0.026294522
0.03558059 0.028743198 0.025958763 0.064471714 0.006424331 0.021266896 -0.04038785 0.04621342
0.015743202 0.031529237 -0.0012908743 9.977979e-05 -0.033665877 0.046690427 -0.03770153 0.054529477
0.03086736 0.04907787 0.047713537 -0.03125413 0.0022686732 0.024208557 0.02570187 -0.0417022
0.003048956 -0.007365357 0.07915611 0.0008290165 -0.0060683372 0.026055451 0.019004483 0.0013823218
0.05194761 0.05603204 0.022807075 0.021007448 0.015260281 0.05785098 0.030010829 -0.056811746
-0.053211194 0.020219818 0.03216819 0.02759048 -0.009140932 -0.069089495 -0.046661563 -0.01779199
0.042200733 -0.036473323 0.0036259647 0.028003175 0.02423703 -0.029459769 0.010701801 -0.003450791
0.0075566024 -0.0244426 -0.010485789 -0.022447813 -0.06819354 -0.013810182 0.0365555 0.023027847
-0.019537738 -0.016471444 0.033464506 0.014951197 0.01482374 0.021924986 0.016242577 -0.028325723
-0.014879703 -0.07345578 -0.036852125 0.0010313828 0.034065396 -0.0012342419 -0.037828118 0.027067633
-0.0059721977 0.039915014 0.03450846 0.0033080748 -0.042316955 -0.002739285 -0.010923361 0.010652511
-0.024058003 0.050197028 0.00739129 -0.021835076 0.043610606 -0.009451431 -0.04496794 0.027316036
0.012238758 0.04192538 -0.037129574 0.03523121 0.023985527 -0.049564328 0.034428485 0.033436187
0.009474934 0.031542607 0.05861386 -0.007406144 0.009275217 0.06420321 -0.007364408 0.032896742
0.024562832 -0.022969248 0.007849031 0.077723935 0.00080832053 0.047702875 0.06091495 0.012281814
0.028618531 0.02143047 -0.025212537 -0.0037532141 0.020561121 0.010947386 0.040324457 -0.04763047
0.039797537 0.05310345 -0.0070789373 0.0023229118 0.014409867 0.03554656 0.10043439 -0.034245387
-0.057680927 0.039102536 0.036365192 -0.02214739 -0.015311712 0.045601618 0.032987554 0.040072005
0.010656246 0.031775955 0.03922357 0.046607133 -0.05139387 0.09486118 -0.03539613 0.022837022
-0.0036295205 0.042089306 0.026068304 0.07559313 0.088680096 -0.008932877 0.022087293 0.07143315
0.021603672 0.033678748 -0.003205933 -0.048791602 0.0020364248 0.0657566 0.031610645 -0.0116176205
-0.04181946 0.013955893 0.030114144 0.021869559 -0.036336187 0.03254621 0.0056736185 -0.0283454
-0.018812317 0.053333834 0.037879065 0.012130722 0.006747157 0.021325259 -0.048411343 0.031363577
-0.0014162997 -0.010802846 -0.01618862 0.007703191 0.041797068 -0.02215062 0.009468485 -0.023130452

network.2.bias f4 [27]
00000000: 3f57 053d a30b 4cbb 2f4f 3e3d 6caa 2e3d
00000010: 9480 523d c7bb 083d 5620 103d b293 f83d
00000020: 4d65 913d 0cb6 cc3d 44fa c83d e22a 9d3d
00000030: 225a 563d 2a36 093d 5a61 da3d 956f 533c
00000040: ea4a 163b 5bfb 813d bd7b d93d 1598 e83d
00000050: 791f 443d c7e1 283d b062 1e3d 9b85 e43d
00000060: 8e44 8b3b c8dd 323d e796 833d
0.032553907 -0.0031134866 0.046462234 0.042642996 0.051392153 0.033382203 0.035187088 0.12137546
0.070994 0.0999566 0.098133594 0.07674195 0.05233205 0.03349892 0.106630996 0.012905021
0.0022932836 0.063467704 0.10619304 0.11357132 0.047881577 0.041230943 0.038668334 0.11158296
0.0042501157 0.04366854 0.06425267
