code/models/dqn/dqn_8.pth (torch, 12947 bytes, 4 tensors)

network.0.weight f4 [64, 15]
00000000: f61f 67be 9de8 093e 6d18 153e b8d7 4ebd
00000010: 88d6 26bd 3d76 ea3c 1dfa 16bc 18f9 993c
00000020: 0cbf 0abe dcba fe3c 1d5d 133e 7bd4 04be
00000030: 5c52 853e ff08 b33e 623c 103e 8d9c 80bd
00000040: 6511 26bd 6854 72bc 7032 0dbc 8362 673d
00000050: 2a4b 5bbd d320 67bd a02e bbbd fea2 563e
00000060: c3ca 5b3d 5dd6 aa3d 0bd3 67be ec7d c03c
00000070: 64eb df3e ca8f 053e 5193 993e c939 c2ba
00000080: 75db 9abc 8a59 27be fe12 833e 370e 3fbe
00000090: ed64 0e3e 18a8 473e 6a2a 763e 6f70 05be
000000a0: e958 723d 2d60 7ebe 6bd5 503e 4014 d63c
000000b0: 0c0b 11bd 71e7 2e3e 56ec 00be d5ea babd
000000c0: efea 27be 9e6b 17be d501 50bd e365 c1be
000000d0: b5c6 9d3d 0412 283e 2273 d13d 276c 6fbe
000000e0: 426f 86be 1c76 323d 5dc9 e9bd 1b95 d13d
000000f0: 2c88 03be e778 103d 54a1 5bbe 7485 603d
00000100: 5aad 0c3d 5ee1 3abe ce3f ea3a 351a a5bd
00000110: f230 073e 6a82 283b e5c6 313d b364 c43d
00000120: f0ef 7f3e 47cd 1b3b 0bca 553e e55e 6c3e
00000130: 43c2 b63d 5f10 adbc c21c 5a3e b3d7 2ebe
00000140: a0c8 eb3d 3734 a83a eb1d 593e 2b6c 433d
00000150: dc18 f63c 5787 fd3d bd02 81be be23 b93e
00000160: ac48 b23e 1b01 003f 678b b73d 1bdd 6c3d
00000170: 7ecd 89bd 3e1e 3b3e bb68 cebd c11b f53d
00000180: ba33 11bd d2c7 903d 9891 91bd e645 d93d
00000190: 1300 c73d 44d8 30be 430c 933e efa2 9c3e
000001a0: 2e7b 5d3d a057 843d 03bf 23be 66b0 4a3e
000001b0: a5a4 54be 1574 073e 58b9 81bb 9895 b13d
000001c0: 9d4e 24bd 9c48 3c3d 824f 6abd c421 f23b
000001d0: 0f2d 443e a7a6 97bd 19e9 70bd 75bf b73b
000001e0: 6839 bebe da69 c3bb b534 53bd 4213 88be
000001f0: b7e8 943d 3cbc 91bd 7319 5abe bca3 20bd
00000200: 1f20 933d f5b0 f0bc 8d5a 1abe a4df 153c
00000210: c946 6dbd e78e 8dbd fb1f 923d 7827 ce3c
00000220: 35b0 3ebc c498 213e cf43 b3bd 871d b83e
00000230: eadc 593d 2669 ef3d 46a2 3b3e 5e26 9cbc
00000240: b41b babe 0319 2fbe f6b9 8c38 3968 f43d
00000250: 8b04 403d 9f26 693e d38a 8cbe 3b34 f2bc
00000260: 4de8 cabd f9ca 163b 3e09 913d ff31 bbbd
00000270: 5fcc f3bd 22bf e2bd 7ffb 2b3d 25da 193d
00000280: 1a78 ed3d 5e5d a4bd 9041 3d3d 9558 933e
00000290: 4adf f13e bb1b a0bd eedf 7fbc 4dfa bfbc
000002a0: 5923 f03d 524d 753e c176 fa3c 68bb 2dbd
000002b0: c84a 133d 310f 943d 509f 103e cdf3 f23c
000002c0: 8aa2 03be 0265 de3e 918a cc3d 2839 983e
000002d0: 7230 34be eed9 f53c 472d 2c3e 9d8b b23c
000002e0: 9bdd f0bd c1fd 293e 32a6 1d3e 6c2b d9bd
000002f0: 2e0a 9dbd c10a 053e 6da7 5a3c 48b3 ddbc
00000300: 344b 4c3e 6a37 c7bd 4a0e b93e 8084 833e
00000310: d5a6 38bd 24e9 63be 8b43 bf3d 98c7 2b3e
00000320: 8a1a a23b e270 3e3d 9883 a63d 7133 493e
00000330: 3f78 c2bd 9041 0dbd cdf3 a53d e40a 28be
00000340: 8b43 713e 466c 9d3c 6276 79be 9bd7 eabd
00000350: 63e4 083e f4b5 d23c b18b 7b3d 0a7b 043e
00000360: 268e 5c3e b490 83be 11b4 ca3d 36e3 3bbe
00000370: f279 88be bdd6 1cbe 6821 0bbe 71e3 5c3c
00000380: 37dc 20be 5037 18bc 67f3 6e3e 8f8b b13d
00000390: 3ce4 16bd e734 223e 9d35 9e3d 6594 2dbd
000003a0: 7f26 d7bd a424 4bbd b05b 36be c6b1 6cbe
000003b0: b208 2a3d 202e 20be 2c53 93bd b4ad 53be
000003c0: 8be9 8bbe 184e 363d 8d92 febd d64b 843d
000003d0: ad98 bcbc f3d5 c8bd 028e f5bd bbe0 46be
000003e0: 502b 583b afe5 693e 303d a53e 89fd 8bbe
000003f0: 0264 833e 4079 8a3e 6271 8d3e b8f2 ee3d
-0.22570786 0.13467641 0.14560099 -0.050498694 -0.040731937 0.028620834 -0.009214905 0.018795535
-0.13549441 0.03109496 0.14390989 -0.1297168 0.26039398 0.349678 0.14085534 -0.0627986
-0.040543932 -0.014790632 -0.008617982 0.056490432 -0.05353848 -0.056427788 -0.091397524 0.20960614
0.053660166 0.08341668 -0.226391 0.023497544 0.43734276 0.13043132 0.29995206 -0.0014818247
-0.018903473 -0.1634275 0.25600427 -0.18657766 0.13905688 0.19497716 0.24039617 -0.13031171
0.059166823 -0.24841376 0.20393912 0.026132703 -0.035410926 0.17080475 -0.12590155 -0.09126822
-0.16398214 -0.14787146 -0.050782997 -0.37773046 0.07703916 0.16413122 0.10227038 -0.233811
-0.26256758 0.04356967 -0.1141536 0.10233518 -0.12844914 0.03527155 -0.2144826 0.05481477
0.03434501 -0.18250033 0.0017871798 -0.08061639 0.13202265 0.0025712498 0.04340257 0.09589519
0.24993873 0.0023773478 0.20877855 0.23083074 0.08923771 -0.02112597 0.21300033 -0.1707447
0.115128756 0.0012832944 0.21202819 0.04771058 0.03004115 0.1237933 -0.25197402 0.36160082
0.3482107 0.50001687 0.08962136 0.05782805 -0.06728648 0.18273255 -0.100785695 0.11968184
-0.03544972 0.07069363 -0.07107848 0.10609035 0.09716811 -0.17269999 0.28720292 0.30593058
0.05407255 0.06462026 -0.15990834 0.19793853 -0.20765932 0.13227876 -0.0039588623 0.08671111
-0.040114034 0.045967683 -0.05720473 0.007389279 0.19157813 -0.07404833 -0.05881605 0.0056075403
-0.37153172 -0.005963546 -0.051563937 -0.26577193 0.07270949 -0.07115981 -0.2129877 -0.03921865
0.07183861 -0.029381255 -0.15073605 0.009147558 -0.057928834 -0.06912022 0.07135006 0.025165305
-0.011638691 0.15780932 -0.08753168 0.35960028 0.053189196 0.11689977 0.18323621 -0.019061264
-0.3634926 -0.17099385 6.710358e-05 0.119339414 0.046879333 0.22768639 -0.27449664 -0.029565921
-0.09907589 0.0023009165 0.07081841 -0.091403954 -0.11904215 -0.11071612 0.041987892 0.037561554
0.11595173 -0.08025621 0.046205103 0.2877852 0.4724067 -0.07817789 -0.015617354 -0.023434782
0.11725492 0.23955277 0.030574204 -0.042415053 0.03595999 0.0722946 0.14123273 0.029657269
-0.12854972 0.43436438 0.09987367 0.29731107 -0.17596605 0.030011144 0.16814147 0.021795088
-0.11761018 0.16600706 0.1539543 -0.10603985 -0.07667957 0.12992384 0.0133455815 -0.027063027
0.19950563 -0.09727366 0.36143714 0.25687027 -0.04508098 -0.22256905 0.09339055 0.16775358
0.0049470114 0.046494372 0.08130568 0.1964853 -0.09495591 -0.034486353 0.08103142 -0.16410404
0.23560922 0.019216668 -0.24361566 -0.11466905 0.13368373 0.025721528 0.061412517 0.1293756
0.215386 -0.25696337 0.09897626 -0.18348393 -0.26655537 -0.15316291 -0.13586962 0.013481961
-0.15709005 -0.009290531 0.23335038 0.08669197 -0.036838755 0.15840493 0.0772507 -0.04237785
-0.105053894 -0.04959549 -0.17808414 -0.2311469 0.0415122 -0.15642595 -0.07193598 -0.20671731
-0.27326617 0.04450807 -0.12430296 0.06459777 -0.02302202 -0.098064326 -0.119899765 -0.19421665
0.00329848 0.22841524 0.32273245 -0.2734187 0.25662237 0.2704563 0.27625567 0.11667389

network.0.bias f4 [64]
00000000: 0490 063e e627 8b3d e295 333e d465 163d
00000010: 8b58 4a3e 5175 a33e 2adb bd3e a9fd 14be
00000020: 6ce3 903e 3270 703e 50bf 033f 9ffc 9e3e
00000030: 13e5 093e 2aea 0cbe ec72 4abc bc37 263c
00000040: 4460 b73e 052f 9c3e 4858 c43b f1aa cc3e
00000050: 762e b93e 940c 753e 2bea dc3e 5b65 883e
00000060: 96e0 da3d 9ca0 653c 4241 853e 72fd 5b3e
00000070: 7b64 52be 2a70 913e 76a1 713e 64d3 fc3c
00000080: ef43 53be 2990 cc3e 25cc f3bd 4a06 923d
00000090: 2bca 763e 41c3 7c3e 5033 993e 2723 393e
000000a0: 8770 173e 98aa 1abd 92dd cfbc 29a7 873c
000000b0: ba41 223d 3154 f03c 8650 133e 808f c03d
000000c0: cefa 8c3d 301f 80bd 3bdb c23e 7ae6 fa3e
000000d0: 7791 cf3d cc42 03bd 5cf0 8b3d c9a9 863e
000000e0: 2445 36bd 0ff8 5fbe a673 6abe 1240 a7bd
000000f0: d69f d33d 1d20 d23e 147b 153e dba7 173e
0.13140875 0.067947194 0.17537645 0.036718205 0.19760339 0.31925443 0.3708127 -0.14549889
0.2829851 0.23480299 0.51463795 0.3105211 0.13466291 -0.13761202 -0.012356501 0.010145124
0.35815632 0.30504623 0.0059919693 0.39974168 0.3616826 0.2393058 0.43147406 0.26639828
0.106873676 0.014015343 0.2602635 0.214834 -0.20546143 0.28405887 0.23596749 0.030862518
-0.20631383 0.39953735 -0.11904172 0.07130106 0.24100558 0.24683858 0.2992196 0.18079816
0.1478902 -0.037760347 -0.025374208 0.0165592 0.039613463 0.02933702 0.14386186 0.094023705
0.06883775 -0.062559485 0.38057885 0.49003965 0.10135167 -0.032046124 0.06832954 0.2630141
-0.04449953 -0.2187197 -0.22895679 -0.08166517 0.10333221 0.41040125 0.14597732 0.14810126

network.2.weight f4 [27, 64]
00000000: 24c8 253d b594 003a 3094 42bc e317 bc3d
00000010: d2a3 673d 550f 103e a26e cf3d 8733 8dbd
00000020: 4eaa 63bd 4f15 ac3d e530 4c3d 9b7b 71bc
00000030: 4518 043c 8fad 4bbd 76aa 803d b38a fbbd
00000040: a39f c73d 13bd 9f3d fa0e 40bd 867c d03d
00000050: b7d2 cc3d 07c3 623d b164 0a3e af00 723d
00000060: 2376 e63c 2aa2 7f3c 3dd4 173e aead f3bd
00000070: 3e95 733d a364 2f3d 603b 893c 92ec 45bd
00000080: 32fa a83d fae1 d63d b411 603d d323 67bd
00000090: 5b1f afbd e44f 043e 0c57 f33c f5ab 083e
000000a0: 190a 843d 381a 0c3d 39d7 4a3d da2e 2ebd
000000b0: f6b8 9b3d 6120 2cbe bc09 59bc 2bad e3bc
000000c0: 61b3 323c 7056 3abd edba 833d 0e59 a43c
000000d0: 3029 6f3c ad0c 8ebd 97f8 c9bd f9cb 5bbe
000000e0: 8fbe bfbd e936 35bc 18a6 55bd c2ac d8bd
000000f0: db31 213d b427 8d3d 7b1e 62be 506c 1c3e
00000100: 65da 393d 3a67 4abb ed89 d1ba 975d bb3d
00000110: 97b9 b83c 9edd f73d e580 bc3d 81c2 87bd
00000120: fe02 75bd 3a00 b93d 8d33 843d 8d1d 8c3d
00000130: 87c3 9f3c 1397 92bd 0a60 603d a700 d9bd
00000140: a556 da3d 02ac 7e3d 5adf 70bd 4573 b93d
00000150: 2ca5 b13d d9d4 4c3d 602f 013e cc61 9d3d
00000160: 5ee2 d13c 1576 093d 9b72 093e 51dd dfbd
00000170: 49d8 523d 28e3 613d 77ea e53c ccf1 7fbd
00000180: bc8a 9f3d 6613 e43d dd04 513d f9d0 83bd
00000190: c320 63bd 5c03 cc3c dff5 5f3d c3f9 0a3e
000001a0: 914e 563d b019 263d 3dbb 433d 2c30 3abd
000001b0: ce57 7b3d 5996 43be df7d c2bb a3b4 28bd
000001c0: 7fbb bd3c e55c 85bd 788e 5e3d cade 533c
000001d0: acca 233c 972e 1fbd 8ad4 bebd a772 5bbe
000001e0: 4791 9cbd 81af 923b d170 2ebd 2684 d5bd
000001f0: 9d23 3b3d 26e7 a43d e87b 51be 47e1 1b3e
00000200: 9104 113d 959b 5d3c 4699 57bc e016 b23d
00000210: e364 8dbc bfdb 083e e19f dc3d 4ce5 abbd
00000220: d555 6dbd fd04 c23d 5b8c 7c3d eaf4 963d
00000230: c065 6f3c 99a3 71bd e192 753d 7327 e2bd
00000240: 5c6f cd3d 6dc0 9b3d ff33 56bd 9b13 9d3d
00000250: 57b2 c53d f096 653d f76e 013e 4d5a ac3d
00000260: 6f5b e03c 942d cc3c b0ae 0b3e 42f1 00be
00000270: 4b7b 7e3d 2697 a93d 94d2 fa3c d008 81bd
00000280: 85d5 b13d ceb2 e13d 3361 8c3d 14c2 a0bd
00000290: ccaa 84bd 8afe 663d c5a5 993d 1b6f 053e
000002a0: b001 9f3d 683d d43c f3e3 1b3d 104e 46bd
000002b0: fbee 7c3d c636 2bbe 5917 013d 1c21 22bd
000002c0: b47d e73b 82ab 8fbd 10d1 143d beea a03c
000002d0: 89e8 8d3c 5fbb 81bd 16bf cabd 31fb 67be
000002e0: 862a cdbd 31ce 38bc 0f1b 17bd cf0c ccbd
000002f0: 7080 403d 6e28 9f3d 95a9 5dbe c104 253e
00000300: 45b8 963d ab5e a03d ebe0 723c 5e2d d33d
00000310: 851b 163d cf12 d33d 7ff3 113e b863 90bd
00000320: 3dcf a7bd 5988 a23c fd98 013d 4dcf 42bd
00000330: 1131 ecbc 3512 62bd 7a82 063e f7c3 98bd
00000340: c9dc 703d 5cf5 dd3d 3ad4 a7bc 42f9 b8bb
00000350: 3809 773d e8c8 1a3d 7a2a b63d 2b79 413e
00000360: 710f 193e ae60 fa3c 9b2b f73d 9dfa cabd
00000370: 58ac f93d 177e 323d dc1f 8c3d ee16 a43c
00000380: fdcd be3d 9c54 9d3c 6a16 d03d 90a7 efbc
00000390: 44f7 bfbd 7b8e c63d 37a5 843d a7f3 f53d
000003a0: f545 6cbc 32d6 a63d 5321 8d3c ec0b 1ebd
000003b0: e315 823d e302 61be cd92 acbc 0346 a53c
000003c0: 7024 b13d a4d5 8cbd 0d4c 8a3d ba62 a93d
000003d0: 5447 733c 2409 aabd 2fc4 85bd d51d 30be
000003e0: 5ae0 2ebd b20a 3c3d ca72 6abd ee44 7fbc
000003f0: 2ccc 17bc ddf1 473d 410c 3ebe 3cec c03d
0.040474072 0.00049049716 -0.011876151 0.091842435 0.056552716 0.14068349 0.101285234 -0.06894594
-0.055582337 0.08402502 0.049851317 -0.0147389425 0.008062427 -0.049726065 0.06282513 -0.12282314
0.09747245 0.07799735 -0.046889283 0.10180001 0.10001128 0.055361774 0.13514973 0.059082683
0.028132504 0.015602628 0.14827056 -0.11898361 0.0594685 0.042820584 0.016751945 -0.048321314
0.08250846 0.1049232 0.054704383 -0.05643065 -0.085509025 0.12921101 0.029704593 0.13346846
0.064472385 0.03420469 0.04952166 -0.04252515 0.07603638 -0.16809227 -0.01324695 -0.027792534
0.010907025 -0.04549259 0.06432138 0.020061996 0.014597222 -0.069360115 -0.09861868 -0.21464528
-0.09362518 -0.011060455 -0.052160352 -0.10579826 0.039354187 0.068923384 -0.2208194 0.15275693
0.045374293 -0.0030884282 -0.001598654 0.0914871 0.022549434 0.12102817 0.09204272 -0.066288956
-0.059817307 0.09033246 0.06455145 0.06841574 0.019502414 -0.07157721 0.05477909 -0.105958275
0.106610574 0.06217576 -0.058806755 0.09055189 0.08674082 0.050007675 0.12615728 0.07684669
0.025620636 0.033559877 0.13422625 -0.10930885 0.051475797 0.055148274 0.028065903 -0.062486455
0.07790133 0.111365125 0.05103003 -0.06436343 -0.055451166 0.024903946 0.05467784 0.13571839
0.05232102 0.04055184 0.047785986 -0.045456097 0.061363034 -0.19100322 -0.005935415 -0.041187894
0.023160694 -0.06511859 0.054335088 0.012931535 0.009997051 -0.03886279 -0.09317882 -0.21430455
-0.07644897 0.004476488 -0.04258806 -0.10425596 0.04568826 0.080519006 -0.20457423 0.15222655
0.035404745 0.013525863 -0.013159102 0.08695769 -0.01726002 0.13365076 0.10772682 -0.08393344
-0.057943184 0.09473608 0.06165729 0.073709324 0.014611661 -0.05899391 0.059954528 -0.110426806
0.10031006 0.07605062 -0.05229568 0.07669755 0.09653156 0.05605215 0.12639986 0.08415661
0.027387349 0.024924077 0.13640857 -0.12592033 0.0621293 0.082807824 0.03061799 -0.06300509
0.08683304 0.110204324 0.06854477 -0.078495175 -0.064778894 0.05639509 0.07502321 0.13030665
0.07763994 0.025908187 0.038059186 -0.04841429 0.061751347 -0.16720113 0.031516407 -0.039582357
0.0070645455 -0.070151344 0.03633219 0.019643184 0.017322795 -0.06334566 -0.09899728 -0.22654416
-0.10017876 -0.011279629 -0.03689104 -0.099633805 0.046997488 0.07771383 -0.21646722 0.16115095
0.073593654 0.078305565 0.014824132 0.103113875 0.03664734 0.10306322 0.14253043 -0.0705027
-0.081938244 0.019840406 0.03164004 -0.04756098 -0.02883199 -0.055193145 0.1313571 -0.07459252
0.058804307 0.10837814 -0.02048694 -0.005644948 0.060311526 0.037789255 0.088948205 0.18893878
0.14947297 0.030563679 0.12068864 -0.09911082 0.12191075 0.04357728 0.06842014 0.020030465
0.09316633 0.019205384 0.10160525 -0.029254705 -0.09373334 0.09695145 0.06476825 0.120093636
-0.014420976 0.08146323 0.017227804 -0.03858559 0.06351831 -0.21973757 -0.021066094 0.020174986
0.08649528 -0.06876686 0.06752787 0.08270784 0.014848549 -0.08302525 -0.0653156 -0.1719888
-0.042694427 0.045908637 -0.057238378 -0.015580399 -0.009264987 0.048814643 -0.18559362 0.09420058

network.2.bias f4 [27]
00000000: b3d5 943d 12ad b03d b52d 833d 1793 fa3d
00000010: f66c 023e 1d01 cb3d 6a2e 043e 3fb9 143e
00000020: 9b88 073e 0ab9 c33d 3511 b83d d489 903d
00000030: 8a75 313e 10b9 153e dd99 283e c591 173e
00000040: bb74 2c3e aba2 303e 470a 0d3e ba5d 043e
00000050: b13f eb3d b436 253e 4491 043e e8cd 1d3e
00000060: 0bfa 603d 6615 2f3d ca42 853d
0.072673224 0.086267605 0.06405202 0.122350864 0.12736878 0.09912322 0.1290833 0.14523791
0.13235705 0.09556778 0.08987657 0.07057539 0.17329994 0.14621377 0.16464944 0.148017
0.16841404 0.17249553 0.13773452 0.12926379 0.114867575 0.16134149 0.1294604 0.15410578
0.05492596 0.042745017 0.0650688
