code/models/dqn/dqn_4_1650308028.6547017.pth (torch, 44883 bytes, 4 tensors)

network.0.weight f4 [250, 15]
0	0x3eabcadb	0.33553204
1	0xbe5e913d	-0.21735092
2	0xbf36ace8	-0.71357584
3	0x3eda2fad	0.426145
4	0xbf06128f	-0.5237207
5	0x3e8553ae	0.26040405
6	0xbe934d3a	-0.28769857
7	0xbd83066e	-0.06397711
8	0x3a0e9bcb	0.0005440085
9	0x3e4f5cf4	0.20250303
10	0x3e218d8c	0.15776652
11	0xbe4ecc92	-0.20195225
12	0x3e15c2c7	0.14625083
13	0xbd6c1e1e	-0.05764591
14	0xbdecb32e	-0.11557613
15	0xbe229c4b	-0.15879934
16	0xbe3b885f	-0.1831374
17	0xbc23ff4a	-0.010009596
18	0x3bab1501	0.0052210097
19	0xbdeea5c9	-0.11652715
20	0xbe12ab04	-0.1432305
21	0x3e0b108e	0.13580534
22	0x3d5bb5ec	0.05364029
23	0x3e23b3a2	0.15986493
24	0xbe2bd8f4	-0.1678198
25	0xbe67fd9f	-0.22655343
26	0x3e368ec0	0.17827892
27	0x3e2da8e2	0.16958955
28	0xbe7354ba	-0.2376279
29	0xbe871162	-0.2638045
30	0xbe1eb02a	-0.15496889
31	0x3eca133d	0.39467803
32	0xbdedd1d0	-0.11612284
33	0xbd72f3d5	-0.059314568
34	0xbc3f3fad	-0.011672896
35	0x3da2bfc7	0.07946735
36	0xbcd09ebc	-0.025466315
37	0x3dd6af7a	0.10482688
38	0x3eadda51	0.33955625
39	0x3e263922	0.16232732
40	0x3e0d8295	0.13819344
41	0x3dba3cfc	0.09093663
42	0x3d033c88	0.03204015
43	0xbde6ee8a	-0.112759665
44	0x3e007edd	0.12548395
45	0xbd25c7e5	-0.040473837
46	0xbf51e1eb	-0.8198535
47	0x3e1c960c	0.15291613
48	0x3ec54b91	0.38534215
49	0x3d87ff92	0.06640543
50	0xbdef2715	-0.11677376
51	0xbc191ea0	-0.0093456805
52	0x3e505f96	0.20348963
53	0x3d1a269a	0.03763447
54	0x3eb07439	0.3446367
55	0x3de0085b	0.10939094
56	0x3e201463	0.15632777
57	0x3ce0d20b	0.027443906
58	0xbd45d2bf	-0.048296686
59	0x3ee0d121	0.43909553
60	0x3e633cbd	0.22191139
61	0xbec848a6	-0.39117926
62	0xbf337843	-0.7010538
63	0x3e47f47b	0.19526856
64	0xbe9768fe	-0.2957229
65	0xbe8fd9e5	-0.28095928
66	0xbd23fd36	-0.040036403
67	0x3caf61ba	0.021408904
68	0x3dc83a1b	0.09776708
69	0xbaef15ff	-0.0018240808
70	0x3e246981	0.16055872
71	0x3dff3194	0.12460628
72	0x3d43ba4c	0.04778509
73	0x3bb6f745	0.005583676
74	0xbe523264	-0.20527035
75	0xbe6da95c	-0.23209137
76	0x3e4060cc	0.18786925
77	0xbe932969	-0.2874253
78	0x3d28aefc	0.041182503
79	0xbe0fd69a	-0.14046708
80	0xbdca8160	-0.098879576
81	0xbe039f90	-0.12853837
82	0x3e1b1ea1	0.15148403
83	0x3e400ffc	0.18756098
84	0x3e1edcb7	0.15513884
85	0x3e9ad661	0.30241683
86	0x3e8ed207	0.27894613
87	0xbe110f18	-0.14165914
88	0x3e1352ca	0.1438705
89	0xbdeed7e6	-0.11662273
90	0xbe9a490e	-0.3013386
91	0x3e6cbb0a	0.23118225
92	0x3d6d8082	0.057983883
93	0x3d8963fa	0.06708522
94	0x3e1a48a7	0.15066777
95	0x3deec515	0.11658684
96	0x3e366dc4	0.1781531
97	0x3e08a07f	0.13342474
98	0xbe3c31a4	-0.18378311
99	0x3b0c7a40	0.0021435171
100	0x3e5da465	0.21644743
101	0x3d19154b	0.037373822
102	0x3e886a88	0.26643777
103	0x3d9a8da6	0.075465485
104	0x3e21baf7	0.15793978
105	0x3db7aabd	0.089681126
106	0xbf42a1e6	-0.7602829
107	0x3dce4794	0.10072246
108	0x3e93483b	0.28766045
109	0x3d9c4479	0.076302476
110	0x3d9ec46c	0.07752308
111	0x3b48fd1f	0.003066845
112	0xbe31ba3e	-0.17356202
113	0xbba58eb2	-0.005052411
114	0x3ea98482	0.33108908
115	0x3ea45fed	0.32104436
116	0x3e8309e1	0.25593475
117	0x3e932407	0.28738424
118	0x3eab1e1b	0.33421406
119	0x3e0864c6	0.13319692
120	0xbc8d95e3	-0.017283386
121	0x3f0856c9	0.53257424
122	0xbe110986	-0.14163789
123	0x3d986112	0.0744039
124	0xbe3c8307	-0.18409358
125	0xbd282000	-0.041046143
126	0x3ccc91e5	0.024971912
127	0x3ea472f6	0.32118958
128	0x3ebae0f1	0.36499742
129	0xba82bb2d	-0.0009973996
130	0x3e8e7d0e	0.27829784
131	0x3eb486e0	0.3525915
132	0xbe067bf6	-0.13133225
133	0xbd13ccd2	-0.036084004
134	0xbd183ecd	-0.037169266
135	0xbee38649	-0.4443839
136	0x3ebc4916	0.3677451
137	0xbee7efbc	-0.4530009
138	0x3e31fa9c	0.17380756
139	0xbe2db1b1	-0.16962315
140	0x3d85a95c	0.06526443
141	0x3c2ab259	0.010418498
142	0x3aaf8f9a	0.0013394237
143	0xbdf3484c	-0.11879024
144	0x3e400b76	0.18754372
145	0x3e388366	0.18018875
146	0x3e9eba5a	0.3100155
147	0xbd745353	-0.059649777
148	0xbcaa8726	-0.020816397
149	0x3e900d63	0.28135213
150	0x3dfb5cd2	0.122735634
151	0xbd6992ff	-0.057024952
152	0xbe26940e	-0.16267416
153	0x3e7eb329	0.24873032
154	0xbe2fd9a6	-0.1717287
155	0x3dde6564	0.108591825
156	0xbd821746	-0.06352095
157	0x3dd14d0e	0.10219775
158	0x3c96cc1e	0.018407878
159	0xbdd2424f	-0.102665536
160	0xbe3d499e	-0.18485114
161	0xbceefac4	-0.029172309
162	0x3d1f8f6f	0.03895515
163	0xbe8505f3	-0.259811
164	0x3decb900	0.115587234
165	0xbe310386	-0.172865
166	0xbf5e952f	-0.86946386
167	0x3e65bfee	0.22436497
168	0x3e506266	0.20350036
169	0x3e828386	0.2549097
170	0xbe2dacbd	-0.16960426
171	0xbdfc785f	-0.123276465
172	0xbe2a3a33	-0.16623764
173	0xbdf76891	-0.12080491
174	0x3c65e32e	0.014031215
175	0xbdb46778	-0.088087976
176	0xbe44d330	-0.19221187
177	0xbde9a955	-0.11409251
178	0xbd071c45	-0.032985944
179	0x3ca17296	0.01970796
180	0xbf444515	-0.7666791
181	0xbea03c76	-0.31296128
182	0x3e619d29	0.22032608
183	0xbe7924a5	-0.24330385
184	0xbe5296da	-0.20565358
185	0xbdb436fc	-0.0879955
186	0x3e39d82f	0.18148874
187	0xbe1f3d85	-0.15550812
188	0xbcef8669	-0.029238896
189	0xbddbd1da	-0.107333854
190	0x3de11627	0.10990553
191	0xbe02fc11	-0.12791468
192	0x3dd12f41	0.10214091
193	0x3ead6bc0	0.3387127
194	0x3e2a13b4	0.16609079
195	0xbe88b4ee	-0.26700538
196	0xbf32f2bb	-0.6990163
197	0xbeaad117	-0.33362648
198	0xbe225358	-0.15852106
199	0x3e01e4a6	0.12684879
200	0x3d48428e	0.048891596
201	0xbdcd6533	-0.10029068
202	0xbc06c96d	-0.008226735
203	0xbc1a1d3c	-0.009406384
204	0x3dd60051	0.10449279
205	0xbd124f7a	-0.035720326
206	0xbdda9198	-0.10672301
207	0x3e0a768f	0.13521789
208	0x3de73c66	0.11290817
209	0x3e0f967a	0.14022246
210	0x3cc013bf	0.023446916
211	0x3e7bafd8	0.24578798
212	0xbdbee928	-0.09321815
213	0xbd83504e	-0.06411801
214	0x3c2c331a	0.01051023
215	0x3db0ce95	0.086331524
216	0x3d3375d3	0.043813538
217	0xbe1c1ec2	-0.15246108
218	0x3e103c24	0.14085442
219	0x3e9bb724	0.30413163
220	0x3e491299	0.19636
221	0x3e976c91	0.29575017
222	0xbbb91bc3	-0.0056490614
223	0xbe08359c	-0.133017
224	0x3e52f1f3	0.20600109
225	0xbdf6810c	-0.120363325
226	0x3c7c1832	0.015386628
227	0xbef3b184	-0.4759637
228	0xbe470046	-0.19433698
229	0x3ebe5718	0.37175822
230	0x3dd82c41	0.10555316
231	0xbe9fcc37	-0.3121049
232	0xbe9158e5	-0.28388134
233	0x3e22fb14	0.15916091
234	0xbe065192	-0.13117054
235	0xbd1d9751	-0.038474385
236	0x3b9d62a4	0.0048030186
237	0xbe5351a4	-0.20636612
238	0xbe28a895	-0.16470559
239	0x3db7efd8	0.089812934
240	0xbf678f63	-0.90453166
241	0xbde5fcbf	-0.11229848
242	0xbf1b748e	-0.60724723
243	0xbd9e2e9c	-0.07723734
244	0xbe2ab87f	-0.16671942
245	0x3e0e610a	0.13904205
246	0xbd5b0d5b	-0.053479534
247	0x3e544ea9	0.20733131
248	0xbd3eafd4	-0.0465544
249	0x3d1e2c6d	0.038616586
250	0x3e0b31e9	0.13593258
251	0x3eb5c339	0.35500506
252	0xbcc8ff1a	-0.024535704
253	0x3e6d67dd	0.23184152
254	0x3e6b01bb	0.22949879
255	0xbdc4d63e	-0.09611176

network.0.bias f4 [250]
0	0xbd28851e	-0.041142575
1	0xbe63e2f0	-0.22254539
2	0xbd4612ab	-0.048357647
3	0x3eed2102	0.46314245
4	0x3e65c923	0.22440009
5	0x3dbfa5d8	0.09357804
6	0x3ea05919	0.31317976
7	0x3e827f58	0.2548778
8	0xbd5aa7ea	-0.05338279
9	0x3e4efe92	0.20214298
10	0xbe865897	-0.26239464
11	0x3c99f3c7	0.018793
12	0xbdf286df	-0.11842131
13	0x3d3ade83	0.04562236
14	0x3e6849b2	0.22684363
15	0x3e3e8bcb	0.18608014
16	0x3eac7289	0.33681133
17	0x3e93528c	0.28773916
18	0x3d8c6e91	0.06857026
19	0xbdce9614	-0.10087219
20	0xbe3f43e6	-0.18678245
21	0xbdf752c8	-0.12076336
22	0x3c42f2e9	0.011898735
23	0xbdd1f5e1	-0.10251976
24	0x3d9f05fb	0.077648126
25	0x3e69f8cd	0.22848816
26	0xbbb284ff	-0.0054479833
27	0xba881b2f	-0.0010384078
28	0xbc8c59d2	-0.017132673
29	0x3d9a5241	0.0753522
30	0xbe60d36a	-0.21955648
31	0xbe662e1f	-0.22478531
32	0xbd6f6697	-0.058447447
33	0x3c049db2	0.008094238
34	0xbd16c8f7	-0.03681275
35	0x3ea4af98	0.32165217
36	0x3e13356f	0.14375852
37	0x3eb5f5e8	0.35539174
38	0x3e247691	0.16060854
39	0xbcc4f7fb	-0.024044028
40	0x3e0b8e43	0.13628487
41	0x3e6086bd	0.21926399
42	0xbde944d1	-0.11390079
43	0xbe91fa77	-0.28511402
44	0xbd677af9	-0.05651376
45	0xbb626727	-0.0034546347
46	0x3d4c21c7	0.0498369
47	0x3cf3d33c	0.02976381
48	0x3e4e6aa5	0.20157869
49	0x3e041e35	0.12902148
50	0x3ea35cb7	0.31906673
51	0x3d9dd79e	0.07707141
52	0xbe6d9d15	-0.23204453
53	0x3e16ced4	0.14727336
54	0x3eb6617a	0.35621244
55	0x3ca5de21	0.02024752
56	0xbe6895ed	-0.22713442
57	0x3eac9e9a	0.33714753
58	0xbe90536b	-0.28188643
59	0x3da26f15	0.079313435
60	0xbe2d4081	-0.16919138
61	0x3db81251	0.089878686
62	0xbefa60d9	-0.48902014
63	0xbe86ea5b	-0.26350674
64	0xbe45f681	-0.19332315
65	0xbc934220	-0.017975867
66	0x3ce5766a	0.028010566
67	0x3c9f1db9	0.019423353
68	0xbe8e168c	-0.27751577
69	0x3d51ca8b	0.05121855
70	0xbdfa6321	-0.122259386
71	0x3d76662e	0.06015604
72	0xbdb236cb	-0.08701857
73	0x3dedf1c2	0.11618377
74	0x3d829431	0.063759215
75	0x3dabef5c	0.083952636
76	0xbe1c8b28	-0.15287459
77	0x3d4499bc	0.047998175
78	0xbe40ec6a	-0.18840185
79	0x3e7e1a26	0.24814662
80	0x3cc5c3ec	0.024141274
81	0xbe2e07e2	-0.16995195
82	0xbe0c8f16	-0.13726458
83	0xbeaad9bd	-0.33369246
84	0x3e1d2aab	0.15348308
85	0xbca0eff2	-0.019645665
86	0xbc10858a	-0.008820901
87	0xbe4f3e06	-0.20238504
88	0xbe51703d	-0.20452972
89	0xbe67e2d3	-0.2264512
90	0xbd7e3aae	-0.06206768
91	0x3dba1cc7	0.0908752
92	0xbe35f5d5	-0.17769559
93	0xbd23582e	-0.039879017
94	0x3d1552d8	0.03645596
95	0x3e960335	0.29299322
96	0x3dfbd5e5	0.122966565
97	0x3d713a07	0.05889323
98	0xbe0dd6f4	-0.1385153
99	0xbd0c80fe	-0.034302704
100	0x3e6ff7fc	0.23434442
101	0x3e0bc49f	0.13649224
102	0x3dd9f63d	0.10642669
103	0x3d45ad6d	0.048261095
104	0x3bd1c8ac	0.006402096
105	0x3e92dc3f	0.2868366
106	0x3d2a28ee	0.04154294
107	0xbce5d651	-0.028056296
108	0xbcc56dd9	-0.024100231
109	0x3e7e3b47	0.248273
110	0xbdcd7cb7	-0.10033553
111	0x3e6b016b	0.2294976
112	0x3def69f6	0.11690132
113	0x3ead7ae9	0.33882836
114	0x3b35acda	0.0027721436
115	0x3e87e228	0.2653973
116	0x3e9c7aae	0.30562347
117	0x3d3aa2dc	0.04556547
118	0xbea248ef	-0.3169627
119	0x3e9a1536	0.30094308
120	0x3ead4718	0.33843303
121	0xbdcb1b5f	-0.0991733
122	0x3ea397d6	0.3195178
123	0x3e3a2746	0.18179044
124	0xbe580971	-0.21097352
125	0xbe15553e	-0.14583299
126	0x3d1741e0	0.036928058
127	0xbda70d6b	-0.08156856
128	0xbe408e84	-0.18804365
129	0x3d7dfe0c	0.062009856
130	0xbad31d9d	-0.0016106848
131	0xbe7c8d8e	-0.24663374
132	0x3ebb53bf	0.3658733
133	0xbe6c5d30	-0.23082423
134	0xbd2c7951	-0.042107884
135	0xbdb460bc	-0.08807513
136	0xbe826532	-0.2546783
137	0xbd87b498	-0.066262424
138	0x3e0609fb	0.13089745
139	0xbe823a81	-0.2543526
140	0x3da3efc3	0.08004715
141	0x3e22dbae	0.15904114
142	0x3eb4120b	0.35170016
143	0xbde187e6	-0.11012249
144	0xbd04200c	-0.032257125
145	0x3e11e931	0.14249112
146	0xbd4651e6	-0.04841795
147	0xbd0abac9	-0.03386954
148	0xbde87068	-0.11349565
149	0xbda167f7	-0.07881158
150	0x3e2f8d9f	0.17143868
151	0xbcf908a3	-0.030399626
152	0xbd47a01e	-0.048736684
153	0x3defc25f	0.11706995
154	0xbe033acd	-0.128154
155	0x3e90b6be	0.2826442
156	0x3e3fa560	0.1871543
157	0xbdf8d689	-0.12150294
158	0x3e87fc0a	0.26559478
159	0xbc692635	-0.014230301
160	0xbe48875e	-0.19582888
161	0x3e136278	0.14393032
162	0x3d716ded	0.058942724
163	0x3e43187c	0.19052309
164	0xbdc7d477	-0.09757321
165	0x3e69c564	0.22829205
166	0xbe046554	-0.12929279
167	0xbcc644bc	-0.024202697
168	0xbe6c32f8	-0.23066318
169	0x3eae0a2b	0.33992133
170	0x3e1d14b0	0.15339923
171	0xbe35d795	-0.1775802
172	0xbea31913	-0.31855068
173	0xbc13f568	-0.009030677
174	0x3ebfdf2d	0.37474957
175	0xbe503234	-0.20331651
176	0x3e099a69	0.13437809
177	0xbd2216b7	-0.039572444
178	0x3c8de787	0.017322315
179	0x3cc4959b	0.023997119
180	0xbd97a544	-0.07404569
181	0x3ee3bd87	0.44480535
182	0x3de96bf7	0.11397546
183	0x3d8203f4	0.0634841
184	0x3e10f81f	0.1415715
185	0xbe0e1cf2	-0.1387823
186	0xbbc25507	-0.005930546
187	0x3a8ffd95	0.0010985608
188	0xbb71ee63	-0.0036915771
189	0xbcb8d19a	-0.022560883
190	0x3e6c22e6	0.23060188
191	0xbe50848b	-0.20363061
192	0x3e9ddf2b	0.30834326
193	0xbe6e8b19	-0.23295249
194	0xbc49e70f	-0.012323155
195	0xbe296cb2	-0.1654537
196	0xbe924b32	-0.28572994
197	0x3d011b0c	0.031519935
198	0xbd07114d	-0.032975484
199	0x3e35c2f6	0.17750153
200	0x3e128f51	0.14312483
201	0x3e4e3734	0.20138246
202	0x3cec38bc	0.028835647
203	0x3e083d0f	0.13304542
204	0xbe0ce546	-0.13759336
205	0x3e94002b	0.28906378
206	0xbdf6e5ad	-0.12055526
207	0x3e4855ce	0.19563982
208	0x3e903eaf	0.28172824
209	0x3eacf84d	0.33783188
210	0xbe263ea0	-0.16234827
211	0x3e3b681b	0.18301432
212	0x3e44ebcb	0.19230573
213	0x3b37e45f	0.0028059704
214	0x3e9550e0	0.29163265
215	0xbd376133	-0.04477043
216	0x3eb2e97e	0.34943765
217	0x3cfd9f78	0.03095983
218	0x3e4dc0e1	0.20093109
219	0xbd1cd05f	-0.038284656
220	0xbb7af6c3	-0.0038294054
221	0x3e30bb62	0.17258981
222	0x3e374fb8	0.17901504
223	0x3e3a0d56	0.1816915
224	0x3e1cf820	0.15329027
225	0xbcb2b78e	-0.021816041
226	0x3b711fbe	0.0036792601
227	0xbe8bcdcf	-0.27305457
228	0xba92b1c6	-0.0011191897
229	0xbe0cdb36	-0.13755497
230	0x3e9f9d91	0.311749
231	0x3e5d2225	0.21595056
232	0x3e085d61	0.13316871
233	0x3e8022fc	0.2502669
234	0x3e727b3b	0.23679821
235	0xbe2db1f9	-0.16962422
236	0xbc56deee	-0.013114674
237	0x3e2a3ce0	0.16624784
238	0x3e61ee9b	0.22063677
239	0xbe56c6a9	-0.2097422
240	0xbeef9108	-0.46790338
241	0x3e000d67	0.12505113
242	0x3d8c2edf	0.068448775
243	0xbe820cba	-0.25400335
244	0x3e9c642a	0.3054517
245	0x3e7d7b4e	0.24754068
246	0x3dcedacd	0.10100327
247	0xbefa6c10	-0.4891057
248	0xbe320a25	-0.17386682
249	0x3e9012b4	0.2813927

network.2.weight f4 [27, 250]
0	0xbe8c7c05	-0.2743837
1	0xbd231337	-0.039813247
2	0x3e671ed6	0.22570357
3	0x3e557f8d	0.20849438
4	0xbefcc49a	-0.49368745
5	0x3ddd5d68	0.108088315
6	0x3de31b93	0.11089244
7	0xbf4948e9	-0.7862688
8	0x3ea8fb58	0.3300426
9	0x3e1ff920	0.15622377
10	0xbd53bbb2	-0.051692672
11	0x3e3a342e	0.18183967
12	0x3ecd73d9	0.40127447
13	0x3c3b2ed1	0.011424736
14	0x3d2f5b89	0.042811904
15	0xbdcb48fc	-0.0992603
16	0xbf20c8f5	-0.62806636
17	0x3eab2654	0.3342768
18	0x3e39f4d5	0.18159802
19	0xbdaa8caf	-0.083276145
20	0xbdcc8f57	-0.099882774
21	0xbf05e712	-0.5230571
22	0x3f15e9a8	0.58559656
23	0xbfb9a260	-1.4502678
24	0x3e4c99d7	0.1998056
25	0xbf4737d6	-0.77819574
26	0xbe83c37c	-0.2573508
27	0xbe883b31	-0.2660766
28	0x3f1c1c3b	0.60980576
29	0x3f11f660	0.57016563
30	0xbf8ee67c	-1.1164088
31	0xbf0ecebe	-0.55784214
32	0xbf875da8	-1.0575457
33	0xbd5b25ea	-0.053502955
34	0x3dbd8d13	0.092554234
35	0xbf094ee1	-0.53635985
36	0x3dac6fda	0.084197715
37	0xbf4b60a9	-0.79444367
38	0x3e8762d6	0.26442593
39	0xbe83510e	-0.25647777
40	0xbedf6588	-0.4363215
41	0x3d9d9ad8	0.0769555
42	0xbd1703b9	-0.036868785
43	0xbcf79ae9	-0.030225234
44	0x3ef90352	0.48635346
45	0x3e03d2c9	0.12873377
46	0xbf1e568c	-0.6185081
47	0xbad5c129	-0.0016308177
48	0x3ebcb0d3	0.36853656
49	0xbea3fe9b	-0.32030186
50	0xbf70f90e	-0.9413003
51	0x3eabf269	0.33583382
52	0xbe0d1946	-0.13779172
53	0xbe8a1b20	-0.2697382
54	0x3e3df686	0.18551072
55	0x3e4e1ded	0.20128603
56	0xbd2d35e5	-0.042287726
57	0xbf269519	-0.65071255
58	0xbeca9a4c	-0.39570844
59	0x3ebe704b	0.37195048
60	0x3e59cb14	0.21268874
61	0x3e3ce181	0.18445398
62	0xbf6f036a	-0.93364584
63	0xbf1d0d76	-0.61348665
64	0xbf7823d2	-0.9692966
65	0x3e12a94b	0.14322393
66	0xbef18f5c	-0.47179687
67	0x3eba971f	0.3644342
68	0xbf012092	-0.50440323
69	0xbf30baaf	-0.69034857
70	0xbe4e90a8	-0.2017237
71	0x3f164d9a	0.5871216
72	0xbe4fbf4e	-0.2028782
73	0xbebde0de	-0.37085623
74	0x3e2b2276	0.16712365
75	0xbf62ad73	-0.8854591
76	0xbe697e47	-0.22802077
77	0x3e5c5f29	0.21520676
78	0xbf3397e1	-0.70153624
79	0xbf030da8	-0.5119271
80	0x3e09f9f0	0.1347425
81	0x3debbb49	0.11510331
82	0xbf2d88d0	-0.67786884
83	0xbfd25ef0	-1.6435223
84	0x3e859d44	0.26096547
85	0x3e129ae9	0.14316906
86	0xbf48ada2	-0.7838994
87	0xbe84d6e1	-0.2594519
88	0xbd4730d5	-0.048630554
89	0xbe3022ba	-0.17200747
90	0xbe6e3a45	-0.23264416
91	0xbe9fa338	-0.31179214
92	0xbe8d30cc	-0.27576292
93	0xbec70dbb	-0.38877663
94	0xbf6a4953	-0.91518134
95	0x3de07859	0.109604545
96	0xbf3886b0	-0.72080517
97	0x3e1f9430	0.15583873
98	0xbe2bc654	-0.16774875
99	0x3f0b90ba	0.5451771
100	0xbed910d1	-0.42395642
101	0xbf365711	-0.712266
102	0x3e294163	0.1652885
103	0x3dc06529	0.09394295
104	0xbedd94a8	-0.43277478
105	0x3e47e876	0.1952227
106	0x3eae79e5	0.34077373
107	0x3e7b8e53	0.24566011
108	0x3e5ad062	0.21368554
109	0x3fd839fd	1.6892697
110	0x3e256547	0.16151915
111	0x3e00796f	0.12546323
112	0xbf42e34f	-0.76128095
113	0x3e1566aa	0.14589944
114	0xbe341642	-0.17586616
115	0x3e0da2d2	0.13831642
116	0x3e1e1a15	0.15439637
117	0x3e1a3350	0.15058637
118	0xbf0bf710	-0.5467386
119	0x3da1647c	0.07880494
120	0x3d387bf5	0.04504009
121	0x3cc7bc7b	0.024381867
122	0x3db85bdd	0.090018965
123	0x3db5a3d5	0.08869139
124	0xbe9c9cc4	-0.30588353
125	0xbea2f679	-0.3182867
126	0x3e8d8253	0.27638492
127	0xbeae2170	-0.34009886
128	0x3e6b6fa8	0.22991812
129	0xbf7adc38	-0.9799228
130	0x3dbc4417	0.091926746
131	0x3d2e92f5	0.042620618
132	0xbebe2135	-0.3713471
133	0xbca316af	-0.019908277
134	0x3da732ce	0.08163987
135	0xbec18347	-0.3779547
136	0xbdd842ae	-0.10559593
137	0x3e87c177	0.2651479
138	0x3e3ce144	0.18445307
139	0xbf323d9f	-0.69625276
140	0x3e3aa7dc	0.18228096
141	0x3e77eeeb	0.24212234
142	0x3e3b0a0a	0.18265548
143	0x3e120a7c	0.14261812
144	0xbcd9aea8	-0.02657254
145	0x3e3dd828	0.18539488
146	0x3e8c9014	0.27453673
147	0x3e57b658	0.21065652
148	0x3db4e3b0	0.088324904
149	0xbfb1abe8	-1.3880587
150	0xbf45e8e6	-0.773085
151	0xbee9fb86	-0.4569971
152	0xbf04d2d8	-0.5188422
153	0x3f4dd107	0.80397075
154	0xbf238ce4	-0.6388686
155	0xbee11cec	-0.43967378
156	0x3e1d2707	0.15346919
157	0x3efdf17c	0.495983
158	0x3d4fd03e	0.050735705
159	0x3e82070f	0.2539601
160	0x3e9dfb0f	0.30855605
161	0x3db0cdc6	0.08632998
162	0xbf0c4db0	-0.5480604
163	0x3dfe4c26	0.12416868
164	0xbdf54394	-0.1197578
165	0x3dc32bd8	0.09529847
166	0x3eca270b	0.39482912
167	0x3e46305c	0.19354385
168	0xbf85791a	-1.0427582
169	0x3d8975a4	0.06711891
170	0x3dd02d56	0.10164897
171	0x3e1339e1	0.14377548
172	0xbea077a3	-0.31341276
173	0xbebbf0e1	-0.36707214
174	0x3e864d40	0.26230812
175	0x3eda3a3e	0.4262256
176	0xbf11ba35	-0.56924754
177	0xbeaed748	-0.34148622
178	0x3dd5d7ee	0.10441576
179	0x3e9f7307	0.31142446
180	0x3eada3f3	0.33914146
181	0xbf7faa3a	-0.9986912
182	0x3e8688c7	0.26276228
183	0x3df907d3	0.121596955
184	0x3ea96ae8	0.33089375
185	0x3eaf1b5d	0.34200564
186	0xbe9f09f3	-0.31062278
187	0x3e94227e	0.28932565
188	0xbfc9938b	-1.5748152
189	0xbe6b4a4e	-0.22977564
190	0xbf3934a7	-0.72345966
191	0xbec1f2d0	-0.37880564
192	0x3d5523e8	0.052036196
193	0x3db628e1	0.08894516
194	0x3e7ee33b	0.24891369
195	0x3e8c1147	0.27356932
196	0x3db561db	0.08856555
197	0x3d05e741	0.032691244
198	0x3e7b25de	0.24526164
199	0x3dfecb57	0.12441128
200	0xbed36470	-0.41287565
201	0xbf4a83ff	-0.7910766
202	0x3d35b839	0.04436514
203	0x3de7ab34	0.11311951
204	0x3d786998	0.060647577
205	0x3d3ab104	0.04557897
206	0x3cb60490	0.022218972
207	0x3e834617	0.25639412
208	0xbf3f5f7f	-0.7475509
209	0xbee20271	-0.44142488
210	0x3eadb61e	0.33928007
211	0x3e31bebf	0.1735792
212	0xbf088165	-0.5332244
213	0xbe941d05	-0.2892839
214	0x3e5e2a01	0.2169571
215	0x3e683b61	0.22678901
216	0x3e6ff7bb	0.23434345
217	0x3ea221c8	0.31666398
218	0x3e24c348	0.16090119
219	0x3e982d5e	0.29722112
220	0x3f218dc1	0.63106924
221	0xbe982e13	-0.29722652
222	0xbdee4982	-0.11635114
223	0x3e8815b5	0.2657906
224	0x3dff23f2	0.12458028
225	0x3de77507	0.11301618
226	0x3e2e2eb4	0.17010003
227	0x3d2db91a	0.042412855
228	0x3eb46d6e	0.35239738
229	0x3e09e44e	0.13465998
230	0x3df5b2cf	0.11996996
231	0xbf2186b5	-0.6309617
232	0xbef4233c	-0.47683132
233	0x3e344c2c	0.17607182
234	0xbf3c48bc	-0.73548484
235	0x3ecd7f96	0.40136403
236	0x3e95f87f	0.2929115
237	0x3e04725d	0.12934251
238	0x3da98504	0.08277324
239	0x3d51efc5	0.051254053
240	0xbfbd7994	-1.4802728
241	0x3e1a6ba5	0.15080126
242	0x3e740099	0.23828353
243	0xbed97d9b	-0.42478642
244	0x3f2e7b0f	0.6815652
245	0x3dbfb417	0.09360521
246	0xbf17027e	-0.5898818
247	0xbf84742d	-1.0347954
248	0x3e88932a	0.26674777
249	0x3da829bd	0.08211086
250	0xbec92bcc	-0.39291227
251	0xbd9580d5	-0.072999634
252	0x3e65d7bc	0.22445577
253	0x3e087824	0.1332708
254	0xbf11eed2	-0.57005036
255	0x3dd2c642	0.10291721

network.2.bias f4 [27]
0	0x3da2c999	0.07948608
1	0x3dfe0c62	0.124047056
2	0x3e0e689a	0.1390709
3	0x3daff124	0.08590916
4	0x3e62ef35	0.22161563
5	0x3e90f6d6	0.2831332
6	0x3e1490ee	0.14508411
7	0x3e2fb31e	0.17158172
8	0x3dee3854	0.116318375
9	0x3e8f3764	0.27971947
10	0x3e5ee3c0	0.21766567
11	0x3e52ddbf	0.20592402
12	0x3e65797d	0.22409625
13	0x3e0d7e08	0.13817608
14	0x3e2e3b42	0.17014793
15	0x3cecc77e	0.028903719
16	0x3c379e0c	0.011207115
17	0x3dcf4189	0.10119922
18	0x3d68f162	0.056870826
19	0x3d3580c7	0.044312265
20	0x3dd72cbe	0.10506581
21	0x3d8c91ad	0.06863723
22	0x3da03636	0.0782284
23	0x3d98961c	0.07450506
24	0x3d3d8467	0.046268847
25	0x3ca01907	0.019543184
26	0x3ddcfeb6	0.1079077
