code/models/dqn/dqn_5.pth (torch, 90003 bytes, 4 tensors)

network.0.weight f4 [512, 15]
00000000: 02f8 82bc 8333 573c ad61 ca3b e8fa 9d3e
00000010: 30f0 623c c51e 8abe 025c 973b f963 2c3d
00000020: e521 4bbe 9820 79bd 7d6d 193e a210 a3be
00000030: fdae f03c 4f50 c13c 69e8 a6be 50a2 153c
00000040: 71c8 a93b 0d9d 723b a691 f73c 061a 573b
00000050: 8bed 9fbc ba16 e33a 67fb d5bd 7b95 66be
00000060: 671c a23c e3a3 a33d 1fd3 88be 2b28 9e3c
00000070: 10fc 9a3c e670 2cbe 212d 0639 b7ef 81b7
00000080: 2b75 423b 7038 c43d 51a1 f6bb 0733 71bd
00000090: da75 bc3a 3a9d e6bd 2160 7cbe 83ef 523b
000000a0: 9f7e a13b c69f 9cbe 6271 353c f480 05bc
000000b0: a52f a7be 6bf7 fc3b 4df0 deb8 5e09 b6bb
000000c0: bbf3 8c3c f6be c4ba 3455 13bd 5cef bc3a
000000d0: c724 9a39 c041 51be 7baa 92bc 915c 873b
000000e0: 03c4 13be a767 8c3c 677d 113c 2dbe 8cbe
000000f0: 632e 96bc 4b7a 56bb e85b 8cbc 6256 9a3e
00000100: ad1b 1abc 4fe9 39bd 65a0 60bc 6202 f4bc
00000110: 5871 4abe 8599 ce3c 7847 14bc ec64 713c
00000120: 448a 003d 9b7f c23b 1b84 fbbd 314a 133c
00000130: 11d9 40ba 5a5c 983b f72b 843c 4234 0e3c
00000140: 233e 6d3c dafd 54bb 8dc4 2d3d dd11 27be
00000150: d7a5 ab3b adbb 0dbd 217a c1bd bad7 843c
00000160: ee05 e53c f982 4fbc b5f5 f1ba 499a d23c
00000170: 4823 adbc 7d36 bc3e 3e03 13bc 4e1a 3ebe
00000180: 7725 55ba 90bb 37be 1223 2fbe 0252 da3c
00000190: e7c1 7f3d 3772 49be 4432 b63b 7e95 b83b
000001a0: 0ebb 98be f5ac 92bb 13f8 a33a e463 0b3c
000001b0: 1efb af3d 51dd 23bd ec02 94be 20d3 ad3d
000001c0: 6784 68be 05fd 44be 684e d13c c023 933c
000001d0: a13f c3be 15fc f8bc 6c3a 17bd 2300 3abe
000001e0: 7b59 24bc c689 823c 98bb 8fbb bd1a a93c
000001f0: 3b4f d23b be20 68be 7e43 29bc d6a6 54be
00000200: 1d84 b0bd ac6e fdbc 61f7 c63d 9a04 91be
00000210: e683 7fbc e184 9bbb 0b32 8bbe ad9e 863b
00000220: adb9 023c 47a6 41bd b363 1d3d 6ac1 8cbb
00000230: e068 1bbe 029c 0abb 8368 e0bd 64c4 2b3d
00000240: ae9f 0aba 54fc 0cbc c33c 98be 8570 773b
00000250: bbfd 193d d3d1 0dbe 39fb 13bc 2c4b a1ba
00000260: f60e ecb7 03c7 df3d 9ff8 093b b5b4 d3bd
00000270: 32a8 9c3c 3705 e9bc b5b7 05bd ab15 b0bd
00000280: f42c 843d 8d03 f7bd 062d 13bc bc33 8bbc
00000290: a490 4d3d d785 213d 8d5c 16ba 83f2 9bb9
000002a0: ed4a 453e 67f3 9f3c 43f6 1abe 7871 abbb
000002b0: 8b40 4ebd 41fd 23be 642b 1e3e 5578 a7bd
000002c0: d30c 9fbd f928 613c d835 e7bc e44e bbbe
000002d0: f1e5 243c f37c fcbb 185f 05bc 1fac 943e
000002e0: 5e6a 133c 87a4 84bd a3b5 4f3c 2025 a8bd
000002f0: e179 4ebe 4905 8f3a d735 0abd 33d3 3cbe
00000300: 7c0e 503c f1cf 173c b550 a6be 6eba 533d
00000310: 0c31 b33d e9d9 bdbc 423e dc3e 8b15 073d
00000320: c9bb d1be 4772 ffbb dcc4 0cbf 0243 133e
00000330: b2a6 b63c 8cd8 80be e6cb 86be d64d 873d
00000340: a3b7 70be af33 f3be b891 cd3b 0220 1c3d
00000350: 9eae bc3b 9526 903d ce41 af3b 0e47 10be
00000360: d2ae 233b e306 88be 626c aebe 622a a33b
00000370: 2c16 48bc c8c2 78bd 4834 ce3b 1607 b83b
00000380: 4ee1 86be 9223 9e3d 83e8 f4bd 0534 8ebd
00000390: 03ed a63d 53d4 00bd 764e e2bd 6f21 84bc
000003a0: 5e85 0c3d 84dc de3d 1241 bdbe 0dbb 183f
000003b0: f5c0 e0bd d87b 39bf dfc4 3e3e 0d3d 25bf
000003c0: fdb1 9abc ea6d 453d bce3 b6bb 9380 9cbc
000003d0: 480f 2cbd d3e7 fdbc bc2e c0bb facb 883d
000003e0: e31e 013c a7d1 c63d c092 afb9 5019 a4be
000003f0: 2ac6 8c3c b806 ae3d eac8 95be 38c6 253c
-0.0159874 0.01313484 0.0061761946 0.3085549 0.0138512105 -0.269766 0.0046191225 0.04208753
-0.19837148 -0.0608221 0.14983173 -0.31848627 0.029380316 0.023597864 -0.3259919 0.009132937
0.005181365 0.003701988 0.030220818 0.0032821908 -0.019522449 0.0017325499 -0.10448342 -0.2251796
0.019788934 0.07990243 -0.26723573 0.019306263 0.01891902 -0.16839942 0.00012796048 -1.5489624e-05
0.0029671888 0.09581077 -0.0075265546 -0.058886554 0.0014378384 -0.11260457 -0.24646045 0.0032186217
0.0049284245 -0.30590647 0.011074396 -0.008148421 -0.32653537 0.007719924 -0.000106305444 -0.005555316
0.017206063 -0.0015010524 -0.035969928 0.0014414596 0.0002940057 -0.20435238 -0.017903557 0.004130908
-0.14430241 0.017139269 0.008879996 -0.27488843 -0.018332666 -0.00327267 -0.017133668 0.3014403
-0.0094060125 -0.045388516 -0.013710116 -0.029786292 -0.197698 0.025219688 -0.009050243 0.014733534
0.03138186 0.005935622 -0.122810565 0.008989857 -0.0007356564 0.004649681 0.016134245 0.008679451
0.014480147 -0.003249994 0.042423774 -0.16315408 0.0052382755 -0.03460281 -0.09447122 0.016216148
0.027956929 -0.012665504 -0.0018460067 0.025708335 -0.021134987 0.3676032 -0.008972941 -0.18564722
-0.0008130888 -0.17942643 -0.17103222 0.026650432 0.06244078 -0.19672476 0.0055601913 0.005633055
-0.2983021 -0.0044761845 0.0012509845 0.0085077025 0.08592819 -0.040005986 -0.2890848 0.084875345
-0.22706757 -0.19237144 0.025550082 0.017961383 -0.38134483 -0.03039364 -0.03692095 -0.18164115
-0.010031099 0.015934836 -0.0043863766 0.020642633 0.0064181364 -0.2266874 -0.010331033 -0.20766768
-0.086189486 -0.030936562 0.097151525 -0.28323823 -0.015595412 -0.004746065 -0.27186617 0.004108271
0.007978839 -0.047277715 0.03842516 -0.0042955177 -0.15176725 -0.0021150117 -0.10957434 0.04193534
-0.00052880764 -0.008605082 -0.29733858 0.0037756276 0.03759549 -0.13849573 -0.009032064 -0.0012305728
-2.8140359e-05 0.1092663 0.002105273 -0.103372015 0.01912317 -0.02844487 -0.0326459 -0.08597883
0.06453887 -0.12061224 -0.008982902 -0.016992442 0.05018677 0.03943428 -0.0005735837 -0.0002974459
0.19266863 0.019525243 -0.15133004 -0.0052320324 -0.05035452 -0.16014577 0.1544624 -0.081772484
-0.07766118 0.013742679 -0.028223917 -0.36583626 0.010064588 -0.007705325 -0.008140348 0.29037568
0.008997528 -0.064766936 0.012677583 -0.08210206 -0.2016368 0.0010911609 -0.033742752 -0.18439941
0.012698766 0.009265886 -0.3248345 0.051691465 0.08749589 -0.023175197 0.4301625 0.03297953
-0.4096358 -0.0077956053 -0.54987884 0.1438103 0.022296283 -0.25165212 -0.26327437 0.06606643
-0.23507552 -0.4750037 0.0062734745 0.038116463 0.0057581207 0.07038609 0.0053484207 -0.14089605
0.0024976027 -0.26567754 -0.34067065 0.0049794177 -0.012212317 -0.060732633 0.0062928535 0.005616079
-0.2634377 0.07721628 -0.119584106 -0.06943516 0.08150675 -0.03145249 -0.110501215 -0.016129224
0.034306876 0.10881904 -0.36963707 0.59660417 -0.10974304 -0.72454596 0.18629788 -0.6454628
-0.0188837 0.048200525 -0.0055813473 -0.019104278 -0.04200676 -0.030994331 -0.005864946 0.066795304
0.007880899 0.09707957 -0.00033487938 -0.32050562 0.017184336 0.08497375 -0.29254848 0.01011806

network.0.bias f4 [512]
00000000: 58a1 b7bd d81f febd abcc f43c 4036 85bd
00000010: 79a3 2cbe 149b 39be a21b eebd 7514 e6be
00000020: 1dde 9abd b5c4 1cbe 2388 9fbe 7410 d9be
00000030: e5a9 9abb 0611 0fbf 0eb6 abbd cd27 c1be
00000040: ac69 a3be f817 c0be b3bd 6dbe 9856 96be
00000050: 35e0 87bd 72bc 82be e845 c2be 2183 30bd
00000060: dcc3 c1be 6945 21be 0eb0 993b 1fb9 b1bd
00000070: 6ff3 96be e4ea 0fbe 7213 75be d845 97be
00000080: 1dd2 78be c806 79bd 48bb c8be 1c6e b7be
00000090: fd78 edbd 8d81 a9be 942d 2abf 14bf b4be
000000a0: 9362 cfbd 3f35 90be a7a2 97be 5279 e83d
000000b0: de31 07bc 2a97 2bbe 849a 01be ecd0 c0be
000000c0: 24dd 0abf 5362 86be f29e a2bd 5782 1cbe
000000d0: 0085 49be 9a8b 41be 957f abbd 25f9 cbbe
000000e0: aab2 60be 5637 66be bdfc 29be db2b 19be
000000f0: ff3a 8fbe 586b 01bf c5c3 3abd 2875 83be
00000100: cd48 18be 11f5 b6be 0b8e 33be 3c1f afbe
00000110: 887a a8be 9e63 3bbe a167 8abe 53d9 92be
00000120: 105b c3be 0d60 adbd f15d 99be 4c9a e9be
00000130: 1fc6 a8ba e87b ecbe 28df 69bd f576 84be
00000140: f30b 75be 57a2 bcbe 624a 6bbe 2256 a9be
00000150: a0f9 fcbc 9643 703e b883 3dbe a923 56bd
00000160: 8e05 dcbe b74b 36be 866f 2bbe 875c f1bd
00000170: bd62 8bbe ed06 11be de75 c4bd d9e7 0bbf
00000180: 3aed a1be 17e3 9ebe f7f9 0abe 4101 35be
00000190: 35f7 48be f835 b6bd 32ba 15be 8afd 9cbe
000001a0: ca56 d4be bfe9 a0be c7de 57be fbb5 12be
000001b0: 193a 60be 49fa 00be b5d2 6abe f4cf b2bd
000001c0: 9e43 8cbe 96f0 9a3b f2a7 bbbe 6c91 4fbd
000001d0: 88db 9abd 89e0 16be b464 1ebe 148a b7be
000001e0: 9681 6cbe fb46 99be 0d30 00bb 2eae 30be
000001f0: 7e72 5abd 1a1f 87bd 3f91 9cbd 59d4 63be
00000200: dac5 9abd 4088 35bc ac4e 93be f3f7 b4bd
00000210: 0aec d0bd a746 79be f362 eabd acc9 a2be
00000220: 5b45 03be 8759 ad3e 0c80 4cbe eade 54be
00000230: e3aa c73b 017c 27be fae1 c7be c60d e6be
00000240: 0156 a2bc 8e1d bcbe 07b8 11bd 5efe febe
00000250: ac9f 6ebe 02d4 bfbe 7fd0 e3bd df5a 8dbe
00000260: 86e4 82be ffdd e7bc f6cf cebe ef6e d43c
00000270: a7a9 f0bd f2fe c7be 6cfd 4bbe d694 8bbe
00000280: a00d 7cbe 3377 0bbe 32e9 8dbe d51b b4bd
00000290: b06e a3be 9b24 69bd 7993 b9be bb57 9ebe
000002a0: 1a5e bfbe df77 aebe ff3d bfbe 82f2 bfbd
000002b0: e6fb a7be 4d3d 8fbe a2da 64bd e5ed f7be
000002c0: f108 24be b3d9 36be 62ba 393e fcdd e0bc
000002d0: eac0 82bd 6418 88be 579c 31bf c781 c8be
000002e0: 51e2 debe c3aa 1abe 22ec 99be 39d4 53bd
000002f0: 2a2e dbbd ce05 9dbe 9602 9cbe fac6 bcbd
00000300: c41a 73be ab3c cdbe e000 88be bd3a bfbe
00000310: d861 68be 5525 88be dca2 babd 0bd1 15be
00000320: d38b cbbe a141 b3be b1ee 65be 962f d2be
00000330: 01bc dcbe 180e d3be fe8b f0bd 9105 eabe
00000340: b3f8 e83c 508c f3be dda5 74be 4836 9abe
00000350: d353 a0be 9e23 aebe 7328 2abe 93ba bdbe
00000360: 3476 bcbe 2fc1 52be 08f3 53bf 63c4 94bd
00000370: 083b 2abe 828c a2be f647 e0bd 8e17 c9be
00000380: d277 f1be 844a d3bb d723 27bd 8bc3 64be
00000390: 24f3 3ebd 78c6 27be 2431 37be f2de dbbd
000003a0: 5110 14be 6efc ecbd 5b4e 64be 76b2 94bd
000003b0: d924 f1be 6dd4 14bd 748b 07be d505 cfbe
000003c0: c167 b1be 0604 08be 0d7c d9bd b5a0 bcbe
000003d0: 983b e6be cc37 e0bb 4496 34be 076c 0fbf
000003e0: 8aab 58bd 1e09 e2be 5f75 b8bd 1af1 d9be
000003f0: 78b0 e3bd abef b6be 97b0 c7be d64e 303e
-0.08966321 -0.124084175 0.02988275 -0.06504488 -0.16859235 -0.18125564 -0.11626364 -0.44937482
-0.07561896 -0.15309413 -0.31158552 -0.42395365 -0.00471996 -0.5588535 -0.083843336 -0.37725678
-0.3191656 -0.37518287 -0.23216896 -0.2936294 -0.06634561 -0.25534397 -0.3794396 -0.043093804
-0.3784474 -0.15749134 0.004690177 -0.08677887 -0.294826 -0.14054447 -0.23933199 -0.29545474
-0.24298902 -0.060797483 -0.39205384 -0.35826194 -0.11595342 -0.33106652 -0.66475797 -0.3530203
-0.101262234 -0.28165624 -0.2961628 0.11351265 -0.008251635 -0.16756883 -0.126566 -0.37659395
-0.54243684 -0.2624689 -0.07940473 -0.15284096 -0.19679642 -0.1890091 -0.08373944 -0.3983852
-0.21943155 -0.22482046 -0.16600318 -0.14958136 -0.27974698 -0.5055442 -0.045596857 -0.2567532
-0.14871521 -0.35733846 -0.17534654 -0.34203517 -0.32905984 -0.1829972 -0.27032188 -0.2868143
-0.38155413 -0.08465586 -0.29954484 -0.45625532 -0.0012876427 -0.46188283 -0.057097584 -0.25872007
-0.2393034 -0.36842605 -0.22977594 -0.33073527 -0.03088075 0.23463282 -0.18507278 -0.052280102
-0.42972988 -0.1780232 -0.16741762 -0.11785226 -0.2722377 -0.14162798 -0.09592794 -0.54650646
-0.31626302 -0.3103263 -0.13571917 -0.1767626 -0.19625552 -0.088970125 -0.14621809 -0.30662185
-0.41472465 -0.31428334 -0.21081077 -0.14327233 -0.21897162 -0.12595476 -0.22931941 -0.0873107
-0.27395338 0.004728387 -0.3665157 -0.050675794 -0.075614035 -0.14734091 -0.15468103 -0.35847533
-0.23096308 -0.29936966 -0.001955989 -0.17253944 -0.053331845 -0.06597729 -0.07644891 -0.22248973
-0.075572684 -0.011079848 -0.2877096 -0.08836355 -0.10201271 -0.24343358 -0.11444654 -0.31794488
-0.12819426 0.33857366 -0.19970721 -0.2078816 0.0060933693 -0.16355897 -0.39039594 -0.44932383
-0.0198164 -0.36741298 -0.035575893 -0.49803442 -0.23303097 -0.37466437 -0.11123752 -0.27608392
-0.25564975 -0.028304098 -0.40393037 0.025931804 -0.117511086 -0.39061695 -0.19920892 -0.2726199
-0.24614573 -0.1361969 -0.27716976 -0.08794371 -0.31920385 -0.056919675 -0.36245325 -0.30926308
-0.3737648 -0.3407583 -0.37351987 -0.093724266 -0.3280937 -0.27976456 -0.055872567 -0.48423687
-0.16019036 -0.17856483 0.18137506 -0.0274496 -0.06384452 -0.2658111 -0.6937918 -0.39161512
-0.4353204 -0.15104203 -0.30062968 -0.051716063 -0.107021645 -0.3066849 -0.30470723 -0.09217639
-0.23740679 -0.40085348 -0.26563168 -0.373495 -0.22693574 -0.26590982 -0.09113094 -0.14630525
-0.39755115 -0.35011008 -0.22454335 -0.4105193 -0.43112186 -0.4122169 -0.117454514 -0.45707372
0.028438902 -0.47567987 -0.23891397 -0.30119538 -0.31313953 -0.3401155 -0.16616993 -0.37056407
-0.36808932 -0.20581506 -0.8279271 -0.0726402 -0.16624081 -0.31747824 -0.109512255 -0.39275783
-0.47161728 -0.006448092 -0.040805664 -0.22340219 -0.046618596 -0.16384304 -0.1788984 -0.10735883
-0.14459349 -0.11571585 -0.22295515 -0.07260601 -0.47098425 -0.036335398 -0.13236791 -0.40434137
-0.3464947 -0.13282785 -0.10619364 -0.3684136 -0.4496734 -0.006842589 -0.17635447 -0.5602421
-0.052897967 -0.4414758 -0.09006762 -0.42566758 -0.11117643 -0.35729727 -0.39001915 0.17217574

network.2.weight f4 [27, 512]
00000000: 57a5 82bc 0fd9 4e3b 7f99 153c 7d19 dc3a
00000010: 6f82 9b3c 04d8 1cbc 9706 ce3c ed0c a13a
00000020: 4dc7 343b 5a19 7c3c 0749 17bd f271 033d
00000030: 0020 873b 8c98 12be a614 f83c 1b05 9e3d
00000040: d5e7 2f3c 092e bbbb 7f31 9abc aabd 4a3b
00000050: c518 42bc afa4 be3b 2647 1a3d d294 c9bc
00000060: 22a3 803d 2369 77bb dc10 b5bc a2c8 533c
00000070: 6aeb a8bc 8b86 46bc 7f49 5cbc 81b2 bc3c
00000080: 2207 71bc c58a 0abd f445 e7bd 3efa 8c3c
00000090: fe05 49bc 8138 8e3a 41cf fdbd 4d20 d4bb
000000a0: ebd2 5dbc efc4 433c e2be 98ba f91f a63d
000000b0: d6ef 923c e088 91bb c75e 203c 4d86 603c
000000c0: c59b cbbd aaf5 4fbc 25e4 b9bc d33a a83b
000000d0: ef63 f63c 645e 963c 28be 51bc 3e54 e5bc
000000e0: f323 2f3b eda9 363d af29 56bc c5d0 6c3c
000000f0: 10c7 aebc 933a 9abd 23ae 96bc 1e26 813c
00000100: a34b 1dbd d606 87bc 680b 55bc 2915 19bd
00000110: e913 80be 32a4 9cbc de37 f83c 5d6b 683b
00000120: 770a dbbd 7b9e 44ba a7e1 923c 02a9 ba3c
00000130: b467 fb3d f48d 9ebc 812e 3d3c 035b afbb
00000140: 2cd8 1d3d bed4 233b 62cf 423a 41db a93c
00000150: c4e4 6e3c 92cb f13d 9290 efbb d64a 4a3d
00000160: a580 173b fd5d 3a3c b43c e4bb 5a1e 343c
00000170: cc76 69ba 1364 b1bc 06c5 033d 12e3 26be
00000180: 55b1 c4bb be6d b73c e392 2cbd e934 31bd
00000190: fd23 82bc 652d dd3b 5340 8bbb 2ddf 92bc
000001a0: e610 00bd 6d07 e83b bf7d f0bb 7346 a33b
000001b0: ed27 9f3b 06a7 103c b812 a83a d413 cabc
000001c0: 63d6 c2bc 81c1 3f3c 0862 e6bc 0ae3 5f3a
000001d0: 2b69 c2bc de2d 76bc a7bf 81bc 0f37 c93c
000001e0: 564e 2ebd a269 9c3a 73f1 29bc 6152 6b3c
000001f0: 5529 333d 156f 903c f736 1c3d 44ba f9bc
00000200: 994a b9bc 43e2 843c 25ed 21bd 655d 413c
00000210: bfb2 8c3b 594a bbbc c0ea 59bc 13f5 7cba
00000220: fe31 b0bc 8ca6 113e 8a93 543b f641 cd3c
00000230: 9e92 923b 0944 6c3c 5224 05bd 1272 81bc
00000240: bc5d 25bc c125 a53c ff75 be3b bcb9 1abc
00000250: 4a41 453c be47 933b b622 1dba 2778 3dbd
00000260: 1f16 403c 3bea 093d 6b6e 6bbc 05d1 f63c
00000270: d433 faba 133c 753c 1b28 f1bb 3a0b c2bc
00000280: 821b 9dbc 0896 5ebc 8415 993b 80f7 34bc
00000290: bd99 39bb f768 11bd d8c1 153c 16eb 06bb
000002a0: ba7e 83bc 9120 ffbc ec63 d43c fc38 e03c
000002b0: 6a1e ee3b 5e1a 083c bd48 d2bc ee35 813b
000002c0: bfc0 8fbc 875a 43ba 6396 e73d 3537 a6ba
000002d0: a723 4bbc 79b9 82bd 4dd6 62be 4a82 7bbc
000002e0: cc20 2bbb 51b6 fa3d 4a0f 28bc 193c 81bb
000002f0: 041c b1bb 9dd2 8b39 6033 e93b 49ca 793c
00000300: 0378 5abc 1544 e7b9 93c1 08bc d2be bbbc
00000310: 3133 79bb 889b c6bc 0c3b 6a3c 8f9f 9dbc
00000320: e964 dc3d 319a 033d 5032 80bc dcc2 51bc
00000330: 3f8f a43b f26b 8c3c 4b26 3bbc 8fcb 47bd
00000340: 0bf1 4238 b5b1 a83a 762c 12ba 9dd9 d23d
00000350: 1aa9 bd3c ef4a 95bb e44d 9e3b 096c b9bb
00000360: ae07 25bd 67f0 903c 9167 22be 29f4 3d3b
00000370: 1b7b 72be c402 c5bb 27c3 de3c 6364 08bb
00000380: ea15 13bc 903d 3abc 1f70 483a df84 013d
00000390: b8ad 96ba 2edf 7cbc fa2c ce39 81fd 4ebc
000003a0: 103d 823c aeb9 8c3b 3dc3 df3c 58d6 96bc
000003b0: 8c36 90bc c124 823c 8dcc 71bc 335a 7bbc
000003c0: 005e 5dbb 056b 77bc 6ff7 20bd 7ad7 3fbd
000003d0: 75d1 98bd 18d6 dabc bd2d 423b def1 2abe
000003e0: 4418 acbc 17b9 ec3c 0eed 18bd d5ee 123d
000003f0: 6aaf c03c d7c6 a6bd c511 fc37 a9f7 cb3d
-0.01594798 0.0031562482 0.009130835 0.0016792264 0.018983094 -0.0095729865 0.025149627 0.0012287177
0.0027584613 0.015386904 -0.03693488 0.03209109 0.0041236877 -0.14316005 0.030283283 0.077158175
0.010736425 -0.005712275 -0.01882243 0.0030935802 -0.011846726 0.0058179717 0.03766551 -0.024607096
0.06281115 -0.0037751875 -0.022102766 0.012926253 -0.020620067 -0.0121170385 -0.013445257 0.023034336
-0.014711173 -0.033823747 -0.112926394 0.017209169 -0.012269495 0.001085058 -0.12393046 -0.006473577
-0.013539056 0.011948808 -0.0011653567 0.08111567 0.017936628 -0.0044413656 0.009788222 0.013703895
-0.0994182 -0.012692848 -0.022691796 0.0051339655 0.030076949 0.018355556 -0.012801684 -0.027994271
0.0026724308 0.044595648 -0.013071462 0.014454071 -0.021335155 -0.075307034 -0.018393582 0.015765246
-0.03840221 -0.016482752 -0.013003208 -0.037373696 -0.2501519 -0.019121263 0.030300077 0.0035464384
-0.106953554 -0.0007500422 0.017929865 0.022785667 0.12275639 -0.019354798 0.011546732 -0.0053514256
0.038536236 0.002499863 0.0007431415 0.020734431 0.014580909 0.11806406 -0.0073109353 0.049387775
0.002311745 0.011374948 -0.006965244 0.0109935645 -0.0008905947 -0.021654164 0.032170318 -0.16297558
-0.006002585 0.022391196 -0.04213227 -0.04326335 -0.015886301 0.006749796 -0.0042496114 -0.017928684
-0.031266116 0.0070809633 -0.007339209 0.0049827634 0.0048570544 0.008828884 0.0012822961 -0.024667658
-0.023783868 0.01170385 -0.028122917 0.00085406064 -0.023731789 -0.015025584 -0.015838457 0.024562387
-0.042555176 0.0011933337 -0.010372507 0.014362902 0.04374059 0.017631093 0.038138356 -0.030484326
-0.022618579 0.016221171 -0.0395328 0.011802052 0.004293769 -0.0228626 -0.013300598 -0.0009649556
-0.021508213 0.14223689 0.0032436573 0.025055867 0.0044730445 0.014420518 -0.03250534 -0.015801463
-0.010093149 0.020159604 0.005812406 -0.009443697 0.012039492 0.0044946363 -0.0005994247 -0.046257164
0.011724024 0.033670645 -0.014369587 0.030128965 -0.0019088932 0.014967936 -0.0073595173 -0.023686994
-0.019178156 -0.013585575 0.0046717543 -0.011045337 -0.0028320395 -0.035500493 0.009140454 -0.00205869
-0.016051639 -0.031143459 0.025926553 0.027370922 0.007266809 0.008307068 -0.02566945 0.0039431965
-0.017547963 -0.00074521493 0.11307981 -0.0012681248 -0.012398637 -0.06383032 -0.22152062 -0.015350888
-0.0026112078 0.12241805 -0.010257551 -0.003943932 -0.005404951 0.00026669065 0.00711672 0.015245982
-0.013334277 -0.00044110478 -0.008346933 -0.022918139 -0.0038024897 -0.024244085 0.014296304 -0.019241123
0.107614346 0.03212947 -0.01564899 -0.012802806 0.005021959 0.017141316 -0.011422704 -0.048778113
4.6477693e-05 0.0012870344 -0.0005576083 0.10295413 0.023151923 -0.004556052 0.0048310626 -0.0056586307
-0.040290527 0.017692758 -0.1585982 0.0028984642 -0.23679774 -0.0060122926 0.027192665 -0.0020811788
-0.008977393 -0.011367217 0.0007646102 0.031620856 -0.0011495864 -0.01543407 0.00039324892 -0.012633682
0.015898257 0.0042945957 0.027314777 -0.018412754 -0.017604135 0.015886666 -0.014758241 -0.015341329
-0.0033777952 -0.015101199 -0.03929847 -0.046836354 -0.07461826 -0.026713416 0.0029629313 -0.16693828
-0.021007665 0.028896851 -0.037335448 0.0358723 0.023521144 -0.081433944 3.0049016e-05 0.09959347

network.2.bias f4 [27]
00000000: 9624 363e fa74 363e 009d 343e 2d72 363e
00000010: ab51 383e 8c7c 383e 0021 353e b391 333e
00000020: 8c5b 313e cef8 303e 76ca 313e 7c40 343e
00000030: c2ce 363e f66e 363e 1698 333e 203f 333e
00000040: c106 323e e2e4 313e fa57 373e dd96 393e
00000050: 5adb 373e d965 343e 21d0 383e 8b49 393e
00000060: 3b7e 323e b08f 353e 237c 363e
0.17787394 0.1781806 0.17638016 0.17816992 0.17999904 0.18016261 0.1768837 0.17536049
0.17320079 0.17282411 0.17362389 0.17602724 0.1785231 0.17815766 0.17538485 0.17504549
0.17385389 0.17372468 0.17904654 0.18123956 0.1795477 0.17616977 0.18048145 0.1809446
0.17430966 0.17730594 0.17820792
