code/models/dqn/dqn_20.pth (torch, 90003 bytes, 4 tensors)

network.0.weight f4 [512, 15]
00000000: fbcc 09be 8d82 343e 65d9 f23d decb b63d
00000010: 34f3 49bc d17f 2f3c ebba 26be a7d8 0cbd
00000020: 816f 533e 5293 973d bba3 e63b 4f7d fa3d
00000030: 5f44 97bd 1d62 03be dcaf c7bd 9aa1 963d
00000040: 1163 b63d 0aeb dc3d a7dd e2bd 8392 2f3d
00000050: c7d8 343e 792c 0abe 5369 3d3e e95d 00be
00000060: 54e3 013c 9698 ac3d d540 54be e35a 523c
00000070: 072b d43c 11cc c53d 8eda 343e 158d 00bd
00000080: f5b6 973d 1d94 f73d 6ba3 8c3d e37e 90bd
00000090: b60b 2a3e 2673 283e 95b8 aabd 9366 713d
000000a0: bb3c 2dbd f0b8 1f3e d950 2d3e 264d bebd
000000b0: 6b02 da3d d0dd 553e 28a3 9e3d 3c3d 42bd
000000c0: bb5c 66be 16e1 74bb 26b9 2fbe c337 2d3e
000000d0: 3ff1 293e d2cb c13d 6f04 103e 61c9 97bd
000000e0: d1e9 643e ca19 5abe ca85 5a3e 46ba 433d
000000f0: 8085 98bc 948f f63d 44fe 92bd 3253 b13d
00000100: 111c 37bd 7138 24be a5c2 d4bc 4b56 41be
00000110: e719 f13d 6e34 aebe 93e1 70be 9fe1 5d3e
00000120: bf55 49bd e9bf 623d 32c6 643e 0558 dd3d
00000130: 6014 cabd e5e9 c3bd 5e05 e2bd d692 88bd
00000140: c788 cebd 70bf 99bd 3383 693c 1bd6 ca3d
00000150: 160c c73e 52b2 9c3e 30f7 c4be 1d9e 593e
00000160: ac3c 4a3d baaa 09be 7913 86bd 480c 2d3e
00000170: 3645 6abe cb5f 66bd 8c29 f1bd 4a6a 7e39
00000180: 558f fabd fc2d e33d c621 73bd be4c 98bd
00000190: b502 ad3d 7b18 2bbe aefa b6bd 58dd 8f3c
000001a0: 3cd1 52bc a5e9 2fbe 9a83 94bd 07b4 d4bd
000001b0: 85c0 a13d e5de 533e 0f4f 0abe d123 dcbd
000001c0: 690e 6bbe fb0e 8bbd ff0c 6b3d cb22 163e
000001d0: 3e24 83bc 5425 dc3d c587 e43d 0778 2fbe
000001e0: 2141 3fbd a924 88bd 2b24 ac3d bc36 543e
000001f0: a184 04bd 415b 2f3d e58b 223e 6cee 7a3e
00000200: 5d2d abbd 34ef 1c3d 288a 3d3d 1ee6 81bd
00000210: 02d5 e4bc bddd 413e 8af9 843b b13a f63c
00000220: 0a8c 1a3e 5a7f 93bd 73f4 013e 43a0 b43a
00000230: 24fe b03d 1858 013c 89a4 583e e4f7 6e3e
00000240: 15de 45be 4eba f43d 61b0 753e 5958 0bbe
00000250: 082e fb3c 4b90 85be 0fa0 48be 5fbd 023e
00000260: a8e2 533e 426d 9cbd a67e 2bbe 4d93 c93d
00000270: c25d e33c e7cd 28be 7d7d 2c3d 71c1 3bbe
00000280: dbc4 a7bd 6a80 623e c5ec 25be cf75 a5bd
00000290: 6d16 debd d061 05be d2c1 bfbd 342d 1dbe
000002a0: 2f77 35be f15f 32bd 0bce 95bd 2acd c6bc
000002b0: 3fd4 6abe e5d5 da3d 224f 0dbe 014e 1bbe
000002c0: 325d 943e a1ce 6cbe 6ffc 3abe 3f15 a83d
000002d0: b3ec 173e 9397 cbbd b582 b33d f54c 423c
000002e0: 4af2 223e 6a67 f1bd 230c 88bd a21b c23d
000002f0: 5ed8 0e3e 79d9 20be d588 13bd 4656 4cbd
00000300: e088 7c3d b286 29be 5e05 f33c df1e 233e
00000310: c600 3e3d 1d55 5b3e cd55 22be 6765 01bd
00000320: dc3e 523e 6793 793d 512f 00be 8d14 d6bd
00000330: 30af 07be 9db5 c53d 1b73 6c3c 423c b6bc
00000340: 4dee 083d 9807 523e 46c3 95bd 37ea 693e
00000350: be10 223d a41d 69be fbe4 51bd 56c7 3b3c
00000360: 0393 0039 0e50 eebd 2b29 f53d ebca 3d3e
00000370: 82a1 51be 6755 773e 4170 743e d2b4 0bbe
00000380: a349 12be b734 c4bd 157f e43d 2dd8 fc3c
00000390: 884d 3c3e 86e4 06be 8e29 d6ba bed2 6a3d
000003a0: af6f 6ebe b992 8ebe 2400 d5bc 6113 f23d
000003b0: 9117 7fbe 9d42 eebd c5fa 333e b931 07be
000003c0: 399d a03a 487a 0f3e 7856 223e 3d53 84bc
000003d0: 6045 b93d 14c8 b83b 9d93 e4bc 4156 1bbe
000003e0: ddf8 0abe 8d74 4f3e e7bb 3ebe c4b7 203e
000003f0: bee9 fe3d 4ebd 08be b376 4bbe 5a9d fe39
-0.134571 0.17627926 0.11857871 0.08925603 -0.012326051 0.010711626 -0.16282241 -0.034386303
0.20648004 0.07401146 0.007038561 0.12230932 -0.073860876 -0.12830396 -0.097503394 0.07355042
0.08905614 0.10787018 -0.11077433 0.042864334 0.17660819 -0.13493527 0.18497209 -0.12535824
0.007927734 0.08427541 -0.20727856 0.012839052 0.025899423 0.09658063 0.17661497 -0.031384546
0.07407943 0.12088797 0.06867107 -0.07055452 0.1660603 0.16450176 -0.083359875 0.058935713
-0.042294245 0.15597892 0.16925372 -0.09292059 0.106449924 0.20885396 0.07745963 -0.04742168
-0.22496311 -0.0037365607 -0.17160472 0.16915803 0.16595934 0.09462704 0.14064191 -0.07411457
0.22354819 -0.212989 0.21340099 0.047785066 -0.018618345 0.12039104 -0.071774036 0.08658446
-0.0447045 -0.16037156 -0.02597172 -0.18880574 0.117725186 -0.34024376 -0.2352355 0.21668099
-0.04915404 0.0553588 0.2234123 0.10807804 -0.098671675 -0.09566096 -0.1103618 -0.06668632
-0.10084682 -0.07507217 0.014252472 0.099041186 0.38876408 0.30604798 -0.3846984 0.21251722
0.049374267 -0.13444033 -0.06546683 0.16899216 -0.22877964 -0.0562437 -0.117755026 0.00024262923
-0.1223437 0.11092755 -0.05935838 -0.074365124 0.08447782 -0.16708557 -0.08934532 0.0175616
-0.012867268 -0.17178972 -0.072516635 -0.103859 0.07898048 0.20690496 -0.13506721 -0.10749019
-0.22954716 -0.06789967 0.05738544 0.1466171 -0.016008493 0.10749307 0.111587085 -0.1713563
-0.04669297 -0.06647617 0.08405336 0.20724005 -0.032353047 0.042811636 0.15873678 0.24505013
-0.08358262 0.03831406 0.046274334 -0.063427195 -0.027933601 0.18932243 0.0040580677 0.030057283
0.15092483 -0.07202025 0.12690906 0.0013780672 0.086422235 0.007894538 0.21156515 0.2333675
-0.19322999 0.11949597 0.23993064 -0.1360792 0.030661598 -0.2608665 -0.19592308 0.12767552
0.20691931 -0.07638027 -0.16747531 0.098425485 0.027754668 -0.16484796 0.042111862 -0.18335511
-0.08191844 0.22119299 -0.16203602 -0.08079111 -0.10844121 -0.13025594 -0.0936314 -0.15349275
-0.17721246 -0.043548528 -0.0731469 -0.024267752 -0.22932528 0.106853284 -0.13799718 -0.15166475
0.28977352 -0.23125698 -0.18260358 0.08207177 0.14836387 -0.0994102 0.08765165 0.011859168
0.15912738 -0.11787303 -0.0664294 0.09477927 0.13949725 -0.15707959 -0.036019165 -0.049886964
0.06165397 -0.16555288 0.029665645 0.15929745 0.046387456 0.21419187 -0.15853043 -0.031590845
0.20531791 0.06093159 -0.1251805 -0.104531385 -0.13250422 0.096537806 0.01443174 -0.02224553
0.033430386 0.2051071 -0.07312636 0.22843252 0.039566748 -0.22765213 -0.051243763 0.0114611
0.00012261797 -0.11636363 0.11970743 0.18534438 -0.20471767 0.24153672 0.23870946 -0.13643196
-0.14285903 -0.09580367 0.111570515 0.0308648 0.18388951 -0.13173112 -0.0016339289 0.057329886
-0.23284791 -0.27846316 -0.026001044 0.118201025 -0.24911334 -0.11633799 0.1757613 -0.13202561
0.0012253887 0.1401149 0.15853298 -0.016152972 0.09046435 0.0056390855 -0.027902419 -0.15169622
-0.13571496 0.20259304 -0.18626367 0.15695101 0.124469265 -0.13353464 -0.19869499 0.0004856389

network.0.bias f4 [512]
00000000: cac1 96bd da3e 113e f3c1 0a3d 4e9e 623d
00000010: ebd7 3b3e 77f0 103d 6c36 73be 2bcf 833e
00000020: ab7f 23bc 61a7 06be c954 583e e44f 163e
00000030: b184 4c3d 5c89 5bbe 5d15 b83c 5fab 053e
00000040: 9b4b 2b3c 0db6 5d3e 4404 663e 56f4 0b3d
00000050: c8a7 1ebe ccd8 30be 13c2 09bd 6e06 4ebe
00000060: f57e 8fbe 7854 113e 66cd 053c 26b8 aebc
00000070: 1031 5c3e 44ce e1bd 076b 453e 2576 4dbe
00000080: c308 52be be82 9a3d b3fa e73d 9c1b 53be
00000090: 2a6c 213e 74f2 f63d 95ad e13d 935b 10be
000000a0: bd1a 033e 0dec ee3b 1253 3f3e fb01 b3bd
000000b0: 0b28 e23d 36f7 573e a1f9 79bc def4 36be
000000c0: 8959 7d3e 23b1 87bd bf71 9c3c 9dfd 5abe
000000d0: be70 02be 1071 3fbe 4287 b1bd 7ecd bbbd
000000e0: 9628 03be 0b3f 013d d97c 8f3d a8bb 373c
000000f0: 252c 54bc 987f e7bd 0b9a 893e 8807 91bd
00000100: efad 47be a784 823d 590e b43c 5cb3 40bd
00000110: 8f86 f73d dbc9 7abe ae1f d9bd ee7c 52bd
00000120: 0829 8fbd c412 3d3e d347 39be 586f d13b
00000130: 83e6 2d3c 1dc4 85bd 97d8 7a3e 08d9 2f3e
00000140: 293b 41be df0f 00be ec30 1d3e 46a6 c2bd
00000150: d00a 0d3e 48e9 8bbd 0a48 483e 3dae 11be
00000160: bb84 813d 754a 25be 2b80 673e a868 373e
00000170: 8b69 8b3c 63aa 96bc 09fd 4e3e 59bb debd
00000180: 3f4e 2e3e 911e 723e c86b 44be 6ce2 33be
00000190: 9e5a d7bc 2a1a fbbd 35ff 083e 1093 3bbe
000001a0: 577f 783e cb8c e43c 71ac 00be 6685 80bd
000001b0: 9fff 553e a836 81bd b848 8ebb f551 753e
000001c0: c547 603e d6e0 cd3d 3984 d3bd 2400 18be
000001d0: bc96 acbc 9da3 293e ac80 5bbe d807 55bd
000001e0: c528 39bd c787 efbd 9cc4 8f3c 4faa 173d
000001f0: 328f 1abe bf64 2d3e ce50 c0bd 8f9b ee3d
00000200: 4889 00be e641 c53c e5f0 57be d7f4 7dbe
00000210: 0326 25be 06a8 903d df28 223e 976d 64be
00000220: 9861 15be 3b4b ff3d a1dd 5cbd 9aaf a6bd
00000230: 5fb7 9e3d 4e2b 283e 90f9 29be d5af 28be
00000240: 9a98 2f3e 296c 763e 4f19 193e 17ff 37be
00000250: 0f33 a13d 82e5 093e f932 363a 6f41 17be
00000260: ecc1 6b3d 187c 943d f7f7 95bd 5d64 01bd
00000270: b17a 68be ae16 f03c 6e61 893e 0b94 c0bd
00000280: f1fa 71be d7c4 5fbe 3014 603d 057c 6f3e
00000290: c6c9 2d3e 00e3 adbd fb3b 023e d70b 303d
000002a0: de41 c83d cc82 c03d 78c3 6c3e f8b8 b2bd
000002b0: e00a 57be 918b fc3d 3e52 a83b 1b14 263e
000002c0: 57fe 283e 6043 26bd f641 a6bc 0673 e03d
000002d0: 493e 2b3d a2df 12be 4399 20be d82d 523e
000002e0: 9699 2abd dc7a c0bc 8255 953d cf97 683b
000002f0: b660 d13d 80fe 943d e5e4 7ebe 6f04 fabd
00000300: ab0d 323c b288 5f3c 5937 dd3d 6238 e4bd
00000310: 5cda 8dbc 6b25 e3bd 882a 343e 3a1b cb3d
00000320: 661a 38be 5463 b63c 80e0 6cbe 71fe 26bd
00000330: 6b76 31be d1c8 1abc 5289 283e b538 77be
00000340: d37f 7c3e a269 b73c b6b7 5bbe 59bf cdbc
00000350: 7711 c7bd 05f3 dbbd 5cd6 41be 1c20 e5bd
00000360: 123f 383e d618 7a3e 91a9 543e 89c3 47be
00000370: 4314 383d e14f c13c 8f4e 153e 322a a93d
00000380: 14ee 49be c0e4 173e 5ba7 4b3e 8a19 473e
00000390: 0be5 ff3d db79 073e 12b0 5c3e 88d0 023d
000003a0: 066e debc a21e edbc 2f25 4fbe f260 7abe
000003b0: 142f f5bd b2ce 4c3e 5184 743e f692 0e3e
000003c0: da95 73be 7960 dfbd b189 ff3d ce8d 0b3e
000003d0: 7ea2 9fbd b99c 153e 31da 513d 365c 6dbe
000003e0: dd12 653e 2e7a 88bd 1373 e7bd b39e 093d
000003f0: 8086 59bc d018 703e 6058 283d b9c2 a4bd
-0.07361181 0.14184132 0.03387637 0.055326752 0.18344085 0.035385575 -0.23751229 0.25743994
-0.009979169 -0.13149787 0.21126093 0.14678913 0.049931232 -0.21439117 0.022471124 0.13053654
0.0104550375 0.21651478 0.22462565 0.034168564 -0.15493691 -0.17270201 -0.03363235 -0.2011964
-0.28026548 0.14192379 0.008166647 -0.021328043 0.21503091 -0.1102567 0.19279109 -0.200646
-0.20511155 0.07544468 0.11327114 -0.20616001 0.15763918 0.12057963 0.11019436 -0.14097433
0.12803169 0.007291323 0.18684033 -0.08740612 0.11042794 0.21090397 -0.01525727 -0.17866847
0.24741186 -0.06625583 0.019097207 -0.21385808 -0.1273832 -0.18695474 -0.086683765 -0.09170054
-0.12808451 0.031554263 0.07006235 0.011214174 -0.012949978 -0.113036335 0.26875338 -0.070815146
-0.19499944 0.06372958 0.021979498 -0.04704605 0.12086212 -0.24491064 -0.106017455 -0.051388673
-0.06990248 0.1846419 -0.18093805 0.006391447 0.01061404 -0.06531546 0.24496685 0.17172635
-0.18870224 -0.12506054 0.15350693 -0.095043704 0.13773656 -0.06831604 0.1955873 -0.14226623
0.063241445 -0.16141684 0.22607486 0.17911017 0.0170181 -0.018391794 0.20213713 -0.108755775
0.17022036 0.23644473 -0.1918174 -0.17566842 -0.026288327 -0.1226085 0.13378604 -0.18317819
0.24267326 0.027899167 -0.12565781 -0.06275444 0.20898293 -0.06309253 -0.004342165 0.23957045
0.21902378 0.1005265 -0.10327954 -0.14843804 -0.02106797 0.1656632 -0.21435803 -0.052009434
-0.045204896 -0.11695819 0.017549805 0.037027653 -0.15093687 0.16932963 -0.09390412 0.11650764
-0.12552369 0.024079274 -0.21087988 -0.2480043 -0.16127782 0.07063298 0.15835904 -0.2230743
-0.1458801 0.12465521 -0.0539223 -0.08138962 0.07749819 0.1642277 -0.16599107 -0.16473325
0.17148057 0.24064697 0.1495106 -0.17968403 0.07871067 0.13466457 0.00069503445 -0.14771055
0.057557985 0.072502315 -0.07322686 -0.031589855 -0.22703053 0.02930769 0.26832145 -0.09403237
-0.23630883 -0.21852432 0.054706752 0.23387153 0.16971502 -0.084905624 0.12718193 0.04298004
0.09778188 0.093999475 0.2312144 -0.08726686 -0.21000242 0.12331308 0.005136757 0.16218607
0.16503273 -0.040591598 -0.020295125 0.10959439 0.041807447 -0.14343122 -0.15683465 0.205253
-0.041650377 -0.023496084 0.072917 0.0035490876 0.10223524 0.072751045 -0.24892004 -0.12207877
0.0108675165 0.013643431 0.10801572 -0.11143567 -0.017316036 -0.11091121 0.1759435 0.099173024
-0.1797882 0.02226416 -0.23132515 -0.040769998 -0.17330329 -0.009447292 0.16458634 -0.24142726
0.24658136 0.022389237 -0.21456799 -0.025115656 -0.09720128 -0.10739712 -0.18929428 -0.11187765
0.1799281 0.24423537 0.2076781 -0.19508184 0.044941198 0.02359766 0.14580749 0.08260001
-0.19719726 0.14833355 0.1988806 0.19443336 0.12494858 0.13230078 0.2155154 0.031937152
-0.027152073 -0.02894527 -0.20229028 -0.24451044 -0.1197187 0.20000723 0.238786 0.13923249
-0.23787633 -0.109070726 0.124774344 0.13628313 -0.07794665 0.14610566 0.051233474 -0.23179707
0.22370477 -0.06663929 -0.113012455 0.033598613 -0.013276696 0.23446965 0.041099906 -0.08044953

network.2.weight f4 [27, 512]
00000000: 7400 a6bc 48d4 e5bb ac35 b3bc cf89 b23c
00000010: 5113 8e3d 3fab 543d 4967 e5bc e092 59bc
00000020: 73d7 ac37 d8c1 84bc 7600 c5bc dd21 ffbb
00000030: d950 cb3c 0bbb 953c 5ed1 253d 522c 273d
00000040: b6e1 c33c ad37 703c f2d0 51bc 9ee6 553b
00000050: 428a 15bd 893d 923c 0a91 ba3b 8d77 233c
00000060: 3493 443a b937 103d 182a f3bc 9035 a93a
00000070: cce8 5abc bc8e e03c 6627 c9bc 5bf0 1038
00000080: 3ace 143d d52a bf3c 70c6 88bc 7a29 c7bb
00000090: 7b0c 053d 58d5 5f3c 3aec 193d a179 b5bc
000000a0: 0144 65bc c2a6 843d 6e5b c83c e76a 35bb
000000b0: 863c 82bc a67b 183d 219d 11bb dc1f cc3c
000000c0: 852d a1bc 7b04 fcbc 13c5 b6bb 87d2 c23c
000000d0: 45cd 033c 4034 71bc 3ba0 c5ba edd9 833c
000000e0: 41de 053b e319 bc3b 0843 0bbc 16ad 383c
000000f0: 3c9f 3fbc ea95 813c 4eec 4a3d 986c eb3c
00000100: 07c3 913c 0074 893c 681a 933d 2731 df3c
00000110: 311a cfbc 104e 2f3d 7adf 933b 0bfd 213c
00000120: 9309 f9bc 3f1e 26bd 2de4 c53c e475 b03c
00000130: eb69 253c 308a 07bd 7ee5 663d 3167 6e3c
00000140: 3a27 b4bc a257 4c3c 4f20 0b3d 9091 f03c
00000150: bc14 87bb 8b78 8abc d566 603d f201 4bbc
00000160: fb92 eb3c c1a1 8f3d 14fa 0f3c 0b0b f73a
00000170: 5616 053c 4ab7 9b3c ab94 693c 56cd aebc
00000180: a0c8 a1bc b714 1a3d 8966 cfbc 6b11 daba
00000190: 173e 28bd 2448 3f3c e2b6 0e3d b334 363d
000001a0: 6796 acbc 806e 99bc aad5 10bc 92cf efbb
000001b0: b3a2 9e3b 91aa 8bbc ca06 763a 5a92 83bc
000001c0: 9417 22bd 3f9e 85bd 112f 78bc 2007 9abc
000001d0: 0bac 923c 0ae8 19bd f13b ac3b 9d4e 3fbc
000001e0: 4a89 91bb 6231 b9bb 142a 05bc bd91 ef3c
000001f0: 4bc8 893c 1a11 603c 538d be3c 4a97 d5bc
00000200: 597f edbc a566 933b 1405 943c 9528 113c
00000210: 789f 923d 0ea7 36bd 942c b33c b205 ef3c
00000220: d564 783a 5122 ec3c bf82 9c3c 3557 8d3b
00000230: b29e d33c 43da 37bc b77c 2b3d 7ec8 97bc
00000240: 0fbf 9ebc 8b03 053c d5d8 6a3b f47c a4bc
00000250: 5ca8 99bc 1454 cbbc 1225 4a3a 9a61 633d
00000260: 3ac2 c0bc 4ca0 103d 65a0 8a3c e11a 83bd
00000270: 8570 02bd ce6f 1f3c 901e 123d 0282 14bc
00000280: 4008 02bd e67a b2bc e8bc 9abb 17b3 a53b
00000290: a1a5 92bc a779 54bc c819 a13b 15e1 dcbc
000002a0: 721b b33b de22 363c 323c ec3c 8147 92bc
000002b0: 7e1e a9bc d004 ebbb 5652 2f3e 8334 babb
000002c0: 9340 603a 804c 74bc 67b9 c53c 072f d1bc
000002d0: 5fcc 44bc 6a38 3ebb 1258 9bb9 9935 65bc
000002e0: fa2a a63c 605a d93c f4e9 c7bc c65c 14bd
000002f0: 6fa4 ab3c e331 75bb 0038 7d3d 006c 22bc
00000300: 6f0e 08bd 4829 80bc 328c 603c 4aa3 ef3c
00000310: 4359 f5bc 4eb5 32bd 6cc9 79bc 5543 85bc
00000320: 3e12 13bd 81ac 033c 5f06 8fbc 1eb6 c9bc
00000330: 47db 64ba b640 913c 328e 9f3c 3bef 5cbc
00000340: 0965 2e3d ac68 b7bb 75c0 df3c cd9d 583d
00000350: 3d85 9d3c 6e75 36bd 7393 073d 0a46 d639
00000360: 7050 2bbc e78f 03bd b7bb 913c 0ab8 e0b8
00000370: 2259 7bbb aa2a 20bd 70cf eebc 8955 c03c
00000380: bf2e e53b 6476 803c a4b1 413c 7fe3 83bc
00000390: b118 8a3b d97b 9f39 c67a 32bc 6679 f7bc
000003a0: 60d8 863c 415e f8bc 034e ecbc f51e d9bc
000003b0: c0ca 433d 8b98 bdbb f040 3cbd 7a12 fa3b
000003c0: d192 95bd 8f2b e43c 1d19 6e3c 686f e5ba
000003d0: d9b4 20bd b816 b4bc 2250 e73c 1228 433d
000003e0: 93fb 113d 8b2f 31bc a5bd f13c 47ea 16bd
000003f0: bc12 813b 29fc bfbb fcaa 203c f5d4 0e3c
-0.020263888 -0.0070138313 -0.021876179 0.021794228 0.06937278 0.051921126 -0.028003352 -0.013279647
2.0604324e-05 -0.016205713 -0.024048071 -0.0077860192 0.024818825 0.018277666 0.04048287 0.04081375
0.023911338 0.014661712 -0.012806164 0.003263868 -0.036508806 0.017851608 0.0056935595 0.009977234
0.00074987416 0.03520939 -0.029683158 0.001290964 -0.013361167 0.027411811 -0.02455492 3.4556124e-05
0.036329485 0.023335854 -0.016696185 -0.0060779424 0.032482605 0.013661705 0.0375788 -0.022152724
-0.013993264 0.06477119 0.02445766 -0.0027682127 -0.015898 0.037227295 -0.00222189 0.024917535
-0.019675026 -0.030763855 -0.0055776923 0.023782028 0.008044546 -0.01472193 -0.001507766 0.016095126
0.0020426663 0.0057403906 -0.008499868 0.011271736 -0.011695679 0.015818555 0.049541764 0.028738305
0.017793192 0.016778946 0.07182771 0.027245117 -0.025281044 0.042799056 0.0045127245 0.00988699
-0.030400073 -0.04055619 0.024156654 0.02154059 0.010096054 -0.03309077 0.056371205 0.01455097
-0.021991361 0.012472065 0.03396636 0.029366285 -0.004122345 -0.016903182 0.05478557 -0.0123906005
0.02875661 0.07013274 0.008787651 0.0018847896 0.008123001 0.019008297 0.014256637 -0.021338146
-0.019748986 0.03761741 -0.025317447 -0.0016637271 -0.04107484 0.0116749145 0.03484238 0.04448385
-0.021067811 -0.018729448 -0.008840004 -0.0073184455 0.0048411726 -0.017049106 0.0009385167 -0.016060997
-0.039573267 -0.06524324 -0.01514794 -0.018802226 0.017904302 -0.037574805 0.005256169 -0.011676458
-0.004441415 -0.005651639 -0.008127708 0.029244298 0.01681914 0.013675952 0.023260748 -0.026073117
-0.028991388 0.00449832 0.018068828 0.008859773 0.071593225 -0.04459291 0.021871842 0.02917752
0.00094754744 0.028824957 0.019105313 0.0043133744 0.025832508 -0.011221471 0.041866984 -0.01852822
-0.019378213 0.0081185205 0.0035834808 -0.020079114 -0.018757038 -0.024820365 0.00077112124 0.055513002
-0.023530114 0.03530912 0.016922185 -0.06401611 -0.03184559 0.009731246 0.035673678 -0.009064199
-0.03174615 -0.021787118 -0.0047222264 0.0050567496 -0.017901244 -0.012968457 0.0049164034 -0.026962796
0.005465918 0.011116711 0.028837297 -0.017856361 -0.020644423 -0.0071722046 0.17121252 -0.0056825294
0.0008554544 -0.014910817 0.024136258 -0.02553512 -0.0120116165 -0.0029025325 -0.0002962952 -0.013989829
0.020284165 0.026532352 -0.02440355 -0.03622129 0.020952431 -0.0037413768 0.061820984 -0.0099134445
-0.03321689 -0.015644684 0.0137053 0.029252667 -0.02994979 -0.043629937 -0.015245777 -0.016267458
-0.03590607 0.008036734 -0.017459093 -0.024622973 -0.00087301846 0.017731052 0.019476984 -0.013484771
0.042576823 -0.0055971947 0.02731345 0.052884866 0.019228572 -0.044545583 0.033099603 0.00040869444
-0.0104561895 -0.032119658 0.017789705 -0.00010715432 -0.0038352688 -0.039103188 -0.029151648 0.023478286
0.006994098 0.015681453 0.011822138 -0.01609969 0.004214369 0.00030419117 -0.010893529 -0.030209254
0.016460598 -0.030318381 -0.028845793 -0.02650402 0.04780078 -0.005786007 -0.045960367 0.007631597
-0.07303394 0.027852802 0.014532355 -0.0017504515 -0.03923497 -0.02198349 0.028236452 0.047645636
0.03564031 -0.010814558 0.029509375 -0.036844518 0.003939001 -0.0058589173 0.009806391 0.008717765

network.2.bias f4 [27]
00000000: edd4 1d3d 8103 a03c bee0 bdba a6ff 04bc
00000010: 4194 f83c 648c 78bb d0e7 03bd 168c 3abc
00000020: 8816 cdbc 0ca4 9a3c 1313 c53c bb8f fa3b
00000030: b183 e9bc 5097 fbbc 7e32 9cbc 9d92 dbb9
00000040: 3348 e5bb 3818 cc3c 462c be3c 48e6 1a3d
00000050: af39 4f3b c673 f2bc aa4d 4fbb c89a 17bc
00000060: 1ee8 8d3c 0c29 4e3a 13ba 963b
0.03853314 0.01953292 -0.0014486534 -0.008117592 0.03034413 -0.0037925476 -0.032203496 -0.011385938
-0.025035158 0.018877052 0.024056947 0.0076465285 -0.028505178 -0.0307118 -0.019067045 -0.0004188017
-0.006997132 0.024913892 0.02321447 0.03781727 0.0031620075 -0.02959622 -0.0031631985 -0.009253211
0.017322596 0.0007864393 0.0045998185
