code/models/dqn/dqn_47_1650378082.0029528.pth (torch, 173843 bytes, 4 tensors)

network.0.weight f4 [1000, 15]
0	0xbda61b21	-0.08110643
1	0xbe7070fc	-0.234806
2	0xbe814a02	-0.25251776
3	0xbb824dc9	-0.003976558
4	0xbd970627	-0.0737422
5	0x3e203bd9	0.1564783
6	0xbe10cf4c	-0.14141577
7	0xbd8af269	-0.06784517
8	0xbd326416	-0.04355248
9	0xbe2e90ea	-0.17047468
10	0xbe8e3afc	-0.27779377
11	0xbd62a88f	-0.05533653
12	0xbd828d11	-0.063745625
13	0x3d9cb82e	0.07652317
14	0x3e01e4d9	0.12684955
15	0x3d4dead9	0.050272796
16	0xbc94df36	-0.018172842
17	0x3d912c57	0.07088535
18	0x3dbf4d59	0.09340925
19	0xbdeb9726	-0.11503439
20	0xbef008b8	-0.46881652
21	0xbc5cdcd0	-0.01348038
22	0x3deb5446	0.11490683
23	0xbdf0eed3	-0.11764302
24	0xbe80de53	-0.2516962
25	0xbe971580	-0.2950859
26	0x3d5e8574	0.05432649
27	0xbde483ba	-0.11157937
28	0x3e17b7c7	0.14816199
29	0xbe9146b8	-0.28374267
30	0x3c89e6b2	0.016833637
31	0x3e03b3dc	0.1286158
32	0xbdd48c38	-0.10378307
33	0x3e4a1ae6	0.19736823
34	0x3d4ff755	0.050772984
35	0xbd3d4e72	-0.04621739
36	0xbc548293	-0.012970584
37	0x3df5ca56	0.12001483
38	0xbe439e03	-0.19103245
39	0x3da0a144	0.07843259
40	0xbe84596d	-0.25849476
41	0x3d1f4b03	0.038889896
42	0xbd95ad01	-0.073083885
43	0xbe07042f	-0.1318519
44	0xbd6ba8fb	-0.0575342
45	0x3d98f10c	0.07467851
46	0xbe1d7a2d	-0.15378638
47	0xbdb253f7	-0.08707421
48	0x3e6423da	0.22279301
49	0xbd62a070	-0.055328786
50	0xbd5678f8	-0.05236146
51	0xbe3aabb2	-0.18229559
52	0xbe10c511	-0.14137675
53	0xbd8271d8	-0.0636937
54	0x3d493ffa	0.04913328
55	0x3dba08cb	0.090837084
56	0xbe882095	-0.26587358
57	0xbe2bbc4d	-0.1677105
58	0x3cd62856	0.02614228
59	0x3dafa47c	0.08576295
60	0xbc2ba327	-0.01047591
61	0xbd8e546b	-0.06949695
62	0xbde638c6	-0.112412974
63	0x3e827838	0.25482345
64	0xbd4d3e3a	-0.050108172
65	0xbc933a1b	-0.017972043
66	0xbd9f9597	-0.07792204
67	0x3e136aff	0.14396285
68	0x3e638eb1	0.22222401
69	0x3d4102f1	0.047121946
70	0xbe5b0497	-0.2138847
71	0xbe88255c	-0.26591003
72	0xbeae4f42	-0.34044844
73	0xbe93feaa	-0.2890523
74	0xbea78f55	-0.3272654
75	0x3e376e84	0.17913252
76	0x3e3c7c1f	0.18406723
77	0xbe5de20c	-0.21668261
78	0x3d662132	0.056184
79	0xbe835fa2	-0.256589
80	0xbd6dbaf8	-0.058039635
81	0x3c2f7b03	0.010710481
82	0x3ccd416c	0.02505561
83	0x3e149bc1	0.1451254
84	0x3dda29c0	0.106524944
85	0x3e155bfc	0.1458587
86	0x3e0b753e	0.13618943
87	0x3e5840d2	0.21118477
88	0xbd87748a	-0.06614025
89	0xbe1bd517	-0.15218006
90	0x3da72615	0.081615604
91	0xbe001762	-0.1250892
92	0x3c5923b9	0.013253146
93	0x3ea9d172	0.33167607
94	0xbcefc1db	-0.029267242
95	0x3e3ea1a4	0.18616349
96	0xbcda9043	-0.026680117
97	0xbe95d470	-0.2926364
98	0xbd01f265	-0.031725306
99	0xbd314284	-0.043276325
100	0xbe054eee	-0.1301839
101	0x3d3f805d	0.046753276
102	0xbe0f9402	-0.14021304
103	0x3d5799b5	0.05263682
104	0xbeace186	-0.3376581
105	0x3da71cbe	0.08159779
106	0xbd9462e8	-0.07245427
107	0xbdce6a46	-0.10078864
108	0xbdd14076	-0.10217373
109	0x3d5165fe	0.051122658
110	0xbdc8d066	-0.09805374
111	0xbe4a0331	-0.1972778
112	0xbd9602cb	-0.073247515
113	0xbb8eb329	-0.0043548536
114	0xbdff4309	-0.12463958
115	0xbdde730f	-0.108617894
116	0x3dfb3025	0.12265042
117	0xbe15c6a6	-0.1462656
118	0xbe479796	-0.19491419
119	0xbe4526a1	-0.19253017
120	0xbd8a9167	-0.067660145
121	0xbdb889e3	-0.09010675
122	0x3da2a44d	0.07941494
123	0x3e01bfff	0.12670897
124	0x3d058a12	0.032602377
125	0x3d214ae2	0.039378054
126	0xbe9b7733	-0.3036438
127	0x3da08383	0.07837584
128	0xbddceb4e	-0.10787068
129	0xbe1ac35a	-0.15113583
130	0xbde78b6c	-0.113058895
131	0x3dff7968	0.12474328
132	0xbd18de28	-0.03732124
133	0x3da0aee5	0.078458585
134	0xbddaa659	-0.106762595
135	0xbc18f11b	-0.009334828
136	0xbe0da4c6	-0.13832387
137	0x3e856d9c	0.26060188
138	0x3d25f100	0.04051304
139	0xbe7d2629	-0.24721588
140	0xbe900c3f	-0.28134343
141	0x3d93ef26	0.07223348
142	0xbd8e1a48	-0.069386065
143	0x3df877d6	0.12132232
144	0xbe777b28	-0.24168074
145	0xbc8cec25	-0.017202446
146	0x3e2e6c01	0.17033388
147	0x3d04c499	0.032414053
148	0x3d58303a	0.052780367
149	0xbe7a8c0c	-0.24467486
150	0xbdfa45cf	-0.12220346
151	0x3dddf4df	0.10837721
152	0xbe8e21e6	-0.27760237
153	0x3ddc0e41	0.10744906
154	0x381ccf5c	3.7386417e-05
155	0x3e469fc5	0.19396885
156	0xbcc67948	-0.024227753
157	0x3d442cce	0.04789429
158	0xbe86b165	-0.26307216
159	0x3dcb5c0d	0.09929667
160	0xbe3e4f44	-0.18584925
161	0x3dd37659	0.103253074
162	0x3d833e64	0.064083844
163	0xbd5e3e8b	-0.054258864
164	0xbe512fc0	-0.20428371
165	0xbc08d388	-0.008351214
166	0xbd9dc4ea	-0.07703574
167	0xbddc9f91	-0.107726224
168	0x3d3507a0	0.044196725
169	0xbd9cde75	-0.07659618
170	0xbea46f6c	-0.32116258
171	0x3cc1c291	0.023652347
172	0xbe71c890	-0.23611665
173	0x3e524456	0.2053388
174	0xbdf015ee	-0.11722933
175	0xbd9fe4ed	-0.07807336
176	0xbe6e7930	-0.23288417
177	0xbe307418	-0.17231786
178	0xbd26ff99	-0.0407711
179	0xbdb82f5c	-0.08993408
180	0xbe1a5d76	-0.15074715
181	0xbd3b9435	-0.045795638
182	0xbdeab363	-0.114599966
183	0xbd010f99	-0.031509016
184	0xbd7701cb	-0.060304444
185	0x3cd4c8c7	0.025974644
186	0xbcd409a1	-0.025883498
187	0xbe2d4840	-0.16922092
188	0xbc39a710	-0.011331335
189	0xbdf97d4d	-0.12182102
190	0xbe8100f4	-0.2519604
191	0xbdd977aa	-0.10618527
192	0xbe7fcf67	-0.24981461
193	0xbdd766e9	-0.105176754
194	0xbdf17312	-0.11789526
195	0xbdaf949c	-0.08573267
196	0x3ce71658	0.028208897
197	0x3d34b446	0.044117235
198	0x3e87d853	0.2653223
199	0xbd2e1516	-0.042500578
200	0xbe96181e	-0.29315275
201	0x3d8fbbd8	0.0701825
202	0xbcb0bf07	-0.021575464
203	0xbe6db6b6	-0.2321423
204	0x3d21fdd9	0.03954873
205	0xbe219920	-0.15781069
206	0xbe8e86b5	-0.27837148
207	0xbe86e25a	-0.26344568
208	0xbe062f77	-0.13104044
209	0x3e0aab0d	0.13541813
210	0xbe1b152e	-0.15144798
211	0x3df3eda7	0.11910563
212	0xbdbb85bf	-0.091563694
213	0x3e3da4e1	0.18519928
214	0xbe585d3d	-0.21129318
215	0x3dc9d9d1	0.09855998
216	0x3a3cfb23	0.0007209053
217	0xbe49c4b5	-0.19703944
218	0x3e3b5db8	0.1829747
219	0x3d1f6bb5	0.038921077
220	0x3e500cb2	0.20317343
221	0xbb058d91	-0.002037857
222	0xbe3076b0	-0.17232776
223	0x3e633e4d	0.22191735
224	0x3a5e7ed0	0.00084875245
225	0x3a051d1b	0.00050778844
226	0x3d2118dd	0.039330352
227	0xbd4a63e3	-0.049411666
228	0x3e84b35b	0.25918087
229	0x3c33ac97	0.010966442
230	0x3abb6751	0.0014297758
231	0xbd6be287	-0.05758908
232	0xbd92350e	-0.07139026
233	0xbe8156e7	-0.25261614
234	0x3dd7ed6b	0.10543331
235	0xbe04717d	-0.12933917
236	0xbddd55d8	-0.10807389
237	0x3d45d1c4	0.04829575
238	0xbea3ecba	-0.32016546
239	0x3d65cde6	0.056104563
240	0x3dfde367	0.12396889
241	0xbdd2ea22	-0.102985635
242	0xbd75b9b2	-0.059991546
243	0x3e3245e9	0.17409481
244	0x3c95578c	0.018230222
245	0xbe7e1fea	-0.24816862
246	0x3c6bf472	0.014401542
247	0xbe80d3f7	-0.25161716
248	0x3df8dcd1	0.121514924
249	0xbeb7ee7d	-0.3592414
250	0xbe296fc9	-0.16546549
251	0xbd9ec5db	-0.07752582
252	0x3dd6ab8c	0.10481939
253	0xbd894d40	-0.067041874
254	0xbd098f2a	-0.033583798
255	0x3e66b8c3	0.22531419

network.0.bias f4 [1000]
0	0xbdcf45a3	-0.10120704
1	0x3d50509b	0.05085812
2	0xbea5a0d2	-0.3234926
3	0xbe0e5813	-0.13900785
4	0x3d801718	0.06254405
5	0x3e792602	0.24330905
6	0x3d7ac0fa	0.061219193
7	0xbd933547	-0.07187896
8	0xba95b70f	-0.0011422354
9	0xbd3c7678	-0.046011418
10	0xbe98685c	-0.2976712
11	0xbe20fe5d	-0.15722032
12	0xbe018368	-0.12647784
13	0x3dfc524d	0.12320385
14	0x3de8dbf0	0.11370075
15	0xbe8efe54	-0.27928412
16	0xbe763114	-0.2404216
17	0xbe13bac1	-0.1442671
18	0xbdd7549c	-0.10514185
19	0xbea6e7b5	-0.32598653
20	0xbd7537ff	-0.059867855
21	0x3e275d57	0.163442
22	0x3d802124	0.06256321
23	0xbebd4a4d	-0.3697075
24	0xbea0eeea	-0.31432277
25	0xbde72a4a	-0.11287363
26	0x3e8f6e52	0.28013855
27	0xbe161c4d	-0.14659233
28	0xbe11bde5	-0.14232595
29	0xbc0c2e85	-0.008556013
30	0xbd89481e	-0.067032084
31	0xbe96b2cf	-0.29433295
32	0xbe352614	-0.17690307
33	0x3e458dee	0.19292423
34	0xbe588252	-0.21143463
35	0xbe3d61bb	-0.18494312
36	0xbce54038	-0.027984723
37	0x3deb54c2	0.11490776
38	0x3ddd575e	0.108076796
39	0xbe876abb	-0.26448616
40	0x3c957eee	0.018249001
41	0xbe595a7c	-0.21225923
42	0xbbb2ae41	-0.0054529016
43	0xbccb6b4e	-0.02483144
44	0x3dc05130	0.09390485
45	0x3e469b9c	0.19395298
46	0xbdac8c96	-0.08425252
47	0xbde399eb	-0.11113342
48	0xbeb2c819	-0.34918287
49	0xbd9807cc	-0.07423362
50	0xbddbab93	-0.107260846
51	0xbea2db7f	-0.31808087
52	0xbb2704e5	-0.0025485095
53	0x3e7915ed	0.2432477
54	0xbe887adb	-0.2665623
55	0xbc407130	-0.011745736
56	0x3e777615	0.24166138
57	0xbdfbcf5f	-0.12295412
58	0xbdd55ba2	-0.10417868
59	0x3cb9b1b6	0.022667747
60	0xbe2e2a8a	-0.17008415
61	0xbe477f6d	-0.19482203
62	0xbe1dc7dd	-0.15408273
63	0xbd9e5ad8	-0.07732171
64	0xbe8f4999	-0.27985838
65	0xbdb0e4f5	-0.0863742
66	0xbd2a8bf9	-0.041637395
67	0x3d05191e	0.032494657
68	0x3e23e91c	0.16006893
69	0xbe99ef55	-0.30065408
70	0xbe9e1027	-0.30871698
71	0xbe19dd49	-0.1502582
72	0xbdfbd6fc	-0.122968644
73	0xbe0bbc46	-0.1364604
74	0x3e4e2da0	0.20134592
75	0xbddd4ea1	-0.10806013
76	0xbe51cfe8	-0.20489466
77	0xbe9a17a1	-0.30096152
78	0xbe277782	-0.16354182
79	0x3dedf8e1	0.116197355
80	0xbdf8c21d	-0.12146399
81	0x3e3baaf1	0.18326928
82	0xbea130a8	-0.31482434
83	0xbe00bd80	-0.12572289
84	0x3e255299	0.1614479
85	0xbd7146fa	-0.05890558
86	0xbd6c4274	-0.057680562
87	0xbda7373d	-0.08164833
88	0xbc4ec5a1	-0.012620361
89	0xbd624b12	-0.055247374
90	0x3e25298c	0.1612913
91	0x3da8a572	0.08234681
92	0xbe45c740	-0.19314289
93	0x3db20fef	0.08694445
94	0xbe23c9a2	-0.15994886
95	0xbc79be89	-0.015243181
96	0x3e31f951	0.17380263
97	0xbea4c683	-0.32182702
98	0x3d6effc3	0.058349382
99	0x3cc57283	0.024102455
100	0x3e6cc0da	0.23120442
101	0x3e2eb8b1	0.17062642
102	0x3d69d6a3	0.05708946
103	0xbe69fda4	-0.22850662
104	0xbe5173fb	-0.204544
105	0x3dbdd8fe	0.092699036
106	0xbeb9eaf9	-0.36312082
107	0xbeac0a15	-0.33601442
108	0xbe0571f8	-0.13031757
109	0xbd7d89a8	-0.061898857
110	0xbe948a07	-0.29011557
111	0x3c8cbbcc	0.017179392
112	0xbe46a88e	-0.19400236
113	0xbe779d94	-0.24181205
114	0xbdb5611b	-0.08856412
115	0x3db2dfa5	0.08734063
116	0x3d74925d	0.059709895
117	0xbe1b4eb3	-0.1516674
118	0xbe863bbe	-0.26217455
119	0xbebbe61d	-0.36699
120	0xbe24ae6c	-0.16082162
121	0x3c2bf3e4	0.01049516
122	0xbe915ecb	-0.28392634
123	0xbea15136	-0.31507272
124	0xbd229648	-0.0396941
125	0x3da66e95	0.081265606
126	0xbe1317a2	-0.14364484
127	0xbe8d187d	-0.27557746
128	0xbe78f315	-0.24311478
129	0xbe3bda16	-0.18344912
130	0x3e7609ad	0.24027129
131	0xbe22b869	-0.1589066
132	0x3d4d534d	0.05012827
133	0x3e890420	0.2676096
134	0xbe7b5b61	-0.24546577
135	0xbd32d95c	-0.04366432
136	0xbd340e98	-0.04395923
137	0x3d840350	0.06445944
138	0xbe7a8af3	-0.24467067
139	0xbeaf1625	-0.34196582
140	0x3e58a0ef	0.21155141
141	0x3ddfb2b6	0.10922758
142	0xbe12617d	-0.14295001
143	0x3cd984b7	0.026552541
144	0xbe5dc06a	-0.21655431
145	0xbe56f57b	-0.20992081
146	0x3c38c181	0.011276604
147	0xbe1bb53c	-0.15205854
148	0xbea533cc	-0.3226608
149	0xbe00db9c	-0.12583774
150	0xbe6e5008	-0.23272717
151	0x3da421c2	0.08014251
152	0xbc9fca9b	-0.01950579
153	0xbe5bd0e5	-0.21466406
154	0xbe8915cc	-0.26774442
155	0xbe2009b7	-0.15628706
156	0xbd7bc5f4	-0.06146808
157	0xbe6a5802	-0.22885135
158	0x3d8ec3d2	0.069709435
159	0xbe4f5929	-0.20248856
160	0xbde42505	-0.111398734
161	0xbdd27639	-0.102764554
162	0x3da7b7b2	0.08189334
163	0xbdf1f5ce	-0.11814462
164	0x3d849867	0.06474381
165	0xbc6869b9	-0.0141853625
166	0xbe12f388	-0.14350712
167	0xbe800b24	-0.250085
168	0xbe58f855	-0.21188481
169	0xbe05c2b1	-0.1306255
170	0xbd913f6d	-0.07092176
171	0xbe184013	-0.14868192
172	0xbbd33bb4	-0.006446326
173	0x3e276cb6	0.16350064
174	0xbe412afd	-0.18864055
175	0xbe82eb85	-0.25570312
176	0xbe3d93c9	-0.18513407
177	0xbafcdab6	-0.0019291255
178	0xbe96b885	-0.29437652
179	0xbe66c0d4	-0.22534496
180	0xbdf96b22	-0.12178637
181	0xbc0b5548	-0.008504219
182	0x3c93e672	0.01805422
183	0x3d7d5258	0.061846107
184	0x3dbd2970	0.09236419
185	0xbd919f58	-0.071104705
186	0xbe3eebf0	-0.1864469
187	0x3d1d8844	0.03846003
188	0xbe414996	-0.18875727
189	0xbe9878dc	-0.29779708
190	0xbb55e71b	-0.003263897
191	0xbe85f5c7	-0.26164076
192	0xbe5a246b	-0.21302955
193	0xbe666dba	-0.22502795
194	0xbe19127f	-0.14948462
195	0xbed7c806	-0.42144793
196	0xbca1b024	-0.01973731
197	0xbd78cc1a	-0.06074152
198	0x3d14a0b4	0.03628607
199	0xbe00b90a	-0.12570587
200	0x3c2b00ab	0.010437171
201	0xbdbfcf57	-0.09365719
202	0x3b65f278	0.003508715
203	0xbe15c269	-0.14624943
204	0xbe7ce389	-0.24696173
205	0xbdb64e6f	-0.08901679
206	0xbe48ff68	-0.1962868
207	0x3d3d2d29	0.046185646
208	0xbd67356c	-0.05644743
209	0x3c7cfb59	0.015440785
210	0xbe863872	-0.2621494
211	0x3e67f8ca	0.22653499
212	0xbdd5d912	-0.104417935
213	0xbe4cd481	-0.20002939
214	0xbd8b0fbf	-0.06790113
215	0xbe4581db	-0.19287817
216	0xbe88a9ee	-0.26692146
217	0xbe09316d	-0.1339776
218	0xbe0dcff5	-0.1384886
219	0x3e023891	0.12716891
220	0xbd63cc88	-0.055614978
221	0x3e0fbcf1	0.14036919
222	0x3e3d0937	0.18460546
223	0x3dd2b50e	0.1028844
224	0x3df98f09	0.12185485
225	0x3e678bff	0.22611998
226	0xbe46eaeb	-0.19425552
227	0x3e3a7258	0.18207681
228	0x3ca7bf13	0.020476853
229	0x3e3ac22c	0.18238133
230	0xbdc29e34	-0.09502831
231	0xbe000a1d	-0.12503858
232	0xbe27be55	-0.163812
233	0xbecdab4b	-0.4016975
234	0x3e05d0e6	0.1306797
235	0xbe230f7d	-0.15923877
236	0xbe90e407	-0.2829897
237	0x3d713f04	0.058897987
238	0xbdf69e85	-0.12041954
239	0xbdf25479	-0.11832518
240	0x3dcd44fc	0.10022923
241	0xbd186d9f	-0.037213918
242	0xbdb94107	-0.09045606
243	0xbe628fb1	-0.22125126
244	0xbb4bf4c4	-0.0031121233
245	0xbd0fc871	-0.035103265
246	0x3dbbaa53	0.09163346
247	0x3d7823a5	0.06058087
248	0xbdea3e30	-0.114376426
249	0xbde9a313	-0.11408057
250	0xbe8b82af	-0.2724814
251	0xbccd8d8e	-0.025091913
252	0xbe3df48a	-0.18550315
253	0xbd5e5845	-0.0542834
254	0xbd6fbf5c	-0.058532104
255	0xbe03ea16	-0.12882265

network.2.weight f4 [27, 1000]
0	0xbd7f7f10	-0.062377036
1	0xbc882508	-0.01661922
2	0x3d62f48e	0.055409007
3	0xbc3710d7	-0.0111734485
4	0x3e0636a5	0.13106783
5	0x3d2033a1	0.039111737
6	0x3d923124	0.07138279
7	0xbd6f083c	-0.058357462
8	0xbd960d7c	-0.07326791
9	0xbdec2aa3	-0.1153157
10	0x3be191a1	0.0068838154
11	0xbdc7123b	-0.09720274
12	0xbb6d6754	-0.0036224918
13	0x3c096a00	0.008387089
14	0x3c532904	0.012888197
15	0xbb7a0aa6	-0.003815332
16	0xbd2965ba	-0.04135678
17	0xbca22ae5	-0.019795844
18	0x3b18163b	0.002320661
19	0xbd7e2e86	-0.062056087
20	0xba1d043a	-0.00059897045
21	0xbe0025e6	-0.12514457
22	0x3da27d45	0.079340495
23	0xbd3bb969	-0.045831118
24	0x390f5f91	0.00013673144
25	0x3c36fef0	0.01116918
26	0x3d5f8e1a	0.054578878
27	0x3d86d174	0.06582919
28	0xbd5bb78b	-0.053641837
29	0xbca5b4de	-0.020227846
30	0xbc98e128	-0.01866205
31	0x3dac66ff	0.084180824
32	0x3cc53242	0.024071816
33	0x3ded44a8	0.11585361
34	0xbdd06b61	-0.10176731
35	0x3d02e77a	0.031959035
36	0x3ab4257d	0.0013744083
37	0xbc722cea	-0.014781216
38	0x3db706bc	0.08936831
39	0xbc6a3727	-0.014295376
40	0x3d99901d	0.074981906
41	0xbe024673	-0.12722187
42	0xbca5e4ba	-0.020250667
43	0xbd1c4cfe	-0.038159363
44	0x3c9ddff7	0.019271834
45	0x3da7ad0a	0.081873015
46	0xbe15bdd3	-0.14623193
47	0x3bce44e2	0.0062948326
48	0xbc06c5af	-0.008225842
49	0xbb93c70a	-0.0045098113
50	0xbc3adcf6	-0.01140522
51	0x3c13fa1b	0.009031798
52	0xbd150196	-0.036378466
53	0x3d4496d9	0.047995422
54	0x3d1bd775	0.038047273
55	0xbd820d60	-0.06350207
56	0xbd7b5c43	-0.061367285
57	0x3d2f132b	0.04274289
58	0x3d60a6d3	0.054846596
59	0x3d92cc6e	0.07167898
60	0xbd3e710e	-0.046494536
61	0xbbcce7c7	-0.006253216
62	0xbd696471	-0.056980554
63	0xbd44471a	-0.04791937
64	0x3cc0532b	0.023477158
65	0x3de74f52	0.11294426
66	0xbbf7a660	-0.0075576752
67	0xbd948c36	-0.072533056
68	0xbe09056e	-0.13380978
69	0xbc4bdf1a	-0.012443328
70	0xbd352140	-0.044221163
71	0xbcc9606c	-0.02458211
72	0x3bebf1c5	0.007200452
73	0x3bc4835d	0.005997105
74	0x3cc722f1	0.024308654
75	0xbcf8f862	-0.030391876
76	0xbceb0977	-0.028691037
77	0x3d02e755	0.031958897
78	0x3d1261d2	0.03573782
79	0xbd90daaf	-0.070729606
80	0xbda11349	-0.078650065
81	0xbd3132da	-0.043261386
82	0xbd88bb28	-0.06676322
83	0x3cfd640d	0.030931497
84	0xbcff462d	-0.031161392
85	0xbd52955c	-0.05141197
86	0xbd56582f	-0.052330192
87	0xbc8b706c	-0.01702138
88	0xbc56668c	-0.0130859725
89	0xbdf1f8dd	-0.11815045
90	0x3e4c7fa0	0.1997056
91	0xbc02bcff	-0.0079796305
92	0x3af1f4c9	0.0018459792
93	0x3d2b2205	0.04178049
94	0xbd94e2bc	-0.07269809
95	0xbc900caf	-0.017584173
96	0x3e2d2d58	0.16911829
97	0x3e3491e6	0.17633781
98	0xbd3ecefd	-0.04658412
99	0x3d05fda3	0.03271259
100	0x3d3bff77	0.045897927
101	0x3d578bb7	0.052623477
102	0xbdab604e	-0.08367978
103	0x3d7113cb	0.058856767
104	0x3a83a84c	0.0010044663
105	0xbd7869b6	-0.06064769
106	0x3d2d06bc	0.04224275
107	0x3d4c92e1	0.049944762
108	0xbcad1fd4	-0.02113334
109	0xbcabcede	-0.020972665
110	0xbb1fb6a4	-0.0024370337
111	0xbd0fcf4a	-0.035109796
112	0x3b753296	0.0037414185
113	0x3b91b52f	0.0044466476
114	0xbe20dee3	-0.15710025
115	0xbd118f34	-0.03553696
116	0xbcc23036	-0.02370463
117	0x3dc0c685	0.094128646
118	0xbbbac46b	-0.0056996844
119	0xbd749ae7	-0.05971804
120	0xbabc6ada	-0.0014375106
121	0x3c9c7f6a	0.019103725
122	0xbc6f7305	-0.014614825
123	0x3d881a37	0.06645625
124	0xbd0606e5	-0.03272142
125	0xbd5904f3	-0.052983236
126	0xbc865039	-0.016395675
127	0x3d07e1ac	0.0331742
128	0x3d52e75a	0.051490165
129	0x3d10f926	0.035393856
130	0xbce81845	-0.028331885
131	0xbd60d951	-0.05489475
132	0x3a82498b	0.000994013
133	0xbda32c40	-0.079674244
134	0x3b03f9a5	0.0020137813
135	0xbc41a9e7	-0.011820293
136	0xbd85ff09	-0.06542785
137	0xbcb6c56c	-0.022310935
138	0x3d3a6f13	0.045516085
139	0xbd7d4eea	-0.061842836
140	0xbdb1c308	-0.086797774
141	0xbe171d49	-0.14757265
142	0xbd1434be	-0.03618311
143	0xbcb98dcd	-0.022650624
144	0x3ca3130b	0.019906541
145	0xbc8532a1	-0.016259493
146	0xbb835f54	-0.0040091667
147	0xbd554e3d	-0.052076567
148	0xbc83471a	-0.016025115
149	0x3d8a7c4e	0.067619905
150	0x3e066dd8	0.1312784
151	0xbd6daa78	-0.0580239
152	0xbc85ac36	-0.016317468
153	0xbdf293ea	-0.118446186
154	0xbddc96b8	-0.10770935
155	0x3c058946	0.008150404
156	0x3b281fee	0.0025653797
157	0x3e0ee1f3	0.1395338
158	0x3bdf67a8	0.0068177767
159	0xbdbd0709	-0.092298575
160	0x3c8ca47c	0.017168276
161	0xbd780c01	-0.060558323
162	0xbd39966d	-0.045309473
163	0xbd96bf5a	-0.07360716
164	0xbc8bdf7d	-0.017074341
165	0xbcf691f4	-0.030098893
166	0xb8366f6c	-4.349595e-05
167	0x3cd24ca6	0.025671314
168	0xbbf0f315	-0.0073531964
169	0xbd93ce57	-0.072170906
170	0x3b1ad7b4	0.0023627104
171	0xbc45048f	-0.012025013
172	0x3cbf1d54	0.023329414
173	0x3dc69a07	0.09697347
174	0xbd2b01b2	-0.041749664
175	0x3cb2da3b	0.021832576
176	0x3cf1a5b4	0.029497959
177	0x3c455b7f	0.01204574
178	0x3e08f76d	0.13375635
179	0x3d3be025	0.045868058
180	0x3c706476	0.014672389
181	0x3cd9f05f	0.026603876
182	0xbccfe8be	-0.025379535
183	0xbe01691d	-0.12637754
184	0xbb810190	-0.003936954
185	0xbdb0719b	-0.086154185
186	0xbd7fb340	-0.062426805
187	0x3df541fb	0.119754754
188	0xbdbf08fa	-0.09327884
189	0xbc4f73f2	-0.012661921
190	0xbe1a7a18	-0.15085638
191	0x3c967d79	0.018370377
192	0xbd0cea27	-0.034402993
193	0x3cd30a51	0.025761755
194	0xbc795155	-0.015217145
195	0xbd803b6d	-0.062613346
196	0xb9802284	-0.0002443978
197	0x3ca3b526	0.01998384
198	0xbd231a59	-0.03982005
199	0xbcf9723c	-0.030449979
200	0x3c4945bd	0.012284693
201	0xbd14ffc8	-0.036376745
202	0xbcda1d6d	-0.02662536
203	0xbcca4dad	-0.024695242
204	0xba98f86a	-0.0011670713
205	0xbbc88a29	-0.0061199856
206	0x3db40051	0.08789123
207	0xbbbefe2f	-0.005828641
208	0xbcde8c93	-0.02716664
209	0xbc5d58c0	-0.013509929
210	0x3d81223e	0.06305359
211	0x3d780dd6	0.06056007
212	0xbd9607ba	-0.073256925
213	0x3d073906	0.033013366
214	0xbb9cb821	-0.004782692
215	0x3c6a0a2f	0.0142846545
216	0xbcfb60b6	-0.030685764
217	0x3cc48795	0.023990432
218	0x3d770c55	0.060314495
219	0x3d0f4934	0.03498192
220	0xbd155f57	-0.036467876
221	0xbc59e9fe	-0.013300417
222	0xbd96adca	-0.073573664
223	0xbccdba1e	-0.025113162
224	0xbd08ce74	-0.033400014
225	0x3d79b76b	0.060965937
226	0xbbad8125	-0.0052949362
227	0x3d586e8d	0.052839804
228	0x3d3253d7	0.043536987
229	0x3dc44c1f	0.095848314
230	0x3a08fb4f	0.0005225436
231	0xbc68e840	-0.014215529
232	0x3b729dad	0.0037020252
233	0xbc689bae	-0.014197273
234	0xbc0d7709	-0.008634337
235	0x3d04875d	0.032355655
236	0xbd84de4a	-0.06487711
237	0x3d7be6c1	0.06149936
238	0xbc4664a5	-0.012108956
239	0xbca127af	-0.019672243
240	0x3d092ee4	0.033491984
241	0xbe04b846	-0.1296092
242	0xbd9fc4d9	-0.078012176
243	0x3dd80f61	0.10549808
244	0x3c846794	0.016162671
245	0xbd121c42	-0.03567148
246	0x3bee22f8	0.007267352
247	0x3d20aac0	0.03922534
248	0xbc5d81ba	-0.013519699
249	0x3de72e6f	0.112881534
250	0xbba843f9	-0.005135056
251	0xbcc15c40	-0.023603559
252	0xbd7dbbc1	-0.061946634
253	0xbcb41b65	-0.021985719
254	0x3d1a7034	0.03770466
255	0xbdee6e92	-0.11642183

network.2.bias f4 [27]
0	0x3e12cc6c	0.14335793
1	0x3dfd34c0	0.12363577
2	0x3dcdd54f	0.10050451
3	0x3d10feeb	0.03539936
4	0x3b1afc76	0.0023649014
5	0xbcb9707e	-0.022636648
6	0x3df27abc	0.11839816
7	0x3df44161	0.119265325
8	0x3de2137e	0.11038874
9	0x3de590f7	0.112092905
10	0x3dff3a59	0.12462301
11	0x3daf09b8	0.085467756
12	0x3c5c237c	0.0134361945
13	0x3ccf8f73	0.025336957
14	0xbca81ed2	-0.020522509
15	0x3d2e4a10	0.0425511
16	0x3d167721	0.036734704
17	0x3c9ae13d	0.01890623
18	0x3d95d300	0.07315636
19	0x3da61da1	0.0811112
20	0x3dd8a82d	0.10578952
21	0x3debb5f7	0.115093164
22	0x3db56748	0.0885759
23	0x3df96f6b	0.121794544
24	0xbc6629cb	-0.01404805
25	0xbcd448b5	-0.025913576
26	0xbcea32d1	-0.028588684
