code/models/dqn/dqn_34_1650361403.4980376.pth (torch, 87827 bytes, 4 tensors)

network.0.weight f4 [500, 15]
000000 73 2f 21 bf d7 7b 17 3e 46 13 57 3d df d2 ab 3f
       -0.62963027 0.14793335 0.052508615 1.3423728
000010 48 05 c7 3d 30 0f 1c be fe d4 fe be 97 a0 3b c0
       0.09717804 -0.15240169 -0.49771875 -2.9316766
000020 01 b6 58 3e d6 9a 23 3e bd 29 d9 3e 04 0d 1e bd
       0.21163179 0.15977034 0.42414656 -0.03858663
000030 16 fa 62 3e ae 25 b0 3d e2 ac 0e 3e 9c 32 84 3f
       0.22165713 0.08600937 0.13933137 1.0327945
000040 43 38 e8 be 7b 80 57 3e ef 6c b9 be 9d 85 ac 3d
       -0.45355424 0.21045105 -0.36215922 0.08423922
000050 85 ca a3 3e db 54 a3 bb 96 4a d2 be ac d6 b4 3e
       0.31990448 -0.004984481 -0.4107253 0.35320032
000060 05 f2 99 be f3 8a ab be 50 eb 08 bd 16 05 28 bd
       -0.3006746 -0.33504447 -0.033427536 -0.041020475
000070 ae 54 b4 be e0 a0 a1 be ad e0 3c bf 08 75 08 3f
       -0.35220855 -0.3156805 -0.7378033 0.53303576
000080 3e 0c 5f be 5c 55 cc 3d 0a 81 b3 bd 1c 80 06 3e
       -0.21782014 0.099772185 -0.087648466 0.13134807
000090 4d ff 7a 3d df 11 c6 be ab 36 3e bf e0 62 46 3d
       0.06127863 -0.3868551 -0.74302167 0.04843414
0000a0 b7 e3 8a 3c 9e b7 ff 3c 7e 24 e4 3d fa 47 98 be
       0.016954286 0.031215485 0.11139773 -0.29742414
0000b0 79 98 36 bc 91 8e a9 be 76 cf 71 3b 74 35 28 bf
       -0.011144751 -0.33116582 0.0036897338 -0.65706563
0000c0 46 2e 0d 3f 33 6f 8b be 1b 31 65 be 0b 73 00 be
       0.5514873 -0.27233276 -0.22382013 -0.12543885
0000d0 8c 2e a4 bd ae 70 0a be 76 88 7e be b2 69 c6 3d
       -0.080166906 -0.13519546 -0.24856743 0.096881285
0000e0 ce b7 b1 3d c9 d9 36 be a8 02 35 bd 6d 30 1f 3e
       0.08677636 -0.17856516 -0.044191986 0.15545817
0000f0 be e4 21 be 6d 6c 88 3e 8c c8 0f 3f 52 e2 77 3f
       -0.15809914 0.26645222 0.56165385 0.9682971
000100 1a 90 c3 be 92 e1 53 bf 85 4f 9e 3d 60 f7 15 bf
       -0.38195878 -0.8276607 0.07730011 -0.5858059
000110 2d e0 56 bd 14 27 ce bd 56 f1 86 be 2c 83 3a bd
       -0.052459884 -0.10066047 -0.26356 -0.04553525
000120 f8 ac c9 3c 34 0d 18 bd e3 10 82 3d 88 78 3e 3f
       0.02461861 -0.037121966 0.06350877 0.74402666
000130 79 dd 52 3d 29 b0 ff 3e e3 8b 9b 3e eb 55 b1 3e
       0.051480744 0.49939087 0.30380163 0.34635863
000140 4b 5d f6 3e 7a 6c ef be 93 70 cc bf 95 6a df 3e
       0.48118052 -0.4676245 -1.5971855 0.43636003
000150 aa 7d 6c be 83 0d a1 be 76 c7 4c be d2 50 00 3e
       -0.23094812 -0.3145562 -0.19997963 0.1253083
000160 b9 5e 25 be 76 51 1b bd 40 09 95 be b8 08 50 be
       -0.16149415 -0.037919484 -0.2910862 -0.20315826
000170 42 1b a3 bf d9 0c 87 3c 0e fe fd 3c f2 8c c9 3d
       -1.2742693 0.016485618 0.031004932 0.09841336
000180 49 54 8d be 49 47 bf be f3 1c 85 be 6a 06 26 be
       -0.27603367 -0.37359074 -0.2599865 -0.16213384
000190 ea 75 fe bb 96 35 24 bd 6c 81 af be b5 85 92 3c
       -0.0077655213 -0.040090166 -0.3427843 0.017886022
0001a0 be bd 68 3d f6 cb ac bd af 31 97 3c c4 9d 6c 3d
       0.056821577 -0.0843734 0.018456308 0.057767645
0001b0 4a d1 86 3e df b0 83 3d 0c d0 4f 3b bc 21 6b bc
       0.2633155 0.0643022 0.00317097 -0.014351305
0001c0 81 06 ec bb 11 cd e1 bd 46 40 c5 be 53 11 65 bd
       -0.0072029238 -0.110254414 -0.385256 -0.055924725
0001d0 eb be d5 3d f0 e8 23 be 87 6d ac be 8c 9a 52 3d
       0.10436805 -0.16006827 -0.33677313 0.05141692
0001e0 f7 69 45 be 84 d5 72 3e 3a 08 49 bf fd 2f a0 3f
       -0.19278704 0.23714262 -0.7852818 1.2514645
0001f0 b0 c5 54 3f a4 c8 80 3e 6f 3a ec be c9 82 ab bf
       0.8311415 0.25153077 -0.4613833 -1.3399287
000200 32 5a 56 be b7 6d 20 3e 84 b0 a2 3e b8 12 d0 3b
       -0.20932844 0.15666853 0.31775296 0.0063498877
000210 a4 08 77 bd a4 a4 b6 3e 37 9c 91 bd 58 cc 00 3f
       -0.060310975 0.35672486 -0.07109874 0.50311804
000220 a7 4d 31 bf 73 75 06 be 7a 0e 88 be ed 1e c4 bd
       -0.69259113 -0.13130741 -0.26573545 -0.09576211
000230 71 f4 9b 3d 15 42 9f bc 84 d8 80 3d 55 6a 80 be
       0.07614983 -0.01944069 0.06291297 -0.25081125
000240 fd 7c 50 3e ab 3d 5a 3e 97 67 f8 3d ed a5 92 3d
       0.20360179 0.21312587 0.12129133 0.07160554
000250 95 a2 40 3e b9 8f 72 be ba 8e 29 3f db 9e ac be
       0.1881202 -0.23687638 0.6623341 -0.33714947
000260 de 76 ea 3d 0d b8 8b bf 0d e3 92 3e d4 04 2b 3e
       0.11448453 -1.0915543 0.2868885 0.1670106
000270 72 74 15 bf 44 a5 24 bf 21 da 63 3e 10 4c 66 be
       -0.58380806 -0.64314675 0.22251178 -0.22489953
000280 67 92 0f be e9 03 9c be 82 d8 57 bd e0 83 e0 3d
       -0.14020692 -0.30471733 -0.052696712 0.10962653
000290 3c 76 58 be ec 10 9b bf a3 67 18 3f dc 4c 82 3e
       -0.21138853 -1.2114539 0.5953314 0.25449264
0002a0 5c 74 31 be 6b 79 e8 3d fd e3 12 bd 3e ac 1a be
       -0.17329544 0.11351284 -0.035861958 -0.15104768
0002b0 e8 57 04 3f ec b2 c5 3f b8 c9 4b 3d 4c 0a 72 3d
       0.51696634 1.5445228 0.04975292 0.05909185
0002c0 4c 82 8d bd 8e ba 83 3e c8 6c 74 3e 75 7c cd 3d
       -0.06909618 0.25728267 0.23869622 0.10033504
0002d0 e2 9e 48 3f 87 e1 a0 be 32 80 6d be ed 53 ca 3e
       0.78367436 -0.31422064 -0.23193434 0.39517155
0002e0 e7 50 d3 be 06 4c bd 3c dc ab 00 bf a1 f8 4c 3d
       -0.4127266 0.02310754 -0.50262237 0.0500418
0002f0 20 3b d0 3e 25 68 a2 3d d2 98 bb 3d 09 be 57 be
       0.4067011 0.0793002 0.091600075 -0.21068586
000300 a1 bd 41 3e 9e 57 21 3e 2c ea 60 3e 8f a9 d5 bc
       0.18919994 0.1575608 0.2196433 -0.026081828
000310 63 86 19 be 8b 10 a6 bc 1d 38 7c 3e b5 41 84 3d
       -0.1499267 -0.02027156 0.2463078 0.06457845
000320 0a 20 3d bd e1 ff d3 ba ee e5 3e 3c 68 b6 73 bc
       -0.046173133 -0.001617428 0.011651499 -0.014875032
000330 e3 b2 69 be e0 b9 5f be 72 15 07 3c 24 6b b8 be
       -0.22822146 -0.2184825 0.008244859 -0.36019242
000340 02 c4 b7 be 6e 6e 9b be b1 7b 14 bf a1 d0 77 3e
       -0.3589173 -0.3035769 -0.5800124 0.2420068
000350 1d 2b 0b be b2 e6 00 3f 18 db 6f be 62 a7 0b 3f
       -0.13590665 0.50352013 -0.23423421 0.5455228
000360 20 20 63 be 8a 2a 93 bf 00 b4 e4 be ad 26 1f be
       -0.22180223 -1.1497357 -0.4466858 -0.15542097
000370 db 1b 13 3e b5 26 63 be 4b a5 80 be 07 b6 02 be
       0.14366095 -0.22182734 -0.2512611 -0.1276475
000380 4d e8 3a 3e 68 ed a7 3d 49 7d 36 3e de 9d 2d bf
       0.18252678 0.081995785 0.1782123 -0.6781901
000390 8d 64 bb be b9 0c d9 be 55 39 59 bf 31 d1 2b be
       -0.36600152 -0.4239252 -0.84853107 -0.16779019
0003a0 51 e6 6d 3f fe d3 9a 3e 31 9b 4c 3e 1a ca 5a 3c
       0.9292956 0.30239862 0.19981076 0.013353849
0003b0 d2 69 26 be c8 5a 84 3c f3 6e aa 3d b8 b0 05 be
       -0.16251305 0.01615657 0.08321943 -0.13055694
0003c0 27 e7 d3 bc 35 22 e2 bc 55 3c 68 3f b8 ee 3a bf
       -0.025867058 -0.027604202 0.9071706 -0.73020506
0003d0 8a 52 58 3d c6 45 d9 3e 9f 1d b7 be 54 94 59 3f
       0.05281309 0.42436045 -0.35764787 0.84991956
0003e0 08 ba 81 3f 15 de 20 3e 30 0d 5e be c2 95 74 3d
       1.0134897 0.15709718 -0.21684718 0.059713133
0003f0 b1 05 dd bd cc 5b 67 3d 1a 11 4d be 5b 11 f1 3e
       -0.10792101 0.05648403 -0.20026055 0.47083554

network.0.bias f4 [500]
000000 2b d0 5a 3e 82 90 18 be 8a b2 da bd 86 17 30 3e
       0.21368472 -0.14898875 -0.10678585 0.17196473
000010 d3 37 d1 be 59 a2 bd bd 3f 75 f6 bd b7 7a b0 be
       -0.40862903 -0.09259481 -0.12034082 -0.34468624
000020 16 ac 1e 3e 75 18 34 3e c0 5c 43 be 41 93 03 be
       0.15495333 0.17587455 -0.1907835 -0.12849142
000030 19 b7 a6 bd 7d b0 fb bd 68 ea df 3d 40 c3 e2 bd
       -0.08140392 -0.12289522 0.10933381 -0.11072397
000040 fa 6f 51 3e 52 e8 26 3d bf 8a 4a be fb d7 f9 3d
       0.20452872 0.0407489 -0.1977949 0.12199398
000050 11 43 90 be 61 7f c6 3d 83 d1 c9 be 61 47 8f 3e
       -0.28176168 0.09692264 -0.39417657 0.27984145
000060 1e 5b 6f bc 16 4d 0b be e8 74 28 be 68 3c 1b 3e
       -0.014609126 -0.13603625 -0.16450846 0.15159762
000070 ef 61 d1 bc 14 48 5b 3e 3c 98 39 be ef 94 3e 3e
       -0.025559394 0.21414214 -0.18124479 0.18611501
000080 01 ab 8e be e9 c2 11 3e 57 e0 7d be be b6 c7 3e
       -0.2786484 0.14234509 -0.2479261 0.3900661
000090 23 87 7f 3e ac 00 44 3d 02 13 04 be a5 02 37 3e
       0.24953894 0.047852203 -0.12897876 0.17872103
0000a0 e2 a9 33 3e b3 2e cb bd b4 26 8f be 7f 90 80 3e
       0.17545274 -0.099210165 -0.27959216 0.25110242
0000b0 53 8a 6f be 86 57 4a be 3a 03 85 bd a4 fe 73 be
       -0.2339261 -0.1975995 -0.06494756 -0.23827606
0000c0 f6 d5 bc 3e 1d aa 80 3e 33 bb 2e be 62 88 bf bd
       0.3688199 0.25129786 -0.17063598 -0.09352185
0000d0 a1 15 20 be c6 df 2f be 3a 16 00 3e c4 f1 04 3c
       -0.15633251 -0.17175207 0.12508479 0.008114282
0000e0 21 0f f5 bd 2c 94 4e 3d 56 68 51 3b 7c 4c 1c 3e
       -0.11965776 0.050434276 0.0031953058 0.15263551
0000f0 88 09 50 be 4b f9 19 3c d9 c1 c9 3e 7a 60 7f bd
       -0.20316136 0.009397815 0.39405707 -0.062347867
000100 30 53 2e be 4c 42 be bd 5d 3c 06 be 85 dd 4c 3c
       -0.17023921 -0.09289989 -0.13108964 0.012503986
000110 a3 21 ab 3d 6f 30 29 3e 10 87 87 3e 89 bf 9d 3e
       0.08356025 0.16522382 0.26470232 0.30810192
000120 e7 65 18 be 1c 2d a1 3e 7b 49 01 be 35 a8 19 3e
       -0.14882623 0.31479728 -0.12625687 0.15005572
000130 92 6c 6d be 13 c8 0a 3e 83 79 65 3e 0e ce 62 3d
       -0.23185948 0.13552885 0.22409634 0.05537229
000140 6f b3 d5 3d 3b 31 29 3e ca 73 07 be 99 44 46 3e
       0.10434615 0.16522686 -0.13227764 0.19362105
000150 3b 79 d1 bd 4b 81 60 3e 15 23 d2 3d 46 a3 55 3e
       -0.10228201 0.21924321 0.102605976 0.20863065
000160 04 cd cd bc 95 04 aa 3c 27 61 89 be 0b 66 94 3d
       -0.025122173 0.020754138 -0.26831934 0.07246026
000170 86 c3 d2 bd ee 15 16 be 90 2b 8b 3e c9 b1 87 3e
       -0.102911994 -0.14656803 0.27181673 0.26502827
000180 d3 03 61 3e 4d 75 33 be 7c a1 5e 3e f2 f1 9e 3e
       0.21974115 -0.17525215 0.21741289 0.31043965
000190 21 ce 2e be c7 91 f0 3d 61 4a c4 be 67 6b 3b be
       -0.1707082 0.11746555 -0.38337997 -0.1830269
0001a0 63 12 5d be 91 b7 a8 be 21 d5 83 3e 6b 30 9f be
       -0.21589045 -0.3295255 0.25748542 -0.31091627
0001b0 17 cb 15 bb 47 ca 5d be 7e ce e5 bd ca 62 08 3e
       -0.0022856647 -0.21659194 -0.11221026 0.13318935
0001c0 36 bc 80 be fa a0 74 be 2c cd 4a be 61 ff 5f 3e
       -0.25143594 -0.23889533 -0.1980483 0.21874763
0001d0 51 75 19 3d fe 12 a0 be 60 ca f7 bd 22 ee 98 3d
       0.037465397 -0.3126449 -0.12099147 0.07467295
0001e0 cf b2 08 be 39 f2 b7 be ce 0f f4 bd 7c e9 39 be
       -0.1334946 -0.3592699 -0.11917077 -0.18155473
0001f0 d1 7f 27 3c 9f cd 29 3d 37 e2 b2 3e b3 a1 21 3e
       0.010223345 0.04145586 0.34938213 0.1578434
000200 9a 90 a4 3e 6e 62 49 bd f4 06 80 3e fb 52 55 bd
       0.32141572 -0.049166135 0.25005305 -0.05208109
000210 4b 67 0c be 6f e3 44 3e 90 35 8f 3d 5c 56 d1 3c
       -0.13711278 0.19227384 0.06992638 0.025553875
000220 02 2c 25 3e 87 72 87 be 6f b0 ff bd 1d bd 8b be
       0.16130069 -0.26454565 -0.12484824 -0.2729272
000230 16 57 53 3e ad e9 9e be bf 08 d7 3d 30 13 54 be
       0.2063869 -0.31037655 0.10499715 -0.20710444
000240 1f 50 5f be c8 89 95 bb 44 a0 89 be a5 69 b0 3c
       -0.21807908 -0.004563544 -0.26880085 0.02153475
000250 24 fa 38 be d8 8e 9e 3e ee 9b 4d be 75 e5 00 be
       -0.18064171 0.30968356 -0.20079014 -0.12587531
000260 60 8e 32 be f3 d0 8b 3b 6b e0 06 be ec a4 81 3d
       -0.17437124 0.004266852 -0.13171546 0.063302845
000270 a1 c1 9b bb ec ad 84 bd d7 64 42 3e 8f 8e bb be
       -0.004753307 -0.064784855 0.1898378 -0.366322
000280 21 87 78 3e 21 c4 c6 3d 65 5e 0f be 0f d6 4d 3b
       0.24270298 0.09705377 -0.14000852 0.0031408106
000290 7a 8a 26 3e 6b cf cc bc 7d 48 60 be 97 17 e4 3d
       0.16263762 -0.025001248 -0.21902652 0.11137312
0002a0 92 d2 59 3e 91 5d e6 bd 36 e1 20 3d d9 84 87 3e
       0.21271732 -0.11248315 0.039277278 0.26468542
0002b0 4c dc e8 be b1 96 f2 bc b0 84 e3 bd a1 85 6b be
       -0.45480573 -0.02961287 -0.111092925 -0.23000194
0002c0 e0 15 02 3d f8 73 69 3e 3f d5 86 3c 76 68 d8 be
       0.031759143 0.22798145 0.016459106 -0.42267197
0002d0 95 7a 61 3e e3 f5 6d be c5 ab 7e be ff 25 aa 3e
       0.22019418 -0.2323833 -0.24870212 0.33232114
0002e0 bf 9d 1f be 36 1b c1 be da e3 de bc cd c0 25 3e
       -0.15587519 -0.37716073 -0.027208257 0.16186829
0002f0 75 b3 08 bc 1f 54 77 be c0 5a 2f 3d cd 6b aa bd
       -0.008343567 -0.24153183 0.042811155 -0.083213426
000300 ef 06 97 3e 37 dd c2 be 19 27 4a bd b7 96 a8 be
       0.29497477 -0.380594 -0.049353693 -0.32927486
000310 67 8b 43 be 37 e6 99 be 8f f0 d0 be 74 90 6b be
       -0.19096147 -0.30058452 -0.40808532 -0.23004323
000320 61 45 86 3d 06 26 2f 3e aa 1d 01 be 43 03 a1 be
       0.06556202 0.17104349 -0.12608972 -0.314478
000330 3b 9b 02 3e 95 d5 6d be 2d 85 d1 bd 30 19 2d bd
       0.12754528 -0.23226006 -0.102304794 -0.04226035
000340 1b 9f 7d 3e 86 72 38 be 82 7b 60 bc 01 17 41 3e
       0.24767725 -0.18012437 -0.013701322 0.18856432
000350 95 c1 6d be fc c9 2b 3e ec 86 03 be 2d d7 08 3e
       -0.23218377 0.1677627 -0.12844437 0.13363333
000360 e5 54 2b be 15 2c 66 be c3 c4 b2 3e 15 08 1b 3d
       -0.16731603 -0.22477753 0.34915742 0.037849505
000370 7c 2f d4 be e4 92 60 3e 5e 73 63 bc 46 50 70 be
       -0.41442478 0.21931034 -0.013882486 -0.23468122
000380 e3 f5 2f 3e 72 8a 95 bd 47 a8 63 3e f8 93 ac 3d
       0.17183642 -0.07301797 0.22232161 0.0842666
000390 d4 cf 70 3d 9f 02 2a be 21 c7 8f be 80 14 b6 3d
       0.05879195 -0.16602562 -0.2808161 0.08890629
0003a0 a0 48 46 3e 98 42 5c bc 1e f2 30 be 46 2d 12 3c
       0.19363642 -0.013443612 -0.1727986 0.008921927
0003b0 9e fb 27 bc d9 ef 66 be fd 99 90 bd 5f 66 02 3e
       -0.010252861 -0.22552432 -0.07060621 0.12734364
0003c0 1f df 1a 3e 71 da 16 3d 2e ea 0a 3e b6 8b e9 bd
       0.15124176 0.036829416 0.13565895 -0.11403601
0003d0 8c 4d 30 3e 81 b8 91 be 16 c4 3c 3e df 8f c0 bc
       0.17217082 -0.28461078 0.18434176 -0.023506103
0003e0 97 af da 3d fe 84 36 3e 6c 69 a3 3d 5b 3d bd bd
       0.10678022 0.1782417 0.07979092 -0.09240218
0003f0 a1 fb 6e bc ee d5 a0 3d 20 02 6a be 38 42 ed bd
       -0.01458636 0.07853304 -0.22852373 -0.11584896

network.2.weight f4 [27, 500]
000000 ba 8a 97 bf 1e 9e 29 3f 88 56 11 3e bb 3a a4 3e
       -1.1839211 0.6625689 0.14193165 0.32076058
000010 4b 00 1c bf 02 ea 9c 3e 6f 9b 8a 3f 82 09 9d bb
       -0.6093795 0.30647284 1.0828685 -0.004792393
000020 52 29 a4 bf 5f 9a 22 be 68 db 5c 3f a2 f9 e8 3e
       -1.282511 -0.158792 0.8627229 0.45502955
000030 a1 95 88 be 7e 44 8f 3d 1d db 76 bf 86 81 bd bf
       -0.26676658 0.06995486 -0.9642809 -1.4805152
000040 f1 be 66 3e 6f c8 6a be 38 9b cd bc e4 63 09 c0
       0.22533776 -0.22928022 -0.025098428 -2.1467218
000050 d2 18 08 3f ff 96 15 3e 8c 0e d4 3e d7 be c5 3d
       0.5316287 0.14608382 0.41417348 0.096555404
000060 35 08 3c be 7b 23 55 be f8 4d 11 bf a4 14 aa 3e
       -0.18362506 -0.20814316 -0.56759596 0.33218873
000070 71 e9 21 3f 59 d8 9b 3e 37 3a fe 3e 7d c3 4c 3e
       0.6324683 0.30438498 0.4965379 0.19996448
000080 47 f0 b3 3e d2 3d dd 3e 56 f5 cb bf 05 8c fd bf
       0.35144255 0.43211228 -1.5934246 -1.9808356
000090 f4 dc 26 bc c7 4f 14 3f fb c2 37 3f 25 eb 85 3e
       -0.010184515 0.5793423 0.7178189 0.26155964
0000a0 54 dd 84 bc f0 e0 66 3d 6e 7e 95 3e 5e 11 db 3e
       -0.016218819 0.05636686 0.2919802 0.42786688
0000b0 79 24 35 3f 50 08 0c 3f 43 be 83 3e 51 d3 3b 3f
       0.7075878 0.54700184 0.25731096 0.7336932
0000c0 7b 0f 6e bf dc 1f db bf 7c 4c 4e 3e 66 13 83 3d
       -0.9299237 -1.7119098 0.20146364 0.06400184
0000d0 01 9b e8 bf fb 07 a3 be f8 f6 d6 bf b6 b0 af 3d
       -1.8172303 -0.31842026 -1.6794119 0.08578627
0000e0 8b 71 9e bf 08 3b d8 3e e4 fa 28 3f ab cb 8c bd
       -1.23784 0.42232537 0.6600783 -0.06874784
0000f0 e3 3d f9 bd 7a e3 21 3d 93 6b 0b be f7 4a c6 bf
       -0.12170007 0.03952358 -0.13615255 -1.5491627
000100 2a 77 42 3d 67 e4 a0 3e ac f9 31 bf 04 53 af bf
       0.047476925 0.31424257 -0.69521594 -1.3697209
000110 84 4d b6 be dd 10 c3 3e e5 8c 93 bf 61 24 bf bf
       -0.35606015 0.38098803 -1.1527373 -1.4932977
000120 b9 3f aa 3e 7b 76 cd 3e 87 1d e6 3e fc 24 0f 3f
       0.33251742 0.40129456 0.44944403 0.5591581
000130 ee 60 b5 3e 7d e7 3e 3e b8 e5 9a bb fc 7f 01 3f
       0.35425514 0.18642993 -0.0047270916 0.50585914
000140 07 1c b5 bf f3 71 13 3f 07 02 26 3f 9a d4 49 be
       -1.4149178 0.5759575 0.64846843 -0.19710007
000150 90 84 c0 3d 1d bc c4 3e dc fd d4 be 11 c1 c8 3e
       0.09400284 0.3842477 -0.4159993 0.39209798
000160 32 88 09 3f f6 9e de bf cd 97 84 bd 6d 19 15 3f
       0.5372344 -1.7392261 -0.06474266 0.5824192
000170 16 a7 c1 3e ab 4e 5e 3e d2 94 5e be fe f9 63 bd
       0.3782279 0.21709697 -0.21736458 -0.055658333
000180 d6 ed dd 3e de 4b 25 bf 78 89 a4 3f 5d 05 d5 3f
       0.43345517 -0.6456889 1.2854452 1.6642262
000190 06 8b 1b 3f bb cb bc 3e 33 4a f2 3c 1d 7b 43 3f
       0.6075901 0.36874184 0.029576397 0.7635973
0001a0 b7 3a 53 bf fe c1 e9 be e0 aa 76 bc 59 36 01 3f
       -0.82511467 -0.45655817 -0.015055388 0.5047355
0001b0 4e 79 48 3e c9 0e 29 be d0 15 a5 bd 7f c1 c6 bf
       0.19577524 -0.16509546 -0.08060801 -1.55278
0001c0 df ff e6 3c d3 48 e7 be d1 63 06 c0 a1 90 13 3f
       0.02819818 -0.45172748 -2.0998423 0.5764256
0001d0 9f ac db bf 6b 53 b1 bd c5 71 a9 bf 2a 81 b5 3e
       -1.7162055 -0.08658489 -1.3237845 0.35450107
0001e0 23 58 9b 3e 29 33 7a 3f 30 13 10 bf d3 a4 bb be
       0.3034068 0.97734314 -0.5627928 -0.36649188
0001f0 a5 28 11 c0 b0 2d 1e bf db 8b 4b bf 3e 57 f8 3e
       -2.2681057 -0.61788464 -0.7951028 0.4850406
000200 4f 9c 02 bf 19 25 b6 be b5 10 eb 3e 3e 50 36 3f
       -0.5101976 -0.35575178 0.45911184 0.7121619
000210 b3 8e c7 3c c4 c6 4d 3e 80 5b 63 3f 41 2d e8 3e
       0.024360036 0.20095354 0.8881149 0.45347026
000220 e3 6f e6 3e d6 4a 22 bf fc 44 6b 3e 96 46 41 3f
       0.45007238 -0.6339544 0.22975534 0.7549833
000230 e5 c7 5a 3e 27 33 d9 bf c8 5c d8 3e ef 6a 34 3d
       0.21365316 -1.6968735 0.42258286 0.044047292
000240 4e be 8b bc fc 49 ca 3e 89 49 0a 3d 3d ab 80 bf
       -0.017058518 0.3950957 0.033761535 -1.0052258
000250 6d c3 70 bb ce 14 01 c0 8f 38 14 bc 15 d6 18 3f
       -0.0036737577 -2.0168948 -0.009046688 0.59701663
000260 68 93 5d 3e 54 f9 b1 bc 3d 13 ed 3e ff 62 62 bf
       0.21638262 -0.021725334 0.4630374 -0.88432306
000270 7d e6 36 3f df 70 0e 3e 5e 51 9c 3d b9 b8 1b 3f
       0.7144545 0.13910244 0.07632707 0.6082874
000280 b8 15 39 3f 4e 7d 32 3e dd 3d 17 bf 5b 52 a2 bf
       0.72298765 0.17430612 -0.5907877 -1.2681383
000290 66 d3 d2 3e f3 2f a0 bd 20 51 4f bf a6 a1 b7 bf
       0.4117691 -0.078216456 -0.8098316 -1.4346206
0002a0 9f d9 c6 3e 84 56 65 3e 7b b6 6d bf ae 06 a2 bf
       0.38837907 0.22396284 -0.9285657 -1.2658288
0002b0 e5 f2 63 be 1b f9 e9 be 18 df c0 bf e2 50 83 be
       -0.22260626 -0.45697865 -1.5068083 -0.25647646
0002c0 a2 2e 09 bd 39 f8 08 3f 4f c7 01 3e b1 71 ed 3e
       -0.03349174 0.5350376 0.12673686 0.46375802
0002d0 74 d5 d5 3b 9a dd 77 3e 34 0f 25 3d 64 13 70 3f
       0.0065256897 0.24205628 0.040297702 0.9377959
0002e0 7f 21 86 3f dd 17 27 3f 95 ec 39 3f d5 26 0f 3f
       1.0478972 0.6527079 0.7262662 0.5591863
0002f0 b5 ba bd 3d 69 e8 bc 3e 42 3f ad 3e 6f 98 96 3e
       0.09264127 0.36896065 0.33837324 0.29413173
000300 54 b1 89 3e 3f c0 24 3d 15 ec 27 3f ce 79 82 3f
       0.26893103 0.040222403 0.6559461 1.0193422
000310 41 0a 3c 3f e6 08 24 3f 22 9f 5e bd f6 16 5e bc
       0.73453146 0.6407608 -0.05435098 -0.013555279
000320 ad fb 2c 3f a4 c9 5e 3f cd b4 0a bd 3a ea e3 3d
       0.67571527 0.8702643 -0.03386383 0.111286595
000330 13 62 10 3f 6b 04 ca be 54 16 55 bf 9e 63 a2 bf
       0.5639965 -0.39456496 -0.83237195 -1.2686651
000340 4f ab 4d 3e 1e 66 78 3f 17 23 17 3f 02 82 df 3e
       0.2008488 0.9703082 0.5903792 0.43653876
000350 c5 28 2f bf 07 12 fb 3e 46 d7 ad 3e bb 2b 35 be
       -0.68421584 0.4903719 0.33953303 -0.17692463
000360 88 96 87 be 66 60 ca 3c 76 f2 85 be 0f 39 a3 bd
       -0.26482034 0.02470417 -0.26161546 -0.079698674
000370 b7 9c 16 bf 8d bd 78 bf 10 d1 2a 3f f3 99 8d 39
       -0.5883288 -0.9716423 0.66725254 0.00027008317
000380 63 3e e2 3e c0 82 fd 3e 97 2b e9 3e a1 5e 01 3f
       0.44188222 0.49513817 0.4554107 0.5053502
000390 d9 3e b7 3e ae b2 9c bd 1a 61 19 3d 08 6f 0c 3f
       0.35790136 -0.07651268 0.03744612 0.5485692
0003a0 4a b3 80 3d d2 d7 14 3f 03 92 ef 3e 02 28 22 3f
       0.06284197 0.58141816 0.46791086 0.633423
0003b0 47 b4 ca 3e 7f d9 db 3b 4d 9d 23 3f d2 e1 00 3f
       0.39590666 0.006709277 0.63911897 0.50344574
0003c0 de 61 19 3f 1a 07 22 3e f9 c8 63 bf f9 55 6d 3f
       0.5991496 0.15823022 -0.88978535 0.9270931
0003d0 9e f3 8b bf 9e 5c 6d bf a0 89 06 bf ae 28 7d bf
       -1.0933721 -0.9271945 -0.5255375 -0.988902
0003e0 42 b8 f7 3b 8f 2e 0d 3f a7 a2 29 3f 7c a6 b3 3e
       0.007559807 0.5514917 0.6626381 0.35087955
0003f0 41 f2 d3 3d 60 7e fd 3e 1d b3 1a 3f e9 ec 45 bf
       0.10348941 0.4951048 0.60429555 -0.7731462

network.2.bias f4 [27]
000000 95 36 09 3f 27 71 e1 3e d8 a3 f2 3e a6 77 4b 3d
       0.5359891 0.4403164 0.47390628 0.049674653
000010 a6 92 51 3d 73 78 27 3e 71 dd 2a 3e 5e aa 22 3c
       0.051165245 0.16354541 0.16686036 0.009928314
000020 61 5d 3e 3e 1f 01 62 3e 53 a1 e0 3e b2 ed b0 3e
       0.18590309 0.2207074 0.4387308 0.34556347
000030 d0 73 8b 3e 6e 45 b9 3d be 1b 29 3e f0 7c c8 3d
       0.27236795 0.09046446 0.16514489 0.09789455
000040 a7 7a 52 3e 17 f4 1e 3e 03 85 eb 3e b6 f1 b0 3e
       0.205546 0.155228 0.45999917 0.3455941
000050 6d d1 9e 3e 5c c7 5f 3d 06 1c 5a bc 6d 21 49 3e
       0.31019154 0.054633483 -0.013312345 0.19641657
000060 ad a7 20 bd b3 c7 bd 3d 38 37 82 bc
       -0.039222408 0.09266605 -0.015895471
