code/models/dqn/dqn_1_1650314440.014478.pth (torch, 44883 bytes, 4 tensors)

network.0.weight f4 [250, 15]
00000000: 22b8 e73d d531 c9bd 3b33 9fbd 0c9e 413e
00000010: 11d6 cc3c 534e 683e 8b57 553e 3e46 7c3e
00000020: 5fe4 3ebe 4e66 6cbe 78e7 d23d a7b7 14be
00000030: dad2 e3bc dda1 76be 65e2 283e dd48 f63d
00000040: f33e 1a3c c7bf f83d 0da5 39be 7cfc 193e
00000050: 37d8 84bd 519d 0c3e c8de d0bc ea0d 1e3e
00000060: b04c 8f3c fc23 7d3d eccb 21be 6d32 6a3e
00000070: 3138 46be d025 973c 3621 4fbe 4226 16be
00000080: 756e 31be da8c 153d e2ba 103e 2e00 82bd
00000090: 38d6 1c3e fb1e df3d 1e5f 7e3e de36 3cbe
000000a0: 65db d9bd 67db 9d3d 2343 a3bd 2729 823e
000000b0: 5e30 56be 5982 03bd 619d 7cbe 8c05 2bbe
000000c0: f6b5 39be e492 fc3d 3ab7 6fbe dc0a 8bbd
000000d0: a97f c8bd b2d5 4abe 6b40 92bd 77bd d93d
000000e0: 4183 243e 21a4 3a3e 1773 78be 6042 13bd
000000f0: 5719 2dbe 1ab9 f03d d2c0 6ebc b5f3 2d3e
00000100: 8157 663e 8cd7 44be 4f8c 673c 9c33 fc3d
00000110: 0a12 62be 4aec 71bd 41ec dd3b 5c16 21be
00000120: 9c64 823e b314 b83d 2c44 563e 4b27 fdbd
00000130: 1219 dbbd 21d9 6d3e 83a3 0e3e 7669 5a3e
00000140: 62cd 52be f804 d4bd 6eb1 35be 326b 4c3e
00000150: 7e86 363e 24b7 393e 8e53 5dbd 1920 5cbe
00000160: 8ac6 433e 9f3f 8cbd b52a 2cbe 5795 083b
00000170: 1468 7f3e a2ec 2cbe c9b8 21be a50d 1e3c
00000180: c567 b7bd 84b4 593e cbfe f73a 318c 633e
00000190: 7fc9 fc3d 45eb 22bd 7495 edbc 1da6 6abe
000001a0: 9d2b 6f3e b36b b03c cf6c d23b 3c19 e6bc
000001b0: 602d 71be f755 83bd 2661 22bd 4043 a3bd
000001c0: 746b 4cbe 87a5 1f3d fd0c 763e fb2e 5abe
000001d0: b4ee 2f3e b761 e0bd 2d40 23be 4be4 1bbe
000001e0: c23c 933d aa10 15be 6a82 e13d 9a63 76be
000001f0: e3e4 903d 18c6 273e f692 0a3e c3a8 6f3e
00000200: b44a aebd 3c03 10be b357 81bc 87e6 b1bd
00000210: 98f0 c3bd 8b62 aebd bc1f 59be dbc0 813d
00000220: 8da7 cf3d 8f47 493e 831a 363d 7dcb 973d
00000230: b5ce 173e 209f 4ebd 7899 debd 3e1c 62be
00000240: 494e e9bd 44c3 74be 3f14 433e cc23 a2bc
00000250: bcd4 ccbd 6a63 263d 592c b03c 1903 803e
00000260: fc7e f9bd 9436 373e 0e73 bd3d 62b7 dd3d
00000270: 0116 c13d 4c35 b5bd d9dc c1bb 090e d2bd
00000280: 515f 0a3e a074 043e be18 d83d d3ba 5c3e
00000290: 5623 0cbe 56a7 cb3d 04bb 0f3d 8926 e7bc
000002a0: 424d 4cbe c44a 28be b5ac 13bc afcb db3d
000002b0: 4dfe 263e f891 73bd 4f93 6cbe 9268 483d
000002c0: c570 5bbe 32e9 1cbd a882 95bd 6e56 0d3e
000002d0: a6e2 44bd 6400 5c3e 48e9 1ebe bba0 cf3c
000002e0: 56c5 b4bd cdd7 093e e801 e2bd d809 10be
000002f0: 6e21 18be e1c2 1e3e 1e70 06be 7372 00be
00000300: 3300 733e c9b5 afbb c581 81bd 79c5 643e
00000310: a0da fb3d 6a86 843d 50ec b13b 319b bfbd
00000320: 6663 3abd a3e2 92bd bc65 71be 471f 0c3e
00000330: 318e 833e 055c 06be 6ce8 40bc d5e5 cdbc
00000340: 4443 4cbe 748b ecbc 8f54 c63d 450d 5e3e
00000350: 7ad0 70be 8e5a 55be df16 403d 68c2 5abe
00000360: ed84 fe3d 25a0 b4bc b84a 193e f28f b1bb
00000370: 18ff 013e 7edd efbd be08 38be e6a7 80be
00000380: 9cbf 513e 7002 67be 4b16 3bbe 8318 97bd
00000390: 3f97 543e 7373 7abe ec50 333e 38d2 d53c
000003a0: 8e68 06bd 1cea 3cbd 7e59 5e3e 08c9 16be
000003b0: 65fe 3cbe edcd 19be bfba 1c3d 9dff 5dbe
000003c0: 7bd9 b4bd 3de1 4f3d e2e6 6bbe 86ef f83c
000003d0: de70 a13c 86e8 64be f5b5 1e3e 4f63 ea3d
000003e0: c7d8 44bc 1429 e53c 4d9c 543e 11e4 373e
000003f0: 035e 503d fc1c 0f3e 584a 243e d1f8 6e3d
0.113144174 -0.09823958 -0.07773443 0.18907946 0.025004419 0.22686128 0.20834176 0.2463617
-0.18641804 -0.23085901 0.102980554 -0.14523183 -0.027810503 -0.24085183 0.16492613 0.12025616
0.009414422 0.121459536 -0.18129368 0.15037721 -0.06486552 0.13731886 -0.025496855 0.15434995
0.017492622 0.061801895 -0.15800446 0.22870798 -0.19357373 0.018450648 -0.20227513 -0.14663032
-0.17327292 0.03651128 0.1413379 -0.063476905 0.15316093 0.10894581 0.24840972 -0.18380305
-0.10637549 0.07707863 -0.0797179 0.25422022 -0.20916888 -0.03210673 -0.2466941 -0.16701335
-0.18135819 0.12332705 -0.23409739 -0.06789181 -0.09789974 -0.19808081 -0.07141193 0.10631841
0.16065694 0.18226673 -0.24262653 -0.035951972 -0.16904198 0.11754055 -0.014572339 0.16987498
0.22494318 -0.1922285 0.014132573 0.12314531 -0.22077194 -0.059063233 0.0067725484 -0.15731186
0.25467384 0.08988323 0.20924443 -0.1236101 -0.10698141 0.2322736 0.13929562 0.21329293
-0.2058616 -0.1035251 -0.17743465 0.19962767 0.17824742 0.18136269 -0.054034762 -0.2149662
0.19118705 -0.06848072 -0.16813166 0.0020840967 0.24942046 -0.16887143 -0.15793146 0.009646808
-0.08955339 0.21260267 0.0018920539 0.22221448 0.1234312 -0.03977515 -0.029001929 -0.2291493
0.23356481 0.02153573 0.0064216624 -0.028088205 -0.23552465 -0.06412881 -0.03964343 -0.07971811
-0.19962865 0.03897622 0.24028392 -0.21306984 0.17180902 -0.109561376 -0.1594245 -0.15223806
0.07189323 -0.14557138 0.11011203 -0.24061432 0.07074907 0.1638416 0.13532624 0.23404221
-0.08510342 -0.14063734 -0.015788889 -0.08686548 -0.09567374 -0.08514889 -0.21203512 0.063356124
0.1013938 0.19656204 0.044458877 0.07411859 0.14824946 -0.050444722 -0.108691156 -0.22081086
-0.11391885 -0.23902613 0.19050692 -0.01979246 -0.10001513 0.040622152 0.021505522 0.25002363
-0.121824235 0.17891914 0.092504606 0.10825993 0.09428025 -0.08848056 -0.0059162197 -0.10256583
0.13512923 0.12935114 0.10551594 0.21555643 -0.13685355 0.09944026 0.03509046 -0.028216617
-0.19951347 -0.16434771 -0.0090133445 0.10732209 0.16307946 -0.05946538 -0.23103069 0.04892785
-0.21429737 -0.03830833 -0.07300311 0.13802502 -0.04806771 0.21484524 -0.15518677 0.025345197
-0.08826701 0.13461228 -0.1103552 -0.14066255 -0.14856502 0.15504028 -0.13128707 -0.12543659
0.23730545 -0.0053622467 -0.0632358 0.22340955 0.12297559 0.0647095 0.005429782 -0.09355772
-0.04550495 -0.07172134 -0.23573965 0.13683806 0.2569442 -0.1312104 -0.011774164 -0.025134007
-0.19947535 -0.02887509 0.09684097 0.2168475 -0.23517027 -0.20835325 0.04689681 -0.21363223
0.12427697 -0.02204902 0.14969909 -0.005418771 0.12694967 -0.11712168 -0.17972085 -0.25128096
0.2048325 -0.22559524 -0.18270223 -0.07377722 0.20760821 -0.24458103 0.17511338 0.026101217
-0.032814555 -0.0461217 0.21713826 -0.14725125 -0.18456419 -0.1501996 0.038264032 -0.2167954
-0.088305436 0.050751913 -0.23037294 0.030387651 0.01970714 -0.22354326 0.15499099 0.11444723
-0.012014574 0.02797369 0.20762749 0.17958094 0.050870907 0.139759 0.16043985 0.05834276

network.0.bias f4 [250]
00000000: 44f2 5abe 24e0 ab3d 4e4d 39be 0f4c 183e
00000010: 965b 5cbe b0ac 163e 6225 21be c5d6 5cbe
00000020: 84f1 c8bd b060 e73d be6f 2dbe 4620 463e
00000030: eb03 3a3d b6a7 563e bcb2 debd 54f3 ee3d
00000040: d1f4 98bd 62d1 713e f710 8bbd 97d6 353e
00000050: 0c17 52be d5be 363e a787 6a3d 3e4d 97bd
00000060: e7b9 193e d7e0 10be 510d c63d cbfb 7b3e
00000070: a046 f8bd c103 58be 8166 cbbb 19b7 55bd
00000080: fcd2 733e d1c2 7dbe 49d2 363e a04c 86bd
00000090: 0873 37be 3ebf db3d d976 7c3c d627 383d
000000a0: f584 1d3e bae8 b2bd efa2 5ebe 15f0 ffbd
000000b0: 828c 863d 1dbc 973d 6bbf 2f3d 7e76 4b3d
000000c0: 740c 3f3e ef2b 32bd d23a 09be 3080 483e
000000d0: f367 eebc f58c 71be f6ff 7cbb 97ae 043e
000000e0: a8f7 6f3d 3675 7b3c 0b9f d5bc 2ad6 23bc
000000f0: affd 853d 4a2e 07be 2050 58be 4a83 5b3e
00000100: bfce 733e cdcb bdba 9be5 093e a8aa 25be
00000110: 743f 7a3b f5ae debc 4d75 85be bcb0 6e3e
00000120: 712b 45be de0f 0a3e c32f 493e 7637 b23d
00000130: eee0 f83c f6e9 78bd fc5d af3c 1db8 2bbe
00000140: 0cc8 26be 4e0e 70bc 289e b8bd b0cc 1f3d
00000150: b1ca 0b3e f1e1 90bd e403 87bd 7c8b 33be
00000160: 9ab1 6dbd 9371 5abd c36b 553e 6e74 1cbe
00000170: 3f7c 15be c8d0 76bd 9abf 7bbe 7557 bbbd
00000180: e3b9 d5bd 2ccd 49bb 11aa 123e efb9 83bd
00000190: 3618 9f3d 9900 09be fd62 27bd 96ae 723e
000001a0: 9ee8 163e 467f 9abd 0c34 203e 5d72 aabd
000001b0: be9a 13bd e030 f4bd d70c 4ebe 41a9 79bc
000001c0: 49b1 63be 24ed 55be 2424 8b3d 4e43 11bb
000001d0: 0c97 24bd 36ef 69be ac65 023c 490f 153e
000001e0: d4dc bbbd 1e46 78bd 2cd2 1d3e 3121 82bd
000001f0: 407d 68be 79fb 8b3a b953 ed3d 8d81 0abe
00000200: 2203 c4bd ff34 183e 18bb 7dbe 402a 46ba
00000210: 1da9 4fbe d293 2b3e 95b8 683e 3816 bdbd
00000220: f337 cebd 0f6f 92bd 246c 713e 1399 63bd
00000230: d9c8 033e fbbd 3e3e 5f59 16be 81d9 9f3d
00000240: 2a2b 55be 9921 95bd a08b 11be 0c05 30be
00000250: 4975 89bd 40c6 afbc 96db 553e 9826 ab3d
00000260: dda3 3b3d bb55 2d3e 239f 153d 19dd 293e
00000270: 007e ddbd 1eca 55be 0691 5e3e 9caa 2a3e
00000280: 6674 06be b502 38be d40d 193e 7d63 1b3e
00000290: a342 9abd 3168 2e3e 830f 39be 1f8d c2bc
000002a0: fa93 21be 5b8f b1bc 4fe9 963c 176a efbd
000002b0: aa6e f93d 1d18 1e3e bdd3 cbbd 1a2d 703e
000002c0: 598e 923d 9de1 9dbd eeba 09be 06df 9f3c
000002d0: 4035 e5bd 177c e93d 4ff1 4fbe b010 2cbe
000002e0: c51c 92bd 8245 cebd f08f 0e3e 35c7 8b3c
000002f0: 33ad c33c e34a 353d 39ed 3c3c 4f96 5a3e
00000300: ba6b 243d 55c6 ca3d 5eae 3f3d 8de1 28be
00000310: 06ce 813e e5b3 e9bd 17d7 e9bd 9997 b4bd
00000320: 3feb 48be bc8e cbbd 2f96 f3bd 6bf7 b3bc
00000330: 8d19 0fbe 1605 0bbd f014 063e b0ea f0bd
00000340: 0379 cb3d 1707 5f3c 6bc5 38be 95e5 13be
00000350: 34ce 0fbd d0d9 36be 9f3f 173e 0840 cd3d
00000360: 7666 66be 4fdd b9bd 8fe0 e03d f97c 24bd
00000370: 2a97 84be 244c 04be 056d 453e 8aec 12be
00000380: de39 c9bd 51d6 30bd 1043 7e3e 340f 403e
00000390: 3983 8abd 9e47 4abe b0ef 323e 7871 a93c
000003a0: 7fc1 d83d 78dc 2d3c 886b 64bd 3a74 743e
000003b0: a989 4e3d 7ce3 1cbe d779 bdbd f707 473e
000003c0: e82f de3d f56c 413e c343 80be 7359 3e3e
000003d0: 64e6 4bbe 39b4 83be 082d 09be c85e 0ebe
000003e0: 8c7e febb 4cec 27be
-0.2138148 0.08392361 -0.18095896 0.14872764 -0.21519312 0.14714313 -0.15736917 -0.21566303
-0.098116904 0.112977386 -0.16937158 0.19348249 0.045413893 0.20962414 -0.108739346 0.11667505
-0.0746857 0.2361503 -0.06790345 0.17757641 -0.20516604 0.17846234 0.057258274 -0.0738778
0.15012322 -0.1414827 0.09670509 0.2460777 -0.12122846 -0.21095182 -0.006207288 -0.05217657
0.23810953 -0.24781348 0.17853655 -0.06557584 -0.17914975 0.10729836 0.015409195 0.044959866
0.1538275 -0.08735795 -0.21741842 -0.12496964 0.065697685 0.07408927 0.04290716 0.04967355
0.18657094 -0.04349893 -0.13401344 0.1958015 -0.029102301 -0.23588927 -0.0038604713 0.12957226
0.058585793 0.0153477695 -0.026076814 -0.009999791 0.06542527 -0.13201252 -0.21124315 0.21436802
0.23809336 -0.0014480293 0.13466494 -0.16178381 0.0038184794 -0.027183035 -0.26066056 0.23309606
-0.19254853 0.13482615 0.19647126 0.087019846 0.030380692 -0.060769998 0.02140712 -0.16769452
-0.1628725 -0.014651848 -0.09014541 0.039013565 0.1365154 -0.07074345 -0.06592539 -0.17533678
-0.058030702 -0.05333097 0.20841889 -0.1527879 -0.14598177 -0.060257703 -0.24584809 -0.091475405
-0.10435846 -0.0030792458 0.14322688 -0.064319484 0.0776829 -0.13379134 -0.040865887 0.23699412
0.14737174 -0.07543807 0.15644854 -0.08322594 -0.036036246 -0.11923385 -0.20122086 -0.015238107
-0.22235598 -0.20891243 0.06794003 -0.002216536 -0.040183112 -0.22845158 0.007958811 0.14556612
-0.09172979 -0.060613744 0.15412205 -0.06353987 -0.22704029 0.0010679803 0.115882345 -0.13525982
-0.0957091 0.14863966 -0.24778402 -0.00075593963 -0.20279355 0.16755608 0.22726662 -0.092327535
-0.10069265 -0.07150089 0.23576409 -0.055565905 0.12869586 0.1862716 -0.1468253 0.078051575
-0.20817247 -0.07281799 -0.14213419 -0.17189425 -0.067118235 -0.021456838 0.20884547 0.083569705
0.04581057 0.16927235 0.036528718 0.16588248 -0.10815048 -0.20877883 0.2173501 0.16666645
-0.1313034 -0.17969783 0.14946681 0.1517467 -0.07532241 0.17031933 -0.18072324 -0.023748932
-0.15779105 -0.021674803 0.018421797 -0.11690157 0.121793106 0.15438886 -0.09952495 0.23454705
0.07156057 -0.07709048 -0.13450214 0.019515526 -0.11191797 0.114006214 -0.20306896 -0.16803241
-0.071343936 -0.10071851 0.13922095 0.017062763 0.023886299 0.04426087 0.011531168 0.213464
0.0401418 0.0990111 0.04679715 -0.16492291 0.25352496 -0.11411265 -0.11417978 -0.088179775
-0.1962099 -0.09939334 -0.118938796 -0.021968564 -0.1397459 -0.033940397 0.13093925 -0.11763513
0.099351905 0.01361253 -0.18044059 -0.14443047 -0.03510876 -0.17856526 0.14770363 0.100219786
-0.22500023 -0.090754144 0.10980331 -0.040158246 -0.2589658 -0.1291967 0.19279869 -0.14348045
-0.098254904 -0.043173138 0.2483027 0.187558 -0.0676331 -0.19753882 0.17474246 0.020683989
0.105837815 0.010611646 -0.055766612 0.23872462 0.05042425 -0.15321153 -0.09251755 0.19436632
0.10848981 0.1888922 -0.25051698 0.1858881 -0.19912106 -0.25723436 -0.13396084 -0.13903344
-0.0077665504 -0.16398734

network.2.weight f4 [27, 250]
00000000: 62ad ccbb adac febc 2bb0 113d f034 08bc
00000010: 2a4b aebc bcf6 643d 4922 333c 0855 23bd
00000020: 7e0e c1bc beb1 483c 7358 3abd 3c30 20bd
00000030: a736 2bbd 6022 bd3c a16f aebc 2585 50bd
00000040: 2f68 9a3b 28cc 49bd d9e7 2cbc d5c7 69bc
00000050: 01de acbc 0c29 49bc 613f e439 ad89 2b3d
00000060: fcd6 d7bc 90e4 f6bc 6277 013b f585 113d
00000070: 368a efbc 440d 693c fe68 7abc 1cff 833a
00000080: aae7 0dbd e135 a43c 3c9b 9e3c 4298 a8bc
00000090: 0447 3d3d 9a98 97bc 21b4 0dbd 67b9 90bc
000000a0: 9c65 8c3d cf6b 513d 6152 f0bb 996f 14bd
000000b0: 1ea3 923c e2ef cfbb f9eb 6f3d df2a 1cbd
000000c0: 2ab6 73bb 49cd f1bc 86b3 e9bc 818e 11bd
000000d0: 63f3 8bbc 6471 2fbd 9b88 333d e582 fd3c
000000e0: d9a7 e63c 5223 6cbc 0044 4b3d 3bda 27bd
000000f0: c3bd f13b 8aa7 fe3c b0f1 193d de30 863d
00000100: 6eeb 0cbd e39f 343c a88d 813d 2348 1cbc
00000110: f7b3 14bd 3cf7 0fbd ebf8 32bd f9f9 fa3c
00000120: f7bb ef3b edfe 36bd 1eb3 5bbc 3f7a d63c
00000130: d122 863c aa82 683b ce48 1c3c 09b9 253d
00000140: dce8 333c b8c4 623d 031e 0e3b f100 e3bc
00000150: 8535 06bd 9d49 2d3d 8a8b fd3b 5dc9 60bd
00000160: 10f3 2cbd 0d55 d63c bcfc b73c 527b 1abc
00000170: aec8 523d ae2e 453d 7e79 8ebd 6e22 c5bb
00000180: c929 13bd 597d 3ebd 8820 be3c 8794 24bd
00000190: 4a76 48bd 51e4 6a3c 4308 613d a1e5 48bd
000001a0: 8b6a bd3c 592f 07bd d690 203c ad73 a03c
000001b0: 76b8 07bc 2a35 fabc 72d1 1dbd 0288 923c
000001c0: 29ff e73c c111 ccbc 87f2 4d3d 4164 21bd
000001d0: 2822 743d f0e1 243c 8922 553d e8dc e83a
000001e0: 4909 813d aef1 433b 02e4 f33b 8c57 123d
000001f0: 9052 0dbd abfa a5bc e98d 13bd fdbd 20bc
00000200: 23d6 52bd 309c 813d 3c71 20bd 9749 303c
00000210: fad1 8dbc 0c8e 05bd 0da3 323d 8fe9 113d
00000220: 64b4 4e3c 4a10 fcbb 94e6 2b3d e546 5a3d
00000230: 63d0 87bb 782e 583c cabd 573c 59cb f13c
00000240: f431 37bd 3c3a 24bd c2d5 c1bc 42bc e53c
00000250: c927 45bd fd79 2a3d 09ad dc3c c034 28bd
00000260: ac5e 1bbd 3be9 393d e7d3 c93c 9d51 92bc
00000270: 9bf4 75bc 8c4b 813c 01d8 56bd 2581 8e3d
00000280: 2df0 603b 9cc7 9c3a e4fa c73c 8254 84bc
00000290: 4246 63bd e85a a8bc 02a4 bbba f92c cabc
000002a0: 4ad9 53bd d388 01bc ccbd b03b a06a 243d
000002b0: f39c 503d 82fe 50bd 12ce 50bd f35c 5eba
000002c0: d353 b9bc dd28 713c 996f bb3c 2c2b 59bd
000002d0: 18c1 943c 90a5 523d e7cd 9cbc 8846 8e3d
000002e0: df79 d73b 9493 d23c 2433 2cbc b0da d1bc
000002f0: 5f62 5f3d 30d0 26bd 4c3b dbbc 28b8 ccbc
00000300: c52c 8e3d 27e7 363d 99eb 113d b16e 453d
00000310: 24fc 833d 7205 5f3c 09b3 88bd 232d 933b
00000320: 3951 42bd 71dc 56bd f2b4 013d 0c3a 20bd
00000330: c878 34bc 6b37 5bbc 0a5e 0ebd 95d6 463d
00000340: fdb8 f83c 2f48 fb3c 8684 273d 5bf4 b83c
00000350: 166e 60bd 7ad0 40bc 8dee 873d ba55 f63c
00000360: 2347 e93c 58f3 eabc 02ca 51bd 3def 98bc
00000370: 67ec 543d f79c 3f3d e070 f2bc 1f2a b7bc
00000380: 8ec2 9dbc 1fda 0c3c 5aa0 733d 688a 633c
00000390: e45e 54bd 9f89 5a3d 01f5 a7bc 6c12 c83c
000003a0: c89f d83c bb4d 5dbd 7460 743d d27e 35bb
000003b0: 77d1 8abc 3f14 1bbd 6855 0fbd c05b 4c3d
000003c0: a01d 673d e59c 173d 6ae3 cb3c c9ac 2cbc
000003d0: 5c0b cb3a 26a4 783d bdad f33c 08f6 05bd
000003e0: 52f4 943d 3844 1abd c665 0c3d c5a7 2e3d
000003f0: 25bf 0b3d 8c22 1bbd 1556 97ba 113a 9f3b
-0.006246255 -0.031088198 0.035568397 -0.0083134025 -0.021276075 0.055899367 0.010933467 -0.039876014
-0.02356648 0.012249408 -0.045494508 -0.0391085 -0.041800167 0.02308768 -0.021293463 -0.050908227
0.0047121267 -0.049266964 -0.010553324 -0.014268835 -0.021101953 -0.012277853 0.0004353477 0.041879345
-0.02634763 -0.030138284 0.0019754996 0.035528142 -0.029240709 0.014224354 -0.015283821 0.0010070535
-0.03464476 0.020045223 0.01936113 -0.020580415 0.046210304 -0.018505383 -0.034595612 -0.017666532
0.06855318 0.051128205 -0.007334039 -0.03623924 0.017900046 -0.006345735 0.05857465 -0.038126823
-0.0037187436 -0.029516833 -0.028527986 -0.035536293 -0.01708383 -0.042832747 0.04383145 0.030946204
0.028156208 -0.014412718 0.049625397 -0.040979605 0.0073773577 0.031085748 0.037584007 0.065522894
-0.03440421 0.011024448 0.06325847 -0.009538683 -0.03630444 -0.03514789 -0.043694418 0.030636774
0.0073161083 -0.04467671 -0.013409404 0.026181338 0.016374024 0.0035478272 0.009538842 0.040459666
0.010980811 0.055363387 0.002168537 -0.02771041 -0.032765884 0.04230653 0.0077375816 -0.054879535
-0.04222399 0.026163602 0.02245938 -0.009428816 0.051460914 0.04814022 -0.069567665 -0.006016067
-0.03592852 -0.04650626 0.023208871 -0.04018071 -0.048940934 0.014336661 0.05493952 -0.049047116
0.023122093 -0.03300414 0.009800157 0.019586409 -0.008283725 -0.030542929 -0.03852982 0.01788712
0.028319912 -0.02491081 0.05028012 -0.03940225 0.059602886 0.010063633 0.05203489 0.001776603
0.06300599 0.002989869 0.007442952 0.035728022 -0.034502566 -0.02026113 -0.036024008 -0.009810922
-0.051473748 0.063286185 -0.03917049 0.010759733 -0.017312039 -0.03260617 0.04361253 0.03562313
0.012616251 -0.0076923715 0.041967943 0.053290267 -0.0041447147 0.013194673 0.013167808 0.029515909
-0.044725373 -0.0400946 -0.023661498 0.02804387 -0.048133645 0.041620243 0.026937978 -0.04106593
-0.037932083 0.04538844 0.024637176 -0.017861182 -0.015011932 0.015783094 -0.05245209 0.06958226
0.0034322843 0.0011961344 0.024411626 -0.016153578 -0.055486925 -0.02055116 -0.0014315846 -0.024679648
-0.051720895 -0.007906157 0.0053937193 0.040140748 0.05093093 -0.051023968 -0.050977774 -0.00084824784
-0.022622978 0.014719215 0.022880362 -0.053019688 0.01815848 0.051427424 -0.01914115 0.069470465
0.0065758075 0.025705136 -0.01051024 -0.025616974 0.054537173 -0.040725887 -0.026761673 -0.024990156
0.06942133 0.044654038 0.035625074 0.048201267 0.064445764 0.013612138 -0.06674773 0.0044914647
-0.04744074 -0.052456323 0.031666704 -0.039117858 -0.011015125 -0.013379912 -0.03475765 0.048544485
0.030361647 0.030674068 0.04089787 0.022577455 -0.054792486 -0.011768455 0.06637297 0.030070174
0.028476303 -0.028680488 -0.05121804 -0.018668765 0.051983263 0.046780553 -0.029594839 -0.022358952
-0.01925781 0.008596926 0.059479095 0.013887979 -0.051848307 0.053353902 -0.02050257 0.024422847
0.026443377 -0.054029208 0.059662297 -0.0027694 -0.016945584 -0.037861105 -0.03499356 0.049892187
0.056424737 0.03701486 0.024888713 -0.010539242 0.0015491056 0.06070342 0.02974593 -0.032705337
0.07273163 -0.037662715 0.034276746 0.042640466 0.034117837 -0.037874743 -0.001154604 0.004859217

network.2.bias f4 [27]
00000000: 7697 86bc 446a eebc ca36 cabc 7f2f 013d
00000010: cca0 c9bc f1a0 bf3c 62bf 593d b764 743d
00000020: 6411 2d3d 3e7d 02bd 1d94 873d 0fe1 1b3d
00000030: dc3c 53bd 1295 7039 a507 4f3d 162f d6b9
00000040: 0d5e 00bd 0f3f 063d a266 45bd e2ef 39bc
00000050: 4a5d 563c 307a 6c3c 45d3 e0bc d915 12bc
00000060: 73b6 b03c a02a e8bb 4ab8 083d
-0.016429644 -0.029103406 -0.024684329 0.031539436 -0.024612807 0.023392173 0.053161032 0.05966636
0.042252913 -0.03185772 0.06620047 0.03805643 -0.051571712 0.00022943717 0.0505444 -0.00040852342
-0.031339694 0.03277498 -0.04819358 -0.011348696 0.013083765 0.014433429 -0.027444491 -0.008916342
0.021571374 -0.0070851594 0.033378877
