code/models/dqn/dqn_19.pth (torch, 90003 bytes, 4 tensors)

network.0.weight f4 [512, 15]
00000000: 9c4f 95bc 28aa 3fbe 47fc fa3d d2e0 063d
00000010: 70cf cbbb a53e acbd 9338 153d 5256 313e
00000020: 0bec 8fbc 89ff 50be 86a0 b4be 5787 aa3e
00000030: e9d9 1ebe e75c 443d ae0d 21bc c9e4 0f3e
00000040: 5c2c d83d f83c aa3c dd28 b93d 18f4 5fbe
00000050: 540e d1bd 3eb9 dcbd d7d3 4c3e 8057 eebb
00000060: 988a 413e 126f 8c3e bec1 58be 408b 87be
00000070: 8301 77bc c453 82be b30d 6e3e 5e48 653e
00000080: ed4b 1ebd 2421 843e 9030 1ebd 23ba 55bd
00000090: 1f23 cf3c c0ed 4f3e 7dd4 1f3e ad95 13be
000000a0: 7e95 1bbe 9a28 61be d513 803d f678 e0bd
000000b0: e674 0f3e 87d5 423e ff42 6b3e b54b 783e
000000c0: bafc 5abd 9e95 e6bc c804 69be 7d63 eabd
000000d0: 1945 3bbe eb12 1e3e 09ab 1abd f68b a7bd
000000e0: d14e 903e 66e2 4dbd 6154 58bd 7afe 003d
000000f0: 4090 f2bc 30b7 773e 3d58 25bd ec08 0dbe
00000100: fe05 79bd 6dc2 8e3e 3561 c9bc 8637 ddbe
00000110: e6a8 40be 858f 40bd 9f6a 47be 3cb4 d6be
00000120: da00 253d 4f60 12be 1808 f8bc 9705 e3bd
00000130: db13 123e 87f0 433d 5775 08bd 8cf0 343e
00000140: 4996 d3bd a365 9dbe 32b4 cd3e c4c7 cb3d
00000150: 4fac 58bd def2 d23b c38f c73d d9a6 a5bd
00000160: 08fb e3bd b7c0 3d3e fd32 053e 5ec5 8fbd
00000170: 160d 193c d512 41be 7bc6 05bd 026b 843e
00000180: 62d5 3abe 7ea3 81ba 8b5d 0c3e bccc 4e3d
00000190: 1643 023e b649 2f3e 68c4 a4bd 3421 683d
000001a0: 85c4 333e 9144 493e 0f1f ba3b bfc0 3ebe
000001b0: f8b5 dfbd 7e05 c9bd 4231 963d 5a3b 26bc
000001c0: 8a19 45be b803 533e 9213 51bd 99f5 983e
000001d0: 32d7 22be bd19 4d3e 38ae 31be 1896 833e
000001e0: 2e19 8a3b 903b 8abc 7a2d 03bd e5b1 06be
000001f0: 8905 cdbe 5534 26be 5016 6abe 5947 c43e
00000200: 104e 89bd d53d 1c3e 12ed adbc 3f7a 84be
00000210: cb42 88bd 6a89 0d3c 5123 02be f067 033e
00000220: de65 1c3e 69bb b83d d236 d6bd 2c84 73bd
00000230: be85 623e 6cff bc3c 772b e93d 0469 61be
00000240: 24eb b9bd 14d2 34bd d65a 91bd d4e8 41bc
00000250: ae65 bc3b 1ef2 8b3d 8058 a0bd c695 86bd
00000260: b7da a0be 56d2 03be c6ca 61bd f378 adbd
00000270: 340a 6e3e 2453 f73e 70f6 fa3d 7f8f c73d
00000280: fcbb 493e e53b 0c3d fb53 3bbd 1a4e debd
00000290: 8573 7e3e 99f1 93bd 30b2 153d 3cca 64be
000002a0: 40ee d03d eaae 26be e334 5f3e 5a19 2f3e
000002b0: e12b b43d a9e3 a8bd acd7 9b3e 6eb2 24bd
000002c0: fed8 22be 35ea 113e 2f74 c9bd cce6 6c3e
000002d0: 5f42 db3d 9683 88be 2669 363e 0212 03be
000002e0: 623d 85bd 2aa7 b9bd b7a2 fbbd 258a 12be
000002f0: bb62 8cbe e87d 4a3e caa3 a6bb 531b 753e
00000300: 31bc 683d a4ce 363e 97e3 4c3e ad39 a83d
00000310: 8c91 afbd 3025 6aba 0913 3bbd 2095 89bd
00000320: dbef ddbd f547 32bd 1d52 973c bd1c 413e
00000330: 1a2c 253e 034e e3bc 91b7 723e 160b 983d
00000340: 0774 743e 3a6f 72bc 0454 8ebd ad00 57be
00000350: bf87 2e3e 0b7f e63d 05ef 5f3e f380 013d
00000360: ab75 453d bd31 023c be32 8e3e 8d89 a1be
00000370: 1ba7 fb3d 567b 81bd 6d61 313e 0703 793e
00000380: c00f 5f3d 1460 e7bd 36b8 42be 5b37 10bd
00000390: 90cb 10bd 9691 7c3e a520 8a3d f596 1d3e
000003a0: a97e 0fbd b399 4c3e 9825 ce3b 2ebd 243e
000003b0: 1835 32be 2dc1 c63c 9b99 08be 3135 3bbe
000003c0: de20 d93d 1b28 5abe 8471 38bd 6283 2f3e
000003d0: 5d76 19be dab0 633e fa64 4f3e f68a 873e
000003e0: 55f7 42be 0856 153e 0935 063e 82bc 79be
000003f0: 9c93 7f3e 198c 303e f091 383d 8c3f 943d
-0.018226437 -0.18717253 0.12255149 0.03292925 -0.006219797 -0.08410386 0.036430907 0.17318085
-0.017568609 -0.20409979 -0.3527872 0.3330638 -0.15512814 0.04794016 -0.009829922 0.14052118
0.10555336 0.020781025 0.09040997 -0.21870458 -0.10207811 -0.1077752 0.20002685 -0.0072736144
0.18900526 0.2742849 -0.21167657 -0.26473427 -0.015076044 -0.25454533 0.23247413 0.22390887
-0.038646627 0.25806534 -0.03862053 -0.052179467 0.025285302 0.20305538 0.15608402 -0.14412566
-0.15193745 -0.21988145 0.06253783 -0.109605715 0.14009437 0.19026767 0.22974776 0.2424763
-0.053463675 -0.028147515 -0.2275573 -0.11444757 -0.18288077 0.15436904 -0.037760768 -0.08180992
0.28185132 -0.05026474 -0.052814845 0.031492688 -0.0296098 0.24190974 -0.040367354 -0.13772935
-0.06079673 0.2788271 -0.024582485 -0.43206424 -0.1881443 -0.04701187 -0.19474266 -0.41934383
0.040284015 -0.14294551 -0.030277297 -0.110850506 0.14265387 0.047836807 -0.03331503 0.17669886
-0.10331399 -0.30741605 0.4017654 0.09950212 -0.0528987 0.0064376434 0.09744217 -0.08088464
-0.11131865 0.18530546 0.13007732 -0.07020067 0.009341499 -0.1885484 -0.03265999 0.2586289
-0.18245462 -0.0009890643 0.13707559 0.05048822 0.12720904 0.17117962 -0.08045274 0.05667229
0.17555435 0.19655062 0.005679972 -0.18628214 -0.1092338 -0.09815501 0.07333614 -0.010145986
-0.19248024 0.20606887 -0.051044054 0.29874876 -0.15902403 0.2002935 -0.17351615 0.2570045
0.0042144274 -0.016874105 -0.03202579 -0.13153799 -0.40043285 -0.162309 -0.22860074 0.38335684
-0.06704342 0.15257962 -0.021231208 -0.25874516 -0.06653365 0.008638719 -0.12708785 0.12832618
0.15273234 0.09020121 -0.10459675 -0.05945222 0.22121331 0.023071013 0.113852434 -0.22012717
-0.09078053 -0.04414566 -0.07097404 -0.011835296 0.005749426 0.068332896 -0.0782938 -0.06571536
-0.31416866 -0.12873206 -0.05512502 -0.08470335 0.2324608 0.4830562 0.122540355 0.097441666
0.19700617 0.034236807 -0.045734387 -0.108547404 0.24848755 -0.072238155 0.036546886 -0.22342771
0.102016926 -0.16277662 0.21797518 0.17099515 0.08797432 -0.08246548 0.30437982 -0.040209226
-0.15903088 0.14249499 -0.098366134 0.23134917 0.10706019 -0.26662892 0.17813548 -0.12799838
-0.065058485 -0.09065087 -0.12286895 -0.1431051 -0.27419075 0.19774592 -0.005085443 0.23936205
0.0568201 0.17852265 0.20008694 0.08214126 -0.08572683 -0.0008931933 -0.04567245 -0.067178965
-0.108367644 -0.043525655 0.018471772 0.18858619 0.16130105 -0.02774716 0.23702838 0.074239895
0.23872386 -0.014797026 -0.069496185 -0.20996352 0.1704397 0.112547 0.21868522 0.031617116
0.04820792 0.007946429 0.27773088 -0.31550255 0.12287732 -0.063223526 0.17322321 0.24317561
0.05445838 -0.11297622 -0.19015583 -0.03520904 -0.035350382 0.24664912 0.06744508 0.15389617
-0.035032902 0.19980507 0.0062911026 0.16087791 -0.17403066 0.024262035 -0.13339846 -0.1828201
0.10601972 -0.21304362 -0.045030132 0.17139962 -0.14986558 0.22235432 0.20253363 0.26473206
-0.19039662 0.145836 0.13106169 -0.24388316 0.24958652 0.17240943 0.04506105 0.07238683

network.0.bias f4 [512]
00000000: 9dc3 893e b2b8 3e3d 6250 dd3c 7986 f5bd
00000010: fb38 6ebe 18a2 153e 64cb a23d c6f7 83bd
00000020: 9af6 2cbe 112e 163e c5bc 2bbe 6e22 003e
00000030: 5c46 c53d 5482 f0bd 1472 cfbd f606 9d3b
00000040: fe7a 883e 05ca 6a3e efd1 6d3e 6e10 29bc
00000050: 4ef1 2c3e 5d7c c53d 7f8f 8a3d 24e4 833e
00000060: 02e4 363e 20ab 9f3c 5c5a 09bc 4a2b 183e
00000070: bb4f d03c e61f 19be f13c 483e 040f 01be
00000080: 21cf 793d 2471 12be 5821 ea3d b463 b2bd
00000090: 5281 803e 518c 67be f9bd 6ebd ad7f e23d
000000a0: 5de7 d5bd a823 02be f18d 3abe ccde 22be
000000b0: caf4 0bbe abb9 c83d c96c 62be 9393 1bbe
000000c0: 1e5c cabd 8de4 d9bc dbbd 183e 566d fe3c
000000d0: 6c21 a23c 3e64 39be 5464 9bbb 78e8 fa3d
000000e0: 35d6 59be 27e3 0a3d 125a 283d 4a79 39be
000000f0: 5172 3dbe dc7d bf3d f5f4 2b3e 1c3d bfbd
00000100: a121 26be 03f5 953d 1633 dcbc 4ca9 8bbe
00000110: 7665 703e b7bf bcbb 7640 06be 6761 703d
00000120: 10e2 6a3b 05c1 3c3e c943 37be 8789 edbd
00000130: 4f41 703d 612f 153e 4514 543e bc4a 653d
00000140: 8242 05be 12b7 81be 47ba 8a3e 6ada b3bd
00000150: 8007 9bbd f0d8 55be 2a59 313e c2eb 233e
00000160: 1a1a 6a3d 6470 073e 39fc 813e 1975 233e
00000170: afac 903d 9805 51bd c11d 76be 57b7 e13d
00000180: 521a 803d 78b0 2c3e 9032 693e c009 d93c
00000190: 2e3f 46be 23cc f0bd f8aa a6bd 54e4 ad3d
000001a0: f0c2 de3d c9f4 5fbe 072f b73d a3d0 023e
000001b0: 963b 57bc 7555 41bd b53a 41be 685a 923d
000001c0: 9c4c 853e 8239 a6bb 8fe7 8e3d 26a7 5dbd
000001d0: 3a2a d23d 5f34 223d 9fe7 a23d 5419 503e
000001e0: ff55 44be 0e21 8dbe 8a12 3abe bd1a ad3d
000001f0: 6555 ae3c 1e17 713d 3af0 423e 9d05 493d
00000200: da44 12be 41f5 353d c738 2dbe 57dd 62be
00000210: 8b59 49be 966a f43c b4af 43bb 6615 a33d
00000220: decb a53d 5eed 513e f231 1abd 092f 8bbc
00000230: b72a 3cbe 8a82 dcbd ccce 00be 08b1 b8bd
00000240: b6d3 abbc f5b3 e83d cb9a a2bd a7fd 483e
00000250: f7a0 943d 48af 94bd b9ab 753d f36e 473e
00000260: 6ede 0d3e bfbd 473e a6f6 babd f32b c43d
00000270: b198 293e f295 eebd 1f6e f73c 57ff 473e
00000280: 6d58 1abe 5570 0a3e e091 26be d812 a93d
00000290: 460a 92bd 212e 0cbe f386 8dbd aa0e 30be
000002a0: fd57 1abe 4744 b33d 9115 dabd ed43 b6bd
000002b0: 8706 e6bd 3cee e33d e2d1 87be 26d0 b13d
000002c0: 1427 cbbd f83b c33c 8052 32bb f2ed cfbd
000002d0: 7e0e 3a3e 9e5e 0b3e a634 623d 6090 533e
000002e0: 30dd 3c3e 85b9 093e 1172 acb9 4a46 6cbe
000002f0: f88d 9bbd 3be5 08be 657b 18bd f8d4 493e
00000300: de04 a73d ec20 40be 578e 1cbe 9db0 7c3e
00000310: f21e 783e 6321 91bc 8d47 64bd c77f 80be
00000320: 52b4 2b3e 8312 67bd 7830 fbbd a947 c3bd
00000330: 8112 d03d 0258 7a3d 5405 883e 23f0 9fbc
00000340: 3e56 393c d996 5e3d 8718 29be 41bc 873e
00000350: 010e 513e 4172 433c 53eb 693b bf68 3cbd
00000360: f683 34be 9e1b 47be 88d3 9d3c 9228 5dbe
00000370: eb21 843e c848 08be 65a6 163e bb60 153e
00000380: f6cd 0bbe af05 933e c75b 013d 61a4 8fbe
00000390: 5973 833d 3822 6d3e d00c cd3d 3f7a a2bd
000003a0: 2047 3fbe 86a8 52bd 41df 223e e3a2 06be
000003b0: db27 753e b056 5f3e a221 63be 9925 ec3d
000003c0: fe06 34bd c46e 9e3a fa0e 073e 648d 1b3e
000003d0: 67d7 7e3e be8c 47be a808 743e d9bb ec3d
000003e0: 9649 e4bd d693 ffbd c834 563e 42b5 3a3e
000003f0: d9e5 6dbe 0626 e43d 62c3 51be 474d 36be
0.26907054 0.046562858 0.027015869 -0.11988539 -0.23263924 0.14612615 0.0794895 -0.064437434
-0.16890946 0.1466601 -0.16771229 0.12513134 0.096325606 -0.11743608 -0.101291806 0.0047920896
0.26656336 0.22928627 0.23224615 -0.010318859 0.16888925 0.09642861 0.06765651 0.25759995
0.17860416 0.019490778 -0.00838336 0.14860263 0.025428643 -0.14953575 0.19554497 -0.12603384
0.06098855 -0.14300972 0.11432141 -0.08710423 0.25098664 -0.2261212 -0.05828664 0.110595085
-0.1044452 -0.12708914 -0.18218209 -0.15905303 -0.13667598 0.09801038 -0.2211181 -0.15193014
-0.09880851 -0.02659824 0.14916174 0.031057995 0.019791327 -0.18104646 -0.0047421847 0.12251371
-0.2127312 0.033908036 0.041101523 -0.18112674 -0.1850064 0.09350178 0.16792662 -0.093378276
-0.16223766 0.07322123 -0.026879828 -0.272776 0.23476204 -0.005760159 -0.13110527 0.05868664
0.003584031 0.18433006 -0.17896952 -0.11598497 0.058656033 0.14568855 0.20710857 0.055979475
-0.13013652 -0.25334984 0.27095243 -0.087818936 -0.0756979 -0.20883536 0.1731917 0.16007903
0.0571538 0.13226467 0.25387743 0.15962638 0.07064187 -0.051030725 -0.24034788 0.110212974
0.0625502 0.16864192 0.22773194 0.026493907 -0.19360039 -0.11757686 -0.081380785 0.08490816
0.10877025 -0.21870722 0.08944517 0.12774901 -0.013136765 -0.04720064 -0.18870051 0.0714615
0.2603501 -0.0050727734 0.0697776 -0.054114483 0.1026196 0.039600726 0.079543345 0.20322162
-0.1917343 -0.2756428 -0.18171135 0.084523655 0.021280954 0.058859937 0.19036952 0.04907762
-0.14284077 0.044423345 -0.1691619 -0.22154747 -0.19663064 0.02983598 -0.0029859366 0.07963066
0.08095525 0.20500705 -0.037645288 -0.016990202 -0.1837567 -0.10767086 -0.12578887 -0.09018141
-0.020974975 0.11362449 -0.07939681 0.1962801 0.07257264 -0.07259995 0.05997822 0.19475918
0.13854381 0.19505976 -0.09129076 0.09578695 0.16562153 -0.116496935 0.030203877 0.19530998
-0.15072794 0.13519414 -0.16266584 0.08255547 -0.07130866 -0.13689472 -0.06910505 -0.17193094
-0.15072627 0.08753257 -0.10648645 -0.088996746 -0.11231714 0.11129424 -0.26527315 0.08682279
-0.09919563 0.023832306 -0.0027209818 -0.10152806 0.18169591 0.13610312 0.05522599 0.20660543
0.18443751 0.13449676 -0.00032891383 -0.23073688 -0.07595438 -0.13368694 -0.037227053 0.19710147
0.08155225 -0.18762559 -0.15288673 0.24676748 0.24230555 -0.017716115 -0.0557323 -0.25097486
0.16768005 -0.05641414 -0.12265104 -0.095351525 0.10159779 0.061119087 0.26566565 -0.019523686
0.011312066 0.05434308 -0.16513263 0.26510814 0.20415498 0.011929096 0.0035693243 -0.04599833
-0.17628464 -0.19444129 0.019265905 -0.21597508 0.25807127 -0.13309014 0.14711912 0.14587681
-0.13652787 0.28715274 0.031581666 -0.280551 0.06418485 0.23157585 0.100122094 -0.07933473
-0.18679476 -0.051430248 0.15905477 -0.13148074 0.23940985 0.21810412 -0.22180799 0.11530609
-0.04395198 0.0012087454 0.13189307 0.15190655 0.24886857 -0.19487283 0.23831427 0.115592666
-0.11146848 -0.12479369 0.20918572 0.18233207 -0.23232211 0.11140065 -0.20484689 -0.17802916

network.2.weight f4 [27, 512]
00000000: 2f3f 183d 700a c33d 9d62 633d bbde eabc
00000010: e594 e1bd d971 df3c dded cabc 878f a9bd
00000020: 9fbc 793d f21c 28bb ee4e c0bc 44bb a23c
00000030: fb22 863b 92d3 72bd 48ec a03c b28b 8fbc
00000040: 8006 b03c 719e 0e3c 3edb 9cbb 5371 f9bb
00000050: 143d 86bc 5a19 bdbc 6293 213d a9a7 af3c
00000060: 2896 dc3c c90d 5d3d f0c7 59bb 2874 ea3b
00000070: 04ed d93c e580 f8ba 9b45 18bc edc5 ef3b
00000080: 7775 f2ba 5a71 e8bd 1aca d53d b52c fc3c
00000090: b91a 5a3c d729 febd 617f 403d f528 693d
000000a0: 3f1a 12be 530d 7a3c c987 aa3b 6393 693d
000000b0: 1c3e 1a3d 052a 873d 6ff6 2bbd 1b33 7cbc
000000c0: c485 223d 6b19 ed3d ff90 373d febb f4bc
000000d0: d418 023d 465d 13be ab05 093d 54c3 3bbd
000000e0: f266 723d 6f25 573d 8784 ab3c bed9 443d
000000f0: 4fac 733c 4ff9 0abd 488d 80bd 2de4 51bd
00000100: 5bb5 bdbd 1776 f53c 721c 04bd bbef cc3c
00000110: 8b12 193d 77b2 943d 7214 d4bc 6430 863c
00000120: 78f0 01bd aa4f 203c 25ce 8bbd e2f6 003d
00000130: 7585 a4bd 88a4 dd3b 7ea5 d739 e71e a5bd
00000140: feda 513d ad64 a0bd 7147 493d bb1e 1dbe
00000150: e216 b53b e435 6cbd 37c6 8cbc 7545 7a3d
00000160: 8361 5fbc e45a 2f3d f8ce 653c cbbf 11bc
00000170: d89f 4d3d 1e90 e839 7148 5fbc ed9c 9e3c
00000180: 561b 033c 599d 16bc 7f26 6abd 6057 9bbd
00000190: 61b6 53bd 2b72 433d bfa7 6b3d 5b70 323a
000001a0: 73c5 e23d 5ccf 4abd f88c 9cbc 5128 3cbd
000001b0: 884a 6b3c 4e99 a43c f60f 8e3d 3d9d 173d
000001c0: eb45 cb3c d91a 14bd ba43 98bc 5cb5 94bc
000001d0: 9645 293c 9b24 7e3d 922a 62bd 5e8b 93bd
000001e0: 440f 643d ffee 243d be27 053c 96c2 e73c
000001f0: 21cd 143d 7cfd b8ba 0978 18be 91cf 98bc
00000200: edbd d1bb bd67 ad3b cfe3 e939 2c03 373a
00000210: e0a5 eabc c67b 183d 514c c63c baf6 393c
00000220: e232 cb3d dd18 643c 58b8 d03d 8391 22bd
00000230: 70c1 edbc d790 1a3d 53f9 98bc 646e 19be
00000240: 5d1f ad3d 46b3 d33c 3af4 a9bd 35d6 c63c
00000250: a1b2 6c3b 6252 38bd 9cfe 3cbc dad1 6ebc
00000260: b633 95bd f6f3 05bd a6f9 5abd 50ec 9c3c
00000270: e282 86bb e607 873d 194a b1bc 7b40 98bb
00000280: a3c1 ccbc ef94 0cbb cf77 d7bc 404b 0c3c
00000290: 925d 84bc 9540 863d b31f 09bd 30c6 4dbd
000002a0: 2817 0ebe 4f91 1b3d 5641 4a3d 1081 b03c
000002b0: 2095 e03d 3b7d 1b3d 9bab a23d e636 7dbc
000002c0: a455 38bd 352e e2bd b41c 343d ed83 bb3d
000002d0: 62d3 1b3d 00eb b23c 4086 b43c 31d2 13bd
000002e0: fc5c cd3c 6929 ce3d 2733 8bbd e03e e43d
000002f0: 20bd 3cbe 0f85 203d aa4a 043d a488 ae3c
00000300: a17b 483c 6fc0 5b3d c176 72bd 6259 dabc
00000310: 1655 993d b85b 9f3b cb15 2bbc 19ca a1bd
00000320: 9c58 123d 779b 9b3b 73e7 52bd 7478 a03d
00000330: 13b8 65bd 83fc 1abd 06c8 f5bb 9a82 8c3d
00000340: 9360 7e3b 7332 e63b 1ae2 bd3d 6aec 963d
00000350: 770c af3d b5fa e73c 4190 ccbc 3e53 233d
00000360: 07e7 043d ce9a 7ebd 4eaa 32bb c981 0dbe
00000370: e315 46ba f413 3dbd 521a 03bc 8c1a 993c
00000380: 70f9 ffbc 9f5f eebd cacc 813c d991 d13b
00000390: afea 5ebc 9114 fe3c 91d1 963c c0f0 513d
000003a0: c60b 663c 92d4 a2bc de3b 1e3d 85d8 b2ba
000003b0: 5e1e a5b9 4d36 193d 8c02 01bd 25b1 35bd
000003c0: ab2c 5f3d 20a4 913c 66a6 0bbe dd2d 693d
000003d0: 7d25 833d af3b 213d cefb 8b3d d319 c93d
000003e0: 300d 253b 87cd 3fbd 740d 473d 899d 83bc
000003f0: 4b1a 77bd ea0a cabc 8a78 5a3d 61fe b5bc
0.03716963 0.09523475 0.055513967 -0.02867066 -0.110147275 0.027275966 -0.024771625 -0.08279329
0.0609709 -0.0025652018 -0.023475137 0.019864686 0.0040935255 -0.0592838 0.019643918 -0.017522667
0.021487474 0.008704768 -0.004786878 -0.0076123863 -0.016386546 -0.023083378 0.039447196 0.021442251
0.026927069 0.053968225 -0.0033230744 0.00715496 0.026602276 -0.0018959312 -0.009293939 0.0073172958
-0.0018498142 -0.11349745 0.104389384 0.030783037 0.013312035 -0.12410324 0.046996478 0.056923825
-0.14267825 0.015261966 0.005204175 0.057025325 0.03765689 0.065998115 -0.041983064 -0.015393044
0.03967835 0.11577114 0.044816013 -0.029874798 0.03176196 -0.1439105 0.03345267 -0.045840576
0.059180208 0.052525934 0.020937217 0.048059218 0.014872625 -0.033929165 -0.06276947 -0.051242996
-0.092631064 0.029963536 -0.03225369 0.025016656 0.0373712 0.07260602 -0.025888655 0.016380496
-0.03172347 0.009784618 -0.06826428 0.031485446 -0.080332674 0.0067639984 0.00041131297 -0.08062535
0.051234238 -0.078317024 0.049140397 -0.15343754 0.0055264095 -0.05766858 -0.01718436 0.061101396
-0.013634088 0.04281129 0.014026396 -0.008895825 0.050201267 0.00044357864 -0.013628111 0.019361937
0.008002123 -0.009192788 -0.05716562 -0.07585025 -0.051687602 0.0477163 0.057533022 0.00068069034
0.11072817 -0.04951416 -0.019110188 -0.045936886 0.014361031 0.020092633 0.06936638 0.03701519
0.024813613 -0.036158416 -0.018586982 -0.018152885 0.010331532 0.06204663 -0.05521638 -0.072043166
0.05567862 0.040266987 0.008127151 0.028291028 0.03632844 -0.001411363 -0.1488954 -0.018653663
-0.0064008147 0.0052919076 0.00044610954 0.00069813686 -0.028643548 0.037227415 0.024206312 0.011350328
0.099218145 0.0139219435 0.10191411 -0.039689552 -0.029022902 0.037735786 -0.018673575 -0.14983517
0.08453248 0.02584232 -0.08298536 0.024272064 0.0036117213 -0.04500044 -0.011535313 -0.0145764
-0.07285254 -0.032703362 -0.05346074 0.019155651 -0.004104958 0.065933034 -0.021641778 -0.0046463585
-0.024994677 -0.0021451076 -0.026302246 0.008562863 -0.016157899 0.06555287 -0.033477496 -0.050237834
-0.13876021 0.037980374 0.049378715 0.021545917 0.10965943 0.037961226 0.079428874 -0.015454983
-0.04500355 -0.110439695 0.043972686 0.09156022 0.038043387 0.021840572 0.022036672 -0.036089126
0.025068752 0.10066492 -0.06796866 0.11144805 -0.1843152 0.039189395 0.032297768 0.02130539
0.012236507 0.053650316 -0.059195284 -0.02665395 0.07486932 0.0048632286 -0.010442208 -0.07899875
0.035729036 0.0047487575 -0.05149026 0.078354746 -0.05608375 -0.03783847 -0.0075006513 0.06860848
0.0038814887 0.007025057 0.09271641 0.07369311 0.08547299 0.028317789 -0.02497113 0.039874308
0.032446887 -0.062159352 -0.0027262154 -0.1381904 -0.0007556362 -0.046161607 -0.008001881 0.018689416
-0.03124687 -0.11639332 0.015844721 0.00639556 -0.013605758 0.031015666 0.018410476 0.051254988
0.014040893 -0.019876752 0.038631313 -0.001364485 -0.00031493878 0.0374053 -0.03149657 -0.04435839
0.054485958 0.017778456 -0.13637695 0.056928504 0.06403635 0.03936356 0.06835137 0.09819379
0.0025184862 -0.046826866 0.048596814 -0.01606633 -0.06032781 -0.024663407 0.05333761 -0.022216024

network.2.bias f4 [27]
00000000: f992 ccbc d1be 5ebc 0000 c2bc 1bf8 3dbc
00000010: 6f6f 333b 76c0 c73b aa51 223c 3bd7 0abd
00000020: ae93 933c a5e9 d3bc 5f6d 343d af02 0cbd
00000030: 2b6d a7bc 063a 8dbb 6394 293c 4843 f3bc
00000040: 32b7 e23a 37c9 163d 2ec6 8cbc 38ec 8abb
00000050: b9aa 273d 3e89 0e3d 88de 81bc 2689 3d3d
00000060: 1df0 0ebd ba8c afbb ee5f a5bc
-0.024972426 -0.013595299 -0.02368164 -0.0115947975 0.0027379652 0.006095941 0.009907166 -0.033896666
0.018014755 -0.025868246 0.044049617 -0.034182247 -0.020437798 -0.0043098954 0.01035032 -0.029695168
0.0017297028 0.036812987 -0.017184343 -0.0042395853 0.0409343 0.034798853 -0.015853181 0.046273373
-0.03489696 -0.005357352 -0.020187344
