code/models/dqn/dqn_2.pth (torch, 45971 bytes, 4 tensors)

network.0.weight f4 [256, 15]
0.4244965 0.2928784 -0.21159665 -0.21413513 -0.1602782 0.28240886 -0.012033284 0.17413345
0.24607293 0.33397058 0.77508295 0.5387971 -0.06263928 0.09777419 0.38767818 -0.46952805
0.22390503 -0.7158277 0.20704506 -0.27443624 0.09151179 -0.017173246 -0.018638153 0.109236136
0.54699856 -1.2533207 0.3490948 0.056642476 0.24043871 0.119290605 -0.27329716 -0.34174192
0.18988124 0.44330606 0.16420206 -0.22593419 0.11391219 0.43026537 0.27104697 -1.2280937
-0.8156413 -0.34642178 -0.045369696 -0.14216962 -0.379077 0.12645625 0.1518767 -0.39897498
0.022104502 -0.07897614 0.11885043 0.18644509 -0.24553415 -0.14543468 -0.5706157 -1.2625207
-0.75690675 0.0014537039 0.14632468 -0.112595454 0.06831519 -0.028825449 0.35655984 -0.34566137
0.06650174 -1.1721458 0.028152412 0.45078245 0.28644133 0.40049747 0.46143642 -0.18408516
-0.4165883 0.016669635 0.019230632 -0.5324001 0.36209694 0.47106147 -0.084871635 -0.22894728
-0.119911686 -0.36213863 -0.011524554 0.1305339 0.18582748 -0.60029197 -0.6347618 -0.02186542
0.41780412 0.42195818 0.3279053 0.22309202 0.0965465 0.09696891 -0.022691112 0.48906392
0.17280278 -0.1762508 0.1619848 -0.756999 -0.5762114 -0.2746665 -0.15458015 -0.17151831
-0.035772737 0.3156536 -0.25317243 0.33958787 0.6029011 0.05435547 0.2561655 0.029134063
0.010207381 -0.008688618 -0.5320161 0.5094023 0.15404984 -0.017896421 -0.39958566 -0.071324445
-0.024317274 0.08774128 -0.110385746 -0.21360199 0.3373528 0.3597799 -0.10314787 -0.12368307
0.049312394 -0.4391805 -0.7519892 -0.27091408 -0.20399353 0.27516904 0.15194711 -0.421384
-0.36159828 -0.6013155 0.10118917 -0.3156285 -0.054168135 -0.016745621 0.32014412 0.13347559
0.8371273 -0.4420019 -0.1257074 0.11874725 0.32728693 0.414864 0.29110697 0.4421525
0.102253325 -0.008788318 0.016835317 0.10942167 0.020234639 0.25339437 0.30729634 0.42345354
1.0440047 0.2961778 0.21797746 0.25219467 0.0040776576 0.18693554 0.021455754 0.14462377
0.3893661 -0.30200025 0.21234165 -0.27983332 -0.17865703 0.009253251 -0.6540487 -0.6472369
-0.7072401 0.17567407 0.0939334 0.0029705926 -0.032569442 0.54813385 -0.19784316 0.052611697
-0.27246428 0.070985034 -0.07478087 0.15136576 -0.095586665 0.64018655 1.0891793 0.701471
0.3360025 0.13000458 0.2997898 0.3510322 0.040102355 -0.31266865 -0.18859299 -0.14338392
0.14930865 -0.05989074 0.06178189 0.28694075 -0.37078446 -0.749648 -0.61708874 0.014089169
-0.02412563 0.32242006 -0.41918445 -0.006521717 -0.28167352 -0.003540692 0.22747262 -0.010747606
-0.091884464 0.29353362 0.16293706 0.15737794 -2.0504413 -0.680009 0.25377405 0.40073225
0.3845789 -0.010454442 0.3020169 -0.18273355 0.03131707 -0.1500655 0.20791836 -0.038997933
0.00266724 0.04857119 1.128532 0.7033967 0.41272664 -0.15233783 0.20482013 0.16920598
-0.054848816 0.30088913 -0.3755589 -0.047807686 -0.11355268 0.24497907 -0.070309326 -0.13667747
0.25297058 0.9766505 0.59773237 0.46300197 0.25755712 -0.05180283 0.03165424 0.17716552
00000000: 9b57 d93e 28f4 953e cbac 58be 3d46 5bbe
00000010: f81f 24be e597 903e 4027 45bc 0a50 323e
00000020: 8bfa 7b3e 31fe aa3e d66b 463f 9bee 093f
00000030: 0649 80bd d63d c83d c17d c63e fb65 f0be
00000040: 5c47 653e 7c40 37bf 9f03 543e e882 8cbe
00000050: 896a bb3d e8ae 8cbc 0aaf 98bc 32b7 df3d
00000060: 1908 0c3f d06c a0bf 8ebc b23e f101 683d
00000070: 9135 763e a24e f43d 9bed 8bbe ccf8 aebe
00000080: 3a70 423e 03f9 e23e 9624 283e 4b5b 67be
00000090: cb4a e93d be4b dc3e abc6 8a3e 2d32 9dbf
000000a0: decd 50bf 325e b1be 93d5 39bd ea94 11be
000000b0: 6116 c2be bf7d 013e 9185 1b3e 7346 ccbe
000000c0: 8014 b53c 3ebe a1bd db67 f33d 76eb 3e3e
000000d0: 4e6d 7bbe d4ec 14be df13 12bf 479a a1bf
000000e0: a4c4 41bf 358a be3a 23d6 153e 7298 e6bd
000000f0: d6e8 8b3d 5923 ecbc 038f b63e 87fa b0be
00000100: 1032 883d e008 96bf e39f e63c f5cc e63e
00000110: 70a8 923e 010e cd3e 6541 ec3e d280 3cbe
00000120: 104b d5be c28e 883c 8f89 9d3c 5f4b 08bf
00000130: c564 b93e f82e f13e 2ed1 adbd 2871 6abe
00000140: 4294 f5bd 3c6a b9be 7cd1 3cbc aeaa 053e
00000150: 8f49 3e3e bcac 19bf c07f 22bf 1c1f b3bc
00000160: 6cea d53e e70a d83e 34e3 a73e 3c72 643e
00000170: 2cba c53d a397 c63d b6e2 b9bc 9666 fa3e
00000180: 36f3 303e 177b 34be 58df 253e b0ca 41bf
00000190: 9782 13bf 16a1 8cbe 424a 1ebe 7fa2 2fbe
000001a0: 6f86 12bd 599d a13e d19f 81be 76de ad3e
000001b0: ba57 1a3f d7a3 5e3d 2028 833e 8faa ee3c
000001c0: dc3c 273c b55a 0ebc 3532 08bf 3068 023f
000001d0: 3ebf 1d3e 849b 92bc 7e96 ccbe 8d12 92bd
000001e0: 0535 c7bc b3b1 b33d ec11 e2bd 7bba 5abe
000001f0: 82b9 ac3e 1235 b83e 313f d3bd 8d4d fdbd
00000200: cbfb 493d 44dc e0be 5d82 40bf 40b5 8abe
00000210: aee3 50be f5e2 8c3e 0698 1b3e a5bf d7be
00000220: 6923 b9be d0ef 19bf 443c cf3d 0f9a a1be
00000230: 68df 5dbd 1d2e 89bc eee9 a33e d3ad 083e
00000240: fa4d 563f 134e e2be 71b9 00be c231 f33d
00000250: 2792 a73e 0e69 d43e f90b 953e d061 e23e
00000260: 316a d13d e1fc 0fbc 38ea 893c 7818 e03d
00000270: 1dc3 a53c e8bc 813e f255 9d3e e7ce d83e
00000280: f2a1 853f 9ea4 973e 7c35 5f3e a91f 813e
00000290: df9d 853b 086c 3f3e fac3 af3c 4118 143e
000002a0: fe5a c73e c79f 9abe 1770 593e 5046 8fbe
000002b0: def1 36be f39a 173c bc6f 27bf 51b1 25bf
000002c0: b00d 35bf e7e3 333e 2860 c03d 46ae 423b
000002d0: 8967 05bd 8052 0c3f 6697 4abe 5d7f 573d
000002e0: 7080 8bbe 9a60 913d b626 99bd a0ff 1a3e
000002f0: f1c2 c3bd 44e3 233f 3a6a 8b3f 9a93 333f
00000300: 8508 ac3e ec1f 053e 0c7e 993e 7eba b33e
00000310: 5e42 243d 1b16 a0be 851e 41be 3cd3 12be
00000320: 5ee4 183e fe4f 75bd 020f 7d3d e6e9 923e
00000330: 76d7 bdbe eee8 3fbf 87f9 1dbf 42d6 663c
00000340: 1da3 c5bc 3e14 a53e 589f d6be 21b4 d5bb
00000350: 8337 90be f40a 68bb 95ee 683e ba16 30bc
00000360: ec2d bcbd 0a4a 963e f9d8 263e af27 213e
00000370: 6e3a 03c0 1215 2ebf acee 813e c72c cd3e
00000380: 87e7 c43e 1c49 2bbc f6a1 9a3e 811e 3bbe
00000390: 5446 003d c5aa 19be 8de8 543e 4cbc 1fbd
000003a0: ddcc 2e3b 96f2 463d bd73 903f ce11 343f
000003b0: e850 d33e 73fe 1bbe 5ebc 513e 5544 2d3e
000003c0: 27a9 60bd 240e 9a3e 4249 c0be fed1 43bd
000003d0: 4f8e e8bd cbdb 7a3e 56fe 8fbd 2ef5 0bbe
000003e0: 5c85 813e c405 7a3f fd04 193f 980e ed3e
000003f0: 87de 833e 342f 54bd e0a7 013d e16a 353e

network.0.bias f4 [256]
0.21460913 -0.06384831 -0.15108286 0.2116922 -0.10194538 0.2613564 -0.18628731 -0.22480811
0.0175419 0.41852862 0.0020586122 0.20839292 -0.05252171 -0.12961674 -0.043328024 -0.1367589
0.27311525 -0.24985905 -0.27243337 0.4031773 0.2922656 0.09292575 0.33028114 0.00035564948
0.2036749 0.06791277 0.26440707 0.22656663 -0.20477954 -0.31410798 -0.26904228 0.24887127
0.12341879 -0.058076844 0.15926637 0.8140144 0.28154594 0.0379306 -0.51565886 -0.10018925
0.05813573 -0.054373797 0.14994127 0.4269712 0.43963388 0.49483755 0.28377622 -0.12508042
-0.2408339 0.78218824 0.33894423 0.24024741 0.09013097 -0.02124003 0.20827882 0.41758907
0.104932226 -0.25121206 0.81672513 -0.021695646 -0.23203653 -0.3278489 0.19459681 0.78897876
-0.11524613 -0.14015168 -0.17893471 0.05406229 0.5154023 0.17445837 0.6863466 -0.29785877
-0.29167286 0.516012 0.12989356 0.12885118 -0.13417993 0.34344098 0.3645278 0.17877315
0.086587496 -0.10627196 -0.16736062 0.26550102 0.087795354 0.5187779 0.23107865 0.16616902
0.21179701 0.21788464 -0.1405612 0.24431495 0.39482513 0.061706606 -0.12390061 0.17666896
0.13838796 -0.020828545 0.2881251 0.112227365 0.035817105 0.1917085 -0.06639863 0.6959519
0.3483908 -0.032995924 0.33206174 0.09410694 0.124649666 0.3014197 -0.1789496 -0.34384388
0.2435558 0.14521939 -0.3482183 -0.35398185 0.8832605 -0.2761996 -0.14834669 -0.019851316
-0.111207426 -0.21904415 0.038021468 0.4642172 -0.12820731 -0.3879837 -0.20433407 -0.2753961
0.20477472 0.1995035 0.26988423 0.084040105 -0.023291238 -0.27923688 -0.14323677 -0.24523428
-0.15044953 -0.110279754 -0.12932096 -0.02418008 -0.19489738 0.1610705 0.4038761 0.0058213505
0.27346334 -0.1438237 -0.4036437 0.18515968 0.073433116 -0.12553062 -0.14262703 0.44544053
-0.22204748 -0.13268389 0.13864644 0.06269205 -0.17954648 0.7470122 -0.029274419 0.12979005
-0.61549246 -0.44816786 0.38318577 0.2527343 0.0983179 0.2919488 0.1204115 -0.5124379
-0.12523898 0.050402757 0.09666932 -0.48383978 -0.43415374 0.18290383 0.40296903 0.42351294
-0.35863662 -0.16350177 -0.24115615 0.9239166 0.28365195 -0.12015873 0.33028597 0.111625575
0.38321042 0.20269644 0.24060284 0.034153372 -0.10636071 0.0115825655 0.57878447 -0.022573045
0.16700341 0.3158943 0.24366535 0.25036716 -0.3649029 -0.19135785 0.9003451 0.2596319
0.31355548 -0.020813707 -0.11817409 -0.033507094 0.046672918 -0.58025104 0.28335398 0.2487891
-0.16643628 0.008218753 -0.12180123 0.13824065 0.06322663 -0.05748342 -0.06434048 -0.21529692
0.1373122 0.3963967 0.14315921 -0.04046816 -0.55222297 -0.056884356 0.22093643 0.30010384
0.10803865 -0.04560689 -0.01838988 0.04962823 0.03919978 0.31969687 0.9412668 0.24763468
-0.27483502 -0.32707694 0.20133096 0.05557154 -0.06844227 -0.5031177 0.30184916 0.053030174
0.26690826 0.34124652 0.10563518 0.051731624 0.90158534 -0.22611694 -0.25023845 -0.18327512
0.1493479 0.22702761 -0.3332382 -0.27514645 0.24028446 -0.21308534 -0.0417882 -0.11118224
00000000: 7fc2 5b3e e7c2 82bd 77b5 1abe d7c5 583e
00000010: bdc8 d0bd 82d0 853e 1ac2 3ebe 1934 66be
00000020: 08b4 8f3c 6249 d63e c8e9 063b f464 553e
00000030: 0121 57bd 40ba 04be ba78 31bd 860a 0cbe
00000040: c3d5 8b3e 0ddb 7fbe 637c 8bbe 416d ce3e
00000050: d6a3 953e db4f be3d 9c1a a93e 7776 ba39
00000060: 2790 503e da15 8b3d 5d60 873e 1501 683e
00000070: bab1 51be c3d2 a0be e9bf 89be 1cd8 7e3e
00000080: fec2 fc3d fce1 6dbd b916 233e 3f63 503f
00000090: ca26 903e 1e5d 1b3d 3802 04bf 0630 cdbd
000000a0: bb1f 6e3d 0fb7 5ebd 348a 193e f89b da3e
000000b0: b117 e13e 595b fd3e 1e4b 913e 1515 00be
000000c0: 299d 76be 7d3d 483f 198a ad3e 6b03 763e
000000d0: 9696 b83d 92ff adbc 0b47 553e 3cce d53e
000000e0: b5e6 d63d de9e 80be e614 513f 11bb b1bc
000000f0: fc9a 6dbe d0db a7be 6344 473e 83fa 493f
00000100: 2a06 ecbd ec83 0fbe a93a 37be 6b70 5d3d
00000110: 68f1 033f 37a5 323e 69b4 2f3f f280 98be
00000120: 2556 95be 5d19 043f d102 053e 90f1 033e
00000130: 7766 09be 7fd7 af3e 63a3 ba3e 4f10 373e
00000140: c954 b13d 1da5 d9bd 9560 2bbe c0ef 873e
00000150: 0dce b33d a1ce 043f e29f 6c3e 3628 2a3e
00000160: 51e1 583e 271d 5f3e 46ef 0fbe b32d 7a3e
00000170: 8526 ca3e 11c0 7c3d 9abf fdbd b5e8 343e
00000180: 93b5 0d3e a0a0 aabc 2285 933e 76d7 e53d
00000190: f5b4 123d 3c4f 443e 01fc 87bd e729 323f
000001a0: 4760 b23e bc26 07bd ff03 aa3e 24bb c03d
000001b0: 5348 ff3d af53 9a3e 903e 37be 4e0c b0be
000001c0: b166 793e 64b4 143e ab49 b2be 1c3d b5be
000001d0: 5c1d 623f 096a 8dbe 32e8 17be 3a9f a2bc
000001e0: b8c0 e3bd 1c4d 60be 66bc 1b3d e0ad ed3e
000001f0: c748 03be cda5 c6be f33c 51be b800 8dbe
00000200: 77b0 513e a54a 4c3e 442e 8a3e 381d ac3d
00000210: 44cd bebc 23f8 8ebe a9ac 12be b21e 7bbe
00000220: 710f 1abe 5ada e1bd b76c 04be 4e15 c6bc
00000230: 2e93 47be aaef 243e d9c8 ce3e 07c1 be3b
00000240: 6303 8c3e 8546 13be 63aa cebe 809a 3d3e
00000250: 1a64 963d 198b 00be d20c 12be c810 e43e
00000260: 6a60 63be 49de 07be 55f9 0d3e b164 803d
00000270: 08db 37be 313c 3f3f e8d0 efbc afe7 043e
00000280: ea90 1dbf 4276 e5be ed30 c43e 6466 813e
00000290: e55a c93d 507a 953e 4e9a f63d 212f 03bf
000002a0: a63e 00be 1f73 4e3d 90fa c53d d9b9 f7be
000002b0: 6649 debe 244b 3b3e f551 ce3e b0d6 d83e
000002c0: 389f b7be 026d 27be a3f1 76be cc85 6c3f
000002d0: d43a 913e c815 f6bd 3e1b a93e f39b e43d
000002e0: 2834 c43e a88f 4f3e 9760 763e 68e4 0b3d
000002f0: a5d3 d9bd cdc4 3d3c 382b 143f 1beb b8bc
00000300: f102 2b3e e6bc a13e 6983 793e 2030 803e
00000310: 8ed4 babe 50f3 43be 047d 663f 79ee 843e
00000320: 588a a03e 8281 aabc 4205 f2bd bc3e 09bd
00000330: 1a2c 3f3d 558b 14bf c613 913e 92c2 7e3e
00000340: 466e 2abe f3a7 063c ec72 f9bd f58e 0d3e
00000350: f77c 813d bc73 6bbd f1c4 83bd cc76 5cbe
00000360: 929b 0c3e 82f4 ca3e 5498 123e f1c1 25bd
00000370: 7c5e 0dbf 92ff 68bd 293d 623e 36a7 993e
00000380: 5e43 dd3d 4ace 3abd 60a6 96bc f946 4b3d
00000390: f38f 203d 4faf a33e dcf6 703f f293 7d3e
000003a0: 2db7 8cbe a176 a7be b429 4e3e fc9e 633d
000003b0: 762b 8cbd 52cc 00bf f98b 9a3e 2b36 593d
000003c0: 33a8 883e ddb7 ae3e 4257 d83d 8ae4 533d
000003d0: 4cce 663f 338b 67be 411f 80be 79ac 3bbe
000003e0: a8ee 183e ed79 683e 339e aabe ffdf 8cbe
000003f0: 210d 763e 0b33 5abe 1b2a 2bbd 84b3 e3bd

network.2.weight f4 [27, 256]
0.18238133 -1.1209992 -0.16740415 -1.0385003 -0.90463156 -0.8891461 -0.5632753 -0.6150005
-0.67999196 -0.08909749 0.36794788 -0.7968817 0.45815432 -0.28890732 0.40706432 0.3653468
0.36812466 -1.0903563 0.39830852 0.17528208 0.30783007 -0.4417781 0.27253547 -0.7212041
0.1487356 -0.9637447 0.34299165 0.22032873 -0.259506 0.31936353 -0.570253 -0.08714974
0.3233077 -0.93011475 1.0826752 1.1088951 -2.4543192 -0.63704926 0.3060707 0.46008465
-0.9948033 0.3079438 -0.86715645 0.2993193 0.46729463 0.94833237 0.6322745 -0.39345098
0.51918536 1.0497689 -0.79802746 0.35629693 0.49708974 0.23255473 -0.79625654 -2.1137018
-0.96494097 0.1629345 1.5305728 -1.0687855 -0.57210356 0.42686945 -0.5572005 1.3082975
0.63337207 -0.7123358 0.5180189 -0.48410732 0.26495484 0.26766652 1.2657139 0.3845904
0.066681795 1.5332437 0.46507388 0.49049148 0.9877954 -0.46720985 1.373733 0.6990802
-0.33344 0.27034083 0.49652553 0.42585906 0.35077578 1.0407703 0.2581144 -0.7863427
-0.28994697 0.38281772 -0.32815868 0.21046662 1.099944 -2.0263066 0.45173666 -0.77394956
0.42381176 -1.1199908 0.2895622 0.32853377 -0.79404217 0.24388212 -1.0725287 0.77919245
0.14283518 -0.88733315 0.96242994 -0.92806727 0.8879987 0.7828972 1.2377384 -0.37613377
-0.84588796 0.45797306 0.9215589 0.33057114 1.3793366 -0.11702749 -0.98157126 -0.3638242
0.560626 -0.81870836 0.3857985 0.72047913 0.26290467 0.3700394 0.31964487 0.54830235
0.27791634 0.2430852 0.25062853 0.256609 0.24398375 -0.81492686 -0.75091136 0.6435912
0.338835 -1.2422403 -0.6280244 -0.7941862 -0.92943585 0.31923425 -0.9438022 0.61761415
-0.77282816 -0.8026551 -0.8365364 -0.57956094 0.59286946 -0.62294304 1.2867846 0.30783996
0.0944535 -0.3025081 -0.65316105 0.2824681 -0.74507946 1.1060103 -0.4975714 -0.634322
1.6234012 0.8230801 0.1720074 -0.6851295 -1.4400008 -2.0291357 0.28214544 1.1749748
-1.0724965 0.61400247 -0.7697725 0.8951568 0.916105 -0.7528415 0.22442465 0.25871402
1.2485178 -0.3688546 1.0604819 0.7053236 0.21464866 -1.0428326 -0.93574613 -1.1475185
0.38198525 0.1542261 0.24821062 0.20718336 0.25395522 0.45436332 1.1302502 -1.2073666
-0.19484727 0.37207127 -0.9370955 -1.0193068 0.7879448 -0.72865105 1.1565121 0.7843862
0.21781358 -1.743247 -0.54580516 -0.4892119 -1.5945567 0.22316624 -2.603699 -0.64527696
0.20122564 0.90177226 0.44951543 0.27013445 0.15914278 0.64764506 -0.7969374 -0.89549893
-0.7428604 0.15039472 0.29046905 0.24826075 0.97961426 0.18915471 0.28714085 -2.1471522
0.81095797 -1.0304176 -2.716722 -1.7402164 -0.57167697 0.22680043 0.9475218 -1.2753847
0.54744214 -0.66948056 -0.75069946 0.3211325 -0.82561785 -0.9813894 -0.8521356 -0.7314708
-0.9826876 0.32352427 -0.785562 0.28533202 1.730851 -0.6658672 -0.8498229 -0.27596313
0.344335 -0.6619159 0.37750924 -0.6494617 -0.9889019 0.6353677 -0.37449664 0.3637154
00000000: 2cc2 3a3e e77c 8fbf fe6b 2bbe 94ed 84bf
00000010: ef95 67bf 149f 63bf cf32 10bf ac70 1dbf
00000020: f413 2ebf bf78 b6bd aa63 bc3e 7000 4cbf
00000030: 3493 ea3e a9eb 93be bc6a d03e bc0e bb3e
00000040: d67a bc3e cc90 8bbf 18ef cb3e 257d 333e
00000050: e79b 9d3e bd30 e2be c589 8b3e d5a0 38bf
00000060: 254e 183e f9b7 76bf 9a9c af3e db9d 613e
00000070: f8dd 84be 9e83 a33e 1afc 11bf 907b b2bd
00000080: 9688 a53e 001c 6ebf 1a95 8a3f 46f0 8d3f
00000090: 9113 1dc0 a915 23bf 4cb5 9c3e 3790 eb3e
000000a0: 6eab 7ebf cfaa 9d3e f7fd 5dbf 6140 993e
000000b0: 3e41 ef3e e9c5 723f bedc 213f 6872 c9be
000000c0: 55e9 043f d45e 863f 874b 4cbf 8d6c b63e
000000d0: 8c82 fe3e d422 6e3e 78d7 4bbf e446 07c0
000000e0: 5f06 77bf 4dd8 263e cfe9 c33f f7cd 88bf
000000f0: 6175 12bf a28e da3e b1a4 0ebf 4b76 a73f
00000100: ac24 223f a45b 36bf e39c 043f eadc f7be
00000110: 29a8 873e 960b 893e ea02 a23f 08e9 c43e
00000120: 7790 883d 5441 c43f 2a1e ee3e b321 fb3e
00000130: 29e0 7c3f 2136 efbe 7cd6 af3f ecf6 323f
00000140: a6b8 aabe 1d6a 8a3e 9838 fe3e 330a da3e
00000150: e298 b33e f637 853f 9227 843e c14d 49bf
00000160: ee73 94be af00 c43e 6a04 a8be 9084 573e
00000170: f7ca 8c3f 02af 01c0 074a e73e 8f21 46bf
00000180: dbfd d83e dc5b 8fbf 7f41 943e 9435 a83e
00000190: 5946 4bbf 3cbc 793e 9f48 89bf 2879 473f
000001a0: 6343 123e 4428 63bf cf61 763f d195 6dbf
000001b0: e253 633f f36b 483f 366e 9e3f 9b94 c0be
000001c0: 1d8c 58bf 727b ea3e 49eb 6b3f 9f40 a93e
000001d0: 1a8e b03f 1cac efbd 4148 7bbf 2a47 babe
000001e0: 2f85 0f3f df96 51bf 6287 c53e 5271 383f
000001f0: 719b 863e ce75 bd3e 7ea8 a33e 8b5d 0c3f
00000200: 0d4b 8e3e 54eb 783e 6252 803e 4162 833e
00000210: e0d6 793e 0c9f 50bf ba3b 40bf 65c2 243f
00000220: c87b ad3e bb01 9fbf 35c6 20bf c94f 4bbf
00000230: 82ef 6dbf ac72 a33e 059d 71bf f61b 1e3f
00000240: 11d8 45bf ce7a 4dbf 4027 56bf 1b5e 14bf
00000250: 4bc6 173f 3279 1fbf 5cb5 a43f 339d 9d3e
00000260: d670 c13d 57e2 9abe 9035 27bf a99f 903e
00000270: 87bd 3ebf bf91 8d3f aec1 febe ed62 22bf
00000280: 9ccb cf3f 61b5 523f b522 303e a664 2fbf
00000290: f251 b8bf 5cdd 01c0 5e75 903e 9365 963f
000002a0: 9147 89bf 442f 1d3f d00f 45bf ff28 653f
000002b0: db85 6a3f 38ba 40bf 93cf 653e 2a76 843e
000002c0: 6ecf 9f3f 83da bcbe dfbd 873f 1690 343f
000002d0: dccc 5b3e 8a7b 85bf 0f8d 6fbf e3e1 92bf
000002e0: 9293 c33e 72ed 1d3e ed2a 7e3e e027 543e
000002f0: 6b06 823e 4fa2 e83e 0aac 903f fd8a 9abf
00000300: 0b86 47be 2080 be3e 7ee5 6fbf a578 82bf
00000310: c0b6 493f e088 3abf 9708 943f 89cd 483f
00000320: 860a 5f3e b822 dfbf e3b9 0bbf fb79 fabe
00000330: 6f1a ccbf b185 643e 01a3 26c0 df30 25bf
00000340: 180e 4e3e 8cda 663f e326 e63e 104f 8a3e
00000350: 53f6 223e 11cc 253f 1704 4cbf 6b3f 65bf
00000360: 192c 3ebf 1301 1a3e 5cb8 943e 1138 7e3e
00000370: 00c8 7a3f c6b1 413e 2004 933e f16a 09c0
00000380: f19a 4f3f b9e4 83bf c6de 2dc0 69bf debf
00000390: 6c59 12bf 5f3e 683e ca90 723f ce3f a3bf
000003a0: 2b25 0c3f 1463 2bbf d72d 40bf 7b6b a43e
000003b0: b15b 53bf 563c 7bbf 8f25 5abf ac41 3bbf
000003c0: 6a91 7bbf f9a4 a53e 971a 49bf 0a17 923e
000003d0: 878c dd3f 4676 2abf fe8d 59bf 0a4b 8dbe
000003e0: ad4c b03e 5273 29bf e448 c13e 1f43 26bf
000003f0: ad28 7dbf 75a7 223f 06be bfbe e838 ba3e

network.2.bias f4 [27]
0.12986049 0.14846471 0.19324943 0.36165938 0.4138129 0.513154 0.20052221 0.151803
0.11205497 0.33421764 0.11378913 0.13451613 0.17396066 0.22113469 0.100638606 0.13381438
0.1365444 0.30900136 0.24022907 0.16581157 0.1524702 0.15989941 0.16567798 0.08186629
0.12869051 0.15426959 0.056187652
00000000: 26fa 043e 2207 183e 2ee3 453e 6b2b b93e
00000010: 49df d33e 0f5e 033f b255 4d3e 3f72 1b3e
00000020: 137d e53d 931e ab3e 460a e93d 99be 093e
00000030: be22 323e 2271 623e 9d1b ce3d a306 093e
00000040: 4cd2 0b3e 6d35 9e3e 9cfe 753e 82ca 293e
00000050: 2621 1c3e acbc 233e 7da7 293e 83a9 a73d
00000060: 72c7 033e d9f8 1d3e 0625 663d
