code/models/dqn/dqn_32_1650357295.0175214.pth (torch, 87827 bytes, 4 tensors)

network.0.weight f4 [500, 15]
-0.5265137 0.012772971 -0.3182457 0.09792066 -0.19745773 0.38139576 0.22625421 0.31861138
-0.16394363 -0.15922938 -0.19640668 0.03912514 0.115792714 0.15771896 0.18155582 -0.29835
-0.26595446 -0.90704006 -0.09203365 -0.35427344 -0.15157701 -0.13786785 0.15077537 -0.15276399
0.20811744 -0.08598979 -0.24495703 -0.15458299 0.123729944 0.088928744 0.5750548 -0.49892318
0.40090588 0.1428146 -0.010234976 0.094314694 -0.06987883 -0.37289628 -0.059101414 -0.007055677
0.10162025 0.07380118 0.022554751 -0.12127277 0.010104301 0.19860116 0.11989851 0.30338332
-0.55753326 -0.16548057 -0.5520273 0.22350538 -0.22649924 0.44184718 0.14713709 0.22770277
-0.07457231 0.30669373 -0.040965717 0.269047 -0.7478784 -0.37340868 -0.16874856 0.13517186
-0.016565723 -0.3792523 -0.07739121 0.21980973 -0.012486519 0.28091627 0.20295152 -0.06877695
-0.0476389 0.22919501 0.20120691 0.26439816 -0.40611094 -0.63440365 0.39191857 -0.35206994
-0.20714991 0.061978213 0.25136462 0.18908885 -0.15795268 0.13582684 0.010093781 0.05080064
-0.1240442 -0.025961753 -0.962568 -0.12628834 -0.34019285 -0.29854047 -0.13792525 -0.007642774
0.048416574 0.2312757 -0.02054569 0.06741528 0.34026155 0.0070564346 0.2818103 0.17423274
0.0688527 -0.037008867 0.2562097 -0.022766303 -0.0045214044 -0.053277966 -0.0019922014 -0.04961535
0.027019108 -0.3612836 -0.30123562 0.062068503 0.10008517 0.07674157 -0.24456757 -0.03734827
0.05774779 -0.31931785 -0.40965793 0.2701606 0.21035944 -0.25157958 0.16852003 -0.39398202
-0.10401171 0.03878789 -0.16388977 0.037522588 -0.0014813005 0.03394316 -0.07558193 0.24137647
-0.7043963 -0.3796683 0.0865013 -0.24413177 -0.15577024 -0.015708087 -0.012238682 0.043559454
0.08857718 0.36891565 0.09962332 0.019587908 0.3805627 -0.060908526 0.10577975 -1.336945
0.3555569 0.12896219 0.05638797 -0.24387093 0.005338996 -0.7290635 -0.06444731 0.22006796
-0.21993639 -0.21644717 0.2306516 -0.16468522 0.0005912185 0.39411154 0.49125373 0.23087817
-0.09004989 0.17187186 0.07914362 -0.0045280512 -0.25862175 -0.45412573 -0.15123394 -0.40322784
-0.49967602 -0.5190252 -0.47495514 -0.16999465 -1.0309885 0.33417302 -0.2356425 -0.23555887
-0.1661848 -0.05207277 0.12629367 0.56312215 -0.045821544 -0.02682145 0.32101536 0.053246323
-0.010024937 0.337784 0.025244417 0.04813242 -0.119917825 -0.1479877 0.12732106 -0.13040057
-0.009106087 -0.10418822 -0.026039435 -0.10251273 -0.12293099 -0.22782566 -0.05832756 -0.1753658
-0.12323383 -0.025191583 0.23006211 0.2487851 -0.37101698 -0.17940335 -0.21076281 -0.41612732
0.34958327 -0.06193729 7.587769e-05 0.18471703 -0.09387256 0.22627933 0.011123675 -0.16135876
-0.006835068 -0.058278415 -0.2948778 0.047786385 -0.26283926 -0.08905586 -0.021204814 -0.094096355
0.17358896 -0.12555698 -0.25383198 0.033680193 0.10281086 -0.24326254 -0.25973845 0.058649946
0.16313478 0.21057664 -0.457191 0.30719802 0.7083313 -0.14480883 -0.31300738 0.11899231
0.050304785 -0.29548398 -0.25269178 -0.0033210611 0.094123766 -0.27022487 -0.16866037 -0.222272
00000000: 9ac9 06bf b945 513c 1af1 a2be a18a c83d
00000010: 5c32 4abe 4e46 c33e 2faf 673e 0821 a33e
00000020: d7e0 27be 070d 23be d51e 49be af41 203d
00000030: bb24 ed3d 1481 213e c5e9 393e 55c1 98be
00000040: 2f2b 88be c733 68bf 237c bcbd 5463 b5be
00000050: 0137 1bbe 3b2d 0dbe dc64 1a3e 2a6e 1cbe
00000060: bd1c 553e 6a1b b0bd 04d6 7abe 014b 1ebe
00000070: 2066 fd3d 4620 b63d cb36 133f dc72 ffbe
00000080: 8943 cd3e fe3d 123e 9ab0 27bc 1028 c13d
00000090: a21c 8fbd 43ec bebe 5314 72bd 4f33 e7bb
000000a0: 471e d03d 1325 973d bec4 b83c dc5d f8bd
000000b0: 838c 253c 1a5e 4b3e 5a8d f53d 0f55 9b3e
000000c0: 80ba 0ebf bd73 29be a951 0dbf 98de 643e
000000d0: 6bef 67be cb39 e23e 1bab 163e ea2a 693e
000000e0: 5eb9 98bd f606 9d3e abcb 27bd 87c0 893e
000000f0: f574 3fbf 6c2f bfbe 6ccc 2cbe 7e6a 0a3e
00000100: d7b4 87bc 5c2d c2be 487f 9ebd cd15 613e
00000110: 4294 4cbc 42d4 8f3e 86d2 4f3e eeda 8cbd
00000120: 0221 43bd 19b2 6a3e 2f09 4e3e 325f 873e
00000130: c6ed cfbe 4768 22bf 8da9 c83e 8342 b4be
00000140: 1b1f 54be dedc 7d3d ddb2 803e 82a0 413e
00000150: 59be 21be 3116 0b3e 6360 253c 5514 503d
00000160: e30a febd bead d4bc db6a 76bf bb51 01be
00000170: c22d aebe 4cda 98be 473c 0dbe 3c70 fabb
00000180: 7550 463d 89d3 6c3e 6f4f a8bc 0611 8a3d
00000190: c336 ae3e aa39 e73b 7149 903e 116a 323e
000001a0: a502 8d3d 9c96 17bd eb2d 833e 6680 babc
000001b0: 4a28 94bb ff39 5abd 988f 02bb 7739 4bbd
000001c0: 2d57 dd3c 2afa b8be 8e3b 9abe 8b3b 7e3d
000001d0: 74f9 cc3d af2a 9d3d ec6f 7abe 80fa 18bd
000001e0: f288 6c3d a17d a3be afbe d1be 7d52 8a3e
000001f0: 7768 573e 0acf 80be 8490 2c3e 03b8 c9be
00000200: 1704 d5bd 0de0 1e3d b8d2 27be 49b1 193d
00000210: 3228 c2ba fc07 0b3d b3ca 9abd 652b 773e
00000220: 5153 34bf e263 c2be 9827 b13d aefd 79be
00000230: 3c82 1fbe 3fae 80bc c184 48bc 666b 323d
00000240: f467 b53d 83e2 bc3e 5007 cc3d d276 a03c
00000250: 1dd9 c23e 387b 79bd 0ea3 d83d 0421 abbf
00000260: 8e0b b63e aa0e 043e 12f7 663d 4db9 79be
00000270: bff2 ae3b e8a3 3abf f4fc 83bd 7f59 613e
00000280: 0137 61be 54a4 5dbe ef2f 6c3e 3ea3 28be
00000290: 00fc 1a3a fdc8 c93e 9c85 fb3e 546b 6c3e
000002a0: 146c b8bd 2dff 2f3e 0d16 a23d 0c60 94bb
000002b0: 126a 84be 2b83 e8be 12dd 1abe e173 cebe
000002c0: 89d5 ffbe d6de 04bf 522d f3be 1413 2ebe
000002d0: 6ef7 83bf ba18 ab3e 444c 71be 5836 71be
000002e0: 592c 2abe 424a 55bd 2153 013e c628 103f
000002f0: 5faf 3bbd a8b8 dbbc 205c a43e d118 5a3d
00000300: a23f 24bc 06f2 ac3e 61cd ce3c 8026 453d
00000310: 7a97 f5bd 168a 17be 7460 023e ba87 05be
00000320: b231 15bc a260 d5bd a750 d5bc 32f2 d1bd
00000330: 3ec3 fbbd 214b 69be e1e8 6ebd 1893 33be
00000340: 0562 fcbd 945e cebc 6795 6b3e 85c1 7e3e
00000350: f0f5 bdbe 83b5 37be 35d2 57be a40e d5be
00000360: 94fc b23e f5b1 7dbd 8620 9f38 7626 3d3e
00000370: 4240 c0bd c5b5 673e 1340 363c 3b3b 25be
00000380: b5f8 dfbb 59b5 6ebd 39fa 96be a8bb 433d
00000390: de92 86be eb62 b6bd b8b5 adbc 97b5 c0bd
000003a0: 4ec1 313e 0292 00be 44f6 81be 3ef4 093d
000003b0: 808e d23d d119 79be 70fc 84be ed3a 703d
000003c0: ce0c 273e 67a1 573e f014 eabe 0f49 9d3e
000003d0: 3355 353f c448 14be 8142 a0be 3db2 f33d
000003e0: 640c 4e3d ad49 97be d160 81be 29a6 59bb
000003f0: f6c3 c03d ea5a 8abe 4eb5 2cbe 459b 63be

network.0.bias f4 [500]
-0.16631266 -0.105157 -0.22266023 0.15417115 0.1944009 -0.04324644 0.28347328 0.04001026
0.001731311 0.21616197 -0.012666739 -0.10245144 -0.09694209 -0.24944538 -0.00403848 -0.10611064
0.08134861 0.10251985 0.10359835 0.09478604 0.15513872 0.23372063 -0.06412715 -0.03814472
0.041582525 -0.0028477197 0.059881024 -0.06302924 -0.24008855 0.23177552 0.18387106 -0.036468685
0.00033240486 -0.47160524 -0.1347825 0.026268639 -0.26791078 0.16367875 -0.044956755 0.055934545
-0.24128966 -0.28632513 -0.1342039 0.17254898 -0.006696651 0.07456456 0.14640464 0.058987103
0.10321834 0.15809113 0.12440583 -0.0019892096 0.14055249 -0.29423568 -0.08746551 0.24349843
0.09234883 0.049455132 -0.08123827 -0.17966679 0.016167887 -0.13756539 -0.18061219 0.08588704
0.04979536 -0.35102513 0.25100386 0.23600529 -0.15716766 -0.0105553875 -0.12550002 -0.28512353
-0.16428027 -0.43298635 0.095122546 -0.06003003 0.2012188 -0.2785183 -0.27839702 0.108554654
0.17093861 -0.22589244 0.34577936 0.14976631 -0.011096277 -0.2128318 0.04311758 0.056647792
0.051820427 0.16152336 0.17645375 -0.13418819 0.30995774 0.2124579 -0.030426553 0.011703432
0.106466524 -0.05706814 0.1976668 -0.024127591 0.048051182 0.23412989 -0.031162675 -0.12627877
-0.28943217 -0.3474521 -0.30829182 -0.25513273 -0.18445113 -0.17174326 0.19622321 -0.11536996
-0.029121784 0.03474186 -0.11795786 0.050860398 -0.20629737 0.17707328 -0.016885454 -0.24110599
-0.07173037 -0.20749746 -0.0344436 0.023446236 -0.015099578 0.13203163 0.08252556 -0.15307137
0.16331637 0.16384524 -0.29968157 0.17867433 -0.18415153 -0.0803501 -0.16564694 -0.3325964
-0.24333246 -0.20298295 -0.025324645 0.24608105 0.23592165 0.24319412 0.068829395 0.15395814
0.18680449 0.2307181 0.23590651 -0.08325075 0.21699147 0.030567957 -0.05383204 -0.4195123
-0.13387899 -0.079286166 -0.1494334 0.021190695 0.23060115 -0.20306903 -0.34259978 0.15742362
0.15591104 0.06477149 0.21560706 -0.4345647 -0.049002893 0.11795401 0.05237905 -0.25879493
-0.06499123 -0.07197851 -0.20488457 0.26874617 -0.15776776 0.29798397 0.19757894 -0.095705174
0.29812762 0.19009855 0.15390006 0.15633522 0.27261025 0.014430017 0.06129647 0.04107267
-0.06286235 0.25981686 -0.22335483 -0.025546156 -0.14311364 -0.2925941 -0.17661001 -0.011667343
-0.14122652 0.112797506 0.014680274 -0.06972191 -0.04426549 -0.04937253 0.23000272 -0.15468074
-0.22535166 0.027131207 -0.21483941 -0.2503099 -0.25959742 0.14523698 -0.21163288 -0.26370633
0.09775728 -0.07966885 -0.19277754 0.030153073 0.0344136 -0.22567917 -0.31065944 -0.11464902
-0.029294334 -0.018897297 -0.045336813 0.06931667 -0.061418377 0.09970166 -0.24009897 0.12278943
-0.34017283 -0.07538372 0.05044164 -0.33929944 -0.061162394 0.21433496 0.3887901 -0.03854601
-0.04667069 -0.2662836 0.017154584 0.13263202 -0.071970545 0.1309329 -0.09040586 -0.18691555
-0.021917107 0.039809726 0.047458623 -0.35547644 -0.07225631 -0.14754845 -0.2989689 -0.012837827
0.025620708 0.13209063 -0.08149616 -0.07371236 -0.14819966 0.08415052 -0.20043565 0.16839452
00000000: de4d 2abe 8e5c d7bd 0b01 64be 0bdf 1d3e
00000010: 0811 473e 2e23 31bd 6923 913e cce1 233d
00000020: 28ed e23a 9059 5d3e 2788 4fbc 10d2 d1bd
00000030: 9389 c6bd 9c6e 7fbe 3a55 84bb 8950 d9bd
00000040: 1a9a a63d edf5 d13d 5f2b d43d 2f1f c23d
00000050: afdc 1e3e 7654 6f3e 1855 83bd a33d 1cbd
00000060: 7052 2a3d cfa0 3abb ce45 753d 7915 81bd
00000070: c6d9 75be 9056 6d3e b248 3c3e 3060 15bd
00000080: a046 ae39 3e76 f1be 6c04 0abe 5431 d73c
00000090: 9a2b 89be 679b 273e 9324 38bd 9f1b 653d
000000a0: a314 77be 3599 92be bf6c 09be aeb0 303e
000000b0: 956f dbbb 4eb5 983d 19eb 153e 769c 713d
000000c0: 2364 d33d a4e2 213e 7cc8 fe3d 665d 02bb
000000d0: feec 0f3e 0fa6 96be 1e21 b3bd a757 793e
000000e0: 6221 bd3d 7791 4a3d 4060 a6bd 92fa 37be
000000f0: 8472 843c f1dd 0cbe 67f2 38be 8be5 af3d
00000100: 38f6 4b3d 91b9 b3be 9483 803e 5fab 713e
00000110: 8ff0 20be 81f0 2cbc 1483 00be b6fb 91be
00000120: 1639 28be 63b0 ddbe 9ccf c23d 0ce2 75bd
00000130: 4d0c 4e3e f399 8ebe 0e8a 8ebe e751 de3d
00000140: 880a 2f3e 5950 67be fe09 b13e 575c 193e
00000150: 29cd 35bc 94f0 59be 0f9c 303d 8407 683d
00000160: a841 543d 6166 253e 4bb0 343e a168 09be
00000170: c8b2 9e3e 908e 593e 1b41 f9bc c0bf 3f3c
00000180: 1f0b da3d 48c0 69bd 2a69 4a3e 3aa7 c5bc
00000190: 51d1 443d bfbf 6f3e de48 ffbc 394f 01be
000001a0: 7430 94be 3ee5 b1be 6dd8 9dbe c2a0 82be
000001b0: c2e0 3cbe 77dd 2fbe bdee 483e 1647 ecbd
000001c0: cf90 eebc 7b4d 0e3d e493 f1bd fe52 503d
000001d0: 9e3f 53be b352 353e 5d53 8abc 7de4 76be
000001e0: 5fe7 92bd 377a 54be bb14 0dbd 5212 c03c
000001f0: 3864 77bc 4d33 073e 2903 a93d bebe 1cbe
00000200: 683c 273e 0cc7 273e dd6f 99be 67f6 363e
00000210: 3892 3cbe 988e a4bd 5a9f 29be 134a aabe
00000220: 252c 79be c3da 4fbe a175 cfbc acfc 7b3e
00000230: 7295 713e e107 793e 6df6 8c3d 34a7 1d3e
00000240: ad49 3f3e 5e41 6c3e 7a91 713e 5f7f aabd
00000250: 0333 5e3e a769 fa3c fc7e 5cbd 51ca d6be
00000260: 9317 09be c960 a2bd 1205 19be 1c98 ad3c
00000270: b522 6c3e 54f1 4fbe 3d69 afbe a833 213e
00000280: 25a7 1f3e eaa6 843d 19c8 5c3e 447f debe
00000290: 42b7 48bd df91 f13d 6a8b 563d c580 84be
000002a0: 1f1a 85bd 7869 93bd 43cd 51be 1999 893e
000002b0: df8d 21be 5b91 983e 2252 4a3e 1301 c4bd
000002c0: 2fa4 983e 32a9 423e fa97 1d3e 5716 203e
000002d0: 9293 8b3e e16b 6c3c 0212 7b3d d13b 283d
000002e0: fabd 80bd b706 853e 21b7 64be 2c46 d1bc
000002f0: 628c 12be e5ce 95be 41d9 34be 6228 3fbc
00000300: af9d 10be 6102 e73d 8885 703c 5cca 8ebd
00000310: bb4f 35bd da3a 4abd d585 6b3e a164 1ebe
00000320: 96c2 66be 4442 de3c ddfe 5bbe 9f28 80be
00000330: f4e9 84be 01b9 143e 4ab6 58be 8404 87be
00000340: f834 c83d 6c29 a3bd 7a67 45be 9403 f73c
00000350: 46f5 0c3d 7118 67be c10e 9fbe 1bcd eabd
00000360: acfa efbc 81ce 9abc 18b3 39bd e6f5 8d3d
00000370: d691 7bbd 6230 cc3d 81dc 75be 0679 fb3d
00000380: 222b aebe c862 9abd e59b 4e3d a8b8 adbe
00000390: 6b85 7abd a07a 5b3e 7f0f c73e 6ce2 1dbd
000003a0: c429 3fbd 5356 88be c587 8c3c b0d0 073e
000003b0: 4b65 93bd 4613 063e b526 b9bd ca66 3fbe
000003c0: 818b b3bc 860f 233d f963 423d 0201 b6be
000003d0: 1efb 93bd f116 17be 7412 99be c055 52bc
000003e0: 85e2 d13c c442 073e 75e7 a6bd 81f6 96bd
000003f0: a7c1 17be 1c57 ac3d 013f 4dbe 9d6f 2c3e

network.2.weight f4 [27, 500]
-0.29564607 -0.9609669 0.045829244 -0.36320964 0.20138696 -1.0184209 -0.9646088 0.02725215
-0.16442929 -0.30817905 0.15960413 -1.1950508 -0.672475 0.028022476 -0.4804069 -0.30482534
0.16858563 0.30047503 -0.01203878 0.4414565 0.13324113 0.30109015 -0.29839993 0.22334008
0.8311109 0.21467276 0.085808516 0.07225885 0.07101967 1.1176387 0.2720192 0.090966985
-0.9137738 -0.90025276 -0.009035807 -0.36707538 0.082915224 0.14595208 0.50802577 -0.018278008
0.15290108 -1.2568803 0.2846202 -1.0632062 0.7602012 0.3551807 0.01347913 0.13229579
0.12983772 -0.49210456 -0.41481957 -0.69824475 1.0784931 0.07970937 -0.097738095 0.44902128
-0.0052932855 0.21093504 0.06706132 0.12433562 0.057764508 -0.05028364 0.25360137 0.4845961
-0.48589483 -0.02732417 0.024578338 0.051322233 -0.6239026 0.233518 0.22288878 0.012138439
0.0473353 -0.38791132 0.1404365 0.032376524 -0.5714154 0.19468124 -0.028901309 -0.37654048
-0.31518674 0.2276783 -0.15894324 0.105751224 0.27696815 0.1951899 0.061511107 -0.336667
-0.69561505 0.0005412885 -0.43819946 -0.060339656 -0.8780021 -0.6544924 0.09161082 0.09033358
-0.12541516 -0.27814302 -0.41525105 -0.011322075 0.37663555 0.04730217 -0.23089126 -0.338878
-0.21492757 -1.6520815 -1.5090919 -1.8942186 -0.46497795 -0.12583144 -0.026145415 0.6045524
0.27415243 -0.015667127 0.10569134 0.23723324 0.10713968 0.04355098 0.18497553 0.13976151
0.0068936828 -0.50651073 0.20494126 0.11013437 -0.23863688 -0.22876452 0.049299147 0.13931783
0.100108705 -0.48661405 -0.8036041 -0.51539916 -0.20016009 0.11040921 0.27935293 -0.4390781
-0.16763146 -0.34709644 -0.003943168 -0.029662296 -0.15271382 0.13949074 -0.0056595854 -0.0042436523
-0.06437842 0.008464514 -0.18782564 0.15346605 0.3411795 0.15083826 0.09046913 -0.6968703
-0.908419 0.24128774 -0.34994566 0.27023 -0.23044103 -0.006729197 -0.5027277 -0.22085996
0.029074756 0.043432675 0.123340204 -0.41601324 0.0026357344 -0.39234313 0.52442247 -0.006429635
0.06232349 0.1070571 -0.47458175 -0.12472503 0.106961735 -0.8724713 0.31836528 -0.36553115
-0.11867749 -0.92083013 -0.22957331 0.27431127 0.21121803 -0.43829677 0.034704406 -0.36880782
-0.7163847 -0.72640544 -0.33827743 -0.58098924 0.5118414 -0.2763657 -0.35178238 0.16841793
-0.0008997168 -0.017321648 0.3154105 -0.2318149 -0.6824198 0.20251556 0.045804508 -0.5428832
-0.4335252 -0.72380495 0.12672505 0.22951491 -0.004143035 0.13278697 -0.12580815 0.27109477
-0.2658868 0.3133938 -1.5092587 -0.50414926 -0.19336388 -0.447753 -0.03255503 0.1605708
-0.052602343 -1.5291507 0.23384728 -0.0034869239 -0.59439474 0.28795084 0.14563301 -0.16682403
0.008916801 -0.67489266 -0.51720333 -0.38589755 0.22346288 0.19154237 0.045718662 0.11154692
-0.6829205 0.27460817 -0.36243483 -0.28215525 -1.8859802 0.107318364 -0.045293387 0.041538466
-0.1634311 0.18229322 0.25633422 -1.2569739 0.16274056 -0.55487716 0.19272357 0.32284197
0.20550093 0.3389749 0.21534432 -0.024915738 0.06815181 0.1635359 0.33040187 -0.80580384
00000000: ec5e 97be ed01 76bf 72b7 3b3d 9df6 b9be
00000010: 6238 4e3e 9e5b 82bf 9af0 76bf e73f df3c
00000020: 2760 28be a5c9 9dbe 446f 233e 6df7 98bf
00000030: 5227 2cbf 648f e53c e5f7 f5be 1112 9cbe
00000040: b6a1 2c3e ddd7 993e 4e3e 45bc 9606 e23e
00000050: 5d70 083e 7d28 9a3e e0c7 98be 43b3 643e
00000060: afc3 543f 2dd3 5b3e 60bc af3d 73fc 933d
00000070: c372 913d c90e 8f3f 1a46 8b3e e64c ba3d
00000080: 14ed 69bf f776 66bf ec0a 14bc 4ef1 bbbe
00000090: 75cf a93d 7674 153e fa0d 023f c3bb 95bc
000000a0: 1a92 1c3e 74e1 a0bf bdb9 913e 2417 88bf
000000b0: 8c9c 423f 3fda b53e 92d7 5c3c 8c78 073e
000000c0: 2ef4 043e 21f5 fbbe 3b63 d4be 2bc0 32bf
000000d0: 100c 8a3f ab3e a33d e92a c8bd 1ee6 e53e
000000e0: 4c73 adbb 5bff 573e 7257 893d aca3 fe3d
000000f0: 7a9a 6c3d 38f6 4dbd 0ad8 813e fb1c f83e
00000100: 35c7 f8be f0d6 dfbc 8358 c93c 4337 523d
00000110: 15b8 1fbf 581f 6f3e f53c 643e 4ee0 463c
00000120: a9e2 413d 509c c6be 96ce 0f3e 3f9d 043d
00000130: 4848 12bf 855a 473e 70c2 ecbc eac9 c0be
00000140: 2860 a1be 8024 693e 04c2 22be 1994 d83d
00000150: c5ce 8d3e dcdf 473e 12f3 7b3d 9e5f acbe
00000160: d413 32bf 42e5 0d3a ae5b e0be b726 77bd
00000170: bfc4 60bf d08c 27bf 749e bb3d d000 b93d
00000180: d56c 00be c368 8ebe c99b d4be 3980 39bc
00000190: 60d6 c03e ecbf 413d c26e 6cbe 6b81 adbe
000001a0: f915 5cbe 6877 d3bf ec29 c1bf c175 f2bf
000001b0: 9711 eebe f5d9 00be e92e d6bc f2c3 1a3f
000001c0: b55d 8c3e 5958 80bc b474 d83d 45ed 723e
000001d0: 0c6c db3d 8362 323d 3a6a 3d3e a41d 0f3e
000001e0: 67e4 e13b b0aa 01bf 1fdc 513e 218e e13d
000001f0: 3a5d 74be 3f41 6abe e7ed 493d 55a9 0e3e
00000200: cb05 cd3d 7a25 f9be 00b9 4dbf 33f1 03bf
00000210: c4f6 4cbe 391e e23d 5907 8f3e d8ce e0be
00000220: 95a7 2bbe a0b6 b1be b135 81bb 58fe f2bc
00000230: 0361 1cbe a9d6 0e3e 0b74 b9bb 560e 8bbb
00000240: d5d8 83bd bfae 0a3c 5d55 40be 3426 1d3e
00000250: 14af ae3e 5875 1a3e e147 b93d 1866 32bf
00000260: 268e 68bf 2214 773e 142c b3be 965b 8a3e
00000270: bcf8 6bbe 9980 dcbb c3b2 00bf 1d29 62be
00000280: 2f2e ee3c 76e6 313d ca99 fc3d b0ff d4be
00000290: 49bc 2c3b 33e1 c8be 8d40 063f b0af d2bb
000002a0: ea46 7f3d c140 db3d 61fc f2be d66f ffbd
000002b0: c10e db3d 475a 5fbf c600 a33e e626 bbbe
000002c0: 2f0d f3bd 86bb 6bbf 4415 6bbe 8772 8c3e
000002d0: 8a49 583e 6f68 e0be 3526 0e3d 61d4 bcbe
000002e0: fd64 37bf b5f5 39bf b332 adbe b6bb 14bf
000002f0: 0a08 033f ce7f 8dbe d21c b4be c075 2c3e
00000300: f9da 6bba 21e6 8dbc 7c7d a13e e360 6dbe
00000310: 10b3 2ebf 3d60 4f3e 829d 3b3d 65fa 0abf
00000320: 04f7 ddbe 484b 39bf 36c4 013e f505 6b3e
00000330: 4cc2 87bb 4ff9 073e dad3 00be efcc 8a3e
00000340: 5122 88be 2775 a03e 642f c1bf ed0f 01bf
00000350: 2e01 46be e23f e5be 6c58 05bd ac6c 243e
00000360: 8e75 57bd 36bb c3bf a975 6f3e e084 64bb
00000370: 412a 18bf 4b6e 933e d220 153e ebd3 2abe
00000380: c617 123c c4c5 2cbf 7067 04bf 5d94 c5be
00000390: 74d3 643e af23 443e 7e43 3b3d b672 e43d
000003a0: e1d3 2ebf 7199 8c3e 0f91 b9be a776 90be
000003b0: cd67 f1bf bbc9 db3d 8f85 39bd 3d24 2a3d
000003c0: 7b5a 27be 13ab 3a3e 3d3e 833e 85e4 a0bf
000003d0: 76a5 263e 6e0c 0ebf 5459 453e 8b4b a53e
000003e0: d66e 523e 1e8e ad3e 3983 5c3e 171c ccbc
000003f0: 2d93 8b3d f475 273e 6f2a a93e 2949 4ebf

network.2.bias f4 [27]
0.1135086 0.11987233 0.09857625 0.2400416 0.31436586 0.35069305 0.14255308 0.1372885
0.13405049 0.13783498 0.077857316 0.1246129 0.058562793 0.074999645 0.05484682 0.06391123
-0.00029042046 0.091577604 -0.13658327 -0.07783087 -0.13317591 -0.0075548827 0.061732274 0.029600643
0.017759852 -0.05270587 -0.08848294
00000000: 3277 e83d a07f f53d 58e2 c93d 77cd 753e
00000010: 90f4 a03e 0a8e b33e 6ff9 113e 5b95 0c3e
00000020: 8844 093e 9d24 0d3e a873 9f3d 0c35 ff3d
00000030: 8adf 6f3d 6a99 993d 0fa7 603d e4e3 823d
00000040: 9343 98b9 0a8d bb3d 7cdc 0bbe cb65 9fbd
00000050: 445f 08be f38e f7bb fbda 7c3d 0c7d f23c
00000060: 1c7d 913c 1ce2 57bd 8b36 b5bd
