code/models/dqn/dqn_6.pth (torch, 45971 bytes, 4 tensors)

network.0.weight f4 [256, 15]
-0.033123944 -0.08976655 0.10623014 0.09827902 -0.14705822 -0.41498384 -0.17384855 -0.17417228
-0.029139925 0.2535315 -0.18268976 0.04898613 -0.37580448 -0.25503007 -0.28903472 -0.08573479
0.112916276 -0.16438103 0.008143342 -0.15196773 0.1322931 -0.0020626711 -0.16698158 0.060881004
0.33977547 -0.23933399 -0.80831003 -0.07798002 -0.050000343 0.08513296 0.004612734 -0.081361376
-0.03001617 0.16148981 -0.043229762 -0.060933467 0.028491132 -0.02932648 0.24006298 0.068657674
-0.0023239688 -0.04692582 0.097787976 -0.34141096 -0.32541066 0.0067258966 -0.011290807 -0.020521132
0.21043552 -0.00637056 -0.002420885 0.022713877 -0.4089614 -0.0516287 -0.1710283 -0.027921809
-0.34876087 -0.03778683 -0.06111558 -0.11671395 0.012765673 -0.026339505 -0.03161528 0.18769188
-0.021253131 -0.2196622 0.011265474 -0.14906031 0.0071016755 0.015027249 0.042856663 -0.08476452
-0.034047175 0.0009379515 -0.108010836 -0.022885112 -0.0052096555 0.010367022 -0.028877739 0.018794362
0.03896043 0.009641623 0.015417577 -0.048283786 0.031944986 0.047263786 0.1041839 0.022008603
0.01927792 -0.22084932 0.02055888 -0.03677298 -0.0121412445 0.03152904 0.0024420856 -0.121630974
0.007755134 -0.08039122 -0.30001223 -0.028016593 -0.064897224 -0.2983168 -0.06648099 0.094181985
-0.19548628 -0.105566606 -0.13805893 0.0016190893 0.089046665 0.021056144 -0.025791148 -0.03540174
-0.120963484 -0.5033155 0.13378642 0.17911762 -0.26054114 0.023615628 -0.20921084 -0.41188553
-0.0072947694 -0.014059913 0.054878574 -0.0054835756 -0.01697101 0.034002963 -0.0026697377 -0.16029607
-0.19406277 0.04398321 -0.10248273 -0.15627605 0.0436037 0.09450457 -0.22154015 -0.3209663
0.2974492 -0.25987738 -0.115487054 -0.16728014 0.06710112 -0.008795396 -0.023096511 -0.15472421
0.35322237 0.3621938 -0.6696178 -0.009564932 -0.047473557 -0.022744726 0.02286654 -0.114969805
-0.040333923 0.11942961 -0.02207656 -0.040641904 0.010494224 -0.20578466 -0.033957798 0.14461389
0.076507725 -0.3274697 0.014671472 0.10405757 -0.011717281 -0.01615442 -0.02719624 -0.018524215
0.065389864 -0.020643461 -0.0008835587 -0.031791117 -0.31242082 0.047203142 -0.0069927434 0.06804127
0.008611886 0.07134239 -0.05745261 -0.32946497 0.07985934 0.019273717 0.028676327 0.007832794
-0.019735837 0.020471757 -0.011982146 0.13609083 -0.27643847 0.47644436 -0.15639673 -0.18048531
-0.32139084 0.012336705 0.058382116 0.06850552 -0.10880631 -0.12728453 -0.0344618 -0.11629088
0.013754139 -0.006464084 -0.03681128 -0.27904713 0.17321163 -0.26755753 -0.03979467 -0.21405585
-0.15583298 -0.14696576 -0.0053684968 -0.031272456 -0.048121557 0.1988955 -0.018710267 -0.025799913
-0.023842908 -0.122394696 -0.053053115 -0.105430886 0.039162334 -0.050642006 -0.037494227 -0.29073
0.04804387 0.00824169 0.076088816 0.12880595 -0.16002204 -0.17198065 -0.39100313 -0.031001942
-0.13658047 0.20532233 0.022802858 -0.081680745 0.12852286 -0.030058095 0.18459603 -0.08723539
-0.10938333 0.102916546 -0.0004342988 0.27578476 -0.019909643 -0.21196072 0.0024973876 -0.21384434
0.03234836 0.055842075 0.19799763 0.017197339 -0.15312141 -0.07521954 -0.2965029 -0.016183402
00000000: f9ac 07bd 86d7 b7bd 308f d93d 8346 c93d
00000010: 6e96 16be c378 d4be 5b05 32be 385a 32be
00000020: dab6 eebc e1ce 813e 0613 3bbe aea5 483d
00000030: 7269 c0be 4d93 82be 5cfc 93be b995 afbd
00000040: a640 e73d 8053 28be a76b 053c 6e9d 1bbe
00000050: d877 073e e12d 07bb 38fd 2abe 5c5e 793d
00000060: 0df7 ad3e f813 75be 68ed 4ebf fdb3 9fbd
00000070: 29cd 4cbd 305a ae3d 6b26 973b cba0 a6bd
00000080: 79e4 f5bc 965d 253e b111 31bd 5f95 79bd
00000090: 3c66 e93c 163e f0bc 12d3 753e 659c 8c3d
000000a0: ba4d 18bb 4a35 40bd 1045 c83d 6bcd aebe
000000b0: 3a9c a6be e964 dc3b 14fd 38bc ef1b a8bc
000000c0: 697c 573e 21c0 d0bb b6a7 1ebb 7412 ba3c
000000d0: 6363 d1be 9e78 53bd 0b22 2fbe 47bc e4bc
000000e0: c990 b2be 5dc6 1abd 5554 7abd b907 efbd
000000f0: 1d27 513c f2c5 d7bc 067f 01bd 4d32 403e
00000100: 0c1b aebc 21ef 60be d392 383c 44a3 18be
00000110: 2cb5 e83b da34 763c 788a 2f3d 0599 adbd
00000120: 0d75 0bbd dce0 753a c934 ddbd 8f79 bbbc
00000130: c2b5 aabb 71da 293c 0291 ecbc a2f6 993c
00000140: f994 1f3d e6f7 1d3c 019a 7c3c 38c5 45bd
00000150: bfd8 023d ac97 413d 5e5e d53d 634b b43c
00000160: baec 9d3c 5326 62be 196b a83c 449f 16bd
00000170: 12ec 46bc 9824 013d 660b 203b a919 f9bd
00000180: c71e fe3b 27a4 a4bd 349b 99be 0e83 e5bc
00000190: d6e8 84bd fbbc 98be 2f27 88bd 7ce2 c03d
000001a0: 8e2d 48be 4e33 d8bd 525f 0dbe 9f37 d43a
000001b0: 195e b63d ef7d ac3c f547 d3bc 6a01 11bd
000001c0: b4bb f7bd 49d9 00bf 4fff 083e 9c6a 373e
000001d0: a665 85be 9075 c13c 5e3b 56be a9e2 d2be
000001e0: f608 efbb 8d5b 66bc 5bc8 603d 91af b3bb
000001f0: ca06 8bbc b146 0b3d c4f6 2ebb a724 24be
00000200: 64b8 46be bd27 343d 77e2 d1bd d406 20be
00000210: cb99 323d 9d8b c13d 6cdb 62be b255 a4be
00000220: 434b 983e a60e 85be 7a84 ecbd 7c4b 2bbe
00000230: 506c 893d 911a 10bc e534 bdbc 0670 1ebe
00000240: 90d9 b43e 7771 b93e 126c 2bbf 3cb6 1cbc
00000250: a273 42bd 2653 babc 9c52 bb3c 4a75 ebbd
00000260: 2f35 25bd 8397 f43d e7d9 b4bc 2078 26bd
00000270: f7ef 2b3c 37b9 52be 5517 0bbd aa15 143e
00000280: 15b0 9c3d 1caa a7be 9d60 703c 231c d53d
00000290: d7f9 3fbc 4656 84bc a6ca debc 18c0 97bc
000002a0: 1feb 853d 7a1c a9bc 9f9e 67ba 6737 02bd
000002b0: 9ff5 9fbe 1558 413d 6223 e5bb 3959 8b3d
000002c0: de18 0d3c f51b 923d 6e53 6bbd a2af a8be
000002d0: 4b8d a33d eae3 9d3c 9eea ea3c 1f55 003c
000002e0: 0dad a1bc 63b4 a73c c350 44bc 655b 0b3e
000002f0: 5889 8dbe 84f0 f33e 7726 20be 24d1 38be
00000300: 578d a4be e41f 4a3c 1622 6f3d 9f4c 8c3d
00000310: d8d5 debd e056 02be d127 0dbd ea29 eebd
00000320: 0a59 613c abd0 d3bb 6dc7 16bd 44df 8ebe
00000330: 645e 313e 4dfd 88be bcff 22bd 7531 5bbe
00000340: ae92 1fbe 317e 16be 37ea afbb 8c17 00bd
00000350: 1c1b 45bd 43ab 4b3e 4646 99bc 575a d3bc
00000360: 3452 c3bc 12aa fabd 394e 59bd 26ec d7bd
00000370: af68 203d fe6d 4fbd 8c93 19bd 90da 94be
00000380: a6c9 443d 2708 073c 74d4 9b3d b5e5 033e
00000390: d1dc 23be b21b 30be 9031 c8be c9f7 fdbc
000003a0: c0db 0bbe 0440 523e 0fcd ba3c 3c48 a7bd
000003b0: 7f9b 033e 653c f6bc be06 3d3e 78a8 b2bd
000003c0: 5e04 e0bd e9c5 d23d 99b2 e3b9 a933 8d3e
000003d0: 8c19 a3bc 3b0c 59be 36ab 233b 03fa 5abe
000003e0: b77f 043d a9ba 643d e4bf 4a3e 6fe1 8c3c
000003f0: dccb 1cbe b40c 9abd 3acf 97be 0e93 84bc

network.0.bias f4 [256]
-0.014746418 0.10428869 -0.110103905 0.06795 0.01772953 -0.3147382 -0.052367404 5.087393e-05
-0.010681119 -0.056068137 -0.04036052 -0.11361249 -0.07439771 0.10390005 0.08606896 -0.23054338
-0.24691753 -0.18924809 -0.1518096 -0.011215494 -0.14211044 -0.23560438 -0.22608662 -0.19903064
-0.1304952 0.1312888 -0.09073893 -0.101657055 -0.17310712 -0.10190359 -0.047118463 -0.23282205
-0.046528462 0.044027906 -0.21299003 0.036944907 -0.36270455 -0.09551601 0.0348423 0.076282606
-0.22925396 0.15954319 -0.23564889 -0.35653976 -0.17107636 -0.1697027 -0.20114814 -0.2652593
-0.18080825 0.11723536 -0.21071982 -0.22312139 -0.29532632 -0.019239007 -0.15750812 -0.09117645
0.031668995 -0.34006375 -0.144887 0.09512901 0.11367816 -0.3592068 -0.05835065 -0.022195531
0.027341638 0.13388163 -0.011688839 -0.26058346 0.011497407 0.09348529 -0.183098 -0.14616609
-0.2833305 0.0015990409 0.03718267 -0.080535345 0.0757892 -0.27346197 -0.29223123 0.04542585
0.066237554 -0.29153466 0.03725148 -0.33694008 0.13748685 -0.005563054 0.0631788 -0.2060129
-0.09172009 -0.05801353 0.11527647 -0.15894072 -0.27281287 0.017984863 -0.116452955 -0.31918824
0.03280146 -0.28596503 -0.11201914 -0.16633098 -0.24611467 0.094308786 -0.11665019 -0.07041076
-0.33582273 -0.3659285 -0.19894569 -0.011474653 -0.12726128 -0.069539234 -0.0637677 -0.04660785
-0.2460075 0.05312118 -0.12403573 0.04112887 0.1437684 -0.18507744 -0.20742515 0.00675973
0.087353975 -0.13000056 -0.022075966 -0.05623201 0.07217597 0.07827495 -0.2837581 0.25771552
-0.3913674 -0.05315512 0.05008144 -0.3342495 -0.08775576 -0.12745744 -0.07732286 -0.1567188
-0.04322864 0.018794132 -0.30710676 0.107446976 0.1535187 -0.2704064 -0.09370904 0.119143106
-0.053246368 -0.32465595 -0.26322585 0.028348245 -0.2634707 -0.13608629 -0.16156584 -0.02190354
-0.27271283 -0.047607567 -0.025573943 -0.0695682 -0.046496224 -0.025742777 0.08536603 -0.3750968
0.19302818 -0.08477901 -0.18786517 -0.13928625 0.092861764 -0.111144155 0.011550914 -0.03455804
0.13877799 -0.26549175 -0.037098404 0.081294544 -0.013902144 0.14016971 0.010708091 -0.002836183
0.14398615 -0.110531315 -0.07432097 -0.30818927 -0.1709449 0.14405692 -0.17152205 0.06462623
0.04230194 0.040106356 -0.31765378 -0.38696757 -0.07283498 -0.13564575 0.08404936 -0.10951054
0.1290218 -0.29626757 -0.050643537 0.07178647 0.004457586 -0.27216756 0.080982596 -0.20994766
-0.010886067 -0.115233645 -0.30310637 -0.23659538 -0.25554684 -0.012562898 -0.40109146 -0.29503393
0.018825015 -0.2655179 -0.18140984 -0.07565476 -0.12875168 -0.12314543 0.15236579 -0.13595608
-0.22984953 0.06991729 -0.22832403 0.18044677 -0.026865808 -0.16593115 -0.20441206 0.05252985
0.06742131 -0.31036 -0.056596328 -0.13198577 0.037069526 0.01428125 0.103061534 -0.084406994
-0.29042348 -0.2685014 -0.21965683 -0.28034306 0.042783022 -0.1808387 0.20224951 -0.1466387
-0.24755631 0.091837 0.15649438 0.045173585 -0.078631036 0.08373051 -0.07208411 0.14724348
-0.004912613 -0.36362582 -0.13527477 0.10928633 -0.05204073 -0.16449632 -0.05873717 -0.26195654
00000000: f69a 71bc 4f95 d53d 287e e1bd 5f29 8b3d
00000010: 853d 913c 5e25 a1be 347f 56bd 7761 5538
00000020: dcff 2ebc b4a7 65bd 1351 25bd aaad e8bd
00000030: d45d 98bd 8dc9 d43d ec44 b03d 9013 6cbe
00000040: f3d7 7cbe 40ca 41be fa73 1bbe 31c1 37bc
00000050: 6685 11be 4642 71be 4083 67be b0ce 4bbe
00000060: 89a0 05be 9270 063e 55d5 b9bd 9331 d0bd
00000070: fe42 31be d4b2 d0bd 4aff 40bd e768 6ebe
00000080: a194 3ebd 9b56 343d 0f1a 5abe 8b53 173d
00000090: 69b4 b9be e69d c3bd cdb6 0e3d 0e3a 9c3d
000000a0: 8dc1 6abe 4a5f 233e f14d 71be 618c b6be
000000b0: a42e 2fbe 8bc6 2dbe c7f9 4dbe 11d0 87be
000000c0: cc25 39be 1819 f03d f0c6 57be ef79 64be
000000d0: 0335 97be 1f9b 9dbc cf49 21be b8ba babd
000000e0: 59b7 013d d61c aebe 425d 14be 00d3 c23d
000000f0: 18d0 e83d f4e9 b7be 1701 6fbd 67d3 b5bc
00000100: 92fb df3c 4418 093e 8b82 3fbc 326b 85be
00000110: 9f5f 3c3c 3775 bf3d 0b7e 3bbe 90ac 15be
00000120: b210 91be e996 d13a db4c 183d b7ef a4bd
00000130: 5e37 9b3d 3503 8cbe 559f 95be 7510 3a3d
00000140: 8ea7 873d 0844 95be 0295 183d 6983 acbe
00000150: 5ac9 0c3e 474a b6bb e363 813d 0cf5 52be
00000160: bed7 bbbd 989f 6dbd 1216 ec3d 5bc1 22be
00000170: 21ae 8bbe fe54 933c e37e eebd a46c a3be
00000180: d35a 063d 026a 92be 4a6a e5bd ab52 2abe
00000190: 7c05 7cbe f724 c13d 4be6 eebd 8433 90bd
000001a0: f5f0 abbe fb5a bbbe 6bb8 4bbe 2f00 3cbc
000001b0: c850 02be 966a 8ebd a498 82bd dfe7 3ebd
000001c0: 64e9 7bbe 9895 593d 7206 febd bf76 283d
000001d0: 0638 133e f184 3dbe 4267 54be ba80 dd3b
000001e0: a4e6 b23d de1e 05be a8d8 b4bc 8953 66bd
000001f0: ffd0 933d 9e4e a03d be48 91be 4af3 833e
00000200: 4f61 c8be 2fb9 59bd 3222 4d3d c022 abbe
00000210: 4bb9 b3bd 3484 02be 735b 9ebd e57a 20be
00000220: 8410 31bd 27f6 993c 193d 9dbe 290d dc3d
00000230: 0234 1d3e b572 8abe 86ea bfbd 4d01 f43d
00000240: dd18 5abd 4e39 a6be 8ac5 86be 943a e83c
00000250: a2e5 86be 345a 0bbe 8471 25be 0d6f b3bc
00000260: 04a1 8bbe 2700 43bd 7280 d1bc c679 8ebd
00000270: d372 3ebd 84e2 d2bc 63d4 ae3d b00c c0be
00000280: 2ea9 453e 9ea0 adbd ba5f 40be 0ea1 0ebe
00000290: 4f2e be3d 8c9f e3bd 0b40 3d3c bb8c 0dbd
000002a0: d11b 0e3e 89ee 87be 7ff4 17bd c17d a63d
000002b0: d1c5 63bc a688 0f3e fd70 2f3c 41df 39bb
000002c0: 1b71 133e 3e5e e2bd 9835 98bd fcca 9dbe
000002d0: 2e0c 2fbe a883 133e 7aa3 2fbe c25a 843d
000002e0: cd44 2d3d 9046 243d 84a3 a2be 9d20 c6be
000002f0: 822a 95bd b8e6 0abe 1222 ac3d 1047 e0bd
00000300: 4a1e 043e 62b0 97be 996f 4fbd c904 933d
00000310: f110 923b 8c59 8bbe 34da a53d 85fc 56be
00000320: 795b 32bc 9eff ebbd c230 9bbe 0f46 72be
00000330: 09d7 82be 9dd4 4dbc dc5b cdbe b00e 97be
00000340: eb36 9a3c f6f1 87be 80c3 39be e2f0 9abd
00000350: 7bd7 03be ac33 fcbd c705 1c3e 1238 0bbe
00000360: ad5d 6bbe cc30 8f3d c6cd 69be 0ac7 383e
00000370: af15 dcbc dbe9 29be 6551 51be 8a29 573d
00000380: 2f14 8a3d 82e7 9ebe 8dd1 67bd 4727 07be
00000390: 37d6 173d e7fb 693c ed11 d33d 93dd acbd
000003a0: 63b2 94be 0479 89be b8ed 60be 2089 8fbe
000003b0: 403d 2f3d c82d 39be 7f1a 4f3e 7528 16be
000003c0: 677f 7dbe 0915 bc3d 1040 203e f007 393d
000003d0: 4f09 a1bd e77a ab3d d5a0 93bd ffc6 163e
000003e0: fcf9 a0bb 2a2d babe 7885 0abe 83d1 df3d
000003f0: a928 55bd b971 28be 6396 70bd 2b1f 86be

network.2.weight f4 [27, 256]
0.041137293 -0.40396056 -0.0338758 0.029120015 -0.001235395 0.023867955 -0.0078604175 -0.023909349
-0.0041648787 0.32801604 -0.08126166 0.011424144 -0.20580328 0.04593063 0.00023869766 0.05281979
0.036666 0.032962173 -0.02829652 0.012647056 -0.056816265 0.027074633 -0.023568075 0.0539615
-0.014947313 0.025216538 0.05356594 0.055697355 -0.16598442 -0.022594027 -0.013182383 0.067363046
0.12992679 0.00894434 0.034173105 -0.010634723 0.001982922 0.011874179 0.026698435 0.015622113
0.11073734 0.042797588 -0.06483301 -0.037982013 0.0479586 0.018054698 0.083800584 0.09442734
0.11648745 -0.06251151 -0.017803287 0.03270959 0.15498215 -0.17333327 0.035195194 0.0140013825
0.012903627 0.06876716 0.117404774 -0.014955554 -0.007914381 0.077931166 -0.029805975 -0.007579606
0.034704674 -0.022718515 0.058228567 -0.28664246 0.5331987 -0.014223902 -0.01381321 0.017210547
0.040485702 0.0943592 0.14715905 -0.07854411 -0.0048753032 0.016478859 0.059243854 0.018615669
-0.029267797 0.0042507374 0.054285936 0.01633849 -0.0013636599 0.0018277708 0.20561098 -0.07547108
0.17396325 -0.0069863484 -0.030098544 0.017202593 0.0094515635 0.012382424 -0.0015038744 0.40110716
-0.029246751 -0.007237138 0.09911154 0.063103415 -0.08653583 -0.011334455 -0.055382255 0.030367678
-0.011859595 -0.03990604 0.010054822 0.005895273 0.2626144 0.028474597 0.13127857 0.24388891
0.051125716 0.007807354 -0.001404086 -0.04479836 -0.2022734 0.16504468 0.01354576 0.015477036
-0.010437703 -0.037532236 0.030464593 -0.020033257 0.09743125 0.049231775 0.008704561 0.039304856
0.021876754 0.030531561 0.035980918 0.0074737743 0.026613431 -0.16352986 -0.16125168 0.065842204
0.10272447 -0.16022833 0.01721498 0.011329767 0.11216022 0.030951958 -0.1565791 -0.010627913
-0.015447994 0.06322766 0.117484085 -0.016615229 0.040525626 0.010836491 0.05663358 -0.028082356
0.008697437 -0.0014233737 -0.054342642 -0.13335583 0.038159687 0.031056194 0.06622825 0.013876726
0.09145106 0.046983186 0.041841656 0.068487264 0.04973171 -0.0009208636 -0.010265904 0.04016226
0.04085657 0.27937472 0.076021455 -0.00059974496 0.40708363 0.00641216 -0.008329376 0.10628595
0.11963284 -0.027843514 0.00034925493 0.9090886 -0.06610647 0.0038140877 -0.1477545 -0.47907943
-0.017462425 -0.012867332 -0.00571755 0.033227567 0.057177816 0.09065565 0.004670225 -0.1764514
0.04302658 -0.032614514 0.026328193 0.009009967 -0.0043534683 0.08724451 -0.014795421 -0.004100519
-0.0044713872 0.0019429856 0.07852717 -0.12422134 -0.02852812 -0.013847104 0.0365479 -0.23920637
-0.00089702965 0.06956707 0.18455786 0.055394594 -0.014679237 0.0036933518 0.030174734 0.08574347
-0.014675668 0.13776416 0.16127798 0.030490322 0.019799635 0.052962642 -0.026118314 0.02271422
0.018804377 -0.012217032 0.042960607 -0.0029431235 -0.012215154 -0.0458176 0.008532022 0.054266673
-0.010502709 -0.22089358 0.008988283 -0.014167242 0.003136055 0.02824328 -0.17057465 -0.12712023
0.08739318 0.028965974 0.0115596885 -0.011619749 -0.007902067 0.018567113 -0.008977715 0.040153414
0.047492072 0.042506758 -0.015751794 0.07074064 -0.004122217 0.09173308 -0.00975007 0.05436939
00000000: 947f 283d ebd3 cebe 5ac1 0abd 198d ee3c
00000010: faec a1ba bb86 c33c fbc8 00bc 8add c3bc
00000020: 8979 88bb b8f1 a73e 836c a6bd 552c 3b3c
00000030: 18be 52be c221 3c3d ea4a 7a39 9059 583d
00000040: 162f 163d 5803 073d 1ace e7bc 9935 4f3c
00000050: 2cb8 68bd 9fcb dd3c d611 c1bc bc06 5d3d
00000060: 93e5 74bc ea92 ce3c f667 5b3d e922 643d
00000070: d2f7 29be 1c17 b9bc ecfa 57bc a3f5 893d
00000080: 870b 053e 488b 123c 19f9 0b3d 433d 2ebc
00000090: e9f3 013b eb8b 423c adb6 da3c e4f3 7f3c
000000a0: 42ca e23d 864c 2f3d 2bc7 84bd 0793 1bbd
000000b0: 3d70 443d 72e7 933c a49f ab3d 1f63 c13d
000000c0: f990 ee3d 0906 80bd 33d8 91bc 7efa 053d
000000d0: a4b3 1e3e 477e 31be d628 103d 0e66 653c
000000e0: bc69 533c ccd5 8c3d ea71 f03d 2408 75bc
000000f0: 52ab 01bc 609a 9f3d a92b f4bc 585e f8bb
00000100: 7d26 0e3d 2e1c babc 1481 6e3d cdc2 92be
00000110: b67f 083f 5e0b 69bc cd50 62bc 22fd 8c3c
00000120: 56d4 253d 653f c13d ddb0 163e bcdb a0bd
00000130: 02c1 9fbb acfe 863c afa9 723d e37f 983c
00000140: 05c3 efbc c549 8b3b ee5a 5e3d 4cd8 853c
00000150: d5bc b2ba d091 ef3a af8b 523e 9590 9abd
00000160: 6c23 323e bded e4bb 3991 f6bc 74ec 8c3c
00000170: bbda 1a3c a7df 4a3c a71d c5ba eb5d cd3e
00000180: e296 efbc 8425 edbb fefa ca3d 5d3c 813d
00000190: b239 b1bd 26b4 39bc 81d8 62bd a3c5 f83c
000001a0: bf4e 42bc 8474 23bd fbbc 243c 222d c13b
000001b0: 6575 863e 8f43 e93c e46d 063e 04be 793e
000001c0: 3369 513d d5d4 ff3b 4f09 b8ba 7c7e 37bd
000001d0: c220 4fbe 7901 293e 09ef 5d3c 6593 7d3c
000001e0: e602 2bbc 67bb 19bd e290 f93c c91c a4bc
000001f0: 098a c73d 42a7 493d 939d 0e3c 21fe 203d
00000200: e136 b33c 531d fa3c ba60 133d 90e6 f43b
00000210: 6904 da3c 5f74 27be 291f 25be 47d8 863d
00000220: 3561 d23d e512 24be 6e06 8d3c 7da0 393c
00000230: 42b4 e53d f68e fd3c 4656 20be b320 2ebc
00000240: 9519 7dbc 817d 813d 7f9b f03d a91c 88bc
00000250: 33fe 253d 8a8b 313c 9df8 673d f80c e6bc
00000260: b27f 0e3c 7f90 baba 6496 5ebd 6e8e 08be
00000270: 554d 1c3d 8f69 fe3c ada2 873d 355b 633c
00000280: b14a bb3d 7171 403d 2862 2b3d 0d43 8c3d
00000290: 7ab3 4b3d 1c66 71ba 5232 28bc 2f81 243d
000002a0: 3859 273d 340a 8f3e 23b1 9b3d 3438 1dba
000002b0: 446d d03e 191d d23b ef77 08bc 73ac d93d
000002c0: 1002 f53d 1518 e4bc 341c b739 08ba 683f
000002d0: d462 87bd c6f5 793b f54c 17be e649 f5be
000002e0: 5c0d 8fbc 81d1 52bc 495a bbbb a119 083d
000002f0: 4933 6a3d aba9 b93d b008 993b adaf 34be
00000300: a43c 303d cc96 05bd 39ae d73c 8a9e 133c
00000310: 8aa7 8ebb 40ad b23d 7e68 72bc a65d 86bb
00000320: b784 92bb c7ab fe3a dad2 a03d c267 febd
00000330: ceb3 e9bc f7de 62bc 40b3 153d 84f2 74be
00000340: a426 6bba 2e79 8e3d bcfc 3c3e 71e5 623d
00000350: 2f81 70bc 290c 723b 0131 f73c 469a af3d
00000360: 3772 70bc 0c12 0d3e 0e26 253e d7c6 f93c
00000370: d832 a23c 5bef 583d 13f6 d5bc 2c13 ba3c
00000380: a30b 9a3c f229 48bc 76f7 2f3d 6be1 40bb
00000390: 1222 48bc 3cab 3bbd e5c9 0b3c bb46 5e3d
000003a0: 8e13 2cbc ed31 62be 9743 133c b81d 68bc
000003b0: 4686 4d3b 735e e73c 1fab 2ebe ce2b 02be
000003c0: 32fb b23d 0d4a ed3c d964 3d3c c260 3ebc
000003d0: ac77 01bc 0f1a 983c 4417 13bc e877 243d
000003e0: 0c87 423d 911b 2e3d e809 81bc 78e0 903d
000003f0: aa13 87bb 8ede bb3d c2be 1fbc 70b2 5e3d

network.2.bias f4 [27]
0.051223807 0.051335234 0.05106721 0.045405958 0.046105083 0.045391355 0.051615905 0.051268365
0.05140383 0.044834346 0.044932835 0.044760417 0.0553919 0.055405565 0.055263177 0.052170463
0.05205086 0.05175839 0.053871136 0.05311559 0.053567633 0.04155586 0.041116115 0.04119152
0.052520126 0.052691013 0.052879523
00000000: 0ed0 513d e544 523d da2b 513d 99fb 393d
00000010: afd8 3c3d 49ec 393d 336b 533d c7fe 513d
00000020: d38c 523d 38a4 373d 7e0b 383d b356 373d
00000030: 9ee2 623d f2f0 623d a45b 623d b2b0 553d
00000040: 4833 553d 9b00 543d fba7 5c3d bc8f 593d
00000050: bc69 5b3d 7a36 2a3d 5f69 283d 70b8 283d
00000060: 581f 573d 88d2 573d 3398 583d
