code/models/dqn/dqn_43_1650372800.9387813.pth (torch, 173843 bytes, 4 tensors)

network.0.weight f4 [1000, 15]
00000000: 59d6 9abe 072d 25bf 97ce da3d cd3d 073f
00000010: 24be 153e 51df 3cbe aef9 24be 967e e53e
00000020: a83f 8b3b 82ea 57bc f17d f9bd be3c ba3d
00000030: 064e 213e 2698 9fbd db28 9abe 9e09 36be
00000040: 9fbc 623e c603 32be ad79 98bb ddfd 3fbd
00000050: 5f6a aabd 8f74 6bbc 7dc1 1c3e 84a2 933e
00000060: 30b8 24bd 49f3 77be ddb8 e3bd 54b5 91be
00000070: aaf4 c43d 1318 25be 747f b23d b6e8 083d
00000080: 5980 d8bd d634 81bc 3819 0b3e dc1f 59be
00000090: 45ad 933d c84f ffbd bf1b e3bc 559e 5bbe
000000a0: 3cf5 47be 61e1 0dbd 5626 513e 32e6 823d
000000b0: 26f7 64be 49c4 983e 4ddb ccbd a6f0 d9be
000000c0: 0ffb 2d3e c456 423e 8a20 cb3d bd7b 963d
000000d0: 9d9e 38be 09ec 56bd 78ee 90ba 3c87 893c
000000e0: f75e d7bd f99f b93d d017 263e a990 423e
000000f0: 9840 c2bd e0ee 853d 39cc 06bf 43e0 cebe
00000100: b1d6 99be 0dde 533e c9b1 803e e18a 08be
00000110: 3633 47be edcc b3bd ae00 2a3e 3c2d 033c
00000120: 646b 91be a77d 2dbc af80 1f3e 21ed 283d
00000130: 550f d9be 6825 c83d 806d 8ebe 93d1 583e
00000140: 6851 81be cd70 87bc 9c9f 92bd 31d5 613d
00000150: 132c 8dbe 7981 87be 96bf d33d 9d8a 35be
00000160: d9be 87be 0115 97be 7787 f83d 0a18 3b3e
00000170: 3bfb 873d 0173 e63e 2f92 f23d b9c6 223e
00000180: cd6f c5bd 1cad 5ebe 27de 8bbe 4b8b 363e
00000190: 3004 f9bd ba7f 813d e0cc 403e f741 87bd
000001a0: cfde 2f3e 6acc cb3d 29d7 bcbd 4b59 1c3e
000001b0: e43e 2abe fda9 283e 5841 e23e a2a8 0a3e
000001c0: 9be0 ae3d cda8 efbd d49e 8f3d 7a12 15bd
000001d0: af82 84be a3d9 b7bc 0d82 d0bc 3829 0abe
000001e0: f232 e8be cfb6 c73e 3494 9abc d6a9 de3e
000001f0: bdf8 903d 34bf 7abc d4e6 203e 538c 0bbd
00000200: 8775 c0bd 5f92 323e 8604 d5bd d48c 4abe
00000210: 14b0 303e 24e5 64ba 621b 513e b70b 8d3d
00000220: cab3 28be fb33 ac3e 0bd8 5cbe 3c43 13bf
00000230: 045e a63d 1a74 7fbe 4f78 e63e 2abc 00be
00000240: a97f 93be 5543 2a3d d2d2 33be 619d 17be
00000250: 6d3a 41be 7aa4 093e d6a2 863e 7f32 0f3d
00000260: 0672 003d 8724 b93c 3817 89be 06b4 9c3e
00000270: 4779 163e ff16 c63d 3bb3 c7bd e2d1 06bd
00000280: 2763 5bbe a17c e13d 7fc9 07bd 81fb 70be
00000290: 5358 2bbe cf58 0f3f 49d0 b9be 4a74 d93e
000002a0: b4a8 94be b6e8 073f 8d26 52be 22bf 48bc
000002b0: ce0f bb3d d2e9 be3d c4c8 47be d662 55be
000002c0: 15f5 3abe f99a 063d a6a7 25be d59b 4fbe
000002d0: 7516 1a3e dce0 65bd d79b 103d cabb c3be
000002e0: 0b61 353e f769 743e 4547 c13d 6077 03bc
000002f0: 876b c8bd 6161 66be 72df 06bd f922 96be
00000300: e14a 0fbe 5c44 61bd a01b 1bbe 2e3b b6be
00000310: d3e3 9f3e 721c b4bd 036e 32be 6c59 ad3e
00000320: 884e 84be b4cc 7abe c22c 82bd 212e 1b3e
00000330: 7214 e83d 20a6 82be 62c7 273e 1898 dcbd
00000340: 5d56 35be b1da 2c3e aa17 c4be 1db9 aebd
00000350: b6bb b13e 5016 c6be c894 a23e bc8d 543e
00000360: 8522 74be be79 703e c18e efbc e381 1c3b
00000370: 88a8 833d 97a6 743d 7b49 65be 4c0f 82bd
00000380: f8a0 12be daae 60be d86b a13e 0e6d a33d
00000390: c8f7 8c3d 448d 0abc a037 043e ed0c 0a3e
000003a0: 653e 26bd 9674 16be 5038 08be 2c07 843d
000003b0: 9617 76bd d9b2 50bd cdf5 60be ce25 c7bd
000003c0: 5427 a23d 0933 0e3e e97f 1f3e 8205 7e3e
000003d0: 8f64 c03e e7c9 8dbe 2d08 a8be cd5b 82be
000003e0: ebdc 003a 3af6 8ebe 9e64 3d3e 7f7b fbbd
000003f0: 0b14 25bd a99c 353d 0751 163e 54d7 6dbe
-0.3024166 -0.6452183 0.10683935 0.52828676 0.14623314 -0.18444563 -0.1611087 0.4482314
0.004249532 -0.01317847 -0.121822245 0.09093617 0.1575242 -0.07792692 -0.30109295 -0.17777106
0.22142266 -0.17384252 -0.0046531768 -0.046872962 -0.0832107 -0.014371051 0.15308185 0.28834927
-0.040214717 -0.242139 -0.11119244 -0.28458655 0.096169785 -0.16122465 0.08715716 0.033425055
-0.105713554 -0.015772264 0.13583839 -0.2120356 0.07210783 -0.12466389 -0.027723191 -0.21447118
-0.19527143 -0.034638766 0.2042478 0.063915625 -0.22359905 0.29837254 -0.10002766 -0.42566413
0.16990303 0.18978411 0.09918316 0.0734782 -0.18029256 -0.052471194 -0.0011057397 0.016788118
-0.1051616 0.090637155 0.16220021 0.19000496 -0.094849765 0.065397024 -0.5265537 -0.40405473
-0.3004661 0.20690174 0.2513564 -0.13334228 -0.19453129 -0.08779321 0.16601822 0.00800639
-0.28402245 -0.01058904 0.15576433 0.04124177 -0.4239451 0.0977276 -0.27817917 0.21173696
-0.2525742 -0.01653328 -0.07159349 0.055134956 -0.27572688 -0.26465967 0.103392765 -0.17728658
-0.26512793 -0.29508212 0.12135213 0.18270889 0.06639715 0.45009616 0.118442886 0.15896119
-0.09640465 -0.21745723 -0.27317926 0.17826574 -0.12159002 0.0632319 0.18828154 -0.06604379
0.17174838 0.09951098 -0.09220726 0.15268438 -0.16625553 0.16471095 0.44190478 0.13540891
0.08538934 -0.11702118 0.07012716 -0.036394574 -0.25880954 -0.022442644 -0.025452638 -0.13492286
-0.45351368 0.3900666 -0.018869497 0.4348895 0.07078693 -0.015304375 0.15713054 -0.03406937
-0.093974166 0.17438649 -0.104012534 -0.19780284 0.17254668 -0.00087316544 0.20420602 0.06887
-0.16474834 0.33633408 -0.21566789 -0.57524467 0.08123401 -0.24946633 0.45013663 -0.12571779
-0.28808334 0.04156812 -0.1756089 -0.14806129 -0.18869944 0.13441649 0.2629611 0.034960266
0.03135874 0.022600425 -0.26775527 0.30606097 0.14694701 0.09672355 -0.097509824 -0.032915004
-0.21424542 0.11010099 -0.033151146 -0.23533441 -0.16732912 0.55994886 -0.3629172 0.42471534
-0.2903496 0.53089464 -0.20522518 -0.012252601 0.09133874 0.093219414 -0.1951018 -0.20838484
-0.18257554 0.032862637 -0.16177234 -0.20274289 0.15047629 -0.056122646 0.03530487 -0.3822921
0.177128 0.23868547 0.09437422 -0.008024067 -0.09786134 -0.22498085 -0.032927938 -0.29323557
-0.13993408 -0.054996833 -0.15147257 -0.35592026 0.31228504 -0.08794488 -0.17424779 0.33857286
-0.25841165 -0.2449215 -0.06356193 0.15154316 0.11332025 -0.25517368 0.16384652 -0.10771197
-0.17708726 0.16880299 -0.38299304 -0.08531401 0.34713525 -0.38688898 0.31754136 0.20757192
-0.23841293 0.23483941 -0.029242875 0.002388113 0.06428629 0.059729185 -0.22391312 -0.06350574
-0.14319217 -0.219417 0.3152759 0.07979785 0.06883198 -0.008456532 0.12911844 0.13481493
-0.040586848 -0.14692912 -0.13302732 0.064466804 -0.060081087 -0.050951812 -0.21968766 -0.097240075
0.079176575 0.13886656 0.15576138 0.24806789 0.3757672 -0.27693102 -0.32818738 -0.25460663
0.0004915732 -0.2792223 0.18495414 -0.122794144 -0.040302318 0.044338856 0.14679347 -0.23226672

network.0.bias f4 [1000]
00000000: 5a39 ea3d c72a 4e3e e036 19bd 464c 65bd
00000010: eb22 47be 734d b53d 72cf 63be fc02 5bbe
00000020: 0628 1cbe d31a d23d dd97 29be d101 dabd
00000030: 52fe fc3d feea 56bd 1ba5 7bbe b09a 7abd
00000040: 3adb 343d 553e 60be 116a 8d3e 84f1 cfbe
00000050: 5196 803d 5fa7 863d 3b4d 8bbe 4a2b 74be
00000060: c3b2 7b3e bc59 893d ad98 2bbd 5e6f 73bd
00000070: 3210 7ebe 40ca 41be a72a b7bd 068e 69be
00000080: 5975 95bd 6596 2b3e d437 2b3e 5b8d 9bbe
00000090: 94f5 c73c af1b 39be 3e67 77be 983f 823d
000000a0: 19e6 933d 8186 15be 8257 14bc 73bd a0be
000000b0: faad 23be b76d efbd a74f 0bbe e7f9 20be
000000c0: 0646 533e b106 80bd 5ef4 a0be 55a8 9a3e
000000d0: bb76 ce3d 098a f93d d447 3abe 25bb 1b3e
000000e0: faca 93be dc79 c53b e25f 49be 3497 363c
000000f0: ac5a 103e 7dbe d2be 6be6 bdbe 91f5 633e
00000100: a497 753e a37b f4bc bf5e a8be bc61 2dbe
00000110: 50ea 523e 067a 573d ac2a 013d f66e abbe
00000120: 1c09 a03c 3bbc c63d c057 2dbe 15b6 033e
00000130: 410d f3bd 0387 5ebd 58f3 0fbe ea9b de3d
00000140: c88e 7abc 0a45 183d 99b0 573d 3a4d c43c
00000150: 39e1 54be e7fa 8cbd 4f80 7abd d2af 54be
00000160: 47d5 5b3e 9cf2 613b 976b 16be f129 8abe
00000170: c728 9b3d c822 d1bd 5872 21bd 07b8 4c3e
00000180: 4ba5 ab3d 280f c6bb 3398 1abe a27e 333e
00000190: 18ba b5bd 2173 6abe 17cf 333e 24ac 76be
000001a0: 6e93 563c 855e 52be 7abd f93d 4d7b 433e
000001b0: 5e6f 563e 637b cdbd 7008 56be 0e2e a73e
000001c0: a82b d1bd 8df8 7abc b59d 69be 9531 343e
000001d0: 214d 053e d076 b4bd d950 a6be 33a6 123e
000001e0: 99bb e73d ef9c 9fbd fad6 6ebe 8db7 9cbd
000001f0: ad25 f13c a3ec 053e e1fe c2bd 1922 12be
00000200: b87e 4f3d d47a aebe 575a 31bd d3dc c5be
00000210: f510 bf3b 8fee c3be 4cb7 d2bc 090d dc3d
00000220: 8c37 fb3d a77e 7fbd 0dd4 9f3e 1817 7fbe
00000230: 6628 543e f38b 53be a5d0 92be 68bf 1ebe
00000240: 965e d33d fd77 de3d 33fa 36be 186f 053e
00000250: 3516 bbbd ef52 943d ed4a 613c 9b64 c6bc
00000260: 27c2 fb3d 899e 9d3e 33e7 7e3e 4cc9 6abd
00000270: 62cd ff3d e734 0ebe 7876 debd 5798 86bd
00000280: 0481 dcbe ee26 ef3d 73d7 29be 4489 a13d
00000290: c645 3dbe bfed 1abe 3671 78be 8daa 2bbe
000002a0: da03 9bbe c676 9abe e4ee 1ebe 0df0 a83d
000002b0: 09d3 10be d550 98bd 77ee 6dbe 1e9c 8cbe
000002c0: b3c5 3abc b7c5 8fbe 97c6 ae3e c9d5 7f3d
000002d0: e2a0 9d3e 5543 18be b347 6f3d 1cc4 2bbc
000002e0: c1b2 16be a551 08be b753 37be 0128 1bbe
000002f0: cc40 e8bd 0f79 093e c80f 36bd 4afb d2bd
00000300: 9e01 1ebe f9a7 f13d 7750 00be ec88 86bd
00000310: 3ca8 5dbd d9ed 85be 564d 77be ff3a 90be
00000320: 322b ce3d 82a7 51bd 2001 e6be 49b3 a33d
00000330: 8db8 173e f74c 4cbe 6003 b13d 6a71 f3bd
00000340: 260b 4cbe 1f01 233e 56af 5abe 9f58 00be
00000350: 7d4a 47be 1c38 a6be eb56 4cbe 8d52 a63d
00000360: 99d3 cd3d 2fa5 2f3e aae9 8bbe 7389 84be
00000370: 8eab 1b3e f6c9 323e bf25 223e 0fd4 1b3e
00000380: 73e0 aabd 69bf 27bc d00c 033e 001a 923d
00000390: c553 33be 995a dd3d 6af0 88bd 7fd7 18be
000003a0: 8eff f53d c09f f8bd 8751 613d 96d3 453e
000003b0: 6ad4 4c3e f8c8 983c 7536 69be f809 e9bd
000003c0: 4c80 923c 6b2b 16be 6732 db3d cb88 073e
000003d0: 8819 0e3e a3f8 a2be c2ea 75be 48be 79bd
000003e0: 129c 38be 7d4f 8ebe c0d8 d33d 9eb0 0fbe
000003f0: e270 24be 9da2 45be febd 06be 188d 28be
0.1143672 0.20133506 -0.03740585 -0.055980943 -0.19446914 0.08852663 -0.22247103 -0.21387857
-0.15249643 0.102590226 -0.16561837 -0.10644878 0.12353195 -0.0524702 -0.24574701 -0.061182678
0.044154383 -0.21898778 0.27619985 -0.4061395 0.062786706 0.06574892 -0.2720736 -0.23844638
0.24579911 0.067065686 -0.04189365 -0.05943238 -0.24810866 -0.18924809 -0.08943682 -0.22808084
-0.07297773 0.1675659 0.16720515 -0.30381283 0.024409093 -0.18076967 -0.24160478 0.06359786
0.07221622 -0.1460209 -0.009054067 -0.31394538 -0.15984336 -0.11690848 -0.13604604 -0.1572033
0.2063218 -0.06251276 -0.31436437 0.30206552 0.1008124 0.12184531 -0.18191463 0.15208109
-0.28865796 0.0060264897 -0.19665483 0.011144448 0.14097089 -0.41160956 -0.37089857 0.22261645
0.23983628 -0.02984411 -0.32884786 -0.16931814 0.20597196 0.052606605 0.031534836 -0.33483094
0.019535594 0.09703871 -0.16928005 0.12862428 -0.11867762 -0.054327976 -0.14057672 0.10869582
-0.015292831 0.037175216 0.05265865 0.023962606 -0.2078904 -0.06883793 -0.06115752 -0.20770195
0.21468078 0.0034476882 -0.1468948 -0.26985124 0.07576137 -0.10211712 -0.039415687 0.19992076
0.083811365 -0.0060442872 -0.15097122 0.17528775 -0.08873385 -0.2289548 0.17559467 -0.24089104
0.013096673 -0.20543869 0.12194343 0.19090004 0.2094092 -0.100333 -0.20901656 0.32652324
-0.10213405 -0.015318048 -0.22814067 0.17597039 0.13017704 -0.08811724 -0.32483557 0.14321212
0.11315078 -0.077936046 -0.23324195 -0.07652197 0.02943691 0.13078551 -0.095212705 -0.1427082
0.050657958 -0.34078085 -0.043299045 -0.38645038 0.005830879 -0.38267943 -0.025722168 0.10744674
0.12266454 -0.062376644 0.3121647 -0.24911153 0.20718536 -0.20658855 -0.28674808 -0.15502703
0.10320775 0.1086273 -0.17868881 0.1303066 -0.09135095 0.07242381 0.013750774 -0.024217894
0.12292891 0.30785015 0.24892883 -0.057320878 0.124903455 -0.13887368 -0.1086244 -0.06572025
-0.4306718 0.11677347 -0.16586094 0.078875095 -0.18483648 -0.15129755 -0.24261937 -0.16764279
-0.30276376 -0.30168742 -0.15520817 0.08248911 -0.14143004 -0.074372925 -0.23235498 -0.27462858
-0.011399674 -0.28080532 0.34135887 0.06245974 0.30786806 -0.14869435 0.058417987 -0.010483768
-0.14716627 -0.13312395 -0.17903028 -0.15151979 -0.11340484 0.13425086 -0.044448644 -0.10301836
-0.15430304 0.11799616 -0.12530695 -0.065690845 -0.05411552 -0.26158026 -0.24150595 -0.2817001
0.100668326 -0.05118514 -0.44922733 0.0799318 0.14816494 -0.19951235 0.08643222 -0.118868664
-0.19926128 0.15918396 -0.21355948 -0.12533806 -0.19462009 -0.32464683 -0.19955032 0.08121214
0.10050125 0.17152856 -0.2732671 -0.25886115 0.15202162 0.17459854 0.15834711 0.15217613
-0.083435915 -0.010238507 0.12797856 0.07133865 -0.17512424 0.10808296 -0.0668648 -0.14925955
0.12011634 -0.12139845 0.05500939 0.19318995 0.20002905 0.018650517 -0.2277468 -0.113788545
0.017883442 -0.14665 0.10702973 0.13235776 0.13876927 -0.3183032 -0.24015334 -0.060972482
-0.18028286 -0.2779502 0.10344076 -0.14032218 -0.16058686 -0.19300313 -0.13158414 -0.16460073

network.2.weight f4 [27, 1000]
00000000: c4f5 2fbd d03a 7fbd 8ed8 8c3d 16f9 213e
00000010: 528f 28be 976a 20be 0e42 b43d 2ca7 f8bd
00000020: 8237 cdbd 724c f13c 3ace 1cbd 7058 e7bd
00000030: 3fe6 aabd 1f3c 8b3e 86f0 9f3e 8a0c a73d
00000040: 29ff a2be f789 aebe b648 ea3d 35fb 51bf
00000050: 15b9 19be 94ec 3a3d 10d3 a83d 5c69 8c3d
00000060: bacf 3e3e f0af 05bf e74a c83d b60d da3d
00000070: 62b8 febe c4da 283d 8a1b ac3e dad7 30be
00000080: 321f 1fbe 5cc1 c63d 2666 cdbe 5d65 38bf
00000090: a12a 40bf 7859 c4be 2b5e 43be 59bf e63d
000000a0: e5a4 88be 0ca8 3b3e 49da 7dbe 4bcc 483d
000000b0: 2dce e6bc 2889 0dbe eba9 c63c b96f 6dbf
000000c0: f4f9 333e cdef 023e 8697 13be 12a5 0bbf
000000d0: 9c43 dcbd 97c3 843d cda7 9a3e a5ff 133d
000000e0: 912b 5bbf 3d47 203e c31d 4a3e d653 973e
000000f0: de53 583a afe3 7fbf 0521 41bf adf0 40be
00000100: e8b8 c43d a33e 8fbd cbb5 bfbd 3f13 e83d
00000110: 997e 96be e46c 633d a36d 513d c7a2 1bbe
00000120: 3a59 793e 14a9 ed3d ecaf b83e 2838 94be
00000130: 9d2f 5c3e e3c5 cbbe 3d96 22be b9f6 3dbe
00000140: 4ee8 a03d 8c8b 95be a16e 26be 84d9 7b3d
00000150: a5b1 6a3e a371 603d 18e8 00be 479c 0c3e
00000160: 5802 adbe 1add efba 2c80 99be 99d3 4a3d
00000170: 6c2b 5abe 8fa8 f5be b870 25be 2fc0 1e3f
00000180: 23f5 d83d d67d 363e cb0e 3f3d 85fd e83d
00000190: 6e90 983d 9c20 8b3d 20b8 5bbe 9069 64bd
000001a0: f472 29bc 3687 593d 000c d5bc 006a 91be
000001b0: ab60 d73c 61b7 5dbf 78eb a33e 7517 943e
000001c0: fa4b c53d 3d0b 293c 6436 20bf 38a8 8dbd
000001d0: 8691 693e 4c9c 0cbe c321 00bc e280 b4bd
000001e0: f27a 3a3e 621f 5b3e 4264 073e 6b6f 10be
000001f0: c7fd 10bd 1855 dbbd 59fe a33d ae74 3fbe
00000200: c754 1fbe 11bb dd3d 140f 443e 0ca2 c03e
00000210: 6774 4dbe 9407 0e3c 7f00 6fbe ce27 b7bc
00000220: 0d65 833d 2c3b 373b af68 283e b08c 91be
00000230: d065 bcbe 3f40 8e3e ff51 26bf 6598 d13e
00000240: ffe7 30bd 6fd2 253e e99c 5dbe 81b5 db3d
00000250: 70c5 043f f847 e43d f197 2c3e f594 c2be
00000260: c530 32be 693d 15bf d928 193e bc07 6fbd
00000270: b435 cabe dac1 e53e ec15 e0bc 0ab5 733e
00000280: 844c 39bf d8b6 8a3e 036a 973e e4ed a43e
00000290: 8ff2 79bf ace3 063d a089 2e3b 2520 98bb
000002a0: c51c c03e 2512 db3d 4f36 1a3e aca1 58bd
000002b0: 175b 2abf bab0 75be bc1f 8ebe 12ae e53d
000002c0: 455d c0bd 742d d6be c9a7 653e e8ba 753d
000002d0: b548 ccbe 692e 45bf e40c 08be b33c 813e
000002e0: 218c d83e 88b0 a63d 1432 35bf 29fc 513e
000002f0: 5d5a f1bc 3534 43be 7861 98bd b296 e9bd
00000300: 2e55 17bf 4fbc 1bbe 8815 3b3e 8240 403e
00000310: 1940 993d 3843 07bf d032 f5be 8e95 76be
00000320: 6383 adbe 2a0a 093e e8ba 1bbf 2f89 bc3c
00000330: 27e5 183e dd13 c9be f8ae fabe b5e6 be3e
00000340: 6d19 f93d 87b4 d93d 65cf 023e 8d04 77be
00000350: 9e82 063e 587d 2d3e 2c7b dd3d f28d 9bbb
00000360: 7be5 49be 49bd cbbd 8edf e6be 7afe 26bf
00000370: f4aa f63d 6beb cfbc 26fd 2bbe 88e0 823e
00000380: d6a9 e83d 9207 5f3e 8455 c3be eb8d e4be
00000390: c4fa e13e 654c 01bd 25dd 253e 9eb6 563d
000003a0: e8f8 553d fadc ed3c 4920 ec3d 4ee9 88be
000003b0: 4b25 6f39 320f 0b3e 4e0b 323e 50b3 dcbe
000003c0: 5189 60be 221f b33e c13d ea3e b9db 0b3d
000003d0: 22f6 c43d 6a69 523c 2315 d3be 17d4 84bd
000003e0: 8d51 47bd c72a babd 963f 1f3e 5b0a ddbd
000003f0: f885 a13d 8093 153e 71e9 c5bd 9410 96bd
-0.04295899 -0.062311947 0.06877242 0.15817675 -0.16460922 -0.15665661 0.088016614 -0.121412605
-0.10020353 0.029455397 -0.03828261 -0.11296165 -0.08344697 0.27194306 0.31238192 0.081566885
-0.31835297 -0.34089634 0.1143965 -0.82023937 -0.1501201 0.045635775 0.08243382 0.06856033
0.18633929 -0.52221584 0.097799115 0.106471464 -0.49750048 0.041224256 0.3361476 -0.17269841
-0.15539244 0.09704849 -0.40116996 -0.7202967 -0.75065047 -0.3834951 -0.19078891 0.112669654
-0.26688305 0.18325824 -0.247903 0.049022954 -0.028174484 -0.13821852 0.024250945 -0.927486
0.17575818 0.12786789 -0.1441327 -0.5454875 -0.10755083 0.06482618 0.30206147 0.036132473
-0.8561335 0.15652175 0.19737916 0.2955615 0.0008252243 -0.9995679 -0.7544101 -0.1884181
0.096055806 -0.06994369 -0.09360846 0.11331796 -0.2939346 0.055523768 0.05112995 -0.15198813
0.24350443 0.11604515 0.36071718 -0.28949094 0.21502538 -0.39799413 -0.15877624 -0.18551148
0.078568086 -0.29208028 -0.16253139 0.061486736 0.22919329 0.054795872 -0.12588537 0.1373149
-0.3379085 -0.0018300146 -0.299806 0.0495182 -0.21305627 -0.47980163 -0.1615628 0.62012
0.10593631 0.1782144 0.046644967 0.1137648 0.07449423 0.06793329 -0.21456957 -0.055764735
-0.010342348 0.053107463 -0.026006699 -0.28401184 0.026291212 -0.8660794 0.32015586 0.28924146
0.09633632 0.010317621 -0.62582994 -0.06916851 0.22809419 -0.13731498 -0.007820549 -0.08813645
0.18210962 0.2139869 0.13221839 -0.14105003 -0.03539827 -0.1070959 0.08007497 -0.18696854
-0.15559684 0.10826696 0.19146377 0.37623632 -0.20063935 0.008668799 -0.23340033 -0.022357848
0.06415758 0.0027958853 0.16446184 -0.2842765 -0.36796427 0.2778339 -0.64968866 0.4093658
-0.04319 0.16193555 -0.21641888 0.107279785 0.51863766 0.111465394 0.16854836 -0.3800427
-0.17401417 -0.5829683 0.14956988 -0.058356985 -0.39494097 0.4487446 -0.027354203 0.2379953
-0.7238238 0.27092624 0.29573068 0.32212746 -0.9763574 0.03293197 0.0026632324 -0.004642504
0.3752195 0.1069682 0.1505978 -0.052888557 -0.6654524 -0.23993197 -0.27758586 0.11214842
-0.0939279 -0.41831553 0.22427286 0.0599927 -0.3989922 -0.7702394 -0.13286167 0.25241622
0.4229441 0.081391394 -0.7077954 0.20506348 -0.029462034 -0.19062884 -0.07440466 -0.11405696
-0.5911435 -0.15208553 0.18269932 0.18774608 0.07482929 -0.5283694 -0.4789033 -0.24080488
-0.33889303 0.13382784 -0.6083207 0.023014633 0.14931165 -0.39272967 -0.48961616 0.3728539
0.12163053 0.10630136 0.12774427 -0.2412283 0.13135764 0.16942346 0.10814509 -0.004747146
-0.19716446 -0.09948213 -0.45092434 -0.6523205 0.120443255 -0.02538081 -0.16795787 0.2556193
0.11360519 0.21780232 -0.3815118 -0.44639525 0.4413663 -0.031566996 0.16197641 0.05242025
0.05223933 0.029036034 0.115295954 -0.26740497 0.00022806709 0.13580015 0.17387125 -0.43105555
-0.21927382 0.3498469 0.4575024 0.03414509 0.096172586 0.0128425155 -0.41227064 -0.064857654
-0.048661757 -0.090901904 0.155516 -0.10792991 0.07886881 0.14607048 -0.09663666 -0.07327381

network.2.bias f4 [27]
00000000: 3aa1 753d 067d 963d efa5 8c3d 9a8b 433e
00000010: 150b 753e df5b a13e fe80 843d 0b72 be3c
00000020: 5f4e 3d3d ab33 a83d 3296 8d3c 1421 713d
00000030: 55ea 363e a926 9d3d 6a9b b33d ba3e 343d
00000040: 700e 813c e555 a53d 2aa7 cabd 4498 1fbd
00000050: 4c8b 00be 6640 24bd bd68 87bd bcce b2bd
00000060: 9eb1 5dbc 600f a9bd 1b26 b5bd
0.05996821 0.07348065 0.06867587 0.19096223 0.23930009 0.31515405 0.06469916 0.02324774
0.04621732 0.0821298 0.017283533 0.058869436 0.17862828 0.076733895 0.08769877 0.044005133
0.015753955 0.08073024 -0.09895165 -0.03896357 -0.12553138 -0.040100478 -0.06611774 -0.08730838
-0.013531117 -0.08254886 -0.08845159
