code/experiments/target_mode/ac/9/models/0.pth (torch, 501651 bytes, 4 tensors)

network.0.weight f4 [2048, 33]
0.097473495 -0.0011305041 -0.05144728 0.0930855 -0.0653495 0.12436637 0.08003331 0.06691391
-0.014376357 0.12116702 -0.038599093 0.09409588 0.013650555 -0.14494269 0.1483876 -0.07141603
0.14192118 0.15251303 0.027417097 -0.089911364 -0.15509997 -0.043011717 -0.15767966 -0.06622431
-0.03553008 -0.026423085 -0.16052735 -0.074753106 0.12189727 -0.053061716 0.15078852 -0.15467273
0.030307757 0.09715546 0.0061297193 0.06390838 0.09842195 0.11982641 0.14729217 -0.09467796
-0.045021694 -0.16066197 -0.041755613 -0.032864243 -0.08504683 0.10357883 0.10532492 -0.09285491
-0.027219215 -0.008064584 0.13809487 0.07131482 0.11086456 -0.13049857 -0.123216055 -0.13953894
0.023334997 -0.036742676 0.13480495 -0.025575768 0.103800125 -0.05556963 -0.14628439 -0.020275995
0.02826921 -0.1562459 -0.07238259 0.03309454 -0.08007632 0.17346601 0.056125607 0.03683172
0.09761522 0.09474701 0.014792175 0.07713893 0.102032244 -0.12145887 0.020491833 -0.035049085
-0.108471885 0.05099457 0.048115876 -0.0073851245 -0.092417754 0.049874805 -0.10084563 -0.0527926
0.10795789 -0.111568645 -0.009639292 -0.058856238 0.087800175 -0.021212788 -0.0356143 -0.16648431
0.16789068 0.06648149 -0.12144902 -0.1347954 0.098909065 -0.11977907 0.12579794 0.034375988
-0.17951895 -0.08837511 -0.0068871295 -0.12936372 -0.06948241 0.14774893 -0.11278957 -0.067534685
0.0468658 -0.14214863 0.1089839 -0.11842064 -0.16594452 -0.05422001 -0.095345356 0.03744999
0.07962883 -0.047221236 -0.08865955 -0.004879686 -0.14578877 -0.004932003 0.10438249 0.09228602
-0.09131498 -0.118384756 -0.12064366 0.044268686 0.11068639 0.1151338 -0.14083345 -0.01718257
-0.030956518 0.16480644 0.14258786 0.03880531 0.0408228 -0.11060482 -0.13291177 0.004616441
-0.024315888 -0.10187356 0.011515442 -0.055017527 -0.04058877 -0.07528034 -0.09633268 0.12937194
-0.04329968 -0.07010973 0.08304374 -0.12805541 -0.03301201 -0.12570956 0.123965375 0.06419806
-0.066180095 -0.12238512 0.013576987 0.1363805 0.056065466 0.07570868 0.01984323 -0.15703094
-0.05811076 -0.025411887 0.05580364 -0.065514006 -0.043103725 0.036121953 -0.07374385 -0.023357296
-0.12274339 0.14511232 -0.0928281 0.11313843 0.09175668 0.08534757 -0.08147187 0.10011551
-0.0032254092 0.0806958 -0.026324108 0.01013869 0.099278726 0.04719308 -0.027082302 -0.090795375
0.017572027 0.07432278 0.04657722 0.05859528 -0.0068549435 -0.0959101 -0.14551444 0.13107719
0.030193038 -0.1328019 0.017383413 0.15701927 0.005419568 0.027959546 -0.055016793 -0.1001766
-0.013609839 0.101884775 -0.033286627 0.07745734 -0.04914348 -0.033537075 0.086642504 0.07874566
0.040654264 0.09060516 -0.12065974 -0.10232126 -0.13746934 -0.040478233 -0.018899208 -0.06801095
-0.019520441 -0.12159139 0.06489138 -0.016809167 0.029953187 0.037433896 -0.09580151 -0.13893378
-0.13418397 0.1706885 -0.17037307 0.1555998 -0.09661172 -0.0757979 0.006540397 0.122445874
-0.09778964 0.010659214 -0.08025088 -0.08853597 -0.04916025 -0.086534105 0.09163417 0.16252682
0.031480327 -0.002358199 0.10862051 -0.10340848 0.0624153 -0.0009631514 -0.018368337 0.1190286
00000000: 2fa0 c73d 6c2d 94ba 62ba 52bd 9ca3 be3d
00000010: f5d5 85bd ccb3 fe3d 81e8 a33d 290a 893d
00000020: d08a 6bbc 6a26 f83d 151a 1ebd 57b5 c03d
00000030: 94a6 5f3c db6b 14be ebf2 173e 9142 92bd
00000040: c953 113e 602c 1c3e d299 e03c 7323 b8bd
00000050: 87d2 1ebe 0e2d 30bd c776 21be 9ca0 87bd
00000060: fd87 11bd 3a75 d8bc 4861 24be 2818 99bd
00000070: 47a5 f93d 3e57 59bd 4e68 1a3e 8762 1ebe
00000080: f947 f83c 71f9 c63d d0db c83b 66e2 823d
00000090: 7391 c93d 8d67 f53d c2d3 163e 85e6 c1bd
000000a0: ab68 38bd 9284 24be ef07 2bbd a89c 06bd
000000b0: 082d aebd 2321 d43d 97b4 d73d b72a bebd
000000c0: d5fa debc 5121 04bc be68 0d3e 810d 923d
000000d0: f50c e33d 6ba1 05be b358 fcbd 4ce3 0ebe
000000e0: 0929 bf3c 7d7f 16bd 4f0a 0a3e 4684 d1bc
000000f0: 2995 d43d fb9c 63bd 93cb 15be d819 a6bc
00000100: d594 e73c edfe 1fbe 533d 94bd 248e 073d
00000110: 0eff a3bd 13a1 313e f7e3 653d dcdc 163d
00000120: 7dea c73d b80a c23d e15a 723c 04fb 9d3d
00000130: 48f6 d03d 6ebf f8bd 7dde a73c a18f 0fbd
00000140: 8226 debd afdf 503d 2715 453d eafe f1bb
00000150: 8545 bdbd 8649 4c3d 2788 cebd 0e3d 58bd
00000160: 0719 dd3d 1a7e e4bd 1fee 1dbc 3d13 71bd
00000170: 94d0 b33d 71c6 adbc 4de0 11bd dd7a 2abe
00000180: 89eb 2b3e 7327 883d 44ba f8bd ce07 0abe
00000190: d690 ca3d bb4e f5bd 2dd1 003e d6cd 0c3d
000001a0: d1d3 37be 02fe b4bd 6ead e1bb ec77 04be
000001b0: cb4c 8ebd 7f4b 173e 38fe e6bd a04f 8abd
000001c0: 5af6 3f3d 698f 11be f332 df3d 8586 f2bd
000001d0: 5ced 29be cd15 5ebd 6d44 c3bd 2965 193d
000001e0: 7114 a33d 0e6b 41bd 2393 b5bd c6e5 9fbb
000001f0: a749 15be a49c a1bb 7dc6 d53d 7400 bd3d
00000200: 5903 bbbd b573 f2bd 0614 f7bd 1553 353d
00000210: 8caf e23d 45cb eb3d a536 10be 76c2 8cbc
00000220: 8698 fdbc 05c3 283e 8d02 123e 51f2 1e3d
00000230: cf35 273d c884 e2bd 061a 08be 8445 973b
00000240: 1d32 c7bc 16a3 d0bd 44ab 3c3c 0f5a 61bd
00000250: 6940 26bd 942c 9abd 114a c5bd 147a 043e
00000260: 015b 31bd b195 8fbd d612 aa3d f520 03be
00000270: 9a37 07bd 02ba 00be 8fe1 fd3d 467a 833d
00000280: 6e89 87bd 0da5 fabd 0372 5e3c 54a7 0b3e
00000290: e7a4 653d 270d 9b3d 458e a23c b8cc 20be
000002a0: 8c05 6ebd 972c d0bc 5c92 643d 352c 86bd
000002b0: 888d 30bd 9df4 133d 0407 97bd cd57 bfbc
000002c0: e360 fbbd 5398 143e a91c bebd 1fb5 e73d
000002d0: edea bb3d b5ca ae3d b9da a6bd 5c09 cd3d
000002e0: 6361 53bb d743 a53d a8a5 d7bc bf1c 263c
000002f0: a552 cb3d 884d 413d b4db ddbc edf2 b9bd
00000300: 36f3 8f3c 8b36 983d c1c7 3e3d 9b01 703d
00000310: 6f9f e0bb 846c c4bd bd01 15be 1939 063e
00000320: 6457 f73c 39fd 07be a967 8e3c a9c9 203e
00000330: a296 b13b 6b0b e53c 4a59 61bd 6429 cdbd
00000340: cdfb 5ebc f7a8 d03d 8f57 08bd f4a1 9e3d
00000350: ac4a 49bd 2c5e 09bd a071 b13d 6845 a13d
00000360: 1685 263d 338f b93d 741c f7bd cf8d d1bd
00000370: c3c4 0cbe 81cc 25bd 83d2 9abc 5349 8bbd
00000380: 55e9 9fbc e804 f9bd c6e5 843d 61b3 89bc
00000390: 6360 f53c 4954 193d 9533 c4bd a844 0ebe
000003a0: 8667 09be f7c8 2e3e 4776 2ebe 8e55 1f3e
000003b0: 5edc c5bd ee3b 9bbd d450 d63b e7c4 fa3d
000003c0: ef45 c8bd fca3 2e3c 935a a4bd 5952 b5bd
000003d0: 425c 49bd cb38 b1bd b2aa bb3d 6e6d 263e
000003e0: 84f1 003d 048c 1abb 6e74 de3d d3c7 d3bd
000003f0: 30a7 7f3d ff7b 7cba 3279 96bc 44c5 f33d

network.0.bias f4 [2048]
-0.07981673 0.020249708 -0.021836972 0.008311085 0.05636562 0.082014576 -0.13151562 0.07603832
-0.08929716 -0.1595803 -0.01810071 0.18623364 -0.19667834 -0.03715605 -0.083496384 0.07986121
-0.163728 0.15214425 -0.058547355 -0.15258458 0.183315 -0.07371163 -0.06087867 0.13862719
0.11707224 -0.0987926 -0.14234363 0.08637986 -0.022765236 0.13073424 0.1516442 -0.14438258
-0.15573019 0.14272624 0.11691255 0.12592955 -0.045440525 0.110542774 -0.060791336 -0.06680451
0.053124797 0.19903816 0.18827483 0.18675146 -0.12776391 -0.10639678 -0.02714419 0.17454098
-0.03256781 -0.029278856 0.07649294 -0.04412549 0.08396891 -0.15174095 -0.02045558 -0.01943162
-0.1805068 0.10871419 0.08736884 0.08257811 0.057334814 -0.17044416 0.045377553 0.012371174
-0.15210761 0.19287889 -0.19055724 -0.13235852 -0.1367403 0.18603718 -0.13248473 -0.14655516
-0.13042802 -0.106948264 -0.039930496 0.025834702 -0.17480895 -0.18702425 0.03923788 -0.13405538
0.1893597 -0.09568401 -0.068127826 -0.12040204 0.004148791 -0.13612644 -0.06271984 0.0007618115
-0.013502457 -0.05195681 0.1306991 -0.055826183 -0.0964369 -0.17891486 0.15294266 -0.09651011
0.14600307 -0.016669 0.1396907 -0.1002097 -0.0024138242 0.09425639 0.018190758 -0.06421471
0.12869424 -0.13070194 0.081997134 0.024621906 0.001477567 -0.08823222 -0.14781855 0.13839503
-0.06909797 0.16625854 0.19705608 0.12756243 0.05083975 -0.17565903 0.12129183 0.015813373
-0.07933301 0.16374347 -0.10394663 0.15090802 0.14602102 -0.16084623 -0.089333616 0.0481261
0.15188085 0.161061 0.003270927 -0.09327398 -0.08441429 0.12257995 -0.020963546 0.059529938
0.029594017 -0.09976746 -0.1478335 -0.11229838 -0.17555578 -0.06527225 0.07373808 0.0111656375
0.02184094 0.122986525 -0.030366208 -0.081768535 -0.040579982 -0.16548356 -0.1599647 0.12633683
-0.038624257 -0.08611318 -0.19424501 -0.12829988 -0.08191098 0.050265964 -0.109171204 -0.015243049
0.041021567 0.20903055 0.080615126 -0.0296916 0.097965695 0.08261427 0.016851299 0.0291754
0.11589653 0.047794856 -0.14439231 -0.036477335 0.038005542 0.12191229 0.066144004 0.0839028
0.12344079 -0.09374085 0.034773253 -0.19405186 0.09403326 0.2006278 0.082903095 -0.11250678
-0.065305054 0.07732822 -0.069835834 -0.14991829 0.1582237 0.08185295 -0.059155744 0.09391545
-0.17108482 0.009174416 0.079875104 0.06602154 -0.10923494 -0.052851405 0.008055244 -0.09225558
0.1527377 -0.0015083523 0.104914084 0.16323835 -0.015085336 -0.15919116 -0.08956531 -0.089905135
0.08674584 -0.048659917 -0.09870971 -0.016458418 -0.16110921 0.09354737 0.023515211 -0.09362081
-0.013415108 -0.12282174 0.17766206 0.17370209 0.1515307 -0.08505132 0.060204513 0.21613297
0.13553879 0.1394954 -0.086401075 -0.11670321 0.05473202 0.14074138 -0.0032270253 0.21035552
-0.17772123 -0.036328573 0.0028917713 0.14482671 -0.18535136 0.20601365 -0.08929833 -0.10601962
0.18935712 -0.17192098 -0.18073474 -0.10186073 0.1605955 -0.086399294 0.011370937 -0.16708435
0.18594413 0.0042486317 0.1068782 0.06656109 -0.15455538 -0.059710957 -0.1431458 0.1560209
00000000: f476 a3bd b7e2 a53c 73e3 b2bc 382b 083c
00000010: a3df 663d 42f7 a73d 08ac 06be fbb9 9b3d
00000020: 6ee1 b6bd 0569 23be f147 94bc 08b4 3e3e
00000030: 0c66 49be f130 18bd 2700 abbd 468e a33d
00000040: 50a8 27be b4cb 1b3e 5acf 6fbd 223f 1cbe
00000050: edb6 3b3e 20f6 96bd ea5b 79bd 49f4 0d3e
00000060: 92c3 ef3d c653 cabd 87c2 11be ede7 b03d
00000070: 297e babc 32df 053e 9e48 1b3e 07d9 13be
00000080: bc77 1fbe d426 123e d96f ef3d adf3 003e
00000090: d81f 3abd 4064 e23d 5600 79bd ced0 88bd
000000a0: 6399 593d a9d0 4b3e 1ecb 403e c63b 3f3e
000000b0: 8bd4 02be 8ee6 d9bd 7e5d debc dfba 323e
000000c0: d365 05bd 36da efbc 55a8 9c3d eebc 34bd
000000d0: e4f7 ab3d fb61 1bbe 7692 a7bc 102f 9fbc
000000e0: c6d6 38be 8ca5 de3d 6fee b23d b61e a93d
000000f0: e9d7 6a3d ea88 2ebe d0dd 393d 77b0 4a3c
00000100: 19c2 1bbe 0b82 453e 7021 43be fe88 07be
00000110: a605 0cbe 8880 3e3e 14aa 07be 8e12 16be
00000120: ec8e 05be b107 dbbd 298e 23bd 4ca3 d33c
00000130: 1e01 33be 4983 3fbe e6b7 203d d045 09be
00000140: 82e7 413e faf5 c3bd 9a86 8bbd 5895 f6bd
00000150: 95f2 873b bb64 0bbe 4273 80bd 4eb4 473a
00000160: 6939 5dbc aad0 54bd fcd5 053e ffa9 64bd
00000170: b680 c5bd 7535 37be 009d 1c3e 18a7 c5bd
00000180: d481 153e 6d8d 88bc 140b 0f3e be3a cdbd
00000190: 4031 1ebb 7f09 c13d c904 953c 0083 83bd
000001a0: 6cc8 033e bbd6 05be 1dee a73d e1b3 c93c
000001b0: ecaa c13a 18b3 b4bd bf5d 17be 6db7 0d3e
000001c0: 3d83 8dbd ae3f 2a3e 12c9 493e ba9f 023e
000001d0: 573d 503d f6df 33be da67 f83d 0c8b 813c
000001e0: 5879 a2bd 5eac 273e f9e1 d4bd a287 1a3e
000001f0: 8986 153e e0b4 24be 8bf4 b6bd e01f 453d
00000200: a786 1b3e 2ded 243e 0c5d 563b 6e06 bfbd
00000210: 66e1 acbd 320b fb3d bebb abbc aad5 733d
00000220: 276f f23c e252 ccbd aa61 17be b1fc e5bd
00000230: e5c4 33be 75ad 85bd fe03 973d 14f0 363c
00000240: c5eb b23c 5ce0 fb3d 8ec2 f8bc 4376 a7bd
00000250: 3237 26bd 8674 29be c9cd 23be 715e 013e
00000260: 7834 1ebd 1b5c b0bd 2ae8 46be 0b61 03be
00000270: f2c0 a7bd afe3 4d3d 2795 dfbd fbbd 79bc
00000280: 3b06 283d 1b0c 563e 8b19 a53d cc3b f3bc
00000290: 3da2 c83d ac31 a93d bc0b 8a3c 4001 ef3c
000002a0: 295b ed3d 8ac4 433d 94db 13be 4269 15bd
000002b0: b3ab 1b3d 27ad f93d 8276 873d 3bd5 ab3d
000002c0: 86ce fc3d 34fb bfbd 666e 0e3d 88b5 46be
000002d0: 8394 c03d 6071 4d3e 19c9 a93d f469 e6bd
000002e0: a8be 85bd 425e 9e3d 1706 8fbd 2e84 19be
000002f0: 6505 223e 85a2 a73d 4b4d 72bd be56 c03d
00000300: dc30 2fbe 4a50 163c 8f95 a33d 4d36 873d
00000310: 91b6 dfbd b77a 58bd 24fa 033c 7ef0 bcbd
00000320: 4667 1c3e e8b3 c5ba 32dd d63d f427 273e
00000330: 7c28 77bc 0203 23be 046e b7bd 2f20 b8bd
00000340: cea7 b13d 9f4f 47bd 5128 cabd ced3 86bc
00000350: d0f9 24be c395 bf3d f9a2 c03c 44bc bfbd
00000360: 0bcb 5bbc f789 fbbd 0bed 353e f6de 313e
00000370: dd2a 1b3e 632f aebd 0299 763d f651 5d3e
00000380: aeca 0a3e e2d7 0e3e 0cf3 b0bd 1802 efbd
00000390: af2e 603d 821e 103e 807c 53bb 7067 573e
000003a0: 8efc 35be 45cd 14bd df83 3d3b 744d 143e
000003b0: bfcc 3dbe 3ef5 523e 0be2 b6bd d120 d9bd
000003c0: d5e6 413e 0e0c 30be 8712 39be 5c9c d0bd
000003d0: 2673 243e 1df2 b0bd 2b4d 3a3c 2918 2bbe
000003e0: 2368 3e3e 1b38 8b3b f5e2 da3d 2e51 883d
000003f0: c443 1ebe 7a93 74bd d094 12be f1c3 1f3e

network.2.weight f4 [27, 2048]
-0.0072012953 0.0048383973 -0.00067544216 -0.0047414466 0.015532143 0.0013794932 0.01017864 0.004988789
-0.0017954691 -0.007302506 0.0092183715 0.006130303 -0.014709484 0.010468721 -0.004797168 0.0046355673
0.009768179 0.012483389 -0.011943552 -0.0081403395 0.01268144 0.0014109528 -0.0050657787 0.008424885
0.0054490976 -0.003681991 -0.0069945757 -0.0008359944 0.0011542237 -0.0066706794 -0.009980365 -0.012464199
-0.0050167255 -0.007159307 0.0077586053 0.0046086614 0.0010925599 0.00678727 -0.008572817 -0.009800348
-0.0024372293 -0.0042593065 -0.0021518185 0.0135734165 -0.0076811346 -0.0032155148 0.005948659 0.013026402
-0.012001604 -0.0059257764 -0.004976454 0.00660688 0.013108026 -0.008728992 -0.0045701214 0.0067149014
-0.01385916 -0.008459273 -0.0043422943 -0.0039059385 0.002620534 -0.019055834 0.013217055 7.9132034e-05
-0.0133562 0.008970548 -0.014025762 -0.0031197846 3.218303e-05 -0.00084904704 0.0026258167 0.005637329
-0.0019355029 0.0031841085 0.012886451 -0.0016839736 -0.0010472969 0.0061293994 0.0073116217 -0.0008293936
0.006796714 -0.010237111 -0.011345301 -0.0056470605 -0.016531771 0.0072290204 -0.006781551 -0.008195026
0.0016701816 -0.0022822996 0.004968235 -0.008993865 -0.010949762 -0.026739419 0.017607188 0.002276498
-0.0029474148 -0.0035634814 -0.0005242727 -0.01207813 0.0033020293 0.013135939 0.0038959088 -0.0059587867
-0.008280921 0.0032708377 0.0014781146 -0.0059710452 -0.011129437 -0.010316991 0.0022785964 0.009483315
0.0030974313 -0.005090193 0.008843452 0.006763167 0.0036431656 -0.008560589 0.008193478 0.01485765
-0.0019264325 0.012200968 -0.0115718795 0.014647113 0.01139377 -0.013203069 -0.0016855802 0.0066967397
-0.0039034514 0.010386841 0.0062669534 -0.0028799898 -0.007015473 0.0022335749 0.0006824258 0.016079662
0.0093052015 -0.009304913 -0.005355562 0.00025465473 0.009260837 0.016253956 -0.0045552985 0.0070809457
0.0027274636 0.009833624 0.004399236 0.0026020203 0.0028940525 -0.012951035 -0.0058793337 0.008491788
-0.005719188 0.0059672385 -0.014352528 -0.004764657 0.005322603 -0.007676269 0.005618156 -0.007532523
-0.008259701 0.006389418 -0.0017200074 0.008025152 -0.0021815666 0.010138647 0.003750225 0.0114011755
0.016907306 -0.006105091 0.0060105403 0.00404028 0.0068667335 0.0016820309 0.0018899543 -0.0027814815
0.012395014 -0.0043606213 -0.009883287 -0.0045929905 0.016627219 0.0154023 0.0012556548 -0.009053032
0.004484743 0.0064704246 -0.010389576 -9.83818e-05 0.00745746 -0.00431858 0.0013962294 0.0066857925
0.010863629 0.005269674 0.0068578254 -0.0020893756 -0.0048876 0.00075536314 -0.0066198707 -0.0025911268
-0.0006174069 -0.008391019 0.011073689 0.007394796 -0.012144426 0.010035304 -0.0073642223 0.0051840227
-0.00430298 0.006757722 0.005785324 0.0027501746 -0.0012118678 -6.9246984e-05 0.0025361637 -0.004497189
0.016199773 -0.0066424636 0.0088847615 0.0063561 -0.0038885165 -0.015575347 0.0023462656 -0.007263335
0.0017990015 0.00730252 -0.010159919 -0.0033950664 -0.0049765483 0.0035656914 -0.0061849435 0.00452869
-0.009300683 -6.0161914e-05 0.005040218 0.0017268613 -0.008660065 0.01536296 0.01570872 0.00023210929
-0.0051053 -0.0025389756 -0.0059510986 -0.0035179458 0.016461411 -0.003843568 -9.369378e-05 0.0040406794
-0.0020971117 0.0076446948 0.0065256422 -0.0017531741 -0.0021526394 0.0056880945 -0.0019299113 -0.0019263265
00000000: d8f8 ebbb 6b8b 9e3b 2810 31ba 235e 9bbb
00000010: 887a 7e3c 1cd0 b43a 4fc4 263c ff78 a33b
00000020: f255 ebba dc49 efbb a708 173c b5e0 c83b
00000030: 0c00 71bc 0085 2b3c 9031 9dbb f5e5 973b
00000040: b60a 203c 2187 4c3c e3ae 43bc 0f5f 05bc
00000050: d1c5 4f3c b8ef b83a d5fe a5bb 8708 0a3c
00000060: 588e b23b 8f4d 71bb c132 e5bb a226 5bba
00000070: 5249 973a b795 dabb af84 23bc a436 4cbc
00000080: 5863 a4bb 9f98 eabb e63b fe3b 4104 973b
00000090: 3a34 8f3a bf67 de3b 0075 0cbc a491 20bc
000000a0: ecb9 1fbb a791 8bbb 8605 0dbb 0963 5e3c
000000b0: 07b2 fbbb 63bb 52bb f8ec c23b b16c 553c
000000c0: 60a2 44bc 042d c2bb 8611 a3bb 877e d83b
000000d0: 0cc3 563c 0c04 0fbc f5c0 95bb ad08 dc3b
000000e0: 8811 63bc c398 0abc ce49 8ebb c6fa 7fbb
000000f0: 44bd 2b3b fb1a 9cbc 598c 583c b0f3 a538
00000100: f7d3 5abc 35f9 123c 4fcc 65bc 4d75 4cbb
00000110: 44fc 0638 9592 5eba e515 2c3b 58b9 b83b
00000120: b3b0 fdba 7aac 503b b121 533c c7b8 dcba
00000130: 7445 89ba 21d9 c83b 5496 ef3b aa6b 59ba
00000140: f8b6 de3b 8eb9 27bc a4e1 39bc fa0a b9bb
00000150: a36d 87bc 6be1 ec3b c637 debb 6e44 06bc
00000160: ffe9 da3a a292 15bb 93cc a23b 015b 13bc
00000170: a166 33bc a00c dbbc f33c 903c 4c31 153b
00000180: 6a29 41bb 4c89 69bb 586f 09ba 59e3 45bc
00000190: dc66 583b 1f38 573c 8152 7f3b ed41 c3bb
000001a0: b3ac 07bc 8d5b 563b 4cbd c13a c2a8 c3bb
000001b0: 3e58 36bc 9908 29bc 8154 153b e85f 1b3c
000001c0: 46fe 4a3b a2cb a6bb 20e4 103c 8f9d dd3b
000001d0: 2dc2 6e3b b641 0cbc f03d 063c 806d 733c
000001e0: 5980 fcba 92e6 473c fb97 3dbc 72fa 6f3c
000001f0: efac 3a3c af51 58bc b0ee dcba 5370 db3b
00000200: 0cd1 7fbb 922d 2a3c 045b cd3b 36be 3cbb
00000210: 0ee2 e5bb 2b61 123b d2e4 323a 7fb9 833c
00000220: d874 183c a273 18bc b67d afbb 2e83 8539
00000230: c4ba 173c 0427 853c 9d44 95bb 4707 e83b
00000240: 3fbf 323b 351d 213c 7727 903b a886 2a3b
00000250: 25aa 3d3b 9430 54bc 6da7 c0bb 2421 0b3c
00000260: 0768 bbbb d388 c33b de26 6bbc d720 9cbb
00000270: 3b69 ae3b 3689 fbbb 8218 b83b 62d3 f6bb
00000280: b253 07bc 535e d13b df71 e1ba ed7b 033c
00000290: 9df8 0ebb 911c 263c 56c6 753b ffcb 3a3c
000002a0: 3181 8a3c 370d c8bb 11f4 c43b 5364 843b
000002b0: 5602 e13b 9777 dc3a 58b8 f73a 8449 36bb
000002c0: 7514 4b3c 8be3 8ebb 83ed 21bc cc80 96bb
000002d0: ce35 883c ee59 7c3c c994 a43a 2b53 14bc
000002e0: c0f4 923b db05 d43b 0a39 2abc 5452 ceb8
000002f0: b55d f43b e082 8dbb af01 b73a 7e14 db3b
00000300: 5dfd 313c 3bad ac3b 9cb7 e03b e8ed 08bb
00000310: 2928 a0bb 9003 463a 80eb d8bb e5cf 29bb
00000320: 7ad9 21ba 7c7a 09bc 6b6e 353c 0b50 f23b
00000330: 6af9 46bc 1e6b 243c 934f f1bb bcde a93b
00000340: 0300 8dbb e16f dd3b d192 bd3b 463c 343b
00000350: 89d7 9eba b138 91b8 c435 263b 285d 93bb
00000360: 63b5 843c 06a9 d9bb 6491 113c d546 d03b
00000370: 7bd6 7ebb bd2f 7fbc cec3 193b 4501 eebb
00000380: 79cc eb3a fa49 ef3b ca75 26bc c37f 5ebb
00000390: 5012 a3bb 60ae 693b 11ab cabb 6865 943b
000003a0: e461 18bc 5d56 7cb8 6a28 a53b da57 e23a
000003b0: f2e2 0dbc edb4 7b3c 93af 803c 5d62 7339
000003c0: 5c4a a7bb f164 26bb 6f01 c3bb 568d 66bb
000003d0: 15da 863c 5fe4 7bbb 777d c4b8 ad67 843b
000003e0: b26f 09bb 5980 fa3b 0ed5 d53b c3ca e5ba
000003f0: 4c13 0dbb 3263 ba3b 14f5 fcba cb7c fcba

network.2.bias f4 [27]
0.019903922 0.0075244764 0.0238837 0.03800823 0.025374992 0.015989922 0.039199844 0.030707601
0.0103395935 0.01020713 0.02596486 0.029369848 0.0187311 0.01868802 0.036874793 0.0051990277
0.03300793 0.026081748 0.046346918 0.040389836 0.024201108 0.027037723 0.023786753 0.00993228
0.013338637 0.005744213 0.02789853
00000000: 8d0d a33c e28f f63b c0a7 c33c 85ae 1b3d
00000010: 37df cf3c 4cfd 823c 0490 203d 828e fb3c
00000020: 6667 293c ce3b 273c 42b4 d43c 0999 f03c
00000030: f771 993c 9e17 993c 060a 173d 9b5c aa3b
00000040: 5333 073d 64a9 d53c 44d6 3d3d d06f 253d
00000050: 6741 c63c 377e dd3c 70dc c23c 00bb 223c
00000060: 4c8a 5a3c f339 bc3b 758b e43c
