code/experiments/ac/46/models/1.pth (torch, 108435 bytes, 4 tensors)

network.0.weight f4 [512, 24]
00000000: f18e 3fbd 9e7d 0fbe 3ab1 a33d 0b49 6fbb
00000010: c4de 2b3d 2a05 c3bd 0fbd 08be 5ac7 bd3d
00000020: c032 fabd 2bae b3bd 9bfc 003e 92db c138
00000030: b7bb 403e f7cd 343e bc6c 853d 87a1 703d
00000040: e1ab 403e 499f f13d c23b 253e 9ebe 3e3e
00000050: 587a 6b3d ed22 4b3e ece8 80bb 2422 173e
00000060: 2356 2dbe 1f73 3cbe 985c 8dbd 0f09 ad3d
00000070: 3044 a63c 24ac cc3d 55e2 f73d 98fe 20be
00000080: cc33 0dbe 68cf 07be 6ce3 5f3e e716 4d3d
00000090: 7ad8 3e3e 7104 36be e109 17bd c420 a6bd
000000a0: a4a4 a6bd 9c45 b73c 6ce0 a3bd 4a20 11be
000000b0: 3c5f c53d 6a6e c83d ea70 373e 8d8e 1c3d
000000c0: 0d53 efbc 9ddf 933d 7653 113e b82e 3b3d
000000d0: 54be 243e 8247 c93d ca3c b4bd 5a4d 443d
000000e0: 0ef9 7d3c a81f 14be a203 ff3d 0ff7 e33d
000000f0: 770f bebd b0f9 c13d 899b 033e 6e70 71bb
00000100: 492c 37bc 8dc0 edbc cfb7 a6bc 7acc 07be
00000110: 6154 483e 234c 4dbe 2d76 4ebe cc22 37be
00000120: 2409 a73d 2380 9abc 73c3 fbbd a4da 81bd
00000130: b668 613d 9eb5 08be 476a 953b 859e 253d
00000140: afa8 12be 14c3 bdbd d798 023c c645 d4bd
00000150: 4aa9 0dbe a17f 9d3d 9c5f debc f821 29be
00000160: 115a e83c b32f 213e 6ad4 473e 6640 dfbd
00000170: 6ac5 293e f3e9 dfbd 236b 673e b102 22bd
00000180: cf00 e93d 2365 10be 9d6d 3a3e d706 cdbc
00000190: ca8d fc3d af12 34be cdbc 953d 1fbc b4bd
000001a0: feb3 d6bc 9d3b 3a3e 01f3 30be 3804 3dbd
000001b0: 625b 30bc e2f0 c4bd 21c3 2f3e 748b e7bd
000001c0: f625 4f3e 0a05 f3bd 8a30 963d f420 00bd
000001d0: e865 8a3d 2e0a 0a3e a1a6 853d e603 cc3d
000001e0: 9b0e 313e 39b2 c1bd 0edd 71bc b969 4bbd
000001f0: bb72 cebd 19bf 29be 7d90 243c 3861 203e
00000200: d80d 833c 99c6 a53b 7b58 efbd 4c56 a3bc
00000210: 0112 24be 9d9a 1c3e e1b5 25be 8892 94bc
00000220: 68fd c5bd ee58 21bd ec58 bf3d 148b 87bd
00000230: 3a8f 05be 124e 83bd b787 f7bc 47f0 13be
00000240: 20e9 883d 3955 013d 3ae5 393e 04a6 0c3e
00000250: 82ff 04be 684c 50be fdd5 213e 28dc 4e3e
00000260: 657a 2fbe 60f2 37be d6da 53be 1bf1 95bc
00000270: 4c28 063b b8f0 b5bd 0650 413c 551f 49bd
00000280: 9eb0 9e3d 8cec ddbd 37ee 173d 8508 3b3e
00000290: 8794 363e 0dff bcbd 4532 9ebc 33af 8abd
000002a0: 76ce 4e3e 5280 09be e9cc 883d 1e45 1b3e
000002b0: f7b3 4bbd 2da2 bebd 5b53 5fbe f8fc 9abc
000002c0: aed7 b1bd 0514 12be 9732 b93d 1f44 55bd
000002d0: 93d9 a33b 9692 20be f3b9 fe3d cd3a 03be
000002e0: 10fc 09be 22bb 6dbd 32e9 b1bb d957 cd3d
000002f0: 3965 1f3e a353 103e d8b4 433e f98f 82bd
00000300: c506 0bbe 7fa9 05be c68e 18be c621 babd
00000310: a092 5bbb b13d 32bc c5d8 e63d 1d9f 603d
00000320: 3c38 d9bd 439f 33bd c216 bdba c599 01be
00000330: d8fd d23d 7c48 ecbd 64a3 78bd d5dc 0dbe
00000340: 6d23 adbc c60f 0a3d 4f06 e6bc 10eb 1fbd
00000350: 3642 00be 32b0 f23d 3b1a 193e 567c 26be
00000360: 25d6 d83d 00c5 cfbd 5505 c6bc 2dbd 73bd
00000370: 35ff 13be eac5 513e b9ff 013e 65f5 89bc
00000380: cd76 15be 7e1d 44be 3441 00be 0645 39be
00000390: 056d 04be e119 19be a16c 0fbe fc93 153d
000003a0: cd26 713d 1b30 b4bc 66b3 58be 19e3 153e
000003b0: ee6d 263e 8633 ab3d 6e18 58be e4f4 103e
000003c0: 6d29 01be bd46 42be 1c58 1b3c 863a 31be
000003d0: f02e 06be a79b 0bbe aaa2 3f3e 4fed 493e
000003e0: e911 3abe bd2f 2f3e df07 86bc b1e0 f8bb
000003f0: 4809 a2bd a81c 11bd c1e6 4dbd f950 893d
-0.04676718 -0.14012763 0.07992788 -0.0036512043 0.041960493 -0.09522469 -0.1335337 0.09266539
-0.12216711 -0.08773454 0.12596361 9.243855e-05 0.18821608 0.17656694 0.0651488 0.058747794
0.18815567 0.11797959 0.16136077 0.18627402 0.057489723 0.19837542 -0.0039340165 0.14759117
-0.1692739 -0.1840329 -0.069024265 0.084489934 0.020296186 0.09993771 0.12103716 -0.1572212
-0.1378929 -0.13262713 0.21864098 0.05007067 0.18637267 -0.17775132 -0.036874656 -0.08111718
-0.081368715 0.02237206 -0.080017895 -0.14172474 0.09637305 0.09786685 0.17914167 0.038221885
-0.029214406 0.07220385 0.14191994 0.04569885 0.1608823 0.09828092 -0.08800657 0.04792533
0.015501274 -0.14465201 0.12451865 0.11131107 -0.092802934 0.09471452 0.128523 -0.0036840695
-0.011179992 -0.02902248 -0.020351319 -0.13261595 0.19563438 -0.20048575 -0.20162268 -0.17884368
0.0815604 -0.018859928 -0.12293138 -0.063405305 0.0550315 -0.13350531 0.0045597884 0.04043438
-0.1432216 -0.09265724 0.00797101 -0.10364871 -0.1383411 0.07690359 -0.0271452 -0.16516864
0.02836326 0.15740852 0.19514623 -0.10900955 0.16579214 -0.10933294 0.22599463 -0.039553348
0.11377107 -0.1410108 0.18205877 -0.025027676 0.123317316 -0.17585252 0.073114015 -0.08824944
-0.026208874 0.18186803 -0.17280199 -0.0461466 -0.010763975 -0.09616257 0.1716428 -0.113058954
0.20229325 -0.118661955 0.07333477 -0.031281427 0.06757718 0.13480446 0.065259226 0.09961681
0.17290728 -0.094578214 -0.014762176 -0.04966137 -0.10080477 -0.16576804 0.010044214 0.15662086
0.015997812 0.005059075 -0.11686798 -0.01993861 -0.16022493 0.15293355 -0.16182663 -0.018136278
-0.09667474 -0.03939145 0.093431324 -0.06618324 -0.13042918 -0.06411375 -0.030216081 -0.14447127
0.0668509 0.031575415 0.18153849 0.13735205 -0.12988093 -0.20341647 0.15804286 0.2020117
-0.17136534 -0.17963552 -0.20688948 -0.018303445 0.0020470796 -0.08883804 0.011798864 -0.049102146
0.07748531 -0.10836133 0.037092414 0.18264969 0.17830096 -0.092283346 -0.01931108 -0.06771698
0.20195946 -0.13427857 0.066797085 0.15163085 -0.049732175 -0.09308276 -0.21809141 -0.018919453
-0.08683716 -0.1426545 0.09042852 -0.05206692 0.005000302 -0.15680918 0.12437811 -0.128154
-0.1347506 -0.058039792 -0.0054294104 0.10026521 0.15565957 0.14094405 0.19111955 -0.06375117
-0.13576801 -0.13052939 -0.14898214 -0.09088473 -0.0033504143 -0.010878966 0.11271814 0.054839242
-0.10606429 -0.043853056 -0.0014426338 -0.12656315 0.10302323 -0.11537263 -0.060702696 -0.13853772
-0.021135056 0.03370645 -0.02807918 -0.039042532 -0.12525257 0.11850013 0.14951412 -0.16258368
0.1058772 -0.10144997 -0.024172464 -0.059506584 -0.14452823 0.20485654 0.12695207 -0.016840646
-0.145961 -0.19151875 -0.12524873 -0.18092737 -0.12932213 -0.14951278 -0.14006282 0.036518082
0.058874894 -0.021995595 -0.21162185 0.14637412 0.16252872 0.08359437 -0.21103069 0.14155918
-0.12613459 -0.18972297 0.009481456 -0.17307481 -0.13103843 -0.13633595 0.18714395 0.19719432
-0.18170895 0.17108054 -0.016361175 -0.0075951447 -0.079119265 -0.03542772 -0.050268892 0.067048974

network.0.bias f4 [512]
00000000: 248e 6f3b 86e8 a33d 4a8d 1dbe 1a5b 34bd
00000010: d356 223e 1cf8 16be 7957 ca3d 1913 f6bd
00000020: b6bd 343e ddb5 2f3e 8080 8f3d 902c a7bd
00000030: 0fc3 043e 5d15 24bd eea2 dcbd cdc0 17be
00000040: f0f5 4bbd e280 023d aa32 c0bd 3a0b 9e3c
00000050: 6dac 5fbd 205c 3c3d 0dee 423e c90b 9dbd
00000060: f83f de3d 48f2 b7bd 21ac 31be 527f 223e
00000070: 4a4b 6e3d 5d76 71bd accf 9b3d 3234 39be
00000080: e9f1 13bd f278 723e 8702 b33d 1914 d4bd
00000090: d475 f6bd b399 1d3e 0619 b03d 9491 273e
000000a0: 9954 d13d ca26 3dbe 0552 a23c 21fb 2ebe
000000b0: 98c6 c1bd af8c 42bb d7c9 13be 937e 463d
000000c0: 9dad 243c 4479 5c3c 017d f13d 535b 4c3e
000000d0: cc49 8c3d 56d1 613e f1c0 023e 9418 a33d
000000e0: d1fc cc3d 5d1a 58bd 113a 51bd 881d 84ba
000000f0: 3702 b43d beaf d43d f976 bfbd 2c38 c0bb
00000100: 43f1 ba3b c70a 633d da9b 2f3e 9187 9b3d
00000110: 1f55 843d 56e6 45be 6329 33be 97af 513e
00000120: 3388 cf3d c8a0 0bbe ada8 533e 8b76 fa3d
00000130: d230 873d da7a 3dbc fc2f 303e fddd 5abc
00000140: 8a2d c23d 6ad6 4fbb d509 7a3e 663d 26be
00000150: c35a 95bd cb21 4e3e 5952 9f3d 0ff4 14ba
00000160: 98aa 0c3d b1d1 91bd fc9d 403e cf1e bb3c
00000170: 87db 8ebd d99e 5abd dbfa 9abd 6008 c2bb
00000180: 9684 a8bd 161b 343c aaa6 a5ba d69d e73d
00000190: 7ead 9f3c cc32 4f3d 1fe6 44be 12b3 3dbe
000001a0: 9520 583e f2c5 043c b68c 533e 9d2f b13b
000001b0: 7380 113e f39f 7c3c 5c59 a93d 3cd7 3e3d
000001c0: 0568 5c3e 8ad0 5cbc 3463 6dbd 9e65 ac3d
000001d0: 7897 ebbd bd79 10bd 27e3 e6bd 201b 4cbd
000001e0: 20de 3abe 070c 0d3e f4d1 79bd 56fd 13be
000001f0: c71f 26be d2f7 2e3e 7f13 e2bd 041e 7f3d
00000200: 4f8b 34be 7ccc cfbd a681 4c3c 27ed 583e
00000210: 2d48 493e 1327 c83c 0072 07be efbb 0ebe
00000220: b8a1 dbbd 8647 aa3c 4e6d 1cbe 37aa 153e
00000230: 0fcc 483e 00a5 90bd 2798 2b3e d663 99bd
00000240: f172 d33d ffef dbbc a073 993d c667 983d
00000250: 444f 67bd 1657 ca3c 3ed5 553e e119 2d3e
00000260: 9766 fd3d 2933 ff3d 7de8 eb3c 4c82 1a3e
00000270: 15e0 1dbe 8a81 debd f943 38bd c37f 17be
00000280: a98e a63d 650a 07be aef7 583e 4ebd 483e
00000290: 08ed db3d def0 4d3e bc8b 823c 5430 ed3d
000002a0: 5030 c6bd efa8 52be 2004 efbd c084 9cbc
000002b0: 0834 6dbd 211a 5abd 1f56 6a3d 1bfb 4abd
000002c0: 1fc8 8abc db57 113e bcc2 c73d 4d47 e9bd
000002d0: f372 16bd 862d 2b3d 357a 4dbd f9c7 b6bc
000002e0: dad2 593e 0e7d 08be d58e 9bbd f6ea 88bd
000002f0: f16c 303e ef67 423e 215d 093c 9ce6 37bd
00000300: 4da0 293e 964c 083c 9a1c 52be 611e 273c
00000310: 5ef9 bc3d 5528 cf3c fd96 293e f733 4cbe
00000320: cd56 f7bd 4d05 8cbd f7b4 d7bc b2e8 0a3e
00000330: 2199 e0bc f8da 96b9 06f4 48bd 3ad3 87bd
00000340: 6ff8 de3d d1d3 883e e129 093e 3bab e3bd
00000350: 59f3 983d 031e 12be 8b8c 63bd f54c 80bd
00000360: eac5 363d 4515 5a3d 3009 4fbd 8c67 443e
00000370: 135f a83d 7e3a 53bd 0004 2ebd 8fdc febc
00000380: d5b1 7b3c d711 30be 2666 36bc a68b 723e
00000390: 0a8d 983d 8989 0bbd 0ade 1abc 9c28 d53d
000003a0: ebe2 31bd df91 043e 0deb 5ebd 5db4 e03d
000003b0: 46ec c53d 292c bb3d bef9 c3bd 8392 493d
000003c0: 8224 0c3e 02be 043c 575c dbbc 308e 763d
000003d0: 1616 1fbe c4ae a8bd 645e eabd 23a0 413e
000003e0: 1115 bdbc e16b 963d 6759 47bd 2fa6 ba3d
000003f0: 1f57 16bd f00f a73d 9f50 a03d ba02 8d3d
0.0036553228 0.08003335 -0.15385929 -0.044032194 0.15853433 -0.14743084 0.09879965 -0.12015361
0.17650494 0.17159219 0.07006931 -0.081627965 0.12965034 -0.040059436 -0.10773264 -0.14819641
-0.04979509 0.031861193 -0.093846634 0.019292463 -0.054607797 0.045986295 0.19036122 -0.076682635
0.10852045 -0.08981758 -0.17350818 0.15868881 0.05817727 -0.05895077 0.0760797 -0.18086317
-0.036119375 0.2367895 0.087407164 -0.10355396 -0.12034193 0.15390663 0.08598523 0.16364127
0.10221214 -0.18471828 0.0198145 -0.17087986 -0.09461707 -0.0029685905 -0.14432465 0.048460554
0.010051158 0.013456646 0.11791421 0.19956712 0.06850013 0.22052512 0.12768914 0.07963672
0.100091584 -0.052759517 -0.051080767 -0.0010079602 0.08789485 0.10385083 -0.09348864 -0.005866071
0.00570503 0.0554302 0.17149296 0.075942166 0.06461548 -0.19326147 -0.17496257 0.20477138
0.101334 -0.13635552 0.20669813 0.122296415 0.066011086 -0.011564935 0.17205805 -0.01335859
0.09481342 -0.0031713494 0.24417813 -0.16234359 -0.07292702 0.20130078 0.077793784 -0.00056821195
0.03434238 -0.071200736 0.18810266 0.02284184 -0.06975465 -0.053374145 -0.07567378 -0.0059214085
-0.08228414 0.010992786 -0.0012638171 0.11309402 0.019491907 0.050585553 -0.19228409 -0.18525341
0.21106179 0.008103834 0.20659146 0.0054072873 0.14209156 0.015418994 0.08268997 0.046591982
0.21524055 -0.013477454 -0.057955936 0.084178194 -0.115035 -0.03527235 -0.112737946 -0.049830556
-0.18248796 0.1377412 -0.060991243 -0.14452109 -0.1622306 0.17086723 -0.11038875 0.062284485
-0.17631267 -0.10146424 0.0124820825 0.21184216 0.19656439 0.024432695 -0.13227081 -0.13938878
-0.10724205 0.020786058 -0.15276071 0.14615713 0.19609092 -0.07062721 0.1675726 -0.07489745
0.10324658 -0.026847837 0.07492757 0.07441668 -0.056472078 0.024699729 0.20882127 0.16904403
0.12373083 0.1246093 0.028797382 0.15088767 -0.15417512 -0.10864551 -0.0449867 -0.14794831
0.08132679 -0.13187559 0.21188232 0.19603464 0.107385695 0.20111415 0.015935771 0.115814835
-0.09677184 -0.20572256 -0.11670709 -0.019106269 -0.05791095 -0.053247575 0.057211038 -0.04955588
-0.016941128 0.1419367 0.097539395 -0.11390553 -0.036730718 0.04179146 -0.050165374 -0.022312151
0.2127184 -0.13328955 -0.075956024 -0.0668544 0.17229058 0.1898496 0.00838402 -0.04489766
0.16565056 0.008319041 -0.20518723 0.010200114 0.092272505 0.025287786 0.16561504 -0.19941698
-0.12077103 -0.068369485 -0.026331408 0.13565329 -0.027416768 -0.00028773374 -0.049060844 -0.06632085
0.10887229 0.26724103 0.13394882 -0.11116644 0.0746829 -0.14269261 -0.055553954 -0.062646784
0.04462234 0.05324294 -0.05054587 0.19180125 0.08221259 -0.051569454 -0.042484283 -0.03111103
0.015362223 -0.17194305 -0.0111327525 0.23686084 0.07448776 -0.03406671 -0.009452352 0.10408136
-0.043429296 0.1294627 -0.05442338 0.109719016 0.09664206 0.09139282 -0.09569119 0.04921199
0.13685802 0.008101942 -0.02677743 0.060194194 -0.15535769 -0.08236459 -0.11443785 0.18908744
-0.023081334 0.07344795 -0.048669245 0.09113728 -0.03670418 0.08157337 0.07827877 0.06885286

network.2.weight f4 [27, 512]
00000000: 7f9f 5fbc 006e 3e3c e5ac a2bc 354d 02bd
00000010: a193 afba 23a6 4ebc 7cfd e6bc cbd4 ddbb
00000020: 7491 a13b 0059 cfbb 9708 313c e7f8 f0bc
00000030: df6b 563c 24f3 593d 1412 acbc cdba 26bd
00000040: f42f 3439 4f25 15bc 7278 dcbb 5986 f43c
00000050: a438 5abc 09c4 93bc ab8f 4ebc 6456 ac3c
00000060: c86a 753b 5169 fdbb 8846 41bc 66cf ddbc
00000070: e1e5 e6bb bc4e 7bbc d2eb 67bc d131 663c
00000080: 609c b7bb 6297 013c 6ac0 c33c f7ff 4c3b
00000090: 5b98 8cbc 621b f83c cfec 493d 1768 873c
000000a0: 4ad1 183d 0369 06ba b14d 0b3c b4d8 9fbc
000000b0: 8689 15bd 290e 51bc 54f8 01bd bd7c 403a
000000c0: 0ab7 a43c ccc9 24bc fe72 923b 2d5d d83c
000000d0: 5fb7 ee3c c18b 23bc b8a8 a53c 7ec4 03bc
000000e0: 450b 473c 59b2 8bba f945 55bc a2b5 dfbb
000000f0: ae27 4f3c 1d5e 123c 5ae6 103c 3a36 463d
00000100: 9205 b13c 993a c8bb 08a4 573d 6e4f d23c
00000110: b822 acbc 3a12 f4bc 9ef1 1fbd 3aab 0c3d
00000120: 154c 263d d0a4 1abc c237 193c a8be a2bc
00000130: 67a1 e237 2410 8e3c 53d9 e8bc bf9c 03bb
00000140: 4b61 c9bc e1fc 953c 22d4 c63c be76 5a3c
00000150: e791 afbb 90af 25bc 78ff dabc be03 0a3c
00000160: b82a 77bc 6c20 fcba 6c2b 48bc 3ff4 fc3b
00000170: 7b09 3a3d 365f 32bc 9e80 a8bb a38a 8abb
00000180: 1373 21bd 2b2b d3bc 9af6 53bc 77d7 e9ba
00000190: e58f 63bc 6f06 183c 253f bbbc 05db d43a
000001a0: 8c98 e43c bee9 1abc 4b8a d63c 0f02 4e3a
000001b0: eee2 2d3d ce84 003d 8a86 0bbd 27c2 4e3b
000001c0: 5890 b1bb 8a75 34bc e91a c5bc 3e78 a1bc
000001d0: 8382 92bc f707 a0bc a34d 54bd b928 f73b
000001e0: 3662 e1bb 79b7 6a3d 585e 373b 9049 e63b
000001f0: f039 11bd 22b6 773c ee8c 15bd ab67 08bd
00000200: d67b 41bb 8d3b b33c f214 dbbc 26d3 aebc
00000210: 4ffd aeba bdea 52bc 76c3 1abc 1411 b2bc
00000220: 2a52 29bc 278b 203c 99c6 d2bb 78c9 6a39
00000230: 576b ed3c ad85 ed3c b7c0 adbc 10d4 283b
00000240: 0a5c 6fbc e734 d2bb 3a13 fd3c f620 5dbd
00000250: ac90 98bc 8b1e 1c3d eb5b 0b3d f59b 443c
00000260: ae11 fe3c 452c f03c 3bbe 513b 307e a93c
00000270: e017 12bc 0e46 bdbc bd82 45bb e3fe e5bc
00000280: d1b1 933c 21ae 95bc 3546 68bb c787 483c
00000290: 41f7 8abb dfef 91bc 8eca 67bb cd2f ba3c
000002a0: 8ad8 59bd 18af cdbb 0296 3bbd b9e1 23bb
000002b0: 5921 083c cd15 023c 2022 23bc 7d43 4f3b
000002c0: 7e10 c03c aa95 8bbc 56eb 69bb c2e5 e3bc
000002d0: c897 9c3c 3636 2b3c 6542 a23c 7a4f 6c3c
000002e0: 991c b33c f844 1b3c 5e8a dcb8 fdc0 9a3c
000002f0: 6534 89bb b4d6 303d 5e9e b3bb 841a 08bd
00000300: ffc3 25bc ffd3 61bc 1176 ffbb 525d a03b
00000310: 87e6 15bd bd8f a5bc 199b 40bb 8cb9 88bc
00000320: e4b8 a4bc 5283 6ebc 7ee8 b43c 4d0a 283d
00000330: dfcf 363b a178 523d 670a 7bbc 08ea 53bd
00000340: 845c 6c3c 471e 9e3c 265f d03c 7a65 cc3c
00000350: 7e85 01bc ef02 cebc d5b3 193c 1dbe 9dbc
00000360: 8409 813d 6be7 9fbb 54e0 c3bb 5021 a0bc
00000370: e7a7 cdba edf4 35bc ae89 73bc af70 7638
00000380: cfc7 0a3b 8d58 493c 43fc d9bb fd5d 13bd
00000390: acd4 50bc a2ad 80bb 3029 d23b d065 78bc
000003a0: f41b f5bc 2de0 83bb 57fe 963c 11ae abba
000003b0: f972 2a3c 16af e0bc 1fef 11bd c3c1 eebc
000003c0: 876f 2dbb b7e4 15bd 4a05 4b3c eb3a 24bc
000003d0: f5cd 143d f072 bfbc 546d 03bc 4e4a bb3b
000003e0: 8229 a9bc c969 7bbc a13e 14bd 821b 81bc
000003f0: 46ce b1bc 65c6 583c 9485 92bc a891 8a3c
-0.013648867 0.011622906 -0.019857833 -0.03181191 -0.0013395437 -0.012612852 -0.028197043 -0.0067697517
0.0049306694 -0.0063277483 0.010805271 -0.02941556 0.013087242 0.053210393 -0.021004714 -0.04070549
0.00017184002 -0.009103133 -0.0067282254 0.029849218 -0.013319168 -0.018037813 -0.012607495 0.021037288
0.003744768 -0.007733502 -0.011796601 -0.027076434 -0.0070464467 -0.015338596 -0.014155345 0.014049963
-0.005603358 0.007909628 0.023895461 0.0031280497 -0.017162492 0.030286495 0.049298104 0.016529126
0.03730897 -0.00051273423 0.00850241 -0.019512512 -0.036508106 -0.012759724 -0.031730965 0.0007342806
0.020106811 -0.010057878 0.0044692745 0.026411617 0.029140173 -0.00998205 0.020222053 -0.008042453
0.012148683 -0.001065801 -0.013017171 -0.0068270722 0.012643738 0.008933571 0.008843983 0.04839156
0.021609101 -0.006110501 0.052646667 0.02567264 -0.021012649 -0.029793847 -0.039048783 0.034342982
0.0405999 -0.009438708 0.009351673 -0.019866303 2.7016458e-05 0.01734168 -0.02842394 -0.0020082442
-0.024582526 0.018309059 0.024271075 0.013333974 -0.005357969 -0.010112658 -0.026733145 0.008423744
-0.015085869 -0.0019235737 -0.012217384 0.007719546 0.045419198 -0.010886958 -0.0051422855 -0.0042279526
-0.039416384 -0.02577742 -0.012937212 -0.0017840703 -0.013889288 0.009278878 -0.022857258 0.0016239589
0.027904771 -0.009455143 0.02618899 0.0007858583 0.042452745 0.031376652 -0.034063853 0.003154883
-0.0054188184 -0.011014352 -0.024060683 -0.019710656 -0.017884498 -0.019535048 -0.051831853 0.0075426963
-0.0068781627 0.05730388 0.0027979817 0.0070278123 -0.035455644 0.015119107 -0.036511354 -0.03330199
-0.0029523275 0.021878982 -0.026743386 -0.021340918 -0.0013350638 -0.012873349 -0.009446016 -0.02173666
-0.010334531 0.0097988015 -0.006432366 0.00022391032 0.028981848 0.028994406 -0.021210058 0.0025761165
-0.014609346 -0.006414998 0.030892957 -0.053986512 -0.018623672 0.038115066 0.034023207 0.012000074
0.03101429 0.029317984 0.0032004255 0.020690054 -0.008916825 -0.023104694 -0.003013774 -0.028075641
0.018029125 -0.018271508 -0.0035442237 0.012239403 -0.0042409007 -0.017814575 -0.0035368535 0.022727871
-0.053185023 -0.0062769763 -0.045797355 -0.0025006367 0.008308732 0.007939768 -0.0099568665 0.003162592
0.023445364 -0.017039139 -0.003569325 -0.027819518 0.019115344 0.010449937 0.01980705 0.014423246
0.021864222 0.009476893 -0.000105161904 0.018890852 -0.004187154 0.043173507 -0.0054815253 -0.033228412
-0.01011753 -0.013783454 -0.007796057 0.004893937 -0.0365968 -0.020210141 -0.002938932 -0.016690038
-0.020107694 -0.014557676 0.022083517 0.04102545 0.0027894897 0.051384572 -0.015322304 -0.05173686
0.014426354 0.019301547 0.025435995 0.024950732 -0.007905362 -0.025147883 0.009381254 -0.019255692
0.06300643 -0.004879882 -0.0059776697 -0.019547135 -0.0015690298 -0.011105758 -0.014864368 5.8755915e-05
0.0021176224 0.012289179 -0.0066523864 -0.035978306 -0.012746017 -0.0039269486 0.0064136013 -0.015160993
-0.029920556 -0.0040245266 0.018431826 -0.001309814 0.010403388 -0.027427237 -0.035628434 -0.029145127
-0.002646418 -0.036595073 0.012391398 -0.010023813 0.03632923 -0.023370236 -0.008021671 0.005715645
-0.020649675 -0.015345045 -0.03619254 -0.015760187 -0.021704804 0.013230895 -0.01788596 0.016915157

network.2.bias f4 [27]
00000000: a813 823d 8a40 603d 7e55 7c3c 4d7a ec3b
00000010: 6ea4 803b 0a5b 713d 6406 763d 175c 73bc
00000020: 051c 243d c6e5 803d 9915 843c acf1 373d
00000030: cff2 333c 2e68 803d be21 163d b033 163d
00000040: 26ac 7e3c 5dc3 0a3d 58b8 d7bc bcf0 213d
00000050: 4eee 773d fbfd 913c a4ea 123d 9e5a 4c3a
00000060: 9bf1 823b 20df 6e3d 87d3 9a3c
0.063514054 0.05474905 0.015401242 0.007216728 0.0039258515 0.058924712 0.06006469 -0.014853499
0.040065784 0.06293826 0.01612358 0.04490821 0.010983183 0.06269871 0.036653273 0.036670387
0.015543973 0.03387772 -0.02633302 0.039536223 0.06053 0.017821303 0.035868302 0.00077954854
0.003996087 0.058318257 0.018899692
