code/experiments/first_runs/ac/36/models/1.pth (torch, 108435 bytes, 4 tensors)

network.0.weight f4 [512, 24]
0.06112951 -0.099191524 -0.13362494 -0.007839343 -0.10971598 0.17226642 -0.114624485 0.1666557
0.032194216 -0.09965524 0.055619773 -0.07757743 -0.08667152 0.15421852 0.12478949 0.056725457
0.12161244 0.10440594 -0.03782182 0.053266004 0.13428259 0.21263233 0.008786609 -0.02711617
-0.143109 -0.21074869 0.02928753 0.15422891 -0.15633908 0.029064598 -0.06442077 -0.033059083
-0.11560425 -0.14570187 -0.02609292 -0.12225807 -0.021894423 0.03891304 -0.17098714 -0.034458682
0.17430292 0.07875439 -0.026530104 0.08957169 0.17100747 -0.11264002 0.18187469 -0.17697313
0.12376711 -0.21891484 0.02339334 -0.15005629 0.16221821 0.029419664 0.09794335 0.16681792
-0.005292012 0.16205047 -0.10311403 -0.14280848 0.16987051 0.04988003 -0.054156486 0.037014186
-0.004707435 0.17702933 -0.042784184 0.14556344 0.11425711 -0.119618356 0.0037626363 0.07249435
-0.11606563 0.17552039 -0.20279194 0.1615577 -0.12037446 0.070050515 0.14500463 0.05304623
-0.12560035 0.11552223 -0.18502852 -0.19633009 0.09593278 -0.020619456 -0.11588015 -0.17258056
-0.16166052 -0.09484076 -0.20317507 -0.052417085 -0.12224241 0.045856185 -0.08772247 -0.122852236
-0.1787797 0.055556174 -0.04016094 0.17506978 -0.14929104 0.007159755 -0.06619269 0.123676464
-0.1900102 0.08069198 -0.10898489 -0.13114637 -0.15965083 -0.031306602 0.1462483 -0.16939947
0.16388296 0.097217225 -0.035011407 0.20691036 0.018100249 -0.015588249 0.14276128 0.121492736
-0.12049702 -0.012093127 0.0070923176 -0.029882282 -0.11750532 -0.15618302 -0.1380748 -0.20641957
-0.009798596 -0.18470675 0.048676096 -0.14080204 0.13428831 -0.11755656 -0.11737617 0.067864046
0.06144336 0.09864928 -0.24691325 -0.19194697 0.0351181 0.022187388 0.23440495 0.06237385
0.12896189 -0.17995244 0.09861861 -0.15720251 0.18272683 -0.046883143 0.13659811 -0.013978433
-0.14951654 0.0016142074 -0.11645665 0.07797342 0.19426748 -0.11116924 -0.17624997 0.12423963
-0.088287935 0.19384114 0.09476237 -0.13535738 0.17194352 -0.19766545 0.008485797 -0.2019232
0.030303504 0.101931795 0.047595743 -0.04606242 0.054143626 0.04828683 -0.09650209 -0.038425386
0.07911669 0.22590765 0.13235319 0.12633254 0.033103086 -0.045267787 0.16128115 0.07229193
-0.020810895 -0.13047022 -0.11092322 0.03788267 0.02731805 -0.00355768 0.060438644 -0.027737042
-0.15791608 -0.055490322 0.024269462 0.16065663 0.007935235 -0.043661226 0.13270462 -0.102330446
-0.09690362 -0.091846555 -0.17677772 -0.08553316 -0.10120278 0.028065162 0.036835536 0.08032278
0.102799706 -0.14266525 -0.19266899 -0.048356894 0.013765716 -0.095254876 0.09386763 -0.051104173
-0.17073537 -0.09682771 -0.13584562 0.006528968 -0.07682484 -0.014710828 -0.055463508 0.10754758
-0.036784 0.13128848 0.02578948 0.0036775924 -0.11537031 -0.085750245 -0.20524652 -0.00956775
-0.05068262 -0.114497244 -0.05704103 -0.017090369 -0.014147333 0.1711695 -0.19560868 0.17611243
0.025188215 -0.18127254 0.02392181 -0.09246899 0.14600927 0.13838932 0.13749738 0.15085281
0.19467236 -0.2064165 0.037248496 -0.073392555 0.12965149 0.13840996 0.08479024 0.10893495
00000000: f062 7a3d ed24 cbbd fad4 08be 9670 00bc
00000010: c6b2 e0bd 9c66 303e 3ec0 eabd cba7 2a3e
00000020: 15de 033d 0c18 ccbd 8fd1 633d eae0 9ebd
00000030: d680 b1bd 76eb 1d3e a291 ff3d f458 683d
00000040: f10f f93d c8d2 d53d 0deb 1abd 742d 5a3d
00000050: 6081 093e 4abc 593e b6f5 0f3c bb22 debc
00000060: 2a8b 12be 81ce 57be 67ec ef3c 2fee 1d3e
00000070: 5a17 20be e118 ee3c 09ef 83bd f668 07bd
00000080: ecc1 ecbd df32 15be d2c0 d5bc 7062 fabd
00000090: ef5b b3bc 4863 1f3d 4117 2fbe 8c24 0dbd
000000a0: 777c 323e fb49 a13d a955 d9bc 5d71 b73d
000000b0: 951c 2f3e d0af e6bd 5c3d 3a3e 7238 35be
000000c0: 9c79 fd3d 362b 60be 64a3 bf3c 5ba8 19be
000000d0: 881c 263e 8201 f13c 8696 c83d 51d2 2a3e
000000e0: 9d68 adbb 8ff0 253e 732d d3bd 633c 12be
000000f0: 89f2 2d3e 014f 4c3d 31d3 5dbd 309c 173d
00000100: d440 9abb 2d47 353e 783e 2fbd 950e 153e
00000110: a2ff e93d 78fa f4bd 9096 763b eb77 943d
00000120: d1b3 edbd 9ebb 333e b1a8 4fbe 626f 253e
00000130: e386 f6bd a576 8f3d 187c 143e 0147 593d
00000140: 619d 00be eb96 ec3d 1e78 3dbe c10a 49be
00000150: 6878 c43d 22ea a8bc 9252 edbd f5b8 30be
00000160: 568a 25be df3b c2bd 200d 50be 4cb3 56bd
00000170: 3b5a fabd b2d3 3b3d d7a7 b3bd f499 fbbd
00000180: 0712 37be df8e 633d cc7f 24bd 7e45 333e
00000190: c0df 18be 619c ea3b 0890 87bd 164a fd3d
000001a0: 0992 42be d641 a53d 7833 dfbd 3c4b 06be
000001b0: 827b 23be 5a3b 00bd 1dc2 153e 0e77 2dbe
000001c0: efd0 273e d319 c73d 1f68 0fbd 4fe0 533e
000001d0: f946 943c db65 7fbc 0330 123e 2fd1 f83d
000001e0: 24c7 f6bd 4022 46bc ac66 e83b b0cb f4bc
000001f0: a1a6 f0bd 71ee 1fbe 7b63 0dbe a75f 53be
00000200: 4a8a 20bc c423 3dbe 9660 473d 692e 10be
00000210: e082 093e 7ec1 f0bd eb62 f0bd 4efc 8a3d
00000220: 08ac 7b3d a208 ca3d d4d6 7cbe bf8d 44be
00000230: ffd7 0f3d 53c2 b53c da07 703e b97b 7f3d
00000240: 960e 043e 7445 38be 8ef8 c93d b2f9 20be
00000250: be1c 3b3e 8a08 40bd 60e0 0b3e cc05 65bc
00000260: dd1a 19be d093 d33a d380 eebd 87b0 9f3d
00000270: 0eee 463e b3ac e3bd df7a 34be 5971 fe3d
00000280: 4ed0 b4bd 4b7e 463e c612 c23d 209b 0abe
00000290: f611 303e d068 4abe 0308 0b3c f5c4 4ebe
000002a0: 0e3f f83c 9ec1 d03d c1f3 423d f3ab 3cbd
000002b0: b5c5 5d3d 69c8 453d e3a2 c5bd f063 1dbd
000002c0: ee07 a23d 5654 673e 9887 073e 515d 013e
000002d0: 1a97 073d b76a 39bd e326 253e cb0d 943d
000002e0: 9c7b aabc fc99 05be b72b e3bd dc2a 1b3d
000002f0: 1aca df3c f727 69bb 838e 773d cb38 e3bc
00000300: c1b4 21be d249 63bd c0d0 c63c 2c83 243e
00000310: ca02 023c 1dd6 32bd b8e3 073e a092 d1bd
00000320: 6875 c6bd 0c1a bcbd 3805 35be 022c afbd
00000330: 6743 cfbd e9e8 e53c dce0 163d 4580 a43d
00000340: a788 d23d d716 12be 054b 45be e111 46bd
00000350: 9989 613c fd14 c3bd ac3d c03d 9c52 51bd
00000360: 41d5 2ebe 9b4d c6bd 1d1b 0bbe f4f0 d53b
00000370: 5756 9dbd af05 71bc b42d 63bd e841 dc3d
00000380: d2aa 16bd 7d70 063e 7644 d33c c303 713b
00000390: 4547 ecbd d39d afbd 252c 52be 0dc2 1cbc
000003a0: 9498 4fbd 887d eabd dba3 69bd 1a01 8cbc
000003b0: 37ca 67bc 0f47 2f3e a44d 48be d156 343e
000003c0: 8457 ce3c 829f 39be acf7 c33c 6260 bdbd
000003d0: 7483 153e eeb5 0d3e 1dcc 0c3e 2979 1a3e
000003e0: 3158 473e d95e 53be e191 183d d64e 96bd
000003f0: 5cc3 043e 57bb 0d3e 81a6 ad3d 4919 df3d

network.0.bias f4 [512]
0.17458616 0.18491518 -0.14183253 -0.068069465 0.04099097 0.24225241 -0.022354037 -0.0396282
-0.04495291 0.03799256 0.06803292 0.0755597 0.15487199 -0.19268072 -0.007259241 0.14936817
0.17759198 -0.08957035 0.14848687 -0.013565397 0.06753221 -0.04683485 0.1104889 -0.08015131
0.0054982305 -0.14567187 0.011220831 -0.072923705 -0.100126244 -0.15689866 0.0954678 -0.09514143
-0.20621644 0.029622829 -0.14045501 -0.11341136 -0.120255925 0.07163139 0.17212214 0.27133596
-0.0437696 -0.05378467 0.09085095 0.13876753 -0.13277309 -0.12378133 -0.030113254 0.033514738
0.19372931 -0.05020228 -0.12809294 0.00042135105 0.027776277 -0.1974327 -0.031123016 0.069623575
0.11896923 0.031914324 0.12160097 0.011197807 -0.12673347 0.17583011 0.21928726 -0.23174372
0.16337104 -0.0677121 0.10892804 -0.115050815 -0.06710105 0.004562952 -0.11445602 -0.11217063
-0.0994875 0.03677251 -0.022815268 0.20430283 -0.08060155 -0.14075716 -0.11714347 -0.05743485
-0.07165878 0.15465122 0.092006855 -0.11765351 0.17431341 -0.06413856 0.16140392 -0.07633897
-0.08193279 -0.15002418 -0.024931692 -0.17970608 0.04466406 0.14344245 0.14499958 0.18279687
-0.1243966 -0.018546736 0.15545785 0.0713486 -0.12861417 0.031060515 -0.01235565 0.1757415
0.10707919 0.19596073 0.121399686 0.2219974 -0.068239965 0.12010479 -0.06386035 0.25839946
-0.001661291 -0.07340072 0.14569615 0.061953153 0.0053773187 0.05776151 -0.036924597 0.111609586
-0.037995216 -0.035442248 -0.1174761 0.055470027 0.047230057 0.101255566 -0.14695966 0.26390374
-0.0724139 0.19652802 0.007856128 -0.0857672 -0.10803435 -0.1576218 0.21082628 -0.17011122
-0.012792715 -0.09494325 -0.17607267 -0.178898 -0.109662086 -0.13194464 0.14012474 -0.093021
-0.10517144 0.027785942 0.24217173 0.044102006 -0.11976641 -0.08171896 -0.006979804 -0.075940065
-0.13692655 0.021628376 0.03711178 0.089669645 0.18144342 0.2512975 -0.110288665 0.11415647
-0.026861103 -0.027188042 -0.16744713 -0.10599741 0.16826801 0.006451746 -0.16607818 -0.09698362
-0.03799399 0.24476007 0.2464391 0.15378377 -0.16921347 -0.18856664 -0.012456354 0.14979018
0.015305605 -0.025314178 0.20497364 -0.15202795 -0.04036388 -0.040001135 0.11149786 -0.09275761
-0.024875222 0.12640357 0.17013879 0.23706809 0.19814456 -0.10863879 0.07134954 0.21739626
0.12391253 -0.0067914827 -0.007352767 0.06514436 0.009466064 0.0020676916 -0.1546321 -0.11149318
0.17270647 0.2159711 -0.098766 0.25176927 0.1460242 -0.033169243 0.20279779 0.20078252
-0.1353435 -0.074881166 -0.026621537 -0.19090447 -0.137225 0.08658662 0.076846205 0.1603819
-0.13464142 -0.11466096 0.14318638 0.20828378 0.11383827 0.17213705 0.2645852 -0.1614137
-0.07656418 0.093103416 -0.065590076 -0.051069245 0.10217595 -0.10469909 0.011399586 -0.035512898
0.23388343 -0.032132823 0.0346935 -0.06797391 -0.055229586 0.29341668 0.04126749 -0.12898156
-0.04661008 0.16931921 0.15414333 -0.023056317 -0.17276691 0.18483685 -0.06192003 0.10931627
0.05744242 0.09519839 0.14558497 0.15999836 0.12766074 0.18559518 0.079040654 0.18636297
00000000: b7c6 323e 685a 3d3e 8c3c 11be 0168 8bbd
00000010: 26e6 273d 0411 783e d01f b7bc 2e51 22bd
00000020: 8b20 38bd 169e 1b3d d854 8b3d 0bbf 9a3d
00000030: c396 1e3e 184e 45be edde edbb f8f3 183e
00000040: acda 353e a970 b7bd f10c 183e 6641 5ebc
00000050: 544e 8a3d e6d5 3fbd 0148 e23d 5f26 a4bd
00000060: 802a b43b 022b 15be 94d7 373c 0659 95bd
00000070: fd0e cdbd 0baa 20be 9f84 c33d 83d9 c2bd
00000080: 672a 53be 93ab f23c 70d3 0fbe 3744 e8bd
00000090: bd48 f6bd 7ab3 923d c940 303e 8cec 8a3e
000000a0: c147 33bd 504d 5cbd 1010 ba3d 1319 0e3e
000000b0: abf5 07be 1181 fdbd 12b0 f6bc c046 093d
000000c0: fa60 463e e8a0 4dbd cc2a 03be c8e8 dc39
000000d0: 138b e33c cc2b 4abe b2f5 febc ce96 8e3d
000000e0: 24a6 f33d 98b8 023d ee09 f93d 0277 373c
000000f0: 6bc6 01be cf0c 343e d78c 603e 3a4e 6dbe
00000100: bd4a 273e a4ac 8abd aa15 df3d c39f ebbd
00000110: 466c 89bd d184 953b eb67 eabd b7b9 e5bd
00000120: 1ac0 cbbd c59e 163d 16e7 babc c334 513e
00000130: 6d12 a5bd a522 10be eae8 efbd ce40 6bbd
00000140: d7c1 92bd e45c 1e3e 176e bc3d 53f4 f0bd
00000150: 377f 323e 145b 83bd 1247 253e 9b57 9cbd
00000160: 61cc a7bd f09f 19be 8c3d ccbc df04 38be
00000170: a9f1 363d 94e2 123e c57a 143e 1a2f 3b3e
00000180: a5c3 febd 53ef 97bc 5830 1f3e 371f 923d
00000190: 6fb3 03be 9f72 fe3c 5a6f 4abc 94f5 333e
000001a0: 564c db3d eea9 483e 66a0 f83d 4953 633e
000001b0: 65c1 8bbd 80f9 f53d 37c9 82bd ef4c 843e
000001c0: adbf d9ba 1e53 96bd 5f31 153e 97c2 7d3d
000001d0: 3834 b03b 5597 6c3d 3f3e 17bd 9193 e43d
000001e0: dfa0 1bbd e42b 11bd 4f97 f0bd 8a34 633d
000001f0: 4e74 413d 145f cf3d 987c 16be 641e 873e
00000200: bd4d 94bd a43e 493e fdb6 003c b7a6 afbd
00000210: 1d41 ddbd 9c67 21be d8e2 573e a331 2ebe
00000220: 8998 51bc 9b71 c2bd 654c 34be 0a31 37be
00000230: 8496 e0bd 7f1c 07be dc7c 0f3e cb81 bebd
00000240: 2064 d7bd 589f e33c defb 773e 4ea4 343d
00000250: 1748 f5bd 455c a7bd d7b6 e4bb 7786 9bbd
00000260: 7936 0cbe fe2d b13c 8602 183d b8a4 b73d
00000270: 4ecc 393e 11aa 803e 06df e1bd deca e93d
00000280: d10b dcbc 75b9 debc 4377 2bbe 2c15 d9bd
00000290: 734e 2c3e 2b69 d33b 6610 2abe 599f c6bd
000002a0: 969f 1bbd 62a2 7a3e 885a 7c3e 7e79 1d3e
000002b0: 4c46 2dbe 9d17 41be bc15 4cbc 9962 193e
000002c0: 5cc4 7a3c ae5f cfbc 9ce4 513e 37ad 1bbe
000002d0: 9954 25bd 3bd8 23bd fd58 e43d b4f7 bdbd
000002e0: 1fc7 cbbc f06f 013e dd38 2e3e fac1 723e
000002f0: 68e6 4a3e 047e debd b51f 923d 209d 5e3e
00000300: dac5 fd3d 168b debb 7bef f0bb 686a 853d
00000310: 8d17 1b3c 1c82 073b e157 1ebe 8956 e4bd
00000320: f7d9 303e 8727 5d3e d445 cabd e7e7 803e
00000330: 5e87 153e 79dc 07bd 39aa 4f3e ef99 4d3e
00000340: 7d97 0abe 4c5b 99bd 6915 dabc 767c 43be
00000350: b684 0cbe 5354 b13d 8b61 9d3d 273b 243e
00000360: 71df 09be 5ed3 eabd 739f 123e 5848 553e
00000370: 0a24 e93d b244 303e b677 873e a249 25be
00000380: aecd 9cbd 01ad be3d 1754 86bd fc2d 51bd
00000390: a041 d13d 7a6c d6bd 54c5 3a3c f975 11bd
000003a0: 237f 6f3e b59d 03bd c51a 0e3d e835 8bbd
000003b0: 6b38 62bd b63a 963e 1908 293d be13 04be
000003c0: 36ea 3ebd 0462 2d3e c0d7 1d3e 9ae0 bcbc
000003d0: cfe9 30be df45 3d3e db9f 7dbd 35e1 df3d
000003e0: be48 6b3d 60f7 c23d 3a14 153e 9cd6 233e
000003f0: 7fb9 023e aa0c 3e3e 11e0 a13d efd5 3e3e

network.2.weight f4 [27, 512]
0.037700668 0.00012791029 -0.0514276 -0.011756247 0.038370274 0.017363984 0.009562219 -0.051458206
0.029437805 -0.006399914 -0.024855584 0.015132714 -0.0007394772 -0.015290942 -0.018621909 -0.006342293
-0.011090525 0.014277219 0.0071857846 0.016992357 0.032760583 -0.027182419 0.03430628 -0.029200671
-0.0103003215 -0.010775686 0.0139915235 0.010446965 -0.036586512 -0.008852925 0.022585604 0.011531523
-0.03253116 0.007685109 -0.013631053 0.038277876 -0.0155824525 -0.004752098 0.055663567 0.0054180087
-0.016310027 0.027683714 -0.007279829 -0.0033873725 0.001973773 0.002080607 0.010123655 0.025409179
-0.0011500044 0.017572923 0.0042909957 -0.06787999 0.054437794 -0.054491907 -0.030108724 0.0035086365
0.026006853 -0.0072292583 -0.03907577 0.027906755 0.0044243056 0.023459079 0.02050189 -0.053605825
0.003940108 -0.005858275 -0.007228681 0.0051788567 0.010948622 0.004938992 0.015149682 -0.015086405
-0.014997283 0.006109868 -0.00334711 0.05365929 0.019554524 0.058718055 -0.00625396 0.02826504
0.03695761 0.029878333 -0.023517625 0.010487595 0.012693973 -0.025883842 0.029572196 0.006791091
-0.010526165 0.015278008 -0.034404077 0.0039692624 0.032068636 -0.012796796 -0.016318977 0.03149538
-0.0055265925 0.0027396714 8.566425e-05 0.015556845 -0.011444153 0.042338748 0.032728728 0.004774968
0.015362772 0.040426914 0.026317146 0.05098029 0.0110755 -0.009343229 -0.026698172 0.053117007
0.005771238 -0.018033959 0.03461502 0.014832623 -0.03189754 -0.00053819356 -0.023423716 -0.028018827
0.037215397 0.0051768213 -0.02661962 0.015242534 -0.02253707 -0.0044766306 0.041059226 0.026089396
0.013647401 0.0031279474 -0.008724053 0.0048428313 -0.02010431 -0.023262423 0.057194207 -0.010932458
0.014557009 -0.041965242 -0.00897312 -0.0021260506 -0.020618616 -0.047082234 -0.004189676 0.019927764
0.028389473 0.027980557 0.0131979 -0.0049370374 -0.041269433 -0.0057869614 -0.0019837706 -0.0137814935
0.008072796 0.014611023 0.02845032 -0.02093664 0.03735534 -0.0049510435 0.011911448 0.01607263
-0.011556658 0.012700502 -0.0043183593 0.007939445 0.04216585 0.032243382 0.049328137 -0.010137825
-0.020427568 0.018029265 0.06546854 -0.019566111 0.041064408 0.02270186 -0.04623626 -0.0043667047
-0.03872941 0.020338912 0.033212982 -0.056071855 -0.033775687 0.032107666 -0.003432058 -0.021856867
-0.029993031 0.003380746 0.024413735 -0.0024985468 0.044948466 -0.003294573 -0.016801508 0.03866957
0.020380609 -0.017924413 0.025120778 0.0148657765 -0.015572554 0.011163736 -0.035261873 0.0069616013
0.02351769 -0.014283161 0.016697349 0.03567549 -0.01621358 -0.003063471 -0.024261085 0.043359775
-0.014765818 -0.003552486 0.014204507 -0.021284858 -0.0219359 -0.026566476 0.050001886 -0.025990246
-0.013899368 0.00011958618 -0.0051325113 0.010793121 0.027848098 0.0020800813 0.051645447 0.020453049
-0.031874593 0.057147328 -0.038629305 0.00034612213 -0.011988549 -0.0062583233 -0.019461961 0.015321334
0.041328665 0.011759788 0.0066963118 -0.0012084547 0.016188188 0.07243366 0.017877255 0.034724217
-0.026917217 0.0016202001 0.028763158 -0.014202466 -0.021254078 -0.022764167 -0.016957097 0.034728736
0.04028689 0.008937947 0.045897946 -0.0051222392 0.03836261 -0.0012128118 -0.011526864 0.020261338
00000000: 046c 1a3d a81f 0639 bfa5 52bd 469d 40bc
00000010: 262a 1d3d ea3e 8e3c daaa 1c3c d7c5 52bd
00000020: 8d27 f13c 5fb6 d1bb f09d cbbc 34ef 773c
00000030: 7ad9 41ba dc86 7abc f98c 98bc 03d3 cfbb
00000040: 09b5 35bc ffea 693c bb76 eb3b 8e33 8b3c
00000050: f62f 063d aaad debc be84 0c3d 3f36 efbc
00000060: aec2 28bc 818c 30bc b43c 653c bf29 2b3c
00000070: bddb 15bd dc0b 11bc 7205 b93c b7ee 3c3c
00000080: 653f 05bd 5ed3 fb3b c854 5fbc 43c9 1c3d
00000090: 8b4d 7fbc 7db7 9bbb 7bff 633d 8d89 b13b
000000a0: 9b9c 85bc f5c8 e23c a28b eebb aefe 5dbb
000000b0: 6a5a 013b cb5a 083b b0dd 253c e926 d03c
000000c0: bfbb 96ba 17f5 8f3c 7b9b 8c3b aa04 8bbd
000000d0: 2afa 5e3d e832 5fbd 92a6 f6bc 27f1 653b
000000e0: 530c d53c 6ae3 ecbb ea0d 20bd b59c e43c
000000f0: c4f9 903b 412d c03c 94f3 a73c c891 5bbd
00000100: 061c 813b c6f6 bfbb 92de ecbb 66b3 a93b
00000110: d961 333c 45d7 a13b 5f36 783c f82c 77bc
00000120: 2ab7 75bc 4a35 c83b 305b 5bbb d8c9 5b3d
00000130: cf30 a03c 5882 703d 05ee ccbb 168c e73c
00000140: dd60 173d 68c3 f43c 09a8 c0bc 29d4 2b3c
00000150: 62fa 4f3c 5a0a d4bc 6441 f23c cd87 de3b
00000160: f075 2cbc 9c50 7a3c 4aeb 0cbd 9610 823b
00000170: 675a 033d a7a9 51bc 60af 85bc 4d01 013d
00000180: 6b18 b5bb 0f8c 333b a5a6 b338 23e2 7e3c
00000190: 4280 3bbc 656b 2d3d 8f0e 063d 5677 9c3b
000001a0: 23b4 7b3c b196 253d 0e97 d73c b5d0 503d
000001b0: 0476 353c 5814 19bc 20b6 dabc 3891 593d
000001c0: a71c bd3b f4bb 93bc 7bc8 0d3d 8804 733c
000001d0: ffa6 02bd 8f15 0dba 18e3 bfbc bd87 e5bc
000001e0: 2c6f 183d 53a2 a93b 6411 dabc d2bb 793c
000001f0: a99f b8bc b3b0 92bb b82d 283d 6eb9 d53c
00000200: 5999 5f3c 40fe 4c3b 55ef 0ebc 9db0 9e3b
00000210: cbb1 a4bc d690 bebc 7944 6a3d 0d1e 33bc
00000220: 8580 6e3c bfe3 2bbd fe03 13bc 3655 0bbb
00000230: 5fe8 a8bc 4dd9 40bd 8d49 89bb 8d3f a33c
00000240: 0a91 e83c 7b37 e53c 013c 583c dfc6 a1bb
00000250: 230a 29bd 8da0 bdbb 2602 02bb c6cb 61bc
00000260: c343 043c 1263 6f3c a510 e93c 5183 abbc
00000270: ea01 193d 5d3c a2bb 3c28 433c c0aa 833c
00000280: 2358 3dbc c415 503c 0681 8dbb 7214 023c
00000290: 19b6 2c3d a311 043d 4d0c 4a3d 1f19 26bc
000002a0: b757 a7bc 1cb2 933c 5f14 863d 1c49 a0bc
000002b0: 2733 283d 40f9 b93c 3c62 3dbd 9316 8fbb
000002c0: bba2 1ebd ca9d a63c 560a 083d 9aab 65bd
000002d0: 6058 0abd 5483 033d 61ec 60bb 2c0d b3bc
000002e0: f2b3 f5bc 828f 5d3b 50ff c73c a9be 23bb
000002f0: e21b 383d c3e9 57bb 51a3 89bc fc63 1e3d
00000300: 3cf5 a63c 38d6 92bc 17ca cd3c 968f 733c
00000310: 0724 7fbc 1ae8 363c c16e 10bd 251e e43b
00000320: 2ca8 c03c eb03 6abc e1c8 883c 7620 123d
00000330: 57d2 84bc 84c4 48bb 2fbf c6bc 059a 313d
00000340: 54ec 71bc d3d0 68bb 05ba 683c 955d aebc
00000350: ebb2 b3bc f0a1 d9bc c7ce 4c3d 7fe9 d4bc
00000360: 2dba 63bc 57ca fa38 a02e a8bb a1d5 303c
00000370: b221 e43c f951 083b 2d8a 533d 278d a73c
00000380: ef8e 02bd 5113 6a3d c339 1ebd ba77 b539
00000390: 9e6b 44bc 9f12 cdbb b16e 9fbc 5506 7b3c
000003a0: 3f48 293d 20ac 403c bc6c db3b 0365 9eba
000003b0: 179d 843c 1958 943d 5273 923c fb3a 0e3d
000003c0: 7f81 dcbc e55c d43a b7a0 eb3c 76b1 68bc
000003d0: 081d aebc eb7b babc 9ce9 8abc b83f 0e3d
000003e0: de03 253d 7870 123c 7cff 3b3d 75d8 a7bb
000003f0: 1d22 1d3d 36f7 9eba 2cdb 3cbc 1bfb a53c

network.2.bias f4 [27]
0.035707343 0.027909705 0.06695655 0.031376794 0.0797782 0.018695187 -0.000811909 0.0514303
0.033274285 0.044731427 -0.0017799288 0.07009344 0.015811171 0.074301496 0.033597738 0.04382174
-0.011113868 0.016008992 0.05054143 0.036977828 -0.005545415 -0.0046871253 0.005550389 0.03587266
0.022950845 0.056516122 0.03928977
00000000: dd41 123d e5a2 e43c 8420 893d f484 003d
00000010: c162 a33d a626 993c 4ad6 54ba 94a8 523d
00000020: 9e4a 083d 4d38 373d 804c e9ba 268d 8f3d
00000030: 6e86 813c 622b 983d c89d 093d 6d7e 333d
00000040: f116 36bc 4a25 833c 8804 4f3d 1076 173d
00000050: 50b6 b5bb 7596 99bb 0ae0 b53b 36ef 123d
00000060: 6903 bc3c 737d 673d 4fee 203d
