code/experiments/old/ac/3/models/1.pth (torch, 55187 bytes, 4 tensors)

network.0.weight f4 [256, 24]
-0.09669546 -0.07751798 -0.03481686 0.052742723 0.044118 0.06501669 0.099140465 -0.10503569
0.016533596 0.10453417 -0.22855653 0.06876509 -0.06212089 -0.047968574 0.05959164 -0.084994614
0.071561545 0.0230637 0.47890562 0.07668777 0.27835664 -0.6451252 0.065813735 -0.07408239
-0.071282774 0.038916495 0.11648826 -0.08986673 0.10131815 -0.07766388 0.07767662 -0.09047887
0.19787627 -0.107577756 -0.17709136 0.046662617 0.038170066 -0.17125149 0.013378298 -0.052428197
-0.08735996 -0.0151926605 -0.18490416 -0.13126932 -0.01624415 -0.3269087 -0.010624668 0.083952904
0.0071429764 0.007376573 0.13408393 0.015638638 0.04066574 -0.08891126 -0.06403353 -0.09238515
-0.15298598 -0.025810871 0.040305246 -0.13369195 -0.0019907043 -0.07700222 -0.07957275 -0.018812012
0.15776597 -0.01797892 0.041614268 0.37518123 -0.073016174 0.07829994 0.24653496 0.13771759
-0.14435048 -0.06444028 0.06926192 0.15131931 0.12666428 -0.09836664 0.04576369 -0.07159523
-0.118363194 -0.042050146 0.23547752 0.05765962 0.19924709 -0.089467384 -0.22377177 -0.025634818
-0.098979704 -0.08483022 0.19597004 -0.0063716862 -0.047899112 -0.20748882 -0.10644587 0.021188583
0.13597377 -0.080431275 0.07052719 0.10956659 -0.006687535 0.10622308 0.12934895 0.017825626
0.13481377 -0.021535398 0.118646055 0.01675722 -0.11617547 -0.109216556 0.1005311 -0.056081317
0.041581377 -0.08001158 -0.018236004 0.2965995 0.15084411 -0.013089149 0.06539356 0.091166
-0.041645862 -0.17616223 -0.09404773 0.06790368 -0.026512243 0.13921961 0.022445103 0.12910396
-0.078212716 0.10786243 0.06505972 0.14225747 -0.022997756 0.0075572194 0.09622898 -0.08584033
0.07826374 -0.05724437 -0.039306715 0.090802774 0.17337963 -0.11624696 -0.05751518 0.23168144
0.084514864 -0.13682841 0.07524705 0.0047496175 -0.043065842 0.023881715 0.028039087 0.13627587
0.023727024 0.16956416 -0.009129569 0.015243161 0.013514013 -0.03156835 -0.005162523 0.0798487
-0.016536148 -0.06393458 -0.046539288 -0.0066620233 0.07630793 0.12719654 -0.026197568 0.080406725
0.013631734 -0.15684636 -0.08519147 0.053959798 0.035525598 0.013299251 -0.07471137 -0.03722806
-0.09333756 -0.019775089 -0.119014226 0.087424025 -0.032859705 -0.007134525 0.0071147787 0.058338106
0.11034384 0.11847882 0.25069258 0.5555668 -0.03295658 -0.41510296 -0.63174474 0.030743016
-0.1435068 0.06432391 -0.104458526 0.18508776 -0.14542864 -0.055311028 -0.10691589 -0.20104341
0.19923164 0.012521642 -0.040936403 0.1403834 0.05201115 -0.009538993 -0.0017657413 -0.045855183
-0.04933029 0.15638281 -0.0830741 -0.039490532 -0.054254193 -0.31906614 0.027519044 0.0961859
-0.07125727 0.046833474 0.12297723 0.080550045 -0.10820096 -0.043878958 -0.017769583 -0.1725315
-0.07724574 0.1677405 0.012586725 -0.1688314 -0.134166 0.05983435 -0.013091722 0.07525243
0.15433912 -0.09980981 -0.0040663187 -0.09921354 0.18234065 -0.068761796 0.22146095 -0.124425575
0.07328191 0.17846106 -0.013380475 0.055331476 0.18678273 0.12668614 -0.0077210977 0.18064065
-0.17569327 -0.08673156 -0.17356427 0.066694304 -0.121194445 -0.14216053 -0.10403131 0.08232324
00000000: 4508 c6bd bfc1 9ebd 209c 0ebd c108 583d
00000010: 13b5 343d 7827 853d 280a cb3d f41c d7bd
00000020: 7771 873c 0316 d63d b90a 6abe b6d4 8c3d
00000030: 7972 7ebd b27a 44bd 5d16 743d a811 aebd
00000040: dc8e 923d 16f0 bc3c 1e33 f53e 7a0e 9d3d
00000050: c384 8e3e ed26 25bf 5ac9 863d 82b8 97bd
00000060: b4fc 91bd e766 1f3d 6691 ee3d 0c0c b8bd
00000070: e47f cf3d 3e0e 9fbd eb14 9f3d fc4c b9bd
00000080: 14a0 4a3e ba51 dcbd 7057 35be 4d21 3f3d
00000090: 3758 1c3d 8d5c 2fbe a630 5b3c f3be 56bd
000000a0: c7e9 b2bd a3ea 78bc 8457 3dbe 776b 06be
000000b0: 7412 85bc 9460 a7be 1613 2ebc 80ef ab3d
000000c0: a10f ea3b 2eb7 f13b 4c4d 093e 9a1c 803c
000000d0: 1e91 263d 1b17 b6bd 0324 83bd 6d34 bdbd
000000e0: 5ba8 1cbe 5271 d3bc 1d17 253d 8be6 08be
000000f0: 7a76 02bb 57b3 9dbd 0af7 a2bd a61b 9abc
00000100: 678d 213e 8748 93bc b973 2a3d c117 c03e
00000110: 8189 95bd b85b a03d a973 7c3e d705 0d3e
00000120: 9dd0 13be 44f9 83bd 32d9 8d3d 73f3 1a3e
00000130: 48b4 013e 7374 c9bd b572 3b3d 85a0 92bd
00000140: 6768 f2bd c63c 2cbd 0521 713e 7e2c 6c3d
00000150: 6e07 4c3e ad3a b7bd 6d24 65be 1c00 d2bc
00000160: dfb5 cabd 77bb adbd 5fac 483e 94c9 d0bb
00000170: dc31 44bd f377 54be 4b00 dabd ae93 ad3c
00000180: b53c 0b3e 27b9 a4bd 8f70 903d 7364 e03d
00000190: 1c23 dbbb 7c8b d93d 0d74 043e 0c07 923c
000001a0: 9f0c 0a3e 016b b0bc b4fc f23d 7046 893c
000001b0: 68ed edbd eeac dfbd 40e3 cd3d 86b5 65bd
000001c0: 3c51 2a3d 1cdd a3bd ac63 95bc e4db 973e
000001d0: e176 1a3e df73 56bc 0fed 853d 3db5 ba3d
000001e0: da94 2abd df63 34be 199c c0bd 1611 8b3d
000001f0: 3430 d9bc 968f 0e3e cbde b73c d433 043e
00000200: fd2d a0bd fae6 dc3d 083e 853d f1ab 113e
00000210: ca65 bcbc 8da2 f73b b313 c53d 0ecd afbd
00000220: bd48 a03d 1379 6abd 1400 21bd cef6 b93d
00000230: 6e8a 313e e312 eebd 0a95 6bbd e63d 6d3e
00000240: 2116 ad3d bf1c 0cbe 201b 9a3d aea2 9b3b
00000250: cf65 30bd 96a3 c33c 3ab2 e53c e78b 0b3e
00000260: 2d5f c23c 3aa2 2d3e 3094 15bc 73be 793c
00000270: e169 5d3c d04d 01bd 622a a9bb b787 a33d
00000280: d176 87bc 22f0 82bd fb9f 3ebd 1a4d dabb
00000290: 5547 9c3d cf3f 023e 489c d6bc 48ac a43d
000002a0: a357 5f3c 559c 20be de78 aebd f304 5d3d
000002b0: 4a83 113d 1ae5 593c 4602 99bd 737c 18bd
000002c0: c327 bfbd 5eff a1bc bbbd f3bd 5e0b b33d
000002d0: e697 06bd bcc8 e9bb 1723 e93b f0f3 6e3d
000002e0: f4fb e13d 06a5 f23d c75a 803e a039 0e3f
000002f0: 7bfd 06bd 6088 d4be 06ba 21bf c7d8 fb3c
00000300: 72f3 12be 41bc 833d 5aee d5bd a587 3d3e
00000310: 3feb 14be d18d 62bd b8f6 dabd 53de 4dbe
00000320: 6103 4c3e 9327 4d3c eeac 27bd aac0 0f3e
00000330: a509 553d 7049 1cbc 7270 e7ba a5d2 3bbd
00000340: 8f0e 4abd d122 203e c122 aabd d3c0 21bd
00000350: a539 5ebd a35c a3be 9e6f e13c 1dfd c43d
00000360: 55ef 91bd 75d4 3f3d 7cdb fb3d 6cf7 a43d
00000370: 7798 ddbd 6cba 33bd 8491 91bc 19ac 30be
00000380: 0433 9ebd 2ac4 2b3e 8d38 4e3c 23e2 2cbe
00000390: d062 09be dd14 753d a97e 56bc f21d 9a3d
000003a0: 130b 1e3e 1669 ccbd c13e 85bb 7830 cbbd
000003b0: 82b7 3a3e fcd2 8cbd a9c6 623e d6d2 febd
000003c0: d314 963d 7fbe 363e c839 5bbc 42a3 623d
000003d0: f943 3f3e 03ba 013e 4301 fdbb ddf9 383e
000003e0: f0e8 33be 51a0 b1bd d5ba 31be 0697 883d
000003f0: cb34 f8bd 8892 11be 5e0e d5bd 1699 a83d

network.0.bias f4 [256]
-0.13468572 0.22258833 0.31847847 0.02855294 0.012653201 0.3835657 -0.07422699 0.05046433
0.15807423 -0.008406296 0.04335534 0.020639924 0.021811761 0.06648282 -0.039296612 0.2694038
-0.028141875 0.3610064 0.40719825 0.2657413 0.032138076 -0.171018 -0.13398449 0.05725923
0.26431498 -0.11490684 -0.13152999 -0.0725546 0.2846452 -0.050382294 0.38739327 -0.12494568
-0.17611203 0.060545556 0.16147022 0.14375247 0.1487476 -0.074622214 0.117525734 0.36781812
-0.20357636 -0.12125703 -0.1798894 0.049280267 0.42293 -0.14531381 0.009767777 0.35533044
0.2782971 0.022906858 0.3349145 0.2306195 -0.10399291 0.08750926 -0.19939657 0.16940056
0.15350924 0.20559025 0.22929366 0.14277458 0.025778811 0.2771647 0.09245459 0.0044687274
-0.09976643 0.37697086 0.22146355 0.33044168 -0.22931413 0.011822821 -0.018213568 -0.14945859
-0.08426834 0.35670036 0.07914884 -0.211951 0.1839537 -0.009082865 0.2977696 0.065370396
0.43849233 0.21756914 -0.12206912 0.44273615 -0.20582204 -0.13203657 -0.1382789 0.23655885
-0.21449901 0.22874737 0.27139467 0.30361566 -0.16582786 0.1046919 -0.081316054 0.039112754
0.314243 0.010977582 -0.13298786 0.10590321 -0.040962502 0.13483484 0.26648772 0.082355
0.50820583 -0.22211222 -0.075984314 0.18081652 0.39490038 -0.12708956 0.10638896 0.1588499
0.25710458 0.14131515 0.119413786 0.13734196 -0.0072873067 0.150017 0.0947868 0.16931416
-0.20781219 0.07588548 -0.19283585 0.08208691 0.110406555 0.21991223 -0.095236644 -0.020136083
0.1585696 0.023905477 0.42655903 0.040221777 0.030200422 0.19544502 0.021000575 0.22688113
-0.118732095 0.059231676 -0.1953425 0.06160437 0.24288219 -0.24861719 -0.1760285 0.08346286
0.26198307 -0.060529042 0.06470616 0.29326436 0.115985274 0.01973995 0.03582922 -0.047203682
0.36780685 -0.15155248 -0.06652224 0.28399566 -0.046730183 0.121163145 0.4165943 0.03510796
0.31310707 0.11945052 0.3855937 0.107908696 0.27756745 0.3297882 0.44936085 0.016863683
-0.12070068 0.027228074 0.07924696 -0.13576324 0.009964342 -0.017128188 0.18405373 0.28986222
0.23945299 -0.15073782 0.38358867 -0.19640414 -0.15042605 0.010112812 -0.2685163 -0.059572484
0.0116368 -0.031671498 0.35141182 -0.17235859 0.03129966 -0.078086376 0.35973516 0.3891089
0.076731026 0.054259047 0.041526143 0.074347034 -0.030241186 -0.20339715 -0.034807 -0.15887764
-0.074811764 0.03852638 -0.032262318 0.14165728 0.36644667 0.26721284 0.28164068 0.024175607
0.043595225 0.09151781 -0.18164231 0.05827747 0.39982167 -0.18778004 -0.01393791 0.056166593
-0.20256054 0.20654625 -0.077415474 0.20363975 0.14664806 -0.0117862765 0.20729822 -0.2666528
0.13283584 0.3583014 -0.09888589 0.21708585 -0.16500409 0.2874845 -0.114222035 -0.087699465
0.030521667 -0.05032612 0.012582062 -0.15693434 -0.16395234 0.1445608 0.26089835 -0.030052625
-0.14567909 0.2960769 -0.11130836 0.26098818 0.10278488 0.12070693 0.39156058 0.0496959
-0.14437972 -0.09319179 0.17920741 0.20659254 0.0713783 -0.21261156 0.05714772 0.16989325
00000000: 0eeb 09be 32ee 633e 9c0f a33e dbe7 e93c
00000010: 5f4f 4f3c b962 c43e 5204 98bd afb3 4e3d
00000020: 36de 213e 90ba 09bc 5e95 313d 0f15 a93c
00000030: 94ae b23c 2528 883d 7cf5 20bd 4bef 893e
00000040: ca89 e6bc d5d5 b83e 4a7c d03e 3e0f 883e
00000050: 37a3 033d 581f 2fbe 3b33 09be a888 6a3d
00000060: 4b54 873e 4754 ebbd ccaf 06be 8297 94bd
00000070: 04bd 913e aa5d 4ebd 6958 c63e 85e3 ffbd
00000080: b656 34be 9efe 773d 7358 253e d933 133e
00000090: 4a51 183e 88d3 98bd 55b1 f03d a852 bc3e
000000a0: 5276 50be 9b55 f8bd ed34 38be 1bda 493d
000000b0: 488a d83e 25cd 14be 0709 203c dfed b53e
000000c0: f57c 8e3e 2aa7 bb3c ea79 ab3e 8527 6c3e
000000d0: 3cfa d4bd 0e38 b33d 9d2e 4cbe 5777 2d3e
000000e0: 8731 1d3e 4086 523e f5cb 6a3e 8033 123e
000000f0: 162e d33c 88e8 8d3e d558 bd3d 676e 923b
00000100: 5852 ccbd 5302 c13e 57c7 623e a72f a93e
00000110: 53d1 6abe 81b4 413c 9f34 95bc ac0b 19be
00000120: e194 acbd 6ea1 b63e c918 a23d af09 59be
00000130: 5c5e 3c3e 4cd0 14bc 4275 983e eae0 853d
00000140: 1182 e03e 72ca 5e3e 60ff f9bd 50ae e23e
00000150: 03c3 52be 9834 07be fc98 0dbe 7c3c 723e
00000160: a1a5 5bbe c03c 6a3e 3ef4 8a3e 8373 9b3e
00000170: c7ce 29be b568 d63d 0889 a6bd b234 203d
00000180: 75e4 a03e 51db 333c f82d 08be c8e3 d83d
00000190: 4cc8 27bd 2512 0a3e 1471 883e bda9 a83d
000001a0: c719 023f 6371 63be aa9d 9bbd f727 393e
000001b0: 6230 ca3e c423 02be 74e2 d93d 8ca9 223e
000001c0: 36a3 833e ebb4 103e 378f f43d 5fa3 0c3e
000001d0: 5cca eebb 0e9e 193e 951f c23d b160 2d3e
000001e0: b8cc 54be d969 9b3d c376 45be 2f1d a83d
000001f0: d51c e23d ac30 613e 6e0b c3bd 6df4 a4bc
00000200: 1260 223e 6bd5 c33c f265 da3e 97bf 243d
00000210: e066 f73c bd22 483e 6609 ac3c 8753 683e
00000220: d029 f3bd ea9c 723d dd07 48be dd54 7c3d
00000230: 1cb6 783e 8195 7ebe d140 34be 93ee aa3d
00000240: a522 863e 4ded 77bd aa84 843d bf26 963e
00000250: b089 ed3d adb5 a13c a9c1 123d a658 41bd
00000260: 2e51 bc3e 9330 1bbe d03c 88bd e167 913e
00000270: 2668 3fbd 6224 f83d d94b d53e 5dcd 0f3d
00000280: 924f a03e 79a2 f43d 8a6c c53e 3cff dc3d
00000290: 521d 8e3e 00da a83e a012 e63e b525 8a3c
000002a0: eb31 f7bd 690d df3c 3b4c a23d 8505 0bbe
000002b0: 7b41 233c 6a50 8cbc 9578 3c3e d268 943e
000002c0: 2a33 753e 045b 1abe bc65 c43e 2b1e 49be
000002d0: 4909 1abe 35b0 253c f87a 89be 4702 74bd
000002e0: 47a8 3e3c f9b9 01bd 40ec b33e c57e 30be
000002f0: 1334 003d c0eb 9fbd 352f b83e 4839 c73e
00000300: 2825 9d3d bc3e 5e3d 5117 2a3d 4243 983d
00000310: 5dbc f7bc 5847 50be c991 0ebd d2b0 22be
00000320: e936 99bd d6cd 1d3d 7e25 04bd 9b0e 113e
00000330: e69e bb3e 1fd0 883e 3533 903e ec0b c63c
00000340: e890 323d b16d bb3d 7100 3abe 5bb4 6e3d
00000350: 6db5 cc3e 6949 40be d55b 64bc f10e 663d
00000360: 086c 4fbe dc80 533e 018c 9ebd f086 503e
00000370: e92a 163e 3a1b 41bc fc45 543e b786 88be
00000380: 1e06 083e 4873 b73e af84 cabd c14b 5e3e
00000390: d5f6 28be 2b31 933e 3eed e9bd c79b b3bd
000003a0: 9308 fa3c c322 4ebd fe24 4e3c 65b3 20be
000003b0: 1fe3 27be bf07 143e 7894 853e ec30 f6bc
000003c0: e62c 15be 6497 973e a3f5 e3bd 3ea0 853e
000003d0: e180 d23d 3235 f73d a17a c83e ee8d 4b3d
000003e0: 47d8 13be 56db bebd 2682 373e ff8c 533e
000003f0: c92e 923d d8b6 59be ba13 6a3d 7ff8 2d3e

network.2.weight f4 [27, 256]
-0.08206917 0.0325366 0.027360734 0.07804332 -0.0067091915 -0.0014735784 -0.0106230015 -0.17216367
0.030784026 -0.0722285 -0.045213975 0.032509603 0.0018593542 0.042263635 -0.064057246 0.002013524
0.02978024 0.04910403 0.1239683 0.017851893 -0.027274918 -0.032720964 -0.046792634 -0.022207309
0.027559806 -0.011682437 -0.059005294 0.01792944 -0.0007576816 -0.027982185 0.025210436 -0.037723355
-0.048131377 -0.019953247 0.023175575 0.024256697 -0.056713652 0.031691335 0.028691873 0.027282408
-0.09876066 0.02615841 -0.0763995 0.004639393 0.031512253 -0.038512737 0.034197163 -0.003452201
0.039645113 -0.046371527 0.051862005 0.036898494 -0.09634165 -0.05265609 -0.030752696 -0.06470775
0.024868717 0.019676125 0.00155622 -0.038915556 0.046075244 0.030792762 0.046685956 0.020145196
0.07388232 0.05595718 0.031695735 0.049887985 -0.028813643 -0.06392576 -0.009834138 -0.2608488
0.028748265 0.0450638 0.022573099 -0.05303654 0.014415321 -0.04441126 0.021775154 -0.043335352
0.061659902 0.035028994 0.04265981 0.04219547 -0.028075647 0.0023969952 -0.019213583 0.010484334
-0.038862683 0.037487153 0.032306522 0.02243045 -0.05067903 0.06977911 -0.050975602 0.052253332
0.007813113 -0.11970581 -0.04340582 0.025247088 -0.03492253 0.016585268 0.05034543 0.033872213
0.04522681 -0.13622735 -0.021228017 0.0061825435 0.030854175 -0.114083566 0.00068112597 0.061276414
0.01981043 0.031658795 0.0715282 -0.040045034 -0.06047006 0.03328469 0.029404154 0.049728073
-0.064599134 -0.014498906 0.016252339 -0.00763934 0.010372394 0.041074842 -0.13623695 -0.006764474
-0.03261375 0.021177862 0.038419463 0.059733316 0.046033584 -0.03620558 0.009080904 0.011020635
-0.12235613 0.09877944 0.068210065 0.039523132 0.051160917 -0.03813749 -0.032028623 -0.03285595
0.055024676 0.031885542 -0.08422284 0.038582712 0.047169637 -0.008960585 -0.0006829757 -0.0358814
0.07057756 -0.058311615 0.069321394 -0.014874418 0.06618262 0.014858229 0.053912275 -0.019729666
0.013620115 -0.024602903 0.026355252 0.033302516 0.023358202 0.036598098 0.08967718 0.022546424
-0.11731016 -0.0240073 0.008418587 -0.041212186 -0.032346178 0.091596864 0.037721794 0.012222342
0.031882804 -0.03178027 0.061648734 -0.11432874 -0.030962091 0.08866702 -0.04625401 -0.07966881
0.022967963 0.054452017 0.03237768 -0.033056762 0.05314478 -0.032372814 0.03634353 0.022666171
-0.006430747 0.029894035 0.026887933 0.031536672 -0.060043905 0.07669046 -0.050954405 -0.05212048
-0.07094467 -0.061188597 -0.031826753 -0.0011533867 0.106083944 0.02877325 0.0039252294 -0.04926226
0.028261436 0.02333748 -0.021617804 0.02545388 0.0055881348 -0.11143006 -0.16502592 -0.0004789912
-0.04687947 0.024779532 -0.038953256 0.037406646 0.026978096 0.023450553 0.034633566 -0.03856817
0.0119826 0.02415681 -0.007443932 0.033395898 0.04811775 0.04320956 0.019732645 -0.24747242
0.05278841 0.018843917 0.022621319 -0.033810396 -0.120014146 -0.029880041 0.03388455 -0.05687477
-0.12954244 0.05148402 -0.028259726 -0.02113302 0.04848533 0.034187857 0.024542859 0.07008761
0.018139752 0.02444842 0.024299305 0.014256392 0.034390934 -0.05490226 -0.047117334 0.016936608
00000000: e213 a8bd 1945 053d 9e23 e03c 2dd5 9f3d
00000010: c7d8 dbbb 1625 c1ba 190c 2ebc ac4b 30be
00000020: c82e fc3c 89ec 93bd 4a32 39bd ca28 053d
00000030: 93b5 f33a a21c 2d3d 7230 83bd 54f5 033b
00000040: b1f5 f33c 4f21 493d 18e3 fd3d 223e 923c
00000050: a66f dfbc 6b06 06bd a2a9 3fbd 1aec b5bc
00000060: 1ac5 e13c b167 3fbc 89af 71bd c3e0 923c
00000070: 279f 46ba e53a e5bc 1e86 ce3c ce83 1abd
00000080: 6825 45bd fe74 a3bc b4da bd3c fbb5 c63c
00000090: 934c 68bd c6ce 013d 380b eb3c 5b7f df3c
000000a0: 0743 cabd 294a d63c 5777 9cbd 0d06 983b
000000b0: fe12 013d 88bf 1dbd 5312 0c3d 523e 62bb
000000c0: ea62 223d 12f0 3dbd 416d 543d e022 173d
000000d0: c54e c5bd eaad 57bd 14ed fbbc 7f85 84bd
000000e0: 7bb9 cb3c d32f a13c 14fa cb3a eb65 1fbd
000000f0: 65b9 3c3d 1a41 fc3c c639 3f3d 8a07 a53c
00000100: 9d4f 973d 5b33 653d 63d3 013d 5857 4c3d
00000110: 970a ecbc 82eb 82bd 5d1f 21bc f98d 85be
00000120: 7b81 eb3c d294 383d 38eb b83c d83c 59bd
00000130: 3d2e 6c3c 95e8 35bd cf61 b23c 6980 31bd
00000140: 188f 7c3d 907a 0f3d 0ebc 2e3d 28d5 2c3d
00000150: e6fe e5bc e816 1d3b ce65 9dbc 7cc6 2b3c
00000160: 7a2e 1fbd 218c 193d d853 043d 10c0 b73c
00000170: d194 4fbd 5ae8 8e3d cbcb 50bd 9707 563d
00000180: 9202 003c 5228 f5bd 4dca 31bd fbd2 ce3c
00000190: ed0a 0fbd d4dd 873c 0237 4e3d 97bd 0a3d
000001a0: bf3f 393d 2f7f 0bbe 61e6 adbc ef96 ca3b
000001b0: e5c1 fc3c a5a4 e9bd 978d 323a fafc 7a3d
000001c0: 7c49 a23c a7ac 013d 607d 923d 4306 24bd
000001d0: 74af 77bd 8755 083d fbe0 f03c aaaf 4b3d
000001e0: 8d4c 84bd d28c 6dbc a023 853c 6e53 fabb
000001f0: f9f0 293c 183e 283d b381 0bbe 85a8 ddbb
00000200: ff95 05bd 327d ad3c ba5d 1d3d ecaa 743d
00000210: b68d 3c3d 4d4c 14bd 12c8 143c e58f 343c
00000220: da95 fabd e04c ca3d b8b1 8b3d 02e3 213d
00000230: 1c8e 513d 0f36 1cbd 7230 03bd f693 06bd
00000240: 8e61 613d 6a9a 023d 067d acbd e808 1e3d
00000250: f334 413d 6bcf 12bc b909 33ba 60f8 12bd
00000260: f88a 903d 29d8 6ebd 60f8 8d3d d5b3 73bc
00000270: c18a 873d ee6f 733c 1ed3 5c3d 1ca0 a1bc
00000280: e726 5f3c 078c c9bc f8e6 d73c 3868 083d
00000290: b359 bf3c e3e7 153d aba8 b73d 47b3 b83c
000002a0: 4f40 f0bd f5aa c4bc 1dee 093c 1cce 28bd
000002b0: 6d7d 04bd 2397 bb3d 2b82 1a3d 3840 483c
000002c0: 8b97 023d 072c 02bd 6283 7c3d 3025 eabd
000002d0: 36a4 fdbc 0e97 b53d d874 3dbd 6729 a3bd
000002e0: 4f27 bc3c 1409 5f3d 759e 043d 8766 07bd
000002f0: 57ae 593d 5b99 04bd f4dc 143d 68ae b93c
00000300: 04b9 d2bb 56e4 f43c 1544 dc3c 992c 013d
00000310: 99f0 75bd e30f 9d3d 91b5 50bd 497c 55bd
00000320: 704b 91bd e5a0 7abd c55c 02bd 3c2d 97ba
00000330: 8a42 d93d e1b5 eb3c 369f 803b 39c7 49bd
00000340: 8784 e73c 3e2e bf3c d217 b1bc a884 d03c
00000350: ac1c b73b 7135 e4bd 8efc 28be 1c21 fbb9
00000360: b004 40bd 72fe ca3c 738d 1fbd b637 193d
00000370: 2b01 dd3c 601b c03c eddb 0d3d a8f9 1dbd
00000380: ab52 443c 81e4 c53c 3aec f3bb 23ca 083d
00000390: 1e17 453d 82fc 303d 5ba6 a13c 6969 7dbe
000003a0: a938 583d 8f5e 9a3c 5850 b93c c57c 0abd
000003b0: fac9 f5bd fdc6 f4bc 87ca 0a3d 85f5 68bd
000003c0: c6a6 04be e8e0 523d f180 e7bc 281f adbc
000003d0: 8e98 463d 9108 0c3d 1b0e c93c 188a 8f3d
000003e0: d199 943c 0e48 c83c 560f c73c a493 693c
000003f0: 82dd 0c3d 31e1 60bd 1bfe 40bd a4be 8a3c

network.2.bias f4 [27]
0.10784369 0.12323096 0.04523908 0.030060805 0.075706966 0.031464316 0.07627959 0.04856033
0.07801825 0.010181475 0.12633567 0.045325443 0.0024946607 0.036510065 0.06213964 0.01655102
0.049562518 0.050718006 0.0678522 0.075446606 0.090654716 0.050630562 0.03334825 0.069926605
0.0058057774 0.08947062 0.03581283
00000000: 27dd dc3d 8360 fc3d 9d4c 393d 1442 f63c
00000010: 410c 9b3d bae0 003d 7938 9c3d 32e7 463d
00000020: 08c8 9f3d 34d0 263c 235e 013e 2ca7 393d
00000030: 767d 233b 948b 153d 2386 7e3d 0196 873c
00000040: 1102 4b3d afbd 4f3d 18f6 8a3d c083 9a3d
00000050: 2ea9 b93d fe61 4f3d 2d98 083d ae35 8f3d
00000060: 643e be3b 5f3c b73d 79b0 123d
