code/experiments/random_long/dqn/2/models/8.pth (torch, 251795 bytes, 4 tensors)

network.0.weight f4 [1024, 33]
000000 21 7a 05 3e cd 5e ef 3d 66 63 62 bd 4d 0d 1e 3c
       0.1303487 0.11688004 -0.055270575 0.009646726
000010 6a 75 89 3d d1 e1 a9 3d 43 05 db bc d9 b3 2f 3e
       0.06711848 0.08295024 -0.026735907 0.1715845
000020 d5 b1 bf bc 72 cf 2c be 17 65 2f bd bd 2c 1a bd
       -0.023400227 -0.16876009 -0.042821016 -0.037640322
000030 f5 9e 65 3d 71 13 b4 bd 5d 4b 43 bc c4 cd 07 bd
       0.056059796 -0.08792771 -0.0119198235 -0.033155218
000040 e0 5b 1a 3e 50 5f de 3c bf e6 d6 bd d9 1c 9d 3d
       0.1507411 0.027145058 -0.1049323 0.07671518
000050 dc 9f 3e 3e 14 33 6f 3d fc 7e 9c bd ef 0e 7b 3d
       0.18615669 0.05839832 -0.07641408 0.06129354
000060 5f f6 df 3c 6f 5a fc 3d ac c9 f7 3d 65 f2 9a 3d
       0.027339159 0.12321936 0.12099013 0.07565764
000070 b4 f7 12 3d 37 1f b2 3d f1 33 1d be 85 c0 e3 bd
       0.03588076 0.0869736 -0.15351845 -0.111207046
000080 8c 99 dc 3a 64 86 2f 3c 29 ee aa 3c ba 0f 9a 3d
       0.0016830429 0.010713194 0.020865517 0.07522531
000090 9a 07 4c bd fe a7 b5 bd 66 58 c7 3d ce 13 8e 3c
       -0.049811937 -0.088699326 0.097336575 0.017343428
0000a0 6e 56 89 bc c0 0e c8 3d 17 b5 0e bd bf 83 15 be
       -0.016764846 0.09768438 -0.03484067 -0.14601038
0000b0 c7 18 1f bc e4 9f 93 bd c5 89 7d 3d ee 87 9a bc
       -0.009710497 -0.07208231 0.061898965 -0.018863644
0000c0 be 4f e9 3d b5 f8 20 3e c9 0d b4 bd 10 a2 e3 3d
       0.11392163 0.15719874 -0.08791692 0.11114895
0000d0 89 35 92 3c 2d 68 f3 bd 5c db ec bd bc fc 9e 3d
       0.017847793 -0.11885104 -0.11565277 0.07763049
0000e0 0a 4f f9 3c 07 45 99 bc 83 14 d8 bd 09 d0 f0 bd
       0.030433197 -0.018709673 -0.10550787 -0.117584296
0000f0 a8 66 d9 bc f0 f7 1a 3e d2 16 52 3c 0b 06 cd bd
       -0.026538208 0.15133643 0.012822824 -0.10010918
000100 7f f2 3a 3d cc 28 9f 3d 5f 76 93 3d dd 14 86 3c
       0.04564142 0.07771453 0.07200312 0.01636737
000110 eb 28 c4 3d 53 40 ac bd 36 57 12 3d a0 9a 17 bd
       0.09578117 -0.08410706 0.035727702 -0.037012696
000120 ae a2 19 bd 36 f6 ba bd 77 96 1a 3c 93 f4 d3 bc
       -0.03750866 -0.09128992 0.009435288 -0.025873458
000130 dc 17 10 3d 4e 7a 53 bd 78 ff 2a 3e 50 3e b9 3d
       0.035179004 -0.05163031 0.16699016 0.09045088
000140 e5 d8 a0 3d d2 70 a1 ba 6d e4 d7 3d 09 17 35 3d
       0.07853869 -0.0012316948 0.10541616 0.04421142
000150 ca a5 07 be 1a cc c5 3c 0c 96 d7 bd 16 2b 5a 3d
       -0.13246837 0.024145175 -0.10526666 0.053263746
000160 2b 82 43 3c 9d a8 12 be 69 d7 c3 3d ad 81 14 bd
       0.01193289 -0.14322133 0.095625706 -0.03625648
000170 dd de dd bd 8c 22 05 be 4a cd 22 3e c4 c4 e0 bc
       -0.108335234 -0.1300146 0.15898624 -0.027437575
000180 e7 e2 e8 3c d8 62 b5 bd cd 49 8c bb 28 c0 a1 3d
       0.028428508 -0.088567436 -0.0042812587 0.07897979
000190 3b a8 31 be 28 98 42 bd b9 cb 3f 3e 09 72 9c bd
       -0.17349331 -0.04750839 0.18730058 -0.07638938
0001a0 d6 79 b5 3d 42 81 73 3d d4 97 7d bc 54 60 17 be
       0.08861129 0.05944944 -0.015478093 -0.1478284
0001b0 4b 56 a0 bb ef 88 d5 bd 9f fb 82 bd 96 88 11 be
       -0.0048930994 -0.10426509 -0.06395649 -0.1421226
0001c0 71 96 d3 3c d3 10 14 3e e9 6a a4 bd c7 50 d0 3c
       0.025828572 0.14459543 -0.08028204 0.025429143
0001d0 df 2c 0d bd e0 1e 31 bd 5c e5 0d 3e 8a f4 09 3c
       -0.03446662 -0.043242335 0.13857025 0.008420119
0001e0 bf 74 09 be 1c 54 65 3d b5 ca b1 bd 53 4d 95 bd
       -0.13423441 0.055988416 -0.086812414 -0.07290139
0001f0 d0 91 eb 3d 5b c9 34 3d a0 8a de 3d 2f be 39 3d
       0.11502421 0.04413734 0.10866284 0.04534739
000200 b0 54 b7 3d ab e8 04 be 74 5b 52 3c 10 bd 9f bc
       0.089517 -0.12979381 0.012839187 -0.019499332
000210 e8 4a 2c bd ea a1 cf 3d 47 c0 13 be 67 94 b8 3d
       -0.042063624 0.101383045 -0.14428817 0.090126805
000220 57 7d 04 be c3 7d 69 3d 1a a6 07 bd 86 f2 0f be
       -0.12938438 0.0570047 -0.03311739 -0.14057359
000230 77 30 1b be 44 81 e5 bd 57 a1 98 bd e7 be 5e 3d
       -0.15155207 -0.11206296 -0.07452648 0.054381277
000240 98 24 30 be 50 4e 04 bd 5c 12 45 3d 05 83 82 bd
       -0.1720146 -0.032301247 0.048113212 -0.06372646
000250 7c 54 17 bd 16 c1 ec bd ce 01 ac 3c e2 ef 26 bc
       -0.036945805 -0.11560266 0.020996954 -0.010189028
000260 5a c2 dc 3d bc 7b e0 bd 0f c9 08 3e 38 8b 55 3d
       0.10779257 -0.109611005 0.13357948 0.052134722
000270 df 01 b7 3c 89 44 9f 3c c1 f2 bd bd 51 73 93 bd
       0.02233976 0.01944186 -0.09274817 -0.07199729
000280 8c c0 32 3e 67 ec 47 bc 6a 9b 19 be 07 5a bb 3c
       0.17456263 -0.012202359 -0.15000692 0.022870077
000290 30 cf 24 bc 5c 9b 8e bd e8 14 68 bd a7 a6 e5 bd
       -0.010059163 -0.06963226 -0.056660563 -0.11213427
0002a0 31 9d 00 3e ea 3d 00 be 2c 2f e0 3d 7c ea d0 bd
       0.12559964 -0.12523618 0.10946497 -0.10200974
0002b0 0d ae 0a 3d b6 56 19 be c4 f9 c9 bc 49 0e 97 3d
       0.033857394 -0.14974484 -0.02465523 0.073757716
0002c0 77 7b f3 bd f3 2f 24 3e df 28 be bd 51 f9 de 3d
       -0.118887834 0.16033916 -0.09285139 0.10887397
0002d0 d6 eb ed 3d c1 56 13 be 91 80 2c 3e 2e 14 a5 3d
       0.11617248 -0.14388563 0.16845919 0.080604896
0002e0 d0 8d 22 bd 0c 69 60 bb 19 ec b5 3d 14 f3 19 bd
       -0.039686024 -0.00342423 0.08882923 -0.037585333
0002f0 40 b4 64 3d b2 4b c9 3d 30 36 39 bd d4 e5 66 bd
       0.055835962 0.09828891 -0.045217693 -0.056371525
000300 91 17 b5 bd 4a b0 14 bd a2 29 9e bd fa 82 ea 3d
       -0.088423856 -0.036300935 -0.077227846 0.11450763
000310 2b b4 2d 3d a9 38 fc bd e4 d8 ea bd bd 7a cb bd
       0.04240815 -0.123154946 -0.1146715 -0.0993552
000320 7d f8 84 bd 06 98 c6 3d b2 11 11 bc 42 7f 6c 3d
       -0.06492708 0.09696965 -0.008854317 0.05773855
000330 e3 dd 90 3d 9d 34 2b 3e a5 5f 51 3d 55 67 d7 3d
       0.070735715 0.16719289 0.051116604 0.10517756
000340 8b ab 0f be f2 27 82 bc 6a 66 9b bd 64 6c a7 3d
       -0.14030282 -0.015888188 -0.07587893 0.08174971
000350 47 ee 0e 3e c1 d8 15 3d fc 39 3d bd 56 1f 31 3d
       0.13958083 0.036583666 -0.046197876 0.043242775
000360 42 75 e6 3d 6d 82 f9 3d af fe 90 3d 54 11 88 bc
       0.11252834 0.1218308 0.07079827 -0.016609825
000370 17 5a c3 3d 5e 10 54 3d 59 a1 9d bd f8 62 ea bd
       0.09538668 0.05177342 -0.0769679 -0.11444658
000380 8b 91 1f bd eb d3 0a bd 7c f1 2f 3d 1a 22 52 3e
       -0.03895716 -0.033893507 0.042954907 0.20520821
000390 a5 ed 42 3d 82 32 35 bc a1 1b 79 be 27 11 9c bc
       0.047589917 -0.011059405 -0.24326946 -0.019051148
0003a0 03 a4 1f 3e 99 cd 86 3d 53 eb b4 bd 65 fa 94 bd
       0.1558991 0.065821834 -0.08833947 -0.072743215
0003b0 c7 16 10 be 36 8f 71 bd b3 82 b2 3d 0d b1 ee 3c
       -0.14071189 -0.058974467 0.08716335 0.029137159
0003c0 e7 3f cc bd 42 4d 26 3d c0 4c a3 3b de 7d 08 be
       -0.09973126 0.040601023 0.0049835145 -0.13329265
0003d0 33 0c d6 3d 1b c8 cf bd 3c ff 28 3e b4 5b 16 be
       0.104515456 -0.10145589 0.16503614 -0.1468342
0003e0 44 5b 8d 3d 3e 50 8c 3c 81 86 02 be d2 26 b6 bd
       0.06902173 0.017128106 -0.12746622 -0.08894123
0003f0 f8 0c a8 3d f7 87 83 bd 43 14 9c 3d 70 df 79 3d
       0.082055986 -0.064224176 0.07621052 0.061004102

network.0.bias f4 [1024]
000000 2f 56 0a b7 c2 5d 7d 3e 22 02 8a bc 8b b7 00 3d
       -8.245507e-06 0.24742797 -0.01684672 0.03142504
000010 72 7d ef bd e5 a3 23 be 19 60 3b be 9d ad bf bd
       -0.11693849 -0.1598049 -0.18298377 -0.09359286
000020 17 c9 81 3d 69 4e 80 bc 9b 9c aa bd c9 e2 3d be
       0.06337183 -0.015662389 -0.083306514 -0.18543543
000030 b7 60 29 be 67 37 47 3d 99 03 a4 3c f6 ae 7a 3e
       -0.165408 0.04863682 0.020021247 0.24480805
000040 25 ed 1d 3e 55 10 da bd cf 59 5a 3d de dd 2b 3d
       0.15422495 -0.10647646 0.053308304 0.041959636
000050 84 05 e3 bd d4 cc 81 be 7b bd 05 3e c4 14 8a 3e
       -0.110850364 -0.25351584 0.13060562 0.26968968
000060 f6 84 47 be 53 70 75 be b1 19 15 be e9 3c 17 be
       -0.19484314 -0.2396863 -0.14560582 -0.14769329
000070 ce ed 0f be b8 0d 6b bd a4 66 45 3e ad 6f 2e be
       -0.14055559 -0.05738613 0.19277436 -0.17034788
000080 93 0c ca bc e9 a0 a4 bd 85 fe c2 3d 28 d3 27 be
       -0.024664199 -0.08038504 0.09521202 -0.16389143
000090 a7 d7 25 3e d1 b9 48 3e 46 2b 2e be 19 a1 5a be
       0.16195546 0.19602133 -0.17008695 -0.21350516
0000a0 b6 74 26 3e 24 41 19 be 86 9d 8e bd 2b 09 04 bd
       0.16255459 -0.14966255 -0.06963639 -0.032235306
0000b0 9e 60 0a 3e 2b c6 57 bd 47 9c 4b 3b 7d 36 ce bd
       0.13513419 -0.052679222 0.003106849 -0.100689866
0000c0 6e 6e f5 3d de 47 b7 3d c1 80 78 3e f4 a6 79 be
       0.119839534 0.089492545 0.24267866 -0.24380094
0000d0 15 a0 1c 3b 5a 21 8b 3e c7 6c b6 bb 0d cf ba 3d
       0.0023899127 0.27173883 -0.0055671665 0.09121523
0000e0 d3 76 6e 3d ab 67 c4 bd b4 fe 57 3e 66 02 00 be
       0.05821879 -0.095900856 0.21093255 -0.12500915
0000f0 ce 75 1c be ab fd 74 bb 0b c6 7f 3e 06 9d 90 bd
       -0.15279314 -0.0037382643 0.24977891 -0.070612
000100 64 76 a2 bd db 5a 14 be 38 5e 01 be 4d 5b 0c 3e
       -0.079327375 -0.14487784 -0.12633598 0.13706703
000110 b2 5f ec 3d 81 e7 3c 3e 1f 78 d4 3c e5 2d b1 bd
       0.1154169 0.18447687 0.025936184 -0.08651332
000120 00 b2 5b 3d d8 93 77 bd cf 66 78 bc 11 ea d2 bd
       0.05363655 -0.06044373 -0.01516123 -0.10298551
000130 0a eb 79 3e 45 3b 80 be 43 4a 3a 3b 43 01 04 3e
       0.24406067 -0.2504522 0.002842561 0.12891106
000140 af bd 3b be 63 78 35 be c7 e3 14 3e cd e6 26 be
       -0.18334077 -0.17721705 0.14540015 -0.16298981
000150 2e 54 fc bd 97 c1 4b 3e a8 fd 47 be 5a 4f c8 bd
       -0.123207435 0.19898067 -0.19530356 -0.0978076
000160 49 dc 44 be eb 1f e3 3e 5c bb 7e bc 6e 20 05 bd
       -0.19224657 0.4436029 -0.0155476 -0.03250163
000170 7d 5b 79 3e 3d 21 d6 be 8f 07 eb 3d 13 06 8b 3d
       0.24351306 -0.41822234 0.11476051 0.06788268
000180 ac 18 68 3e 53 d8 cb bd f5 63 88 be 42 7a d1 3d
       0.22665662 -0.0995337 -0.2663876 0.10228397
000190 a0 bd 57 3e 49 ad 66 3e a4 08 30 be d2 8b 28 3e
       0.2106843 0.2252704 -0.17190796 0.16459587
0001a0 32 0b 50 be 3b 6e 4c be f7 f7 32 3d 1d fe 14 be
       -0.2031677 -0.19963925 0.04369351 -0.14550062
0001b0 14 a4 1c be d0 fe cf bd 5c 46 45 be 04 28 91 3b
       -0.15296966 -0.101560235 -0.19265121 0.004429819
0001c0 d1 12 25 3e 7d 9e 1d 3e dc ea 86 bd d8 73 0b be
       0.16120459 0.1539249 -0.065877646 -0.1361841
0001d0 6c 33 bf 3d 6c 5b 24 bd cd b0 1e bd 76 f2 cf 3a
       0.0933598 -0.04012625 -0.03874283 0.0015865106
0001e0 22 e0 dd 3d 01 5d c2 3d e1 ed 72 bd fd fd 59 be
       0.108337656 0.09490395 -0.05930889 -0.21288295
0001f0 4f a8 84 3e a1 e0 55 be c6 7a 61 be 8d bd 05 3d
       0.2590966 -0.2088647 -0.2201949 0.032651473
000200 53 63 52 3d 28 4c 8d 3c ba 2f 35 be 3e 2c 05 be
       0.051364254 0.017248228 -0.17693987 -0.13005158
000210 8b 00 56 3e 6d ae 1a be ba fd d8 3d ff 93 8d 3e
       0.20898645 -0.151056 0.105952695 0.27651975
000220 75 63 12 be 25 4b 92 bc ae cb f0 3d ba 57 4c 3e
       -0.14295752 -0.017858097 0.11757599 0.1995534
000230 84 d8 32 be 45 25 36 3d 06 f4 0a be 7b 2c 44 be
       -0.17465407 0.044469137 -0.1356965 -0.19157593
000240 1d 94 8e bd e2 4b 97 be 35 4b 8e 3e 19 8c 04 3e
       -0.06961844 -0.29550081 0.27791753 0.12944068
000250 23 e0 4a 3e e6 0c d3 bb f7 86 03 bb 79 50 8f be
       0.19812064 -0.0064407466 -0.002006946 -0.27991083
000260 6d cc b0 bd 6e ea eb 3c 03 ce cd 3d e3 ae 82 3d
       -0.08632741 0.028798308 0.10049059 0.06381013
000270 d5 b2 a5 3d f3 fc 96 3d 40 80 49 bd 7d 2d 14 3e
       0.0809075 0.07372465 -0.049194574 0.14470477
000280 fd 77 10 3e 3b f3 f4 bd 44 17 ff 3d 9a 2a 1a 3d
       0.14108272 -0.11960455 0.124556094 0.037638284
000290 02 13 7f 3d b2 72 07 3e 6d ba 36 bd 40 a5 ea bc
       0.062273987 0.13227347 -0.044611383 -0.02864325
0002a0 5e 9c 26 3d a8 82 a3 bd 9c cf 26 bc 4e 6f 06 be
       0.040676467 -0.07983905 -0.010181334 -0.13128397
0002b0 8a 6e 5c 3d ac 5b 41 be ae 59 00 3d 92 e8 d7 bd
       0.053816356 -0.18882626 0.031335525 -0.10542406
0002c0 ad c5 0b be 4f 8e d4 3d f9 6c 1a be 4a c0 c6 3d
       -0.13649626 0.10378706 -0.15080632 0.09704645
0002d0 50 0a d3 3d eb 5c 46 ba 78 86 31 be 3e 47 4c 3e
       0.10304701 -0.00075669464 -0.17336452 0.19949052
0002e0 86 2a 2d be 97 0e 1a 3d 68 ef 46 be a8 76 02 ba
       -0.16910753 0.03761157 -0.19427264 -0.00049767876
0002f0 44 f6 4f 3e 2b 78 00 3e 6a aa 17 3e 7c 45 a3 3c
       0.20308787 0.1254584 0.14811102 0.019930594
000300 9f d0 b4 3c 39 60 83 3e fa 34 7c 3d 67 40 7f be
       0.022072135 0.2565935 0.06157396 -0.24926911
000310 d9 a4 85 3e 99 fc 3b 3e 51 6e b4 3d 0f 74 61 3e
       0.2610233 0.18358077 0.08810104 0.22016929
000320 d4 e3 43 be 88 2c b0 bc d0 e9 16 3e 79 ef 5c be
       -0.19129878 -0.02150561 0.1473763 -0.21575727
000330 35 3e 98 bd 70 62 47 3e 9d 24 9e bd f1 33 36 3d
       -0.0743374 0.19471145 -0.07721827 0.04448313
000340 9e ca 46 3e b8 42 09 bd 7b 55 7d be c1 72 94 3d
       0.1941323 -0.033510894 -0.2473964 0.0724845
000350 17 59 f0 bb 6b 06 10 3e d7 ec e1 bd de 88 22 3e
       -0.007334839 0.14064948 -0.11031502 0.15872523
000360 58 21 cb 3c 7d 76 4d 3e a2 61 0b be 65 78 95 3d
       0.024796173 0.20064731 -0.13611463 0.07298354
000370 11 31 11 3d 52 02 00 bd 99 7e 5b 3e ca 2b 2f 3e
       0.035447184 -0.031252213 0.21435012 0.17106548
000380 1f 40 61 be fd d1 81 3d 85 70 fc bc 0b 02 cf bd
       -0.21997117 0.0633888 -0.030815372 -0.101078115
000390 d9 e7 7b 3e 1c 88 81 be e0 f6 3a be 6c b7 7f 3d
       0.24600162 -0.25299156 -0.18258238 0.062430784
0003a0 22 76 1e 3d 2c 30 58 be 28 91 52 3d c0 df 46 bd
       0.03868688 -0.21112126 0.051407963 -0.04855323
0003b0 09 1e c6 bd bd da 07 be f7 69 fe bd 43 94 52 be
       -0.096736975 -0.13267036 -0.12422555 -0.2056437
0003c0 4a 73 37 be 9a d9 d2 bd 1c 18 31 be 7a 76 14 3d
       -0.17915073 -0.102954105 -0.17294353 0.0362458
0003d0 11 e5 b4 bd 7f 7a 09 3e 02 02 98 3d 2f 87 54 be
       -0.088327534 0.13425635 0.07422258 -0.20754693
0003e0 ee 78 05 3d bc 2b 25 be f8 73 bb 3e 16 c0 bf 3d
       0.03258603 -0.16129965 0.36611915 0.09362809
0003f0 3a 30 fb bd 2d 4a 1e be c6 d9 15 3e 9d bb 07 be
       -0.12265058 -0.15457983 0.14633855 -0.13255163

network.2.weight f4 [27, 1024]
000000 c4 1f a2 bc f6 d0 82 bb 4b d4 1c 3b b6 91 af ba
       -0.019790538 -0.0039921952 0.0023930247 -0.0013394866
000010 d6 75 58 bc af 4b d8 bb c7 7d 24 bd 96 1f 9d bb
       -0.013211688 -0.006600819 -0.040159013 -0.004795025
000020 f7 96 55 3c 94 03 d5 ba 0f cc 4f 3b ad c7 58 bc
       0.013036481 -0.0016251677 0.0031707322 -0.0132312
000030 af ef 11 bd b5 44 41 3d 0b 48 c2 ba a8 fa c1 3c
       -0.03562897 0.047184665 -0.0014822496 0.023679093
000040 e9 a0 95 b9 c2 73 62 bb c6 c5 0c 3c 6d 6d 43 3b
       -0.00028539382 -0.003455386 0.008592075 0.0029819862
000050 51 0b 1d bb 87 e7 bb bc 48 6f 1a 3c 85 cd 7e 3c
       -0.0023963044 -0.02293755 0.009425946 0.015551929
000060 ae 81 96 bd f4 4e d8 bc ac 98 56 3b 02 e7 5b bd
       -0.07348953 -0.026404835 0.0032744808 -0.053687103
000070 33 41 7a bb 09 c3 0e 3c a7 42 40 3b e6 93 98 bb
       -0.0038185834 0.008713492 0.0029336603 -0.0046563027
000080 a5 93 75 39 3c e5 3a bc 04 d1 b7 bc 05 38 76 bc
       0.00023420023 -0.011407193 -0.022438534 -0.015028005
000090 c7 cb 1f 3c c7 1d 1c 3c 3e f7 17 bd 94 21 cc bb
       0.009753174 0.009528584 -0.037101023 -0.0062295888
0000a0 70 0b 64 3b 73 43 45 bc 5e 25 c4 bb 57 dd d6 bb
       0.0034796856 -0.012040007 -0.0059859 -0.0065571475
0000b0 17 95 81 bb 33 97 45 3c 32 25 2f bb 5e 90 41 bb
       -0.0039545405 0.0120599745 -0.002672505 -0.0029535512
0000c0 9c a0 83 39 09 2f 60 3c 55 e6 5d 3c 8d e6 dd bd
       0.0002510593 0.013683089 0.013543685 -0.1083499
0000d0 bb 68 ab 3c f7 95 34 3c 20 c7 71 3b 2a 21 8f 3c
       0.020923963 0.0110220825 0.003689237 0.017471869
0000e0 bb 87 72 3d 25 e3 0f bc 3c 48 95 39 17 48 c2 bb
       0.059211474 -0.008782183 0.00028473313 -0.005929004
0000f0 8e 61 73 bb 47 f2 d5 3b 05 95 20 3c 9d 3b 83 bc
       -0.0037137005 0.006529126 0.009801154 -0.016019637
000100 3d 27 56 bb 09 e4 96 3b 96 0f 48 3a b6 5f 16 3b
       -0.0032677196 0.0046048206 0.0007631717 0.0022945232
000110 cd 9e 6f 3b a9 89 09 3c 4e 91 2f 3c b7 61 38 bb
       0.0036563159 0.008394637 0.010715796 -0.0028134414
000120 1f 7b 2b b6 07 0c de 3b 81 3e 07 bc 3f 8b 0b bd
       -2.5552652e-06 0.006776336 -0.008254648 -0.034068342
000130 2b a0 60 3b 30 4a a1 bd 80 b5 1d bc b5 52 3c 3c
       0.0034275155 -0.07875478 -0.0096257925 0.011494328
000140 bf ea a9 bb bd 91 88 bd cf 8e 8d 3c 23 4e be bc
       -0.0051854546 -0.06668422 0.01728001 -0.023230618
000150 ca 87 e1 38 be 9b 4d 3d 72 ed 31 bb 19 c9 fb bb
       0.00010754129 0.050197355 -0.0027149585 -0.007683885
000160 81 5a c1 bd bf b1 3e 3d 8a 4d cc 3a 2b 46 a8 3b
       -0.094410904 0.04655623 0.0015587073 0.005135318
000170 fc 22 81 3c 23 68 2a be 6c 0e 80 3b e2 87 07 3c
       0.015763752 -0.16641288 0.003907969 0.008272143
000180 0d ca a3 3c e0 72 1c 39 79 ef 36 bc fb 06 11 3c
       0.019993806 0.00014920114 -0.011165493 0.008851762
000190 10 36 d8 3c 9d 93 c8 3c 2f 30 6b bc dd b2 03 3d
       0.026392967 0.02448445 -0.01435475 0.032153
0001a0 18 a8 e2 bb e8 41 20 bc 45 34 43 3c 91 ee 38 3b
       -0.006917011 -0.009781338 0.0119143175 0.0028218369
0001b0 25 bd 5f bc cd e0 30 bb 7e 32 d4 bc ef f5 bb 3c
       -0.013655935 -0.002698946 -0.025902983 0.022944419
0001c0 aa 88 af 3a 18 d0 a8 3c bb 82 c2 3b 4d 24 86 bc
       0.001339217 0.02060704 0.0059359944 -0.016374731
0001d0 c1 a0 31 bd 65 c8 cc 3a 9f 6e e8 b9 76 ee 8b 3d
       -0.043366197 0.0015623687 -0.00044332907 0.06832592
0001e0 ba fe c2 3c fb f1 c1 3a 3e d2 1e bb bd 00 09 bc
       0.023803104 0.0014796847 -0.00242342 -0.008361992
0001f0 63 72 8a 3c 0a e0 ae bc 4a af 98 bc eb 1c 1d 3c
       0.016900247 -0.021347065 -0.018638272 0.009589414
000200 ad 62 c5 3a 35 2a f1 3b d9 1e 87 bb 2d 75 0a 3c
       0.0015059315 0.007359768 -0.0041235504 0.008450788
000210 b3 4e 2f 3b ca 83 65 bd 51 b4 4e 3c da e7 2e 3c
       0.002674979 -0.056033887 0.012616233 0.010675395
000220 d6 6a 9f bc d5 21 92 ba 0a c5 9e 3c e7 cb 02 3b
       -0.019460123 -0.0011148999 0.019381065 0.001995796
000230 e1 b7 20 bc b2 90 3d 3c da 97 3e bb 1b 02 79 bc
       -0.009809465 0.011570143 -0.002908221 -0.015198256
000240 36 79 9e 3c ed d2 60 bd 95 de ac 3c 1b c1 a5 3b
       0.019344907 -0.054888655 0.02110223 0.0050584204
000250 1f 88 16 3d 30 78 00 bd e0 12 18 bb 1c 4f c2 bc
       0.03675091 -0.03136462 -0.002320461 -0.023719363
000260 88 f9 83 bb 4d 26 03 3d 64 39 17 bd af 61 e6 3a
       -0.004027549 0.03201895 -0.036919966 0.0017576719
000270 5a a2 25 bc 83 92 19 3b 6a 84 1a 3b 94 0b b1 3b
       -0.010109508 0.0023433275 0.002357746 0.0054029915
000280 62 13 b1 3b fb 48 62 bc 4a 62 e8 b9 04 70 ea bb
       0.005403922 -0.013811345 -0.0004432372 -0.0071544666
000290 36 d4 2b bd e3 2c 73 3c 1c 5d 01 3c ce c9 e8 bb
       -0.041950427 0.014842245 0.007895734 -0.007104135
0002a0 11 7a 45 3d 30 df 3c bc 5f a4 a2 bb c3 cd f1 bc
       0.048212115 -0.011527821 -0.004963442 -0.02951706
0002b0 58 00 a0 bc 11 75 a6 39 1e 0e d5 3b 0a bb 96 bc
       -0.019531414 0.0003174921 0.006501927 -0.018399734
0002c0 da 44 9f bb 01 b3 65 39 6b 17 a6 bc 13 c9 12 3d
       -0.0048605027 0.00021905826 -0.020274838 0.03583629
0002d0 77 8c 28 3b 44 98 99 b9 a0 1d 05 bd 69 a8 52 3d
       0.002571849 -0.0002929588 -0.032498956 0.05143014
0002e0 f4 c2 19 bc 41 e6 9d bc 45 69 05 bd a4 6c 46 bc
       -0.009384859 -0.019274833 -0.032571096 -0.012110863
0002f0 f3 7d 98 3c 46 be 55 3c 17 10 4e bb c8 13 c9 3c
       0.018614745 0.013045853 -0.0031442696 0.024545565
000300 4c db 81 3b 26 a9 88 3c c4 3b 72 3b cd b0 5f bd
       0.00396291 0.016682219 0.0036961893 -0.05461197
000310 62 de c5 ba 15 b1 7f 3c 3b b5 76 ba 46 78 4e 3d
       -0.0015096182 0.0156061845 -0.0009411161 0.05040767
000320 b0 9e f6 bc 67 3e 65 bc b9 66 b5 3c 35 6a 7d bd
       -0.030104965 -0.013991929 0.022143709 -0.061868865
000330 9b 53 ff bc 01 2c 7b 3c 9c de 4b b6 18 c7 44 3b
       -0.031167796 0.015330316 -3.0378933e-06 0.0030025896
000340 7c a8 da 3a 5d 55 4e bb e4 13 fa bd 75 7c 72 bc
       0.0016682292 -0.0031483986 -0.12210825 -0.014800181
000350 71 d5 4a bb 0a fc ad 3b 7b 06 82 bc cd 4b 33 3d
       -0.0030949975 0.0053095864 -0.01587223 0.04377346
000360 3f 23 ff bc aa 42 09 3c 16 a1 3a bc 10 ae 9f 3b
       -0.031144736 0.00837771 -0.011390945 0.004873045
000370 20 c6 36 bc 31 5b 1c bb b3 6f a1 3b 08 e4 b0 3d
       -0.011155635 -0.0023858065 0.0049266457 0.086372435
000380 8e 63 a8 bc 0c ce 71 bb c3 1c 34 ba 9b 51 0b bd
       -0.020555284 -0.0036896495 -0.0006870741 -0.034013372
000390 3a 15 1e 3d c3 40 35 bc c8 bf 11 bb a8 a3 e5 3a
       0.038594462 -0.011062804 -0.0022239555 0.0017520087
0003a0 7a 29 92 3b b7 b8 4e bd 2e 64 01 3c 33 f4 34 bd
       0.004460511 -0.050469127 0.00789742 -0.0441782
0003b0 53 68 01 bc c2 05 01 bb 98 a1 80 bb 3f d1 3c bd
       -0.007898408 -0.001968727 -0.0039255135 -0.04609799
0003c0 19 e9 1f bd 4c 5a 37 bb 80 0b 48 bb 74 b1 1e 3a
       -0.03904066 -0.0027977405 -0.0030524433 0.0006053664
0003d0 ef 8b 7a bb 5c 3c 78 ba 7e 13 6a 3b 08 05 52 bc
       -0.003823038 -0.00094694435 0.0035717185 -0.012818582
0003e0 f3 7a f0 3b ba ae ab bc 6a 14 39 3d 85 33 85 3b
       0.0073388754 -0.02095734 0.045185484 0.0040649795
0003f0 b0 4c a7 bc dc e0 04 bd 01 d6 5c 3d 26 58 da ba
       -0.02042231 -0.032441005 0.053915028 -0.001665835

network.2.bias f4 [27]
000000 53 59 82 3d a0 52 6f 3d b5 7b 34 3d 9e 9c 65 3d
       0.063646935 0.058428407 0.04406329 0.056057565
000010 3c c3 4e 3d f5 15 1d 3d 26 d4 a3 3d 7a 93 91 3d
       0.05047916 0.038351018 0.079994485 0.07108207
000020 fd 8f 9e 3d d0 4b 89 3d 15 bf 27 3d 09 9f 5b 3d
       0.07742307 0.06703913 0.040953714 0.053618465
000030 60 cd 50 3d 24 0b 72 3d 22 db 80 3d 17 9e c2 3c
       0.05097711 0.059092656 0.06291796 0.023757024
000040 df f4 0c 3d 72 50 a6 3d 6f 3c 79 3d 05 b3 89 3d
       0.034413215 0.081208125 0.06084865 0.067235984
000050 74 d5 b5 3d e3 ab 75 3d d6 c4 6d 3d b9 12 57 3d
       0.088786036 0.059978377 0.058049046 0.05250809
000060 10 d6 32 3d e7 04 9a 3d 7d 6d 88 3d
       0.043661177 0.07520466 0.06661508
