code/experiments/first_runs/ac/30/models/0.pth (torch, 55187 bytes, 4 tensors)

network.0.weight f4 [256, 24]
0	0xbd6327f4	-0.055458024
1	0xbd743da0	-0.059629083
2	0xbe0ec046	-0.13940534
3	0xbe335fe0	-0.17517042
4	0x3e025ed4	0.12731487
5	0x3e3d1e6f	0.1846864
6	0xbd9e49bb	-0.07728907
7	0x3e00aed8	0.12566698
8	0x3e48dff4	0.19616681
9	0xbd3f89a1	-0.046762113
10	0xbd3b5d66	-0.04574337
11	0x3da2788e	0.0793315
12	0x3e111183	0.14166836
13	0x3bed8c61	0.0072494005
14	0x3cf87ac9	0.030331986
15	0x3e29e2a6	0.16590366
16	0xbe2d44d3	-0.16920786
17	0x3d9e2289	0.07721431
18	0x3d895860	0.06706309
19	0x3e12ce5e	0.14336535
20	0xbd523b02	-0.051325805
21	0xbe14cff9	-0.1453246
22	0xbe2d5e8e	-0.16930601
23	0xbc071a3a	-0.008245999
24	0xbe0268ea	-0.12735334
25	0xbe47798e	-0.19479963
26	0xbd868187	-0.06567674
27	0xbd58cf97	-0.052932348
28	0xbe1a88bd	-0.15091224
29	0xbd8a54d6	-0.067544624
30	0x3d1ffb6f	0.039058145
31	0xbe135161	-0.14386512
32	0x3e2fb597	0.17159115
33	0xbe3906e6	-0.18069038
34	0x3d5eaefb	0.054366093
35	0xbd95ab69	-0.073080845
36	0x3da3a9be	0.0799136
37	0xbe152b8e	-0.14567396
38	0x3c4e105a	0.012577141
39	0x3dcea0c6	0.10089259
40	0xbdf65bf4	-0.120292574
41	0xbd9130c6	-0.07089381
42	0x3e4b063a	0.19826594
43	0x3c7c5cd4	0.015402991
44	0x3e3a62c0	0.18201733
45	0xbd9a347d	-0.075295426
46	0x3e67bcb5	0.2263058
47	0x3e0a1ac6	0.13486776
48	0x3e00e500	0.12587357
49	0xbd786932	-0.060647197
50	0x3e35d986	0.1775876
51	0xbdd8dd68	-0.10589105
52	0xbd1d91f5	-0.038469274
53	0xbda53122	-0.08066012
54	0xbe0418cb	-0.12900083
55	0x3e4ee8f3	0.2020605
56	0x3e5225cb	0.2052223
57	0xbe14c9c4	-0.14530092
58	0x3c961d9a	0.018324662
59	0x3d128cf1	0.035778943
60	0xbe1863b9	-0.14881791
61	0xbe05ddb6	-0.13072857
62	0xbcf01876	-0.029308539
63	0xbe0471ca	-0.12934032
64	0x3dd100a1	0.10205198
65	0xbda0bfd4	-0.07849088
66	0x3d4f8d08	0.050671607
67	0xbdedb02f	-0.1160587
68	0x3e821758	0.25408435
69	0xbd995eab	-0.074887596
70	0x3e49a0fd	0.19690318
71	0x3d045624	0.032308713
72	0x3c629c9b	0.013831283
73	0xbdba23bf	-0.09088849
74	0x3d361e11	0.044462267
75	0x3dd0e348	0.101996005
76	0xbd521d28	-0.051297337
77	0xbd3f488d	-0.04670005
78	0x3df47b64	0.119375974
79	0x3d984582	0.074351326
80	0xbd7315eb	-0.059347074
81	0xbe3d0779	-0.18459882
82	0xbc82102a	-0.015876848
83	0x3e47888a	0.1948568
84	0x3e199eea	0.15002027
85	0x3ca2d664	0.01987762
86	0xbe3042aa	-0.1721293
87	0xbd04cbf2	-0.03242106
88	0xbdb4ee28	-0.08834487
89	0x3e3daff6	0.18524155
90	0x3d4682b0	0.048464477
91	0xbda2d1f7	-0.07950204
92	0xbda11055	-0.07864443
93	0xbd494cbc	-0.049145445
94	0x3db9fcf9	0.09081454
95	0x3bd3cb12	0.006463417
96	0xbddecc3c	-0.10878798
97	0x3c86a040	0.016433835
98	0x3dae17a7	0.08500605
99	0x3e0d0460	0.137712
100	0x3dfba61c	0.12287542
101	0xbe0163d9	-0.12635745
102	0x3d106dce	0.035260968
103	0xbe3d21ef	-0.18469976
104	0x3dd2cd70	0.1029309
105	0x3e09b306	0.13447198
106	0xbd963da0	-0.07335973
107	0xbc91e133	-0.017807579
108	0xbe0d4884	-0.13797194
109	0xbe0bb396	-0.13642725
110	0x3dad9ebe	0.08477543
111	0x3839530a	4.4184773e-05
112	0x3dfd80f8	0.123781145
113	0x3ca21eea	0.019790132
114	0xbd52d7d9	-0.05147538
115	0xbd1e5d95	-0.038663466
116	0x3e653f55	0.2238744
117	0x3c910b49	0.017705576
118	0x3e400e6f	0.18755506
119	0xbdf55320	-0.119787455
120	0x3e085b9b	0.13316195
121	0x3a3eadd2	0.0007273826
122	0xbc9daf6b	-0.019248685
123	0xbdb7d8a8	-0.08976871
124	0xbd916fe1	-0.07101417
125	0x3c165f74	0.009178031
126	0x3e0409a5	0.12894304
127	0x3d96daec	0.07365975
128	0x3df30c51	0.118675835
129	0x3dafcc90	0.08583939
130	0x3cee052a	0.029055197
131	0x3c995f70	0.018722266
132	0xbdc150eb	-0.09439262
133	0x3d4cd9f4	0.050012544
134	0xbd530675	-0.05151983
135	0xbc894108	-0.016754642
136	0x3cfde931	0.030994983
137	0x3e21698e	0.15762922
138	0xbd46ae5a	-0.04850612
139	0x3ded91a2	0.11600043
140	0x3e17e2bf	0.1483259
141	0x3e22c5ad	0.1589572
142	0x3e1d0bdd	0.15336557
143	0xbdbcabc7	-0.092124514
144	0x3d09beb6	0.03362914
145	0xbe05aaf3	-0.13053493
146	0x3e12441a	0.14283791
147	0xbd692f80	-0.056930065
148	0xbdcf8920	-0.101335764
149	0x3d8ca283	0.06866934
150	0x3d681498	0.056660265
151	0xbda27a22	-0.07933451
152	0xbd367cbc	-0.04455255
153	0xbda0075b	-0.07813903
154	0x3d984c77	0.074364595
155	0xbddd0c48	-0.10793358
156	0xbe201411	-0.15632655
157	0x3d8b441b	0.068000995
158	0x3e000a90	0.1250403
159	0xbe06b6d3	-0.1315568
160	0xbe179dd1	-0.14806296
161	0xbc2055c1	-0.00978607
162	0xbc66de48	-0.014091082
163	0xbbbcfb1a	-0.0057672383
164	0x3def8726	0.116956994
165	0xbd3552c1	-0.044268373
166	0x3d2317d8	0.03981766
167	0xbe0397eb	-0.12850921
168	0x3e32047d	0.17384525
169	0xbe0d1dc3	-0.13780884
170	0x3db9d45d	0.09073708
171	0xbe380827	-0.1797186
172	0x3d103446	0.0352061
173	0x3cc51a5e	0.024060424
174	0x3dd9587a	0.10612579
175	0x3e044635	0.12917407
176	0xbd16c87a	-0.036812283
177	0x3de5874e	0.11207448
178	0x3dfa1d8d	0.122126676
179	0xbd8675a8	-0.0656541
180	0x3e34f0e7	0.17670022
181	0x3df8c141	0.12146235
182	0x3cb3fb7c	0.021970503
183	0x3e58d1c7	0.21173774
184	0x3c134cbd	0.008990464
185	0xbd0c75a1	-0.034291867
186	0xbd6a55f9	-0.057210896
187	0x3e2bcbf9	0.16777028
188	0xbc865ab5	-0.016400674
189	0x3da35e4c	0.0797697
190	0x3d9dfe6f	0.07714545
191	0x3e0d6b72	0.13810518
192	0xbdbf45e2	-0.09339501
193	0x3d878e80	0.066189766
194	0xbd42b66f	-0.047537263
195	0x3e21dba9	0.1580645
196	0xbe052d48	-0.13005555
197	0x3da66ab7	0.08125823
198	0xbdd64815	-0.10462967
199	0x3e17eac2	0.14835647
200	0xbe1df937	-0.15427099
201	0x3e2199f9	0.15781392
202	0x3e01a2aa	0.12659708
203	0xbe03e3fe	-0.12879941
204	0x3d49a85c	0.049232826
205	0xbdefc735	-0.117079176
206	0x3de98b19	0.11403484
207	0xbd8263be	-0.063666806
208	0xbe41dd68	-0.18932116
209	0x3e1cc77c	0.15310472
210	0x3e20f284	0.15717512
211	0x3e03a36e	0.12855312
212	0x3cd5de2c	0.026106916
213	0x3e0ed95d	0.13950105
214	0xbc3af997	-0.011412046
215	0x3da68be1	0.081321485
216	0x3dda406c	0.10656819
217	0xbdad39e7	-0.084583096
218	0x3d07be43	0.033140432
219	0xbdd98413	-0.10620894
220	0x3d9e5df3	0.07732763
221	0xbd4722bf	-0.04861712
222	0x3cc4b6f0	0.024013013
223	0xbde8b242	-0.11362125
224	0xbd2d2891	-0.042275015
225	0xbe07eabe	-0.13273141
226	0x3e152dfe	0.14568326
227	0xbd366d91	-0.044538084
228	0xbdea22e5	-0.11432437
229	0x3e251093	0.16119604
230	0x3e3eccb8	0.18632782
231	0x3e0ce309	0.13758482
232	0xbdbbdbfc	-0.09172818
233	0xbe570220	-0.20996904
234	0xbe081954	-0.13290912
235	0x3dbf86ac	0.093518585
236	0x3d60d716	0.054892622
237	0x3d691947	0.056908872
238	0x3dc69741	0.09696818
239	0x3daab929	0.08336098
240	0x3c87b1b5	0.01656423
241	0xbdbf4685	-0.093396224
242	0x3e49f72d	0.19723196
243	0x3e04d1b3	0.12970619
244	0x3bac4fbc	0.0052585285
245	0xbe05cac3	-0.13065629
246	0x3d907270	0.07053077
247	0x3d477d06	0.048703216
248	0xbe11fe9a	-0.14257279
249	0xbd816ee7	-0.06319981
250	0x3df0f45f	0.1176536
251	0xbe0ace25	-0.135552
252	0xbd5ad52d	-0.053425957
253	0xbde6e0c8	-0.11273342
254	0xbd1204fb	-0.03564928
255	0x3dbe88d8	0.093034446

network.0.bias f4 [256]
0	0x3e2d8bf7	0.16947924
1	0x3daa1e13	0.083065175
2	0x3e863cbc	0.26218212
3	0xbda0f830	-0.07859838
4	0x3e6fc236	0.2341393
5	0x3da78427	0.08179503
6	0x3e26f827	0.163056
7	0xbd70eb10	-0.058817923
8	0x3d842615	0.06452576
9	0x3e0f3f69	0.13989033
10	0x3ea9804f	0.33105704
11	0x3eb6ae27	0.35679743
12	0xbe5b4573	-0.21413212
13	0x3e9f88d7	0.31159088
14	0xbdb87048	-0.09005791
15	0xbd495365	-0.049151797
16	0x3e1f079a	0.15530244
17	0x3e9667b1	0.29375985
18	0x3d0be96b	0.03415815
19	0x3be4d516	0.0069834096
20	0xbdd06254	-0.101750046
21	0x3e943bbb	0.2895182
22	0x3e97de2d	0.29661694
23	0xbd95fbc7	-0.07323413
24	0x3d50820b	0.05090527
25	0x3d8b42cc	0.0679985
26	0x3e1ab4fc	0.15108103
27	0xbe091f8a	-0.13390937
28	0xbdcbbf97	-0.09948652
29	0xbd93b31e	-0.07211898
30	0x3d58c77a	0.05292461
31	0x3e805de6	0.2507164
32	0x3e39c0d1	0.1813996
33	0x3e09d655	0.13460667
34	0x3e5d08b7	0.21585356
35	0x3e33d494	0.17561561
36	0x3e0e1410	0.1387484
37	0xbd9d3481	-0.0767603
38	0x3e915251	0.28383115
39	0xbe32b736	-0.17452702
40	0xbe306fe4	-0.17230183
41	0x3e16e240	0.14734745
42	0xbe2370e6	-0.15961036
43	0xbe0cae80	-0.13738441
44	0xbe55d727	-0.20882855
45	0x3e8bb78a	0.27288467
46	0x3e6a382d	0.22872992
47	0x3eb29513	0.3487936
48	0xbdca3a3f	-0.09874391
49	0x3e785f01	0.24254991
50	0x3e5a4ced	0.21318407
51	0xbdfc7cf4	-0.123285204
52	0x3e890731	0.267633
53	0x3e93e905	0.28888717
54	0x3d8f903d	0.07009933
55	0x3d98b3c7	0.07456165
56	0x3e9fe532	0.3122955
57	0xbdf592a5	-0.11990861
58	0xbe1d1e9b	-0.15343706
59	0xbce438fb	-0.027859202
60	0x3e642890	0.22281098
61	0xbd9a5f55	-0.075377144
62	0x3e5be7a1	0.21475078
63	0x3d3451b9	0.04402325
64	0x3bc052df	0.005869254
65	0xbe05679b	-0.13027804
66	0xbd12c16d	-0.035828996
67	0xbdb92b06	-0.09041409
68	0x3e7bd1a3	0.24591689
69	0x3d3ef767	0.04662266
70	0x3e7b0d45	0.2451678
71	0xbe142a99	-0.14469375
72	0xbac4681b	-0.0014984639
73	0x3de2c95f	0.11073565
74	0x3e182df4	0.1486128
75	0xbe03ffc4	-0.12890536
76	0xbe0b8843	-0.13626198
77	0xbdfaa1dc	-0.122379035
78	0x3e3f40a4	0.18677002
79	0xbd38ce43	-0.04511858
80	0x3d873925	0.06602696
81	0x3e9166f7	0.28398868
82	0x3e0adc61	0.1356063
83	0xbd81e0b9	-0.063416906
84	0x3e63746f	0.22212385
85	0x3e4bd3a6	0.19904956
86	0xbd47aefc	-0.048750862
87	0x3e3b42b9	0.18287171
88	0x3e6823f8	0.22669971
89	0x3cdb1cce	0.026747134
90	0x3e69bae5	0.22825201
91	0x3e84c70b	0.25933108
92	0x3d9547cd	0.072890855
93	0x3d38a697	0.045080747
94	0x3eaa8683	0.3330575
95	0x3ea96cd6	0.33090848
96	0x3db76e31	0.08956564
97	0xbd28018f	-0.04101711
98	0x3ea5f7c8	0.32415605
99	0x3deaeae2	0.114705816
100	0xbdeb2115	-0.11480919
101	0xbd5954b8	-0.05305931
102	0xbc9916c8	-0.01868762
103	0xbe11643a	-0.1419839
104	0x3e110a18	0.14164007
105	0xbd32b639	-0.043630812
106	0xbd142c62	-0.03617514
107	0x3e5ff9fa	0.21872702
108	0xbe123688	-0.14278615
109	0x3e63fac5	0.2226363
110	0x3e76ab35	0.24088748
111	0x3dc1156e	0.094279155
112	0xbe1e84e4	-0.15480381
113	0xbe361ded	-0.17784853
114	0x3d637e24	0.05554022
115	0x3e9a50e6	0.30139846
116	0x3e16ef07	0.14739619
117	0x3e13f760	0.14449835
118	0xbd83b077	-0.064301424
119	0xbb0e215c	-0.0021687364
120	0x3d6cd425	0.057819504
121	0x3e429406	0.19001779
122	0x3d9be59c	0.07612154
123	0x3dd19930	0.10234296
124	0xbd33ae49	-0.043867383
125	0xbd1bc565	-0.038030047
126	0xbde54898	-0.11195487
127	0x3df2444c	0.11829433
128	0x3c60465f	0.013688653
129	0x3a378d46	0.00070019474
130	0x3e82ec6a	0.25570995
131	0x3e9f2ac8	0.31087327
132	0x3e264fa7	0.16241322
133	0x3e5e6f15	0.21722062
134	0x3de09aaa	0.10967
135	0x3e7850aa	0.24249521
136	0x3e6d344a	0.23164478
137	0x3e37afd8	0.17938173
138	0x3e856d60	0.2606001
139	0x3e9412b0	0.28920507
140	0x3e916dbc	0.28404033
141	0x3e08cb10	0.13358712
142	0x3e807c8e	0.25095028
143	0xbd6d939a	-0.058002092
144	0x3e9f9a4e	0.31172413
145	0x3e990225	0.2988445
146	0x3e8ab206	0.27088946
147	0xbcc0615f	-0.02348393
148	0xbd10f886	-0.03539326
149	0x3d89e6c7	0.067334704
150	0xbdab317b	-0.08359047
151	0x3b22a3cd	0.002481687
152	0xbe0f49be	-0.13992974
153	0x3dc9994d	0.09843693
154	0x3d59fef1	0.053221647
155	0x3e1b333b	0.15156262
156	0xbd92e751	-0.07173026
157	0x3e83dffc	0.25756824
158	0xbcdbd051	-0.026832731
159	0x3e792fea	0.24334684
160	0x3e80be6a	0.25145274
161	0x3e1effdd	0.15527292
162	0x3e967ecb	0.2939361
163	0x3c13de44	0.00902516
164	0xbc5deb35	-0.013544847
165	0xbbf1f83b	-0.0073843277
166	0xbe318135	-0.17334445
167	0x3e6d73bd	0.23188682
168	0xbc44fdf0	-0.012023434
169	0xbd28c4a2	-0.04120315
170	0x3e6ad746	0.22933683
171	0xbe45d3e6	-0.19319114
172	0x3e53864a	0.20656696
173	0xbe1d3807	-0.15353404
174	0x3e9cda33	0.30635223
175	0x3d8c29bf	0.068439
176	0x3e8df28c	0.2772411
177	0xbe2907ab	-0.16506831
178	0x3e8d3f84	0.2758752
179	0x3e844bca	0.25839072
180	0x3e3c8f74	0.18414098
181	0x3e70bdf4	0.23509961
182	0xbd28ce64	-0.041212454
183	0x3c59b46c	0.013287645
184	0x3e850913	0.25983486
185	0xbe096bae	-0.13419983
186	0x3d9ac68b	0.075574
187	0x3e02c0e1	0.1276889
188	0x3e7af0e8	0.24505961
189	0x3e697b90	0.22801042
190	0x3e6ce2aa	0.2313334
191	0xbd88769b	-0.06663247
192	0x3dc476c8	0.09592968
193	0x3e07a184	0.13245207
194	0x3d54a3f0	0.051914155
195	0x3e1ef1a8	0.15521872
196	0x3e8e4ac0	0.27791405
197	0xbe3e95b6	-0.18611798
198	0xbd81d3f4	-0.06339255
199	0x3e4c57ee	0.19955418
200	0x3da9ec3d	0.08297012
201	0xbcf5b7dc	-0.029994898
202	0x3a2f41dd	0.00066855346
203	0xbe1e8f51	-0.15484358
204	0x3e64a35c	0.22327942
205	0xbca28df7	-0.019843085
206	0xbdd443a3	-0.10364463
207	0x3e880ada	0.2657078
208	0x3e441a82	0.19150737
209	0xbd9fc5a9	-0.078013726
210	0x3ea2ee35	0.31822363
211	0x3e961ad2	0.29317337
212	0x3e4d9bee	0.20079014
213	0x3d53944a	0.05165509
214	0x3e551136	0.20807347
215	0x3e8c49a0	0.2739992
216	0x3e7754eb	0.24153487
217	0x3db4e7e3	0.088332914
218	0xbd1659c4	-0.0367067
219	0x3e4c77a3	0.19967513
220	0x3e0b7541	0.13618948
221	0x3e78b24a	0.24286762
222	0x3bdf89eb	0.006821861
223	0xbe178f93	-0.14800863
224	0x3e9d0f22	0.30675608
225	0x3ddb27e9	0.10700972
226	0x3e20cfac	0.1570422
227	0x3e444ce7	0.19169961
228	0x3e4c244f	0.19935726
229	0xbdac1a64	-0.08403471
230	0x3e92fe61	0.287097
231	0x3c875cf0	0.016523808
232	0x3e7e4916	0.24832568
233	0x3e256f2c	0.1615569
234	0x3cb0d5bf	0.021586297
235	0x3cd2318a	0.025658388
236	0xbd23d767	-0.040000346
237	0xbd1ed3e5	-0.038776297
238	0x3e9ed23f	0.3101978
239	0x3de6def6	0.11272995
240	0xbe090473	-0.13380603
241	0x3d950f51	0.07278312
242	0x3e3bbc84	0.18333632
243	0x3e8317f0	0.256042
244	0xbb643d15	-0.0034826447
245	0x3976e58d	0.00023545903
246	0xbabfb476	-0.0014625925
247	0x3e46e524	0.19423348
248	0x3e5fcdc3	0.21855836
249	0xbdf1c94b	-0.11805972
250	0x3e42a761	0.19009162
251	0xbe1124a8	-0.1417414
252	0x3e0defe6	0.13861045
253	0x3e8d34f5	0.27579466
254	0xbe466352	-0.19373825
255	0xbc981ae0	-0.018567502

network.2.weight f4 [27, 256]
0	0x3bc688e1	0.0060587977
1	0x3c56e645	0.013116424
2	0x3d9c40dc	0.076295584
3	0x3bd46efd	0.0064829574
4	0x3c9b9a99	0.018994616
5	0x3d419f84	0.047271267
6	0xbca3fc8a	-0.020017881
7	0x3ca623e8	0.020280793
8	0xbc54b1f9	-0.012981885
9	0xbcc2baed	-0.023770774
10	0x3c81e7fa	0.015857685
11	0x3dc220a7	0.09478884
12	0xbd30fd1f	-0.043210145
13	0x3d92dd80	0.07171154
14	0xbba898da	-0.0051451745
15	0xbc0fdc1b	-0.008780505
16	0x3d14b11a	0.03630171
17	0x3da2149d	0.07914088
18	0xbceae766	-0.028674792
19	0xbcd98731	-0.026553722
20	0x3b0697ce	0.002053726
21	0x3dbcc526	0.092172906
22	0x3d7b845b	0.06140552
23	0xbd1e70cc	-0.03868179
24	0x3d1d4fdc	0.038406238
25	0xbc58b44c	-0.01322658
26	0x3c68f8de	0.014219491
27	0xbc516300	-0.012779951
28	0xbd2e502a	-0.04255692
29	0xbd491c62	-0.049099334
30	0x3cb859f5	0.022503832
31	0x3ba1cf49	0.0049380404
32	0x3d3907bf	0.045173403
33	0xbcb6f4af	-0.022333471
34	0x3d93cb50	0.07216513
35	0x3c784787	0.015153772
36	0xbc82bb90	-0.015958577
37	0x3c03ce34	0.008044768
38	0x3d966ea8	0.07345325
39	0xbd150fda	-0.03639207
40	0x39a05c1b	0.00030586202
41	0x3d5754db	0.05257116
42	0xbcbbf587	-0.022944225
43	0xbd62d5be	-0.05537962
44	0xbc4b1d87	-0.012397177
45	0xbc019bb4	-0.007910658
46	0x3d34446d	0.04401057
47	0x3d2a4b8a	0.041575946
48	0xbce403c8	-0.027833834
49	0x3cb1ef11	0.021720441
50	0x3d0890f8	0.033341378
51	0xbce9f639	-0.02855979
52	0x3da7c0bf	0.0819106
53	0x3d914fb6	0.07095282
54	0x3b6dc727	0.0036282034
55	0xbd2f0075	-0.042725045
56	0x3d240164	0.04004039
57	0xbd088844	-0.033333078
58	0xbcdab587	-0.026697887
59	0x3cb1427b	0.021638146
60	0x3c0f8359	0.008759343
61	0x3c4f251a	0.012643123
62	0xbaca213e	-0.0015421284
63	0x3d221adb	0.039576393
64	0xbb5312aa	-0.003220717
65	0xbd4e172b	-0.050315063
66	0x3a6d5065	0.0009052812
67	0x3d802b86	0.062583014
68	0x3d51ed5e	0.05125176
69	0xbd3d3a38	-0.0461981
70	0x3c905aad	0.017621363
71	0xbd8248ed	-0.06361566
72	0xbc24d66c	-0.010060888
73	0x3d99cfea	0.075103596
74	0x39b3157c	0.00034157548
75	0xbb6bb6e8	-0.0035967175
76	0xbcb54194	-0.022125997
77	0xbca8c789	-0.020602958
78	0x3d86cdf8	0.06582254
79	0xbd18a345	-0.03726508
80	0xbca5ad1d	-0.020224148
81	0x3cd493e7	0.025949432
82	0x3d8d1077	0.06887906
83	0xbd03f06e	-0.032211713
84	0xbc1dd227	-0.009632624
85	0x3d24ea75	0.04026266
86	0x3c7194ca	0.014744947
87	0x3c08f1c0	0.008358419
88	0x3d3c846d	0.04602473
89	0x3c351502	0.011052372
90	0x3d4c7e98	0.049925417
91	0x3d992108	0.07477003
92	0x3d34b4a8	0.0441176
93	0xbd095eb9	-0.0335376
94	0x3de141ea	0.109989
95	0x3d3025bc	0.043004736
96	0x3c80b0e6	0.015709352
97	0xbcbaa75b	-0.02278488
98	0xbaabcd26	-0.0013107404
99	0xbc3367b3	-0.010950017
100	0x3d06ce3a	0.032911517
101	0xbc024fef	-0.007953628
102	0xbc7d2751	-0.015451268
103	0xbd9907c6	-0.07472186
104	0x3c90d14e	0.01767793
105	0x3cc535dc	0.024073534
106	0xbd78121a	-0.060564138
107	0x3d63621d	0.05551349
108	0x3d04f98f	0.03246456
109	0x3d0d9c2e	0.034572773
110	0xbb415cf7	-0.0029504874
111	0x3c4340bc	0.011917289
112	0xbc8c3877	-0.017116768
113	0x3d0194ec	0.031636164
114	0x3c36ab8a	0.011149297
115	0x3d417ee5	0.047240157
116	0x3d188641	0.03723741
117	0x3c9da6ab	0.019244513
118	0x3bebdc13	0.0071978658
119	0xbb366862	-0.0027833213
120	0xbd733b35	-0.059382636
121	0x3d8e22c9	0.069402285
122	0xbc933ce3	-0.017973369
123	0x3da5dc28	0.08098632
124	0xbb5714d8	-0.003281882
125	0xb77ee6ac	-1.5193287e-05
126	0xbc4f9e66	-0.0126720425
127	0x3c7ff4b2	0.015622305
128	0xbc267335	-0.010159303
129	0xbd4680fc	-0.048462853
130	0x3d266cdb	0.040631156
131	0x3bd576a8	0.006514389
132	0x3cc7d6e0	0.024394453
133	0x3cee9454	0.029123463
134	0xbd0e414b	-0.034730237
135	0x3deed865	0.11662368
136	0x3c9edaee	0.019391503
137	0x3d429953	0.047509503
138	0x3bb599a4	0.005541997
139	0x3d898a76	0.067158625
140	0x3d403271	0.046923105
141	0xbcdaf1e9	-0.02672668
142	0x3a7c3cab	0.00096220773
143	0x3ad07fee	0.0015907267
144	0x3ceff399	0.029290961
145	0x3d710335	0.05884095
146	0x3d1af6eb	0.037833136
147	0x3c264472	0.010148155
148	0xbd42b311	-0.047534052
149	0xbcdd088f	-0.02698162
150	0xbd73aa8c	-0.059488818
151	0x3cd3ff44	0.025878556
152	0x3c4d022b	0.012512724
153	0xbc74e623	-0.014947447
154	0xbc5c871a	-0.013459945
155	0x3cf302be	0.029664394
156	0xbd696591	-0.056981627
157	0x3d656654	0.05600579
158	0xbae18a59	-0.0017207369
159	0x3c9e5c1d	0.019331032
160	0x3c6093b3	0.013707089
161	0x3a6c3f9d	0.00090121647
162	0x3d946945	0.07246641
163	0xbc805e6b	-0.015670022
164	0x3d5efe9a	0.054442026
165	0x3bbd553b	0.0057779825
166	0xbbf993dc	-0.007616503
167	0x3d3cf535	0.046132285
168	0xbcb318aa	-0.021862347
169	0x3c024e05	0.007953172
170	0x3d430561	0.04761255
171	0xbd5c4462	-0.053776152
172	0x3ce45161	0.027870836
173	0x3c66d3fd	0.014088628
174	0x3d64297a	0.055703618
175	0x3c6d91c8	0.014500089
176	0xbb84677f	-0.004040658
177	0xbd199628	-0.037496716
178	0x3c5e666c	0.013574224
179	0x3d559bc3	0.0521505
180	0x3d9c8327	0.07642203
181	0x3e089edf	0.13341855
182	0x3c8e1d17	0.017347855
183	0xbc85c3fe	-0.016328808
184	0x3d221606	0.039571784
185	0xbc1b993c	-0.009496983
186	0xbc94a3a3	-0.018144434
187	0x3c86b071	0.016441556
188	0x3ba5f732	0.0050648684
189	0x3cc859d3	0.024456894
190	0x3d2d21fc	0.04226874
191	0xbd66e715	-0.05637272
192	0x3c09cda5	0.008410846
193	0x3c541ebe	0.012946783
194	0x3d5eb356	0.054370247
195	0x3d053c84	0.032528415
196	0x3d5b2f85	0.053512115
197	0xbb121be1	-0.002229445
198	0x3c1dddd7	0.00963541
199	0xbc3d5176	-0.011555066
200	0x3c859347	0.016305579
201	0x3c069617	0.008214495
202	0x3d3494d6	0.044087254
203	0xbc16229f	-0.009163528
204	0xbc3859ba	-0.011251861
205	0xbc6dd637	-0.014516405
206	0xbd7aefdb	-0.0612639
207	0x3d76df7a	0.060271718
208	0xbbd21500	-0.006411195
209	0xbd8b168f	-0.06791412
210	0x3c84aa31	0.016194435
211	0x3d15a345	0.03653266
212	0x3ce1b8ce	0.027553942
213	0x3cd6f941	0.0262419
214	0x3d553c1c	0.052059278
215	0x3dc63416	0.09677903
216	0x3c97f8e4	0.018551297
217	0x3d2a86d2	0.04163248
218	0xbcb65c5d	-0.02226084
219	0x3cc4f68a	0.02404334
220	0x3da95a19	0.08269138
221	0x3c977ccb	0.018492123
222	0xbd10a1b3	-0.03531046
223	0x3b3f405e	0.0029182653
224	0xbcd490ab	-0.02594789
225	0xbd42f817	-0.04759988
226	0x3ba1a0a0	0.004932478
227	0x3d84ffea	0.06494124
228	0xbc7ddda2	-0.015494736
229	0xbc4f48d9	-0.012651646
230	0x3ca3d41b	0.0199986
231	0x3b8795b8	0.004137721
232	0x3cf890af	0.030342428
233	0x3c940d49	0.018072741
234	0xbd1bce5d	-0.0380386
235	0xbcd3e4ad	-0.025865877
236	0xbd2e38d6	-0.04253467
237	0x3c4c8a97	0.012484214
238	0x3ced4d47	0.028967513
239	0x3d545888	0.051842242
240	0x3cc33d38	0.023832902
241	0x3bf4c69b	0.0074699647
242	0xbb77b1a8	-0.00377951
243	0xbb8a9b99	-0.0042299745
244	0x3ca1ce43	0.019751674
245	0xbb0f18a5	-0.0021834758
246	0xbacb91ed	-0.001553116
247	0x3cfa0855	0.030521551
248	0x3d485469	0.048908625
249	0xbd45577f	-0.048179146
250	0x3d8667d9	0.06562776
251	0xbcf4a17b	-0.029862156
252	0x3d1f3698	0.038870424
253	0x3d3205a6	0.043462418
254	0x3d705368	0.058673292
255	0xbcdb10c8	-0.0267414

network.2.bias f4 [27]
0	0x3df1c195	0.11804501
1	0x392c5748	0.00016435713
2	0x3d30a596	0.043126665
3	0x3d04efbb	0.032455187
4	0x3db000f5	0.085939325
5	0x3daa7003	0.08322146
6	0x3dd07f5d	0.101805426
7	0x3ce715b7	0.028208597
8	0x3d8cdcc9	0.06878049
9	0x3dd24904	0.10267833
10	0x3cf87618	0.030329749
11	0x3d8dc9d0	0.06923258
12	0x3cc4ec19	0.024038361
13	0x3c58c55c	0.013230648
14	0x3d4c8187	0.049928214
15	0x3d96a1e3	0.07355096
16	0x3d0b3738	0.033988208
17	0x3dd9a0b9	0.106263585
18	0x3d2a8a7a	0.041635968
19	0x3dab6400	0.08368683
20	0x3dacc91a	0.084367946
21	0x3d9e5efc	0.077329606
22	0x3ba4ed41	0.0050331657
23	0x3d2b2832	0.04178638
24	0x3d7187a8	0.058967263
25	0x3d31a65d	0.043371547
26	0x3dabaa74	0.08382121
