code/experiments/dist_thresh/dqn/6/models/2.pth (torch, 62355 bytes, 4 tensors)

network.0.weight f4 [248, 33]
-0.02252972 0.15438113 -0.16220032 -0.05496362 -0.0985634 -0.12768659 0.15813608 0.102321155
-0.1161412 0.14507402 0.089823686 -0.018214678 -0.1217701 -0.08479749 0.09423773 0.13666062
-0.17399113 -0.1698837 -0.073861286 -0.1698852 0.049237892 -0.07400743 -0.008029124 0.036093898
-0.12217504 0.077549964 -0.21535021 -0.052306354 -0.045191143 -0.12216589 -0.22192092 0.04117754
-0.26893422 -0.062691554 -0.022432525 -0.048127446 0.10076557 -0.16510007 0.057527494 -0.117378525
0.10473816 0.076012634 0.051366974 0.16551852 -0.104568124 -0.1350373 0.13779037 0.11137818
-0.15803811 -0.11673201 -0.13827914 0.13136266 -0.00811577 -0.11377891 0.09636772 -0.042617276
-0.13181713 0.12627713 0.0605667 0.10139614 -0.22884072 0.3203545 -0.026762942 -0.12063041
-0.09352164 0.0004989263 0.00017870062 -0.06605576 -0.05422965 -0.034627546 0.04852376 -0.082917474
0.08938893 0.14426726 -0.11853368 0.029688923 0.024959762 -0.08613109 0.021410955 0.11888769
0.06544792 -0.043246884 0.118131496 -0.04893633 -0.07768029 0.03490389 0.077396534 -0.03797766
-0.10651548 0.08572158 -0.09716879 0.1306031 0.028868794 0.027594889 -0.19996509 -0.1286644
-0.028203137 0.06010682 -0.070821546 0.12099546 0.087343164 0.07609678 -0.15402222 0.038473867
-0.006211243 -0.03060948 0.04720553 0.14445192 -0.13422756 0.13054214 -0.05863041 0.11477749
0.15103081 -0.07416625 -0.048614822 0.07934979 -0.12388253 -0.12995744 -0.07364155 -0.081034265
0.077845335 -0.04100265 -0.048744388 0.015988097 -0.069829345 0.0182698 -0.60339576 -0.15734951
0.21662265 0.74056 0.14885841 -0.036501195 0.09679827 -0.15017356 -0.0770542 -0.09151067
-0.038722094 0.04614491 0.015277584 -0.16428559 0.14588791 -0.12558807 -0.1107647 0.10791699
-0.14333417 -0.0042528897 -0.03724087 0.031795073 0.023331314 -0.013915533 0.20254946 -0.1055216
0.11581338 0.10595922 -0.05425774 -0.11765395 -0.018411214 -0.14053515 0.15178154 -0.06260717
-0.2089331 0.022893569 -0.22702679 0.2620193 0.15169902 -0.14352295 0.022764016 0.00463
0.039104585 0.10420642 0.11538342 -0.074748404 -0.07012437 0.023615602 -0.15449964 0.06852055
0.05636659 -0.05551552 -0.019036528 -0.022821447 -0.09625324 -0.0691849 -0.07845494 0.038734015
0.19992124 -0.019180832 0.17437637 -0.11345741 0.086483 0.07762559 -0.114570506 -0.20149575
-0.07575808 0.2179627 0.07903662 0.2908276 0.4803965 -0.25519177 0.11769109 -0.031277
0.07539939 0.007159823 -0.026532784 0.11214193 0.07373566 -0.11672618 -0.08724864 0.07441432
-0.02639696 -0.084801674 -0.16169159 -0.06414523 -0.019850906 -0.018543635 0.019693796 -0.15676004
0.09375512 0.0319258 0.037413538 0.016455323 0.16922721 0.02193697 -0.018795963 -0.036680274
0.10080037 -0.24240436 -0.03267197 -0.23330326 0.27383375 -0.1305785 -0.107053705 0.15790997
-0.0941816 -0.17647152 0.011813174 0.1494468 -0.10905277 0.032837886 0.18470041 0.026195344
-0.10759527 0.041181304 0.122555174 0.06624571 -0.068641685 -0.15572564 -0.098790355 -0.092062004
0.000888815 0.10084361 0.017019678 0.03526332 -0.01710344 -0.09531348 -0.035504565 0.018750088
00000000: 3f90 b8bc 1616 1e3e d717 26be 8821 61bd
00000010: 9cdb c9bd 46c0 02be 6dee 213e c18d d13d
00000020: 70db edbd 498e 143e 7bf5 b73d f336 95bc
00000030: 9a62 f9bd 4eaa adbd b6ff c03d c3f0 0b3e
00000040: bb2a 32be fef5 2dbe 9644 97bd 63f6 2dbe
00000050: acad 493d 3591 97bd 968c 03bc 32d7 133d
00000060: e836 fabd 84d2 9e3d c484 5cbe 303f 56bd
00000070: 591a 39bd 1c32 fabd 3d3f 63be c8a9 283d
00000080: bfb1 89be 6e64 80bd 6ac4 b7bc 4921 45bd
00000090: 2e5e ce3d fe0f 29be f3a1 6b3d 2764 f0bd
000000a0: f680 d63d 83ac 9b3d 2d66 523d b07d 293e
000000b0: d027 d6bd 3847 0abe eb18 0d3e 3e1a e43d
000000c0: bed4 21be 3111 efbd 0c99 0dbe ef83 063e
000000d0: 02f8 04bc eb04 e9bd 705c c53d 748f 2ebd
000000e0: 12fb 06be cb4e 013e ca14 783d c8a8 cf3d
000000f0: 3955 6abe 8105 a43e f53d dbbc 140d f7bd
00000100: 4688 bfbd 61ca 023a 9561 3b39 3e48 87bd
00000110: e91f 5ebd 9dd5 0dbd dac0 463d a3d0 a9bd
00000120: 8b11 b73d ccba 133e c9c1 f2bd 2f36 f33c
00000130: 6a78 cc3c 7f65 b0bd 0766 af3c 647b f33d
00000140: 8f09 863d a523 31bd edee f13d 7671 48bd
00000150: d816 9fbd 62f7 0e3d 1382 9e3d 768e 1bbd
00000160: ca24 dabd cc8e af3d 6e00 c7bd d2bc 053e
00000170: 407e ec3c ad0e e23c a6c3 4cbe 9ac0 03be
00000180: 440a e7bc 9232 763d e30a 91bd 78cc f73d
00000190: f9e0 b23d a1d8 9b3d 00b8 1dbe c696 1d3d
000001a0: af87 cbbb bbc0 fabc 965a 413d 34eb 133e
000001b0: f372 09be d7ac 053e 7126 70bd 7610 eb3d
000001c0: d2a7 1a3e 7ae4 97bd 5620 47bd 2582 a23d
000001d0: 20b6 fdbd 9013 05be 62d1 96bd 4bf5 a5bd
000001e0: 606d 9f3d 65f2 27bd 32a8 47bd 78f9 823c
000001f0: b002 8fbd 8caa 953c 2578 1abf 3b20 21be
00000200: 54d2 5d3e 5795 3d3f 576e 183e 4782 15bd
00000210: 2c3e c63d 19c7 19be 98ce 9dbd f269 bbbd
00000220: 0f9b 1ebd 7202 3d3d d54e 7a3c 7b3a 28be
00000230: a463 153e 299a 00be 9ad8 e2bd 9503 dd3d
00000240: 31c6 12be d35b 8bbb e289 18bd 8d3b 023d
00000250: 5021 bf3c fafd 63bc 2069 4f3e b51b d8bd
00000260: 912f ed3d 2601 d93d 5d3d 5ebd 8ef4 f0bd
00000270: 1dd3 96bc 72e8 0fbe 9f6c 1b3e 3038 80bd
00000280: 8ff2 55be 4b8b bb3c b679 68be 6527 863e
00000290: fd56 1b3e aef7 12be 9a7b ba3c 41b7 973b
000002a0: 212c 203d 2d6a d53d 244e ec3d b115 99bd
000002b0: 5e9d 8fbd 8275 c13c 2735 1ebe 8154 8c3d
000002c0: a7e0 663d 3e64 63bd 7ef2 9bbc 0bf4 babc
000002d0: 6b20 c5bd d0b0 8dbd fcac a0bd 8fa7 1e3d
000002e0: 27b8 4c3e 1f21 9dbc b88f 323e 5c5c e8bd
000002f0: 001e b13d 2afa 9e3d f1a3 eabd e754 4ebe
00000300: 0d27 9bbd 9d31 5f3e f4dd a13d 5be7 943e
00000310: 88f6 f53e 7fa8 82be 0708 f13d 501c 00bd
00000320: ff6a 9a3d f39c ea3b 485b d9bc abaa e53d
00000330: b902 973d 230e efbd 6aaf b2bd 8966 983d
00000340: 703e d8bc 80ac adbd 7b92 25be 935e 83bd
00000350: 5e9e a2bc d2e8 97bc e254 a13c b485 20be
00000360: af02 c03d a1c4 023d f03e 193d 50cd 863c
00000370: e649 2d3e 29b5 b33c fef9 99bc 0e3e 16bd
00000380: 6d70 ce3d d938 78be 0bd3 05bd 0de7 6ebe
00000390: f033 8c3e 5fb6 05be f93e dbbd 27b3 213e
000003a0: 48e2 c0bd f3b4 34be 0b8c 413c 9508 193e
000003b0: 0f57 dfbd 0581 063d 1b22 3d3e 9e97 d63c
000003c0: e95a dcbd baad 283d 35fe fa3d d5ab 873d
000003d0: 0394 8cbd 8b76 1fbe 9952 cabd 018b bcbd
000003e0: 5dff 683a 1887 ce3d da6c 8b3c 4570 103d
000003f0: 831c 8cbc b733 c3bd 3c6d 11bd c999 993c

network.0.bias f4 [248]
0.0026351106 0.07471047 0.118422806 -0.24923387 0.1589515 0.22057039 -0.01654603 -0.1421897
-0.090864226 -0.03508196 0.034655973 0.31343246 0.22107412 0.25050646 0.0717928 0.050438095
-0.1457732 -0.050877307 -0.05854725 -0.20751907 -0.053591143 0.24278374 -0.15577957 0.07325303
0.19321327 0.12714496 0.22716907 0.34860212 0.09134938 -0.02618329 0.12868772 -0.11404447
0.13888268 0.10401402 0.09333948 -0.22319464 0.035191413 0.25700995 0.26374823 0.17184405
0.103714615 0.19853947 -0.09596927 0.09109201 0.28093594 0.011426552 0.2111208 0.0720187
-0.03491286 -0.0852141 0.15996857 0.21106224 0.11797755 -0.16678758 0.052448295 0.13998371
-0.08857088 0.132907 0.1290961 0.18757913 -0.1242878 0.15424156 0.12059368 -0.14191128
0.026678534 -0.17397548 0.24708205 0.12278952 0.25748742 -0.23714918 -0.14984691 0.27788422
-0.08044429 0.2214382 0.10409222 0.22167364 0.25386676 -0.16891961 0.032993764 -0.13677217
-0.19430895 0.13506974 0.15579371 -0.0691629 0.121874355 0.061089706 -0.03622331 0.17014058
0.046282716 -0.06953037 0.3239504 0.11944452 0.346334 0.23728864 0.24944687 0.12347588
-0.11966179 -0.14631473 0.24819218 0.23444562 0.22037877 0.17193757 0.09198274 0.13192587
-0.15124473 0.257214 0.11983384 0.025073936 0.022131769 0.38994968 0.17104205 0.28698018
-0.26731867 0.05149837 0.21821605 0.08498423 0.0021718214 -0.13140607 0.30217886 -0.11744168
0.12792274 0.28376687 0.045442514 -0.12213255 0.30863175 -0.015259222 0.027810674 0.024274094
-0.16379541 -0.049971372 -0.0117508825 0.07342591 0.120795816 -0.14837435 0.17345385 -0.109055206
0.21740493 0.120949775 0.11643403 -0.021393817 0.203778 0.09470025 0.33812222 0.23585874
-0.2826695 -0.13473198 0.091823995 0.21761903 0.12954836 0.08675996 0.053217195 0.22031383
0.22479291 -0.17566326 -0.08287215 0.32090572 -0.013398835 0.24588116 -0.03206399 -0.083868444
-0.04819876 -0.061554957 0.15998732 -0.08562529 0.14745381 0.0784965 0.085938126 -0.12720579
0.068602055 0.01843783 -0.3547342 -0.27352694 0.093336165 0.26897898 -0.1535903 0.11908451
-0.008794286 0.062654175 -0.114293836 0.050408553 -0.33372372 0.1293345 0.0575101 -0.0044867457
-0.065278284 0.054147743 0.013097132 -0.007295506 0.21393815 -0.19659604 0.30332443 0.021000663
0.09328649 0.19815081 0.074017346 -0.10283917 0.029480586 0.34978497 0.05677254 -0.13196035
-0.18110582 0.07982956 0.3223699 0.034565605 -0.0140049355 -0.046767548 -0.10559762 0.058994535
0.18137088 0.22833347 -0.081388324 0.09418953 0.3570327 0.26091737 0.015261835 0.1684661
-0.09917414 0.055007126 0.025196098 -0.23344108 -0.062571645 0.15494521 0.08940966 0.070092715
-0.18064098 -0.092931576 0.33536282 0.08499899 0.09878498 0.118225165 0.33292297 0.18515807
0.0282437 0.2490806 -0.010670799 0.13677338 -0.17423826 0.05250296 -0.112763345 -0.00068607053
-0.0076891496 0.12354616 0.17250209 -0.02393215 -0.06011172 0.014302304 0.17301172 0.17972459
00000000: d2b1 2c3b ce01 993d a887 f23d 2a37 7fbe
00000010: 2fc4 223e 34dd 613e 8a8b 87bc 2d9a 11be
00000020: 0617 babd 1ab2 0fbd 6cf3 0d3d 387a a03e
00000030: 4161 623e 6242 803e 1b08 933d 2d98 4e3d
00000040: 9245 15be b964 50bd 3ecf 6fbd e17f 54be
00000050: 6382 5bbd 4d9c 783e ae84 1fbe af05 963d
00000060: b3d9 453e 4a32 023e 029f 683e fa7b b23e
00000070: 6215 bb3d 577e d6bc b7c6 033e 2690 e9bd
00000080: 4337 0e3e 4d05 d53d c528 bf3d 238d 64be
00000090: df24 103d cf96 833e 020a 873e e3f7 2f3e
000000a0: 5468 d43d ee4d 4b3e 898b c4bd 738e ba3d
000000b0: d6d6 8f3e 6f36 3b3c 0d30 583e 8a7e 933d
000000c0: c900 0fbd bb84 aebd cdce 233e b320 583e
000000d0: 379e f13d 5dca 2abe 06d4 563d e457 0f3e
000000e0: a664 b5bd c618 083e c531 043e be14 403e
000000f0: 9a8a febd 80f1 1d3e d2f9 f63d 3151 11be
00000100: f18c da3c a126 32be 1403 7d3e 1279 fb3d
00000110: 64d5 833e 3cd7 72be 7871 19be d746 8e3e
00000120: fabf a4bd b2c0 623e 4d2e d53d 6afe 623e
00000130: d3fa 813e 43f9 2cbe 7824 073d 010e 0cbe
00000140: edf8 46be b94f 0a3e 6388 1f3e 47a5 8dbd
00000150: 4399 f93d 3339 7a3d e55e 14bd 5539 2e3e
00000160: f292 3d3d f065 8ebd d4dc a53e 549f f43d
00000170: b152 b13e cbfb 723e 006f 7f3e ece0 fc3d
00000180: 3e11 f5bd 87d3 15be 1726 7e3e 8312 703e
00000190: f9aa 613e 6710 303e 7261 bc3d 9317 073e
000001a0: e6df 1abe 8eb1 833e 726b f53d db67 cd3c
000001b0: af4d b53c 7ca7 c73e a625 2f3e 11ef 923e
000001c0: fedd 88be f4ef 523d 0774 5f3e 360c ae3d
000001d0: 1e55 0e3b 508f 06be 30b7 9a3e 4385 f0bd
000001e0: 2efe 023e e449 913e ee21 3a3d a120 fabd
000001f0: fb04 9e3e d101 7abc 36d3 e33c 77da c63c
00000200: fcb9 27be c8ae 4cbd c686 40bc 5360 963d
00000210: cc63 f73d 72ef 17be e39d 313e 5658 dfbd
00000220: 669f 5e3e 84b4 f73d f774 ee3d 1642 afbc
00000230: 2eab 503e 34f2 c13d 5b1e ad3e f484 713e
00000240: 0fba 90be 2ef7 09be 380e bc3d 86d7 5e3e
00000250: 53a8 043e 35af b13d 46fa 593d f399 613e
00000260: 1d30 663e 12e1 33be e0b8 a9bd c14d a43e
00000270: ca86 5bbc 45c8 7b3e 8855 03bd 38c3 abbd
00000280: 106c 45bd 0d21 7cbd b7d3 233e 505c afbd
00000290: 22fe 163e c6c2 a03d 5400 b03d 3c42 02be
000002a0: 3c7f 8c3d ef0a 973c b99f b5be b90b 8cbe
000002b0: 0827 bf3d 9db7 893e c746 1dbe 94e2 f33d
000002c0: e915 10bc d550 803d e312 eabd 3379 4e3d
000002d0: d6dd aabe 4370 043e b68f 6b3d 8d05 93bb
000002e0: 9fb0 85bd 06ca 5d3d 5a95 563c 240f efbb
000002f0: 9a12 5b3e 7950 49be 574d 9b3e 9509 ac3c
00000300: fd0c bf3d 0ce8 4a3e 6896 973d 589d d2bd
00000310: 4581 f13c 0417 b33e 538a 683d 9d20 07be
00000320: ce73 39be ae7d a33d ab0d a53e aa94 0d3d
00000330: f574 65bc 548f 3fbd 9143 d8bd 41a4 713d
00000340: 4ab9 393e 40d0 693e ecae a6bd 71e6 c03d
00000350: fdcc b63e f696 853e c70c 7a3c 6182 2c3e
00000360: d01b cbbd 274f 613d 0c68 ce3c 2e0b 6fbe
00000370: 9025 80bd f5a9 1e3e 691c b73d c58c 8f3d
00000380: f3f9 38be e952 bebd adb4 ab3e f313 ae3d
00000390: c84f ca3d 0920 f23d e174 aa3e 149a 3d3e
000003a0: 555f e73c fc0e 7f3e 93d4 2ebc 520e 0c3e
000003b0: 846b 32be 580d 573d 78f0 e6bd 6ad9 33ba
000003c0: 43f5 fbbb c505 fd3d 63a4 303e 5b0d c4bc
000003d0: b537 76bd 3654 6a3c fc29 313e b909 383e

network.2.weight f4 [27, 248]
0.034747597 -0.07612964 0.019316256 -0.3678586 0.05727732 -0.12646006 -0.075313896 -0.09555907
0.067076206 0.06154637 0.13787824 0.05832265 0.065611586 0.06371712 0.024122436 -0.01013375
-0.16415457 0.047403194 -0.039325893 -0.068568386 -0.052790847 0.04461829 -0.0792371 0.039130736
0.067154154 -8.581104e-07 0.05913195 0.05729811 0.04123467 -0.09630752 0.036104567 -0.2007572
0.029688729 0.03645424 -0.07205991 -0.17511103 0.030523315 0.07437682 0.06081974 0.06565715
0.049119394 0.036930416 0.06543949 0.041707873 0.06994811 -0.08164764 0.068973765 0.043517824
0.11534322 0.023195827 0.07279749 0.01771396 0.023353163 -0.08318513 0.029006748 0.014809922
-0.13567325 -0.069346696 -0.0652653 0.10009472 -0.40241307 0.07673319 0.068852186 -0.14283884
0.03473604 -0.13042526 0.014741507 0.037433732 -0.00010611791 -0.3369938 0.05047314 0.025646752
-0.11693659 0.056096457 0.038189344 -0.12539303 0.015861318 -0.055574026 0.025052119 -0.019861482
0.18571125 0.0594008 0.07663638 -0.049427614 0.08856445 0.09128413 -0.06928414 0.06229297
0.012389993 -0.0788593 0.06555553 0.094129175 0.09751447 0.046285387 0.042231742 0.031912528
0.04389987 -0.09579648 0.06508282 0.048736207 0.04001588 0.030949896 -0.10315457 -0.13392852
-0.084269874 0.037719898 -0.049816627 0.09873047 -0.0028322937 0.004509788 0.043636464 0.048762694
-0.103873625 0.03966209 0.069141395 -0.075798914 -0.12137088 -0.07030391 0.03077042 0.06801349
0.053086624 0.039723594 0.08056152 -0.041281093 0.056186784 -0.08547601 0.028539913 0.06549287
-0.11965485 -0.041877884 -0.1835714 0.023294937 0.110410295 -0.18925588 0.06606804 0.029484194
0.025909234 0.0653257 0.03311865 0.051314987 0.060275134 0.030084817 0.08491021 0.057547543
-0.20623133 -0.044380642 0.07323838 0.04508435 0.028727574 -0.043923218 -0.07281246 0.13820335
0.07621542 -0.13237073 -0.06513686 0.035347838 -0.08846825 0.06551912 0.05754829 -0.06994588
0.12002391 -0.03835783 0.04617535 0.04430258 0.004298025 0.037232395 -0.046343554 -0.08940417
-0.08216726 -0.05247542 0.34928155 -0.09043061 0.032613385 0.07657108 -0.2593853 0.02429758
-0.14333782 0.0031007123 -0.061375264 0.022166887 0.17264292 0.048164237 0.020953482 -0.03352082
0.018857867 0.029017434 0.0021660505 0.0072437846 0.007840665 -0.111867376 0.04236212 0.020232704
0.0372407 0.049177773 0.042295337 -0.05297283 -0.050783906 0.016795307 0.19448078 -0.13701569
-0.07782605 -0.017396003 0.004090416 -0.06587605 -0.004745065 -0.050815772 -0.1765936 0.11064804
0.07389759 0.047911957 0.07848949 0.044107415 0.06556522 -0.06149903 -0.034055937 0.053883776
0.09180609 -0.003859022 0.04595343 -0.061222002 -0.43925664 0.060057007 0.04197186 0.024512375
-0.08143293 -0.048850134 0.08820555 0.053317785 -0.08662792 0.02681111 0.020173155 -0.02392024
0.063019894 0.032579325 -0.0068808147 0.08100971 -0.07271583 -0.029847588 -0.06739892 -0.04963175
0.055166416 0.0739819 0.05271405 -0.039779656 -0.07351824 -0.046203397 -0.026351538 0.050416708
0.026291575 -0.09131534 0.003745049 -0.35415855 0.069815375 -0.11977606 -0.083069526 -0.0855189
00000000: 7f53 0e3d dbe9 9bbd 203d 9e3c f657 bcbe
00000010: a09b 6a3d bf7e 01be 2c3e 9abd 79b4 c3bd
00000020: 405f 893d 0c18 7c3d f42f 0d3e bbe3 6e3d
00000030: 5e5f 863d 1f7e 823d 6a9c c53c 0708 26bc
00000040: 2318 28be da29 423d 3014 21bd 956d 8cbd
00000050: 373b 58bd abc1 363d 1047 a2bd 8d47 203d
00000060: 1e88 893d e658 66b5 5834 723d 6cb1 6a3d
00000070: afe5 283d e13c c5bd 62e2 133d 4c93 4dbe
00000080: c735 f33c 0b51 153d 2594 93bd 4e50 33be
00000090: 080c fa3c e052 983d 1f1e 793d 4177 863d
000000a0: 6b31 493d 5944 173d 2405 863d e0d5 2a3d
000000b0: f440 8f3d e136 a7bd 1e42 8d3d bf3f 323d
000000c0: 1139 ec3d 2d05 be3c da16 953d de1c 913c
000000d0: 224f bf3c f75c aabd 8f9f ed3c 51a5 723c
000000e0: eeed 0abe a405 8ebd d0a9 85bd 76fe cc3d
000000f0: 1609 cebe 4a26 9d3d 6002 8d3d 5844 12be
00000100: 6147 0e3d 338e 05be 5d86 713c 1d54 193d
00000110: 9e8b deb8 748a acbe ecbc 4e3d 2319 d23c
00000120: 737c efbd 66c5 653d 6e6c 1c3d 0867 00be
00000130: 98ef 813c 97a1 63bd 1a3a cd3c 8cb4 a2bc
00000140: 172b 3e3e 414e 733d 89f3 9c3d 9c74 4abd
00000150: 4761 b53d 2df3 ba3d d8e4 8dbd ea26 7f3d
00000160: 66ff 4a3c fc80 a1bd fa41 863d ccc6 c03d
00000170: abb5 c73d bf95 3d3d 31fb 2c3d b6b6 023d
00000180: 5ad0 333d f230 c4bd 244a 853d 9e9f 473d
00000190: b1e7 233d a38a fd3c b442 d3bd 8f24 09be
000001a0: af95 acbd 2e80 1a3d 850c 4cbd 3333 ca3d
000001b0: 019e 39bb d8c6 933b 26bc 323d 64bb 473d
000001c0: b2bb d4bd b774 223d 019a 8d3d 763c 9bbd
000001d0: 4c91 f8bd 7ffb 8fbd 3f12 fc3c a84a 8b3d
000001e0: 5c71 593d 35b5 223d 70fd a43d 5d16 29bd
000001f0: 1d24 663d 0c0e afbd 89cc e93c 2021 863d
00000200: 9a0d f5bd 2588 2bbd 24fa 3bbe 06d5 be3c
00000210: cb1e e23d 4bcc 41be ae4e 873d d688 f13c
00000220: 9a3f d43c 7bc9 853d 6ca7 073d aa2f 523d
00000230: 0fe3 763d 6f74 f63c 67e5 ad3d f9b6 6b3d
00000240: 4e2e 53be 7ac8 35bd 01fe 953d 5eaa 383d
00000250: 1756 eb3c d5e8 33bd b31e 95bd 2e85 0d3e
00000260: d516 9c3d 318c 07be 7966 85bd e5c8 103d
00000270: d82e b5bd e32e 863d c1b7 6b3d c93f 8fbd
00000280: 19cf f53d 1a1d 1dbd 5d22 3d3d 9f76 353d
00000290: 72d6 8c3b ff80 183d bdd2 3dbd 8919 b7bd
000002a0: 4f47 a8bd 77f0 56bd 08d5 b23e af33 b9bd
000002b0: 9d95 053d 4cd1 9c3d 26ce 84be b80b c73c
000002c0: 26c7 12be 5235 4b3b a164 7bbd 5597 b53c
000002d0: 4ec9 303e dd47 453d a3a6 ab3c 214d 09bd
000002e0: d07b 9a3c f8b5 ed3c 4cf4 0d3b 455d ed3b
000002f0: 2276 003c b91a e5bd e783 2d3d 0ebf a53c
00000300: b489 183d a26e 493d e03d 2d3d 0afa 58bd
00000310: c902 50bd 5096 893c f825 473e d74d 0cbe
00000320: 4463 9fbd 1082 8ebc e508 863b 06ea 86bd
00000330: 7d7c 9bbb 3324 50bd f4d4 34be 719b e23d
00000340: 9f57 973d 543f 443d 19bf a03d faa9 343d
00000350: 0f47 863d 68e6 7bbd 3d7e 0bbd 3cb5 5c3d
00000360: d504 bc3d a5e7 7cbb aa39 3c3d ecc3 7abd
00000370: 3fe6 e0be 56fe 753d afea 2b3d 2dce c83c
00000380: 4fc6 a6bd 1417 48bd 1da5 b43d c063 5a3d
00000390: fb69 b1bd f9a2 db3c 2c42 a53c 61f4 c3bc
000003a0: 9310 813d e671 053d 7578 e1bb 6be8 a53d
000003b0: 09ec 94bd ee82 f4bc 7208 8abd a94a 4bbd
000003c0: 2ef6 613d d383 973d b0ea 573d feef 22bd
000003d0: bb90 96bd c63f 3dbd 2edf d7bc c081 4e3d
000003e0: 6e61 d73c 8903 bbbd 7f6f 753b 4554 b5be
000003f0: 5dfb 8e3d 274d f5bd 5b20 aabd 8824 afbd

network.2.bias f4 [27]
0.09558145 0.054392975 0.1215707 0.059223197 0.057956982 0.13336492 0.06363231 0.0357181
0.111965954 0.097421974 0.035540927 0.07721695 0.0859892 0.068414636 0.056087755 0.06857494
0.049747303 0.023175849 0.024738638 0.04213425 0.053130772 0.037724383 0.1064459 0.04630434
0.069671094 0.09832792 0.02701584
00000000: 35c0 c33d 2bcb 5e3d 0ffa f83d 0694 723d
00000010: 4d64 6d3d d090 083e a851 823d 244d 123d
00000020: 684e e53d 2c85 c73d 5d93 113d ec23 9e3d
00000030: 1b1b b03d f91c 8c3d 46bc 653d 0571 8c3d
00000040: d4c3 4b3d 47db bd3c afa8 ca3c f794 2c3d
00000050: a79f 593d e284 1a3d 4f00 da3d 9fa9 3d3d
00000060: b8af 8e3d 2660 c93d 5350 dd3c
