code/experiments/dist_thresh/dqn/9/models/1.pth (torch, 62355 bytes, 4 tensors)

network.0.weight f4 [248, 33]
0.0042874604 -0.19358447 -0.10890237 -0.04164195 0.04707051 -0.1145355 -0.041404355 0.010835905
0.14279723 -0.118488595 -0.0610767 0.033860132 -0.014090511 -0.12995522 -0.036572523 -0.06299619
0.0019301547 0.0062897494 0.18406469 0.04833965 -0.059013084 0.063115336 -0.09557738 0.023747066
-0.14255658 0.016599733 0.026711876 0.08819005 0.1739823 -0.007569727 -0.06259917 -0.07302249
-0.136194 0.041248523 -0.12690079 -0.037100688 -0.077549405 0.07397501 -0.006448306 0.10335697
0.08148997 -0.0152517585 0.14861399 0.15994507 0.027639052 -0.15032205 0.069554545 0.06747166
-0.1672489 -0.04581893 -0.09043167 0.029322442 0.038772587 -0.0022326498 -0.13658877 -0.13258947
-0.013172323 -0.02870621 -0.10954107 -0.014373047 -0.013872865 0.016526278 0.060183577 -0.044909682
-0.07857257 0.0016814957 0.05384952 0.03943929 -0.06323197 -0.02415397 0.1464004 0.12590168
0.015497249 0.12400194 0.14602233 0.082736306 0.035533443 -0.061590865 0.010245267 0.15712415
-0.15243329 -0.14495628 0.16359034 0.1244365 0.022878582 0.12020007 0.10977259 -0.14824599
-0.06231713 0.12788808 -0.15913035 -0.061723612 0.087010145 -0.0017160862 0.124753706 0.16387549
0.0047834967 -0.00081533194 -0.053305183 0.07684605 -0.12887044 -0.096284814 -0.003337163 -0.12150782
0.1646722 0.050414037 -0.01671442 -0.07240398 0.16774514 0.15955919 -0.16382502 -0.057844855
-0.008789413 -0.16828641 0.07778763 -0.13880858 0.10329706 -0.16848403 0.010540421 -0.15804604
0.03214407 -0.0141278505 -0.12965147 0.006925111 0.15405552 -0.11040982 0.06785476 -0.12698533
0.076234065 0.1431865 -0.041084148 -0.106237814 -0.07109899 -0.057141673 -0.0015197208 -0.14933966
-0.09305578 0.14586899 0.059032716 0.10096379 -0.12549889 0.11490654 -0.1269859 -0.069847144
-0.15596655 -0.08697668 0.13123561 -0.12832847 0.081361376 0.13308643 -0.112052284 -0.042534806
-0.13561617 -0.10298881 0.00390013 -0.08671702 -0.035325106 -0.11534383 0.12465903 -0.08678771
-0.15400596 0.11615477 0.15237515 -0.047438413 0.08877792 -0.17189163 -0.18536232 -0.09560359
-0.020422725 -0.033593815 -0.11704654 -0.06973922 0.03743071 0.0060441634 0.13211054 0.10819944
0.07139217 0.03932766 -0.019410867 -0.0274306 0.059367407 -0.008295482 -0.08774057 -0.11286995
-0.09169416 0.036086738 0.038254984 0.12455328 -0.006366011 0.010109386 -0.07670624 0.005344091
-0.14420612 0.086889915 -0.16757469 -0.09773927 0.0811323 0.13028985 -0.18129905 0.06803852
0.14503825 0.035769876 -0.0410168 -0.00013639244 -0.060616504 -0.01616311 0.011400645 -0.1363099
0.15349942 -0.0862606 -0.02330137 0.14541943 0.07724327 0.010554488 -0.07267892 -0.04508868
0.113179564 -0.030502662 0.17789316 0.054507058 0.02968283 0.1082542 -0.08883751 0.092966296
0.14022544 -0.024318226 0.16050582 -0.16923873 -0.05645968 -0.10633285 0.07202622 -0.18092726
-0.019227928 0.05957279 -0.12861384 -0.060681425 -0.014542956 0.17049131 -0.11316574 -0.07888774
-0.0066105705 -0.14295246 0.043122873 0.10868505 0.004544845 -0.16983041 -0.14059258 -0.10863639
-0.07635024 0.104867734 0.15558223 -0.16560417 0.1309395 -0.11750117 0.0060411855 0.066312745
00000000: d37d 8c3b 023b 46be 3508 dfbd c090 2abd
00000010: 02cd 403d 9791 eabd 9d97 29bd 1489 313c
00000020: 7039 123e 26aa f2bd 902b 7abd ecb0 0a3d
00000030: e3db 66bc fb12 05be 12cd 15bd 2504 81bd
00000040: 3ffd fc3a 3e1a ce3b 747b 3c3e ccff 453d
00000050: b4b7 71bd 9d42 813d 13be c3bd 3589 c23c
00000060: 5afa 11be 2afc 873c ddd2 da3c fc9c b43d
00000070: 6b28 323e 790b f8bb fe33 80bd d18c 95bd
00000080: 7176 0bbe 36f4 283d 48f2 01be e4f6 17bd
00000090: 39d2 9ebd 3680 973d 504c d3bb d2ac d33d
000000a0: 37e4 a63d 83e2 79bc 442e 183e a4c8 233e
000000b0: 4b6b e23c 06ee 19be 9d72 8e3d 952e 8a3d
000000c0: 4c43 2bbe a1ac 3bbd 3d34 b9bd 9e35 f03c
000000d0: 01d0 1e3d a651 12bb eddd 0bbe 89c5 07be
000000e0: bad0 57bc 4929 ebbc 1257 e0bd ee7c 6bbc
000000f0: 034b 63bc 1e62 873c 0e83 763d 37f3 37bd
00000100: a8ea a0bd a265 dc3a 5091 5c3d 188b 213d
00000110: c37f 81bd 8cde c5bc fde9 153e 5fec 003e
00000120: 2ce8 7d3c bbf4 fd3d e186 153e a771 a93d
00000130: 848b 113d b446 7cbd c4db 273c 27e5 203e
00000140: 7917 1cbe 6b6f 14be 3a84 273e 90d8 fe3d
00000150: dd6b bb3c 742b f63d 74d0 e03d cccd 17be
00000160: 3f40 7fbd 18f5 023e 11f3 22be e6d1 7cbd
00000170: 6032 b23d 4cee e0ba df7e ff3d face 273e
00000180: e1be 9c3b 00bc 55ba 8956 5abd 7661 9d3d
00000190: 9df6 03be f930 c5bd 4eb4 5abb 18d9 f8bd
000001a0: d49f 283e f37e 4e3d aeec 88bc 8a48 94bd
000001b0: 62c5 2b3e 7c63 233e bfc1 27be baee 6cbd
000001c0: 7801 10bc 4653 2cbe 1f4f 9f3d d623 0ebe
000001d0: 698d d33d 1487 2cbe bbb1 2c3c d2d6 21be
000001e0: 80a9 033d 8078 67bc 5bc3 04be 0bec e23b
000001f0: bbc0 1d3e 8b1e e2bd 70f7 8a3d 7108 02be
00000200: 9b20 9c3d 7b9f 123e da47 28bd 3693 d9bd
00000210: 599c 91bd 630d 6abd 5e31 c7ba 7fec 18be
00000220: 0794 bebd ae5e 153e 4acc 713d 1bc6 ce3d
00000230: c882 00be 1f54 eb3d 9708 02be 050c 8fbd
00000240: b2b5 1fbe d420 b2bd a162 063e 8a68 03be
00000250: cba0 a63d cf47 083e ab7b e5bd fa38 2ebd
00000260: f7de 0abe cceb d2bd 5399 7f3b b198 b1bd
00000270: 0fb1 10bd 6339 ecbd 3c4d ff3d c1bd b1bd
00000280: bdb3 1dbe 8de2 ed3d 3b08 1c3e c84e 42bd
00000290: 33d1 b53d 5c04 30be 9fcf 3dbe d1cb c3bd
000002a0: 8f4d a7bc ab99 09bd 19b6 efbd 70d3 8ebd
000002b0: f250 193d 1e0e c63b fc47 073e ab97 dd3d
000002c0: 0f36 923d 0a16 213d 8a03 9fbc 23b6 e0bc
000002d0: 3d2b 733d c6e9 07bc 54b1 b3bd 5c28 e7bd
000002e0: 26ca bbbd b0cf 133d 42b1 1c3d ca15 ff3d
000002f0: f999 d0bb d7a1 253c 2918 9dbd 7c1d af3b
00000300: c5aa 13be 57f3 b13d b398 2bbe 872b c8bd
00000310: b128 a63d b46a 053e 75a6 39be c857 8b3d
00000320: e884 143e 6f83 123d 3b01 28bd 9104 0fb9
00000330: 0349 78bd 8068 84bc c5c9 3a3c d394 0bbe
00000340: f42e 1d3e 66a9 b0bd 84e2 bebc d5e8 143e
00000350: b831 9e3d bbec 2c3c b0d8 94bd e8ae 38bd
00000360: b0ca e73d b8e0 f9bc a029 363e cb42 5f3d
00000370: 6829 f33c 61b4 dd3d 71f0 b5bd 1d65 be3d
00000380: 4297 0f3e 0437 c7bc a35b 243e eb4c 2dbe
00000390: 4442 67bd 0ac5 d9bd 7c82 933d ff44 39be
000003a0: e383 9dbc 9902 743d 59b3 03be 168d 78bd
000003b0: 9445 6ebc 4695 2e3e 71c3 e7bd e58f a1bd
000003c0: 7c9d d8bb 2162 12be 9ca1 303d 4496 de3d
000003d0: ecec 943b 06e8 2dbe 80f7 0fbe c17c debd
000003e0: 845d 9cbd e5c4 d63d f350 1f3e 2494 29be
000003f0: 0115 063e 74a4 f0bd 23f5 c53b face 873d

network.0.bias f4 [248]
0.10633036 0.11572603 0.009565718 -0.0994095 -0.12643084 0.16904306 0.24075796 0.12806022
-0.0997891 -0.10986618 -0.045823857 0.21929353 -0.13088864 -0.030240256 -0.05273145 0.14812326
-0.00054606673 -0.04910756 -0.059433 -0.06490496 0.053733956 0.009567946 0.11647202 -0.10493115
-0.12158289 0.1783546 0.033320814 0.1880821 0.27018446 0.28039432 0.010582626 -0.04466141
-0.009172735 0.18514347 -0.14512016 -0.009450683 -0.12687027 -0.0047385497 0.096508056 -0.14052366
0.15793397 0.1805568 0.21026364 0.035859536 -0.10711484 0.16387407 0.08135869 0.026731364
-0.021377262 -0.072014466 -0.13081993 0.10763 -0.1477466 -0.040646758 -0.07458821 -0.10332126
-0.111824594 -0.18989812 0.11749815 0.19888385 -0.19260918 0.12829123 0.028940715 -0.0477965
0.06489935 0.10819312 -0.07311333 -0.0889319 -0.08486804 0.25191003 -0.024921177 0.21199726
0.17324884 -0.0066529545 0.050856702 -0.12283768 0.15398856 0.031385563 -0.018607987 0.12296928
0.032912843 0.007236776 -0.11882239 0.21511973 -0.09061917 0.20821655 0.024178827 0.2766704
0.107793525 0.20163317 -0.15290034 0.12138925 0.1820358 0.057132598 0.19202137 -0.09816943
0.18768847 0.064773984 0.13019776 -0.12659013 0.101716004 -0.08471445 0.11647709 -0.13003401
-0.16767447 0.0883513 0.03994374 0.15114953 0.10540874 0.15544167 0.06371067 -0.0035739655
-0.09973445 -0.029044902 -0.06444221 -0.17994964 -0.056198787 0.16936791 0.028972344 -0.06746842
0.09013798 -0.02590386 -0.09543158 0.25655428 -0.15174998 -0.10520704 0.14008169 -0.026007762
-0.13551317 0.008779046 0.05276859 0.14685187 0.11626611 -0.07768232 0.12345245 0.041901115
0.014328174 0.04687716 0.03546214 0.13378857 0.1083895 0.12181273 0.19389197 0.008075777
-0.009059401 0.13034657 0.19841218 -0.058622543 0.11685453 0.030321423 -0.09884251 0.04268442
0.04693567 -0.14330496 0.08448171 0.15535393 0.17647095 0.07697951 0.2389649 0.1548962
-0.020589799 0.14482595 0.1070436 0.15959135 0.04359932 -0.13369879 0.06984491 0.21870665
0.051404078 0.13014598 -0.13484842 0.1392964 0.13273992 -0.09281733 0.13236621 -0.13815309
-0.10566564 0.12348664 -0.10710224 0.021555493 -0.12748843 0.18457784 0.08216941 0.19191681
0.10293594 0.112873256 -0.1215932 -0.11961555 -0.0484857 0.03744981 -0.18455912 -0.071426734
-0.09576485 -0.030751577 0.023037082 -0.11870785 0.1550163 0.062530026 -0.044009045 0.17923409
0.08965084 0.08473889 0.08551069 -0.17511445 0.17531213 0.16899224 -0.059858423 0.064966254
0.020475961 -0.060088843 0.07181532 -0.0871304 -0.03515443 0.15245457 -0.084535636 0.16559747
0.112923555 0.1595095 -0.12636796 -0.118490234 -0.057153694 -0.043581445 0.14320087 0.24262984
-0.15167472 0.046175078 0.12110694 -0.1529929 0.1801817 0.11326376 0.13329339 0.18326154
-0.1375798 -0.1794959 0.17177734 0.10528852 -0.07987258 -0.13108526 0.1385609 0.21507609
0.17683421 -0.13757484 0.16212118 0.1798032 -0.12783319 0.13872461 -0.07435788 -0.015377721
00000000: bbc3 d93d c501 ed3d 87b9 1c3c 3597 cbbd
00000010: 1677 01be a019 2d3e 4189 763e 3822 033e
00000020: 3a5e ccbd 8501 e1bd ccb1 3bbd 7c8e 603e
00000030: ac07 06be 6aba f7bc effc 57bd a0ad 173e
00000040: eb25 0fba 0225 49bd 0470 73bd e4ec 84bd
00000050: 2318 5c3d e0c2 1c3c e288 ee3d 25e6 d6bd
00000060: 7300 f9bd 97a2 363e 687b 083d 9898 403e
00000070: 9e55 8a3e d88f 8f3e c062 2d3c e2ee 36bd
00000080: 3d49 16bc 4096 3d3e 619a 14be 0ad7 1abc
00000090: 48ea 01be d645 9bbb 04a6 c53d 6fe5 0fbe
000000a0: 71b9 213e e2e3 383e 5a4f 573e 73e1 123d
000000b0: 065f dbbd 9bce 273e 639f a63d bcfb da3c
000000c0: 5e1f afbc 527c 93bd a9f5 05be 1e6d dc3d
000000d0: e24a 17be 377d 26bd b4c1 98bd 199a d3bd
000000e0: 4b04 e5bd a774 42be dfa2 f03d 35a8 4b3e
000000f0: 573b 45be c75e 033e 1415 ed3c 43c6 43bd
00000100: f3e9 843d 5b94 dd3d 71bc 95bd ee21 b6bd
00000110: 4ccf adbd 5afa 803e 7f27 ccbc cf15 593e
00000120: 2568 313e 0701 dabb 1e4f 503d 5292 fbbd
00000130: 2daf 1d3e 268e 003d c76f 98bc 51d7 fb3d
00000140: 9ecf 063d 7a22 ed3b 2759 f3bd 5948 5c3e
00000150: 8b96 b9bd b836 553e ad12 c63c bea7 8d3e
00000160: dac2 dc3d ed78 4e3e e891 1cbe ed9a f83d
00000170: 9867 3a3e df03 6a3d 40a1 443e 0e0d c9bd
00000180: 6831 403e 39a8 843d 9052 053e d8a0 01be
00000190: 7b50 d03d c57e adbd 8a8b ee3d a327 05be
000001a0: dbb2 2bbe 87f1 b43d 0c9c 233d f1c6 1a3e
000001b0: 8ae0 d73d 1a2c 1f3e bd7a 823d 3139 6abb
000001c0: 9341 ccbd 93ef edbc 47fa 83bd b844 38be
000001d0: b330 66bd c86e 2d3e 6957 ed3c e22c 8abd
000001e0: 439a b83d 5534 d4bc a271 c3bd 155b 833e
000001f0: 5964 1bbe ca76 d7bd 9371 0f3e 3b0e d5bc
00000200: f7c3 0abe fdd5 0f3c e123 583d 5660 163e
00000210: ed1c ee3d e817 9fbd a3d4 fc3d 81a0 2b3d
00000220: b8c0 6a3c 4402 403d c040 113d dfff 083e
00000230: 50fb dd3d f478 f93d 9e8b 463e 4450 043c
00000240: e26d 14bc 9279 053e 902c 4b3e 311e 70bd
00000250: 6e51 ef3d a264 f83c f16d cabd dcd5 2e3d
00000260: 9e3f 403d 89be 12be bf04 ad3d 1a15 1f3e
00000270: cdb4 343e 6fa7 9d3d 37b3 743e 1c9d 1e3e
00000280: f0ab a8bc 414d 143e ad39 db3d ea6b 233e
00000290: 3395 323d 56e8 08be d90a 8f3d a3f4 5f3e
000002a0: 158d 523d fd44 053e b415 0abe b7a3 0e3e
000002b0: f9ec 073e 0317 bebd 028b 073e 0178 0dbe
000002c0: 3a67 d8bd 90e6 fc3d 6b58 dbbd 2595 b03c
000002d0: 548c 02be f901 3d3e 7048 a83d d785 443e
000002e0: 14d0 d23d 182a e73d db05 f9bd fff8 f4bd
000002f0: f198 46bd f964 193d 11fd 3cbe 2e48 92bd
00000300: 5d20 c4bd bbea fbbc 43b8 bc3c 1a1d f3bd
00000310: 98bc 1e3e be0f 803d d442 34bd 2489 373e
00000320: dc9a b73d 958b ad3d 3b20 af3d 3451 33be
00000330: 0685 333e 4d0c 2d3e 1b2e 75bd 070d 853d
00000340: 34bd a73c b81f 76bd e913 933d 6c71 b2bd
00000350: 17fe 0fbd 0d1d 1c3e 0521 adbd 6292 293e
00000360: 7744 e73d 7556 233e 9a66 01be 02ab f2bd
00000370: fe19 6abd 7582 32bd 40a3 123e f573 783e
00000380: 9e50 1bbe 1422 3d3d ea06 f83d 2caa 1cbe
00000390: 8d81 383e d5f6 e73d 107e 083e eaa8 3b3e
000003a0: b8e1 0cbe c6cd 37be 66e6 2f3e 82a1 d73d
000003b0: 3c94 a3bd 373b 06be e9e2 0d3e e83c 5c3e
000003c0: 0714 353e 6be0 0cbe 1803 263e 541e 383e
000003d0: b4e6 02be d30d 0e3e f248 98bd d6f2 7bbc

network.2.weight f4 [27, 248]
-7.784331e-06 -0.025978006 -0.016515296 -0.00025808692 -0.029208282 0.05545816 0.0983795 0.031197598
-0.03423572 0.015103571 -0.032428935 0.043086927 0.06595817 0.0017893795 0.05766783 -0.032505807
-0.0034490998 0.029497141 0.024678033 -0.025514508 -0.012032527 -0.026071722 0.049191628 0.029932585
-0.01802908 -0.010852423 -0.07388762 -0.0059427316 0.033601847 0.026922015 -0.0030502768 -0.048262708
-0.011059271 -0.06569467 -0.04106089 0.032250877 0.008984241 0.017074188 0.0033494837 -0.016673699
-0.0076738456 0.034364883 -0.03806972 0.038673628 0.05603044 0.032886364 0.0018310479 0.0007593807
0.035380296 -0.01697488 -0.025579501 0.016075395 -0.04234334 0.0029829724 -0.06870489 -0.0061290753
0.06375151 -0.083463304 0.015338077 -0.018052407 0.045888554 0.0040941113 0.0018628886 0.031184979
-0.015603396 0.018995242 -0.04293653 -0.005461916 0.03187426 0.0999462 0.028723825 0.011530976
0.009824789 0.022067606 0.017375328 -0.004685937 0.00786181 -0.004010463 0.012301905 0.04868073
-0.03371163 0.025878625 -0.015218697 0.0361861 -0.016323848 0.0153178405 -0.03520054 0.031484943
0.025583178 0.039326716 -0.013916931 0.036569417 0.037823927 0.048292592 0.05506873 0.05812713
0.011362811 -0.0061849826 0.06073969 -0.071880646 0.056707866 -0.0077350247 0.034613516 -0.022348313
0.0018762544 -0.005161619 -0.038350403 -0.011422745 -0.018723356 -0.014435064 0.05521305 0.011218225
-0.0028642726 0.013583691 0.046887122 0.012341239 0.012504129 0.015996952 0.017204594 -0.042262416
0.019128859 0.030093918 -0.020626089 0.043052725 -0.031116756 -0.021363307 0.017844887 0.0051772655
-0.037462287 0.04993357 0.004753639 0.011798425 0.008262742 -0.06906389 0.037529007 0.052610382
0.011044692 -0.008782326 0.0042373952 0.050031018 0.015015962 0.013002825 0.027841527 0.024341354
-0.028732501 0.022262197 0.031087467 -0.017075386 0.0065799607 -0.039038856 -0.0318385 0.03370203
0.044572476 -0.09300247 0.0174222 0.026134541 0.030702433 0.045616396 0.038603067 0.06291316
-0.058678318 -0.0061352104 -0.03060619 0.06502261 -0.0057203188 -0.014255724 0.057777174 0.034424204
-0.010540415 -0.011222434 0.04479259 0.048524104 0.03225768 -0.0010953025 -0.013981388 0.0015778266
-0.07742182 0.013169921 -0.03939233 0.036733795 -0.04286829 -0.0045043216 0.018990835 0.053023085
-0.014872439 -0.013551297 0.017263856 0.03842255 0.045465745 -0.012716896 -0.0665658 -0.009620258
0.054595318 0.017715821 -0.014991596 -0.06667158 -0.013757348 0.029195003 0.0012089305 0.060431127
-0.030378334 0.023337463 0.057760272 -0.06893376 0.04003323 0.023905506 0.026482288 -0.031451393
0.034353122 -0.03582247 0.06296943 0.015637768 0.0033011872 0.027306262 -0.061036143 0.09027875
0.033099823 0.018006315 -0.062291734 -0.008924791 -0.03913322 -0.025924925 0.042678777 0.11164936
-0.060451884 0.048090294 0.02573941 -0.021592326 0.008825843 0.032951307 0.031158408 0.033808406
0.021457125 -0.02702486 0.042291533 0.07420927 0.02005292 -0.0297816 0.031015776 0.0320752
0.055776108 -0.06786757 0.042753704 0.009820407 0.0052263 -0.005950863 -0.017467763 0.017178247
-0.018280046 -0.026312714 0.02446508 -0.024173843 0.052248362 0.06992202 0.081215814 0.044340633
00000000: 7299 02b7 d4cf d4bc 164b 87bc d74f 87b9
00000010: 3546 efbc 1828 633d 317b c93d 1b92 ff3c
00000020: c13a 0cbd f874 773c 34d4 04bd eb7b 303d
00000030: 1415 873d 9d89 ea3a 1a35 6c3d cf24 05bd
00000040: 4b0a 62bb fda3 f13c 9629 ca3c cd03 d1bc
00000050: 1324 45bc 5d94 d5bc 297d 493d 2e35 f53c
00000060: b9b1 93bc 5cce 31bc 6452 97bd 3fbb c2bb
00000070: 17a2 093d 8f8b dc3c 27e7 47bb 1eaf 45bd
00000080: f231 35bc ed8a 86bd 772f 28bd 7f19 043d
00000090: a332 133c 2bdf 8b3c 0383 5b3b 4897 88bc
000000a0: e274 fbbb 31c2 0c3d ffee 1bbd 3d68 1e3d
000000b0: 2d80 653d dab3 063d c6ff ef3a 2d11 473a
000000c0: eeea 103d e70e 8bbc 1a8c d1bc 8cb0 833c
000000d0: 3670 2dbd f97d 433b 26b5 8cbd 69d6 c8bb
000000e0: 2790 823d cfee aabd 8f4c 7b3c a4e2 93bc
000000f0: a3f5 3b3d e527 863b 2b2c f43a a477 ff3c
00000100: 63a5 7fbc e99b 9b3c 37de 2fbd dff9 b2bb
00000110: 968e 023d 98b0 cc3d 3a4e eb3c 6bec 3c3c
00000120: 27f8 203c 20c7 b43c b456 8e3c 7d8c 99bb
00000130: d2ce 003c 346a 83bb ee8d 493c 7265 473d
00000140: 3515 0abd 69ff d33c d757 79bc e037 143d
00000150: 97b9 85bc aef7 7a3c 712e 10bd 5bf6 003d
00000160: d093 d13c 0d15 213d d703 64bc d0c9 153d
00000170: 43ed 1a3d 74ce 453d c08f 613d b716 6e3d
00000180: 152b 3a3c 65ab cabb 2eca 783d 2936 93bd
00000190: 8246 683d 1776 fdbb e7c6 0d3d cf13 b7bc
000001a0: a7ec f53a cc22 a9bb 5015 1dbd 7726 3bbc
000001b0: b961 99bc 0c81 6cbc 1427 623d a5cc 373c
000001c0: 85b6 3bbb 218e 5e3c b60c 403d e832 4a3c
000001d0: 1ede 4c3c 0a0c 833c a6f0 8c3c 5b1b 2dbd
000001e0: 20b4 9c3c 8587 f63c 0bf8 a8bc 0e58 303d
000001f0: 91e8 febc 1a02 afbc 712f 923c 0da6 a93b
00000200: 0e72 19bd 2587 4c3d 6ac4 9b3b 2e4e 413c
00000210: 7460 073c 5e71 8dbd 04b8 193d fc7d 573d
00000220: ccf4 343c bfe3 0fbc d9d9 8a3b 53ed 4c3d
00000230: 8205 763c cd09 553c ea13 e43c 8567 c73c
00000240: 6c60 ebbc 365f b63c 25ab fe3c aee1 8bbc
00000250: b69c d73b 35e7 1fbd 1669 02bd 240b 0a3d
00000260: a191 363d 1478 bebd 00b9 8e3c 1b18 d63c
00000270: ab83 fb3c 42d8 3a3d 401e 1e3d 9dd8 803d
00000280: ad58 70bd e009 c9bb d5b9 fabc 932a 853d
00000290: 8371 bbbb d790 69bc c2a7 6c3d 6500 0d3d
000002a0: b4b1 2cbc 4dde 37bc 6f78 373d 36c1 463d
000002b0: a120 043d 4190 8fba 3112 65bc 13cf ce3a
000002c0: 558f 9ebd a7c6 573c da59 21bd 2d76 163d
000002d0: a996 2fbd fd98 93bb ab92 9b3c bc2e 593d
000002e0: 88ab 73bc 4206 5ebc ee6c 8d3c f760 1d3d
000002f0: 4a3a 3a3d 875a 50bc a653 88bd 499e 1dbc
00000300: 579f 5f3d c520 913c 509f 75bc 1c8b 88bd
00000310: 8066 61bc 5c2a ef3c fa74 9e3a a186 773d
00000320: fcdb f8bc 352e bf3c 0996 6c3d 252d 8dbd
00000330: e2f9 233d 7bd5 c33c 62f1 d83c 2dd3 00bd
00000340: dcb5 0c3d 95ba 12bd 1ef6 803d c71a 803c
00000350: bb58 583b 62b1 df3c 0901 7abd 11e4 b83d
00000360: ae93 073d fb81 933c 9e25 7fbd 4939 12bc
00000370: 284a 20bd 8260 d4bc f1cf 2e3d 6ba8 e43d
00000380: 659c 77bd 54fa 443d 75db d23c 64e2 b0bc
00000390: 459a 103c f3f7 063d eb3f ff3c af7a 0a3d
000003a0: dac6 af3c 3d63 ddbc e339 2d3d 08fb 973d
000003b0: 0546 a43c 8bf8 f3bc cc14 fe3c 4961 033d
000003c0: 7d75 643d 27fe 8abd 821e 2f3d c6e5 203c
000003d0: 6241 ab3b 75ff c2bb 8e18 8fbc 65b9 8c3c
000003e0: 09c0 95bc c38d d7bc fe6a c83c 3908 c6bc
000003f0: 6102 563d 4733 8f3d 7a54 a63d 869e 353d

network.2.bias f4 [27]
0.030012744 0.03592822 0.02296865 -0.0010600687 0.0083149895 0.0071284682 0.04927583 0.01006541
0.020271905 0.0023966832 0.056793887 -0.011814162 0.008939083 0.075576246 0.02187031 -0.007642545
-0.013029556 0.019990055 0.057349224 0.02691338 0.06685235 0.05497924 0.061229307 0.08598215
0.059650905 0.05980555 -0.014324581
00000000: 49dd f53c 7829 133d c028 bc3c 01f2 8aba
00000010: 983b 083c ed95 e93b 74d5 493d 64e9 243c
00000020: 4411 a63c ac11 1d3b b5a0 683d 3090 41bc
00000030: 3b75 123c b8c7 9a3d 5d29 b33c 506e fabb
00000040: eb79 55bc 2fc2 a33c 05e7 6a3d 7379 dc3c
00000050: e3e9 883d e931 613d 95cb 7a3d 6917 b03d
00000060: 8254 743d aaf6 743d a6b1 6abc
