code/experiments/dist_thresh/dqn/7/models/final.pth (torch, 62355 bytes, 4 tensors)

network.0.weight f4 [248, 33]
0	0xbdade34e	-0.084906206
1	0xbe1f58c4	-0.15561205
2	0x3dcbd6f7	0.09953111
3	0x3dfc2e79	0.123135515
4	0xbd234099	-0.039856527
5	0xbe0db290	-0.13837647
6	0xbe14032f	-0.1445434
7	0xbe22eef8	-0.15911472
8	0xbe23a106	-0.15979394
9	0x3dd355d9	0.103191085
10	0xbe0f869d	-0.14016195
11	0xbe217328	-0.15766585
12	0xbc143eef	-0.009048208
13	0x3def44c8	0.11683041
14	0xbd885bc3	-0.06658127
15	0x3c44e246	0.012016838
16	0x3dcef820	0.1010592
17	0xbdf79f4e	-0.12090932
18	0x3dcb9c5e	0.09941934
19	0x3e185e20	0.14879656
20	0x3dc5750a	0.09641464
21	0x3e15c1f3	0.14624767
22	0x3e014e65	0.12627561
23	0xbd9e80af	-0.07739388
24	0x3cdcbd58	0.026945755
25	0xbdf3226a	-0.11871798
26	0x3e01ac4d	0.12663384
27	0x3dad8265	0.084721364
28	0xbbd79cd2	-0.0065799737
29	0xbd68876f	-0.056769785
30	0x3ddc24f3	0.10749235
31	0xbe0ffea1	-0.14061977
32	0x3d78bad7	0.06072506
33	0x3d52a1a9	0.051423702
34	0x3c614a42	0.013750615
35	0xbd97309c	-0.073823184
36	0xbd696047	-0.056976583
37	0x3e2d35be	0.16915032
38	0xbcf828eb	-0.030292949
39	0xbe0e0925	-0.13870676
40	0xbe0da516	-0.13832507
41	0x3dcd48ab	0.10023626
42	0x3e17db3b	0.14829724
43	0xbacf417a	-0.001581236
44	0x3d903c0c	0.07042703
45	0xbcd1c770	-0.025607795
46	0x3ddb0c5b	0.10695716
47	0xbda07011	-0.07833875
48	0x3e009cb5	0.12559779
49	0xbd66fa0c	-0.056390807
50	0x3dbaf4d3	0.09128728
51	0x3dfb8008	0.122802794
52	0x3d2bf085	0.041977424
53	0x3de87de0	0.11352134
54	0x3d3cfff6	0.04614254
55	0xbda6bed6	-0.08141868
56	0x3d61ba36	0.055109225
57	0xbb982c73	-0.0046439706
58	0xbdaea2a5	-0.08527116
59	0x3d8f9866	0.070114896
60	0xbe40e417	-0.1883701
61	0xbe30d8a3	-0.1727014
62	0xbe2d4e5c	-0.16924423
63	0x3c9d0684	0.019168146
64	0xbe0fcfab	-0.14044063
65	0xbb75a9af	-0.0037485173
66	0xbced1df5	-0.028944949
67	0xbd242654	-0.040075615
68	0x3db1cbce	0.08681451
69	0x3da701a8	0.08154613
70	0x3d96f085	0.07370094
71	0xbd4e033f	-0.050296064
72	0x3c80690c	0.01567509
73	0xbdc4ab65	-0.096030034
74	0xbe30378b	-0.17208688
75	0xbe07da3b	-0.13266842
76	0xbcf9d137	-0.03049527
77	0x3b194aad	0.0023390457
78	0x3dcfe278	0.10150617
79	0xbcb9b46f	-0.022669045
80	0xbe1417dd	-0.14462228
81	0x3e161979	0.14658155
82	0x3cbb282d	0.022846306
83	0x3c9308c5	0.017948518
84	0xbcb62593	-0.022234714
85	0x3e26fd8d	0.1630766
86	0x3ae9707c	0.0017810012
87	0x3b769d65	0.0037630436
88	0xbdc70ce3	-0.09719255
89	0xbce30c1a	-0.027715731
90	0x3d826794	0.06367412
91	0x3c3cdd12	0.011527317
92	0x3cf38a40	0.029729009
93	0x3e11804b	0.14209096
94	0xbdbe7baa	-0.09300931
95	0xbdf6b831	-0.120468505
96	0x3c5286f2	0.012849556
97	0x3e6279bb	0.22116749
98	0xbcfeb86f	-0.031093804
99	0x3d2b0c07	0.041759517
100	0xbc5a7b6c	-0.01333509
101	0xbc55c5ca	-0.013047645
102	0xbc9d80b3	-0.019226408
103	0xbe0261f2	-0.12732676
104	0xbd256888	-0.040382892
105	0xbe216da3	-0.1576448
106	0xbc930429	-0.01794632
107	0x3e00f067	0.12591706
108	0x3dea85b0	0.1145128
109	0x3e1e4ed4	0.15459758
110	0xbdf7ea60	-0.1210525
111	0xbd167c79	-0.0367398
112	0x3d5b4404	0.05353166
113	0x3df32506	0.11872296
114	0xbdfc0372	-0.12305345
115	0xbe18271b	-0.14858668
116	0xbdb431bb	-0.08798548
117	0x3d691701	0.056906704
118	0xbd493af6	-0.049128495
119	0xbde6a7cf	-0.11262476
120	0x3ce09afa	0.027417649
121	0x3e3241f6	0.17407975
122	0xbdc44868	-0.09584123
123	0x3da0a0da	0.0784318
124	0xbdac1209	-0.084018774
125	0x3e310128	0.17285597
126	0x3d12b83b	0.035820227
127	0x3deb706c	0.11496052
128	0xbe09974e	-0.13436624
129	0xbca3a351	-0.019975336
130	0xbe04f5da	-0.1298441
131	0xbddeade5	-0.108730115
132	0x3d565f26	0.052336834
133	0xbdd32ad1	-0.10310901
134	0xbc2111ef	-0.009830936
135	0x3e18a231	0.14905621
136	0x3e2e8dd1	0.17046286
137	0xbdb6d910	-0.0892812
138	0xbe54a168	-0.20764697
139	0x3b83994c	0.004016077
140	0x3cc66de8	0.02422233
141	0x3c979516	0.018503707
142	0xbd0ca6ca	-0.03433875
143	0xbd59ecee	-0.05320447
144	0xbb932fa2	-0.0044917623
145	0xbde77db1	-0.113032706
146	0xbe1f74dd	-0.15571924
147	0xbe2cf9b5	-0.1689213
148	0xbdda47c1	-0.10658217
149	0xbd4d503f	-0.050125357
150	0xbe11a6d0	-0.1422379
151	0x3a8eaf76	0.0010886032
152	0xbcfcd49e	-0.030863103
153	0xbd6cce01	-0.057813648
154	0xbc7af7cf	-0.015317871
155	0xbdc78a45	-0.0974317
156	0x3d588530	0.052861392
157	0x3da2f96c	0.0795773
158	0xbdd938e0	-0.10606551
159	0x3e486519	0.19569816
160	0xbda99c39	-0.0828175
161	0xbcf6b89b	-0.030117324
162	0xbd135dbb	-0.03597806
163	0x3c13b996	0.009016415
164	0xbdc1e2de	-0.094670996
165	0xbe185ba8	-0.14878714
166	0x3d3c7277	0.0460076
167	0xbd6bcc27	-0.05756774
168	0x3def4433	0.1168293
169	0x3ddbaa83	0.10725882
170	0x3e1bb01b	0.15203898
171	0xbe2d3f7a	-0.16918746
172	0xbe02d264	-0.1277557
173	0xbe241fcb	-0.16027753
174	0x3e26a39e	0.16273353
175	0x3c29d412	0.010365503
176	0x3b8e9e2e	0.0043523526
177	0xbe310768	-0.17287982
178	0x3e113a68	0.14182436
179	0x3ce8ebf4	0.028432824
180	0xbbac4667	-0.005257416
181	0x3dc5ea1c	0.096637934
182	0xbdc2ebbb	-0.09517618
183	0xbdffd854	-0.12492433
184	0xbd239ec5	-0.039946336
185	0x3d344d35	0.044018943
186	0x3dd2a5ac	0.10285506
187	0x3d269164	0.040666
188	0xbe07a703	-0.13247304
189	0x3d8ecd49	0.06972749
190	0x3e422e03	0.18962865
191	0x3d91ca04	0.071186095
192	0x3d79363c	0.060842738
193	0x3d3fcd92	0.046826907
194	0x3d9505d8	0.07276505
195	0xbd8c9602	-0.06864549
196	0xbe0d13b8	-0.13777053
197	0xbc3691d2	-0.011143165
198	0xbd282570	-0.04105133
199	0x3df1697d	0.117876984
200	0xbdb0642d	-0.08612857
201	0x3e046414	0.12928802
202	0xbc34eb99	-0.011042499
203	0xbd8b0f4e	-0.067900285
204	0x3d4c5551	0.04988605
205	0xbd920bc5	-0.07131151
206	0xbcad80b6	-0.021179538
207	0x3d59b7ed	0.05315392
208	0xbd84ac32	-0.06478156
209	0xbc8a77bd	-0.016902799
210	0x3dbfaac2	0.09358741
211	0x3d7f4fdf	0.06233203
212	0x3e243b0a	0.16038147
213	0x3e08430b	0.13306825
214	0xbdcb0ecc	-0.09914932
215	0x3ddc9635	0.10770837
216	0x3e0c56eb	0.13705032
217	0x3e0d846e	0.13820049
218	0x3d9cfaf9	0.07665057
219	0x3c96e79d	0.018420989
220	0x3c65c335	0.014023592
221	0x3e307e95	0.17235787
222	0x3dbba6f2	0.09162702
223	0x3da0b196	0.07846372
224	0xbd57090c	-0.052498862
225	0xbdc30472	-0.09522332
226	0x3dbf1e21	0.093319185
227	0x3e078c12	0.13237026
228	0xbd295b7f	-0.041347023
229	0x3d41831a	0.04724417
230	0x3a7bc2f4	0.00096039404
231	0xbaf1d310	-0.0018449742
232	0x3e3fc5cf	0.18727802
233	0xbdb681ac	-0.08911452
234	0x3deccf12	0.11562933
235	0x3e3c3299	0.18378676
236	0xbd8eb2f8	-0.06967729
237	0x3dcb50c1	0.09927512
238	0xbd29aa25	-0.041422028
239	0xbd72be53	-0.05926354
240	0xbdd9fa3f	-0.10643434
241	0xbd844a30	-0.06459463
242	0x3dac7af3	0.08421888
243	0xbd9b563c	-0.07584807
244	0xbb01d92c	-0.0019813282
245	0x3dff4898	0.12465018
246	0xbe1e28ea	-0.15445295
247	0x3e256c2f	0.1615455
248	0x3dbb6bd7	0.09151428
249	0x3e5e6590	0.2171843
250	0x3e51bcd3	0.20482187
251	0x3e1955b5	0.14974101
252	0xbd15e6ee	-0.036597185
253	0x3d38b5e8	0.045095354
254	0x3d07d539	0.03316233
255	0xbd5ac0a6	-0.05340638

network.0.bias f4 [248]
0	0xbe17cf75	-0.14825232
1	0xbdead9f8	-0.114673555
2	0x3dbcaf3e	0.09213112
3	0xbe0bb00f	-0.1364138
4	0x3d7bb97f	0.0614562
5	0xbab36a76	-0.0013688344
6	0xbd773d3c	-0.060361132
7	0x3e17410e	0.1477091
8	0x3b3757ca	0.002797591
9	0x3d16c49e	0.036808603
10	0x3db93238	0.090427816
11	0x3dccaaf3	0.099935435
12	0xbda4d5cc	-0.08048591
13	0xbdc5aba7	-0.09651881
14	0x3d3e7732	0.046500392
15	0x3e088a73	0.13334064
16	0x3dbec8c8	0.0931564
17	0xbda94455	-0.082649864
18	0xbc81213a	-0.015762914
19	0x3db12cba	0.08651109
20	0xbe1d11dd	-0.15338846
21	0xbe180dd7	-0.1484903
22	0x3ce9bd3a	0.028532613
23	0x3dba0122	0.09082247
24	0x3d2b4ea8	0.04182306
25	0x3d4ca695	0.049963553
26	0xbdfe1174	-0.12405673
27	0x3d2c97bb	0.04213689
28	0xbcd1f753	-0.025630629
29	0xbd90d00f	-0.07070934
30	0xbdb6eb23	-0.089315675
31	0x3e0def5f	0.13860844
32	0x3e0ed1ed	0.13947268
33	0x3e7ce521	0.2469678
34	0xbe13d48b	-0.14436547
35	0xbcf3cc1c	-0.029760413
36	0xbe1f0188	-0.15527928
37	0xbde184db	-0.11011668
38	0x3d5fd2d9	0.05464444
39	0x3ae66d21	0.001758013
40	0x3dbfeaa1	0.09370924
41	0xbe08ec0e	-0.13371298
42	0xbd5cc5a1	-0.05389941
43	0xbb98f8c8	-0.004668329
44	0x3d059bb9	0.03261921
45	0xbc783e6a	-0.015151599
46	0x3d8360f6	0.06414978
47	0x3e3c4ac4	0.18387896
48	0x3e533420	0.20625353
49	0x3dde2c92	0.10848345
50	0x3e401afb	0.18760292
51	0x3d362033	0.0444643
52	0x3e51a5af	0.2047336
53	0xbd4ee03e	-0.050506823
54	0xbe2e5b43	-0.17027001
55	0x3d5a2e30	0.053266704
56	0xbba95a8f	-0.005168266
57	0x3d6ea54e	0.058263116
58	0xbe869175	-0.2628285
59	0xbe280c6f	-0.16410993
60	0xbc5e22e4	-0.013558123
61	0x3e0e7c24	0.13914543
62	0x3d1411e6	0.03614988
63	0xbe1f328a	-0.15546623
64	0x3e39b803	0.18136601
65	0x3db34e21	0.08755136
66	0xbe26258b	-0.16225259
67	0xbda7b885	-0.08189491
68	0xbd7d5a81	-0.06185389
69	0x3d3ed9ff	0.046594616
70	0x3df7c19f	0.12097477
71	0x3dcbb3e1	0.099464186
72	0xbc5ad674	-0.013356794
73	0xbde15c7f	-0.1100397
74	0x3e24c527	0.16090833
75	0x3a442be2	0.00074833457
76	0xbe0b5359	-0.13606013
77	0x3e306b6f	0.17228483
78	0xbdd6b38f	-0.10483467
79	0x3e71fa55	0.2363065
80	0x3cbd7fd7	0.023132248
81	0xbd9870d5	-0.07443396
82	0xbc755a25	-0.014975105
83	0x3e07b6a9	0.13253273
84	0x3d8cd7f2	0.06877126
85	0x3d6fa517	0.05850705
86	0x3e1e7941	0.15475942
87	0x3e357b94	0.17722923
88	0x3dfd6eda	0.12374659
89	0x3e17ae95	0.14812692
90	0xbd30ac0a	-0.04313282
91	0xbd060279	-0.0327172
92	0xbccc976a	-0.024974544
93	0xbdb59132	-0.088655844
94	0x3b45249e	0.003008164
95	0xbc1c1704	-0.009526972
96	0x3d87f60d	0.06638727
97	0xbd72d661	-0.05928648
98	0xbcba30ed	-0.022728408
99	0x3b3f21e7	0.0029164494
100	0xbe3a6ed0	-0.18206334
101	0x3e03bf3e	0.12865922
102	0x3adfa45d	0.0017062534
103	0xbd42e5ed	-0.047582556
104	0xbe5ca08c	-0.21545619
105	0xbe025c30	-0.12730479
106	0x3d822a2b	0.06355699
107	0x3db13d00	0.08654213
108	0xbe053c65	-0.1301132
109	0x3dc89108	0.097932875
110	0x3e4d8f86	0.20074281
111	0x3db10d75	0.08645145
112	0x3e539287	0.20661364
113	0xbbfd95b3	-0.007738793
114	0x3e1bb83b	0.15206997
115	0x3d6032ff	0.054736134
116	0x3de5266a	0.111889675
117	0xbe68a097	-0.2271751
118	0xbdd7a8d2	-0.10530247
119	0xbd96e89d	-0.07368586
120	0x3c91b07c	0.01778435
121	0xbdb53e09	-0.08849723
122	0x3e1ef1cd	0.15521927
123	0xbda8e74d	-0.08247242
124	0xbda28546	-0.07935576
125	0x3c452502	0.012032749
126	0xbdc017d7	-0.09379547
127	0xbde63906	-0.11241345
128	0x3d86a2a6	0.065739915
129	0x3dfdb582	0.123881355
130	0x3d289bf1	0.041164342
131	0xbdfa128f	-0.12210571
132	0x3c84128b	0.016122123
133	0xbd7db663	-0.061941516
134	0x3d9ecb16	0.07753579
135	0x3b8e5698	0.004343819
136	0x3d94b6e6	0.072614476
137	0xbb9076b3	-0.0044086813
138	0x3d3d5e44	0.046232477
139	0x3c65e285	0.014031057
140	0x3d3bd92f	0.04586142
141	0x3e21bfd2	0.1579583
142	0xbe1d9270	-0.15387893
143	0x3d0df45b	0.034656864
144	0xbd928793	-0.07154765
145	0xbe138058	-0.14404428
146	0xbe0472dd	-0.12934442
147	0xbe00b3ba	-0.1256856
148	0x3dadc991	0.08485711
149	0xbe5439e8	-0.20725214
150	0xbc9cd838	-0.01914607
151	0xbc017b59	-0.0079029435
152	0x3e56a50d	0.209614
153	0x3da22c06	0.07918553
154	0xbde89607	-0.113567404
155	0x3c9bf338	0.019036874
156	0xbe29a163	-0.1656547
157	0xbdb4861d	-0.088146426
158	0xbe3f4eb0	-0.1868236
159	0xbe26dcf2	-0.16295221
160	0xbe22c1e9	-0.15894283
161	0x3ca3cf9f	0.019996462
162	0x3e54fb3b	0.20798962
163	0xbdb918b8	-0.09037918
164	0x3e1b7bed	0.15183993
165	0xbdc14013	-0.09436049
166	0xbd923e24	-0.07140759
167	0xbe03544c	-0.12825125
168	0xbe2b2c38	-0.16716087
169	0xbe0fb020	-0.1403203
170	0x3e724f6b	0.23663108
171	0x3db46cad	0.08809791
172	0x3dba9d58	0.09112042
173	0xbae53279	-0.0017486356
174	0xbdcd6cd8	-0.10030526
175	0xbe21f7ab	-0.15817134
176	0x3da99647	0.08280616
177	0xbd852e23	-0.065029405
178	0xbd605519	-0.054768655
179	0xbd25cd92	-0.04047925
180	0x3e56eb83	0.20988278
181	0xbe25cda8	-0.16191733
182	0xbd90c9f9	-0.07069773
183	0x3de0fe63	0.109860204
184	0xbdb9139c	-0.09036943
185	0x3dd1d8ab	0.10246404
186	0xbe162650	-0.14663053
187	0x3e57b787	0.21066104
188	0x3e48a972	0.19595888
189	0x3d8b6e19	0.06808109
190	0xbdf3f585	-0.119120635
191	0xbb1f855d	-0.0024340965
192	0xbda185e4	-0.07886866
193	0xbd178f05	-0.03700163
194	0xbda5bf31	-0.080931075
195	0xbe26af8c	-0.16277903
196	0xbe16d688	-0.14730275
197	0x3d8287b8	0.063735425
198	0x3e133277	0.1437472
199	0xbe0a3553	-0.13496904
200	0xbe59cdcf	-0.21269916
201	0x3dbec83b	0.09315535
202	0xbe673257	-0.22577797
203	0x3d1f48fe	0.03888797
204	0x3e1c874f	0.15285991
205	0xbdfa7449	-0.12229211
206	0xbdc72a2d	-0.09724841
207	0x3dcf1b95	0.10112683
208	0xbc5c947e	-0.013463138
209	0x3e694682	0.22780803
210	0xbd9d4caa	-0.07680638
211	0x3d57d0e6	0.052689455
212	0x3d1781f4	0.036989167
213	0xbd568fe6	-0.052383326
214	0x3e6b001f	0.22949265
215	0x3e27bd05	0.16380699
216	0xbdbdefc3	-0.092742465
217	0x3e2af74f	0.16695903
218	0xbe2276e6	-0.15865669
219	0x3be8804c	0.0070953723
220	0x3ddc41c4	0.10754731
221	0x3df3cd0b	0.11904343
222	0xbe3528aa	-0.17691293
223	0xbe2bff0c	-0.16796511
224	0x3e0363be	0.12831017
225	0x3d680052	0.05664093
226	0xbd3ef787	-0.04662278
227	0x3dcb3e32	0.09923972
228	0xbdba5925	-0.09099034
229	0xbe3448d2	-0.17605904
230	0xbda5b36c	-0.08090863
231	0xbe3600b6	-0.17773709
232	0xbdbb1860	-0.091355085
233	0xbc999e12	-0.018752132
234	0xbca24476	-0.019808035
235	0xbe0d1c9c	-0.13780445
236	0x3d140656	0.036138855
237	0xbe163570	-0.14668822
238	0x3e411d2a	0.18858781
239	0xbd624609	-0.055242572
240	0x3e5c8315	0.21534379
241	0xbc4fd940	-0.012686074
242	0x3da10156	0.07861583
243	0x3d265678	0.040609807
244	0xbd25750e	-0.040394835
245	0x3e13767b	0.14400665
246	0xbdb6a0c8	-0.08917385
247	0x3d78ee26	0.06077399

network.2.weight f4 [27, 248]
0	0x3d9e20fe	0.077211365
1	0x3c679eda	0.014136994
2	0x3d7473ff	0.059680935
3	0x3d7e487d	0.06208085
4	0xbd3c6d66	-0.046002768
5	0x3c9bc57c	0.019015066
6	0x3d8a3344	0.067480594
7	0x3d8f737a	0.07004447
8	0x3d4b9eb1	0.049711887
9	0x3cecb6dd	0.02889579
10	0x3c3dbce3	0.011580679
11	0xbd03fdc8	-0.032224447
12	0xbd0b3dbc	-0.03399442
13	0x3c361bfd	0.011115071
14	0x3d47b222	0.048753865
15	0x3da55c56	0.08074252
16	0x3c951c93	0.018202102
17	0xbd322b5e	-0.04349839
18	0xbdcebf9a	-0.10095139
19	0x3d1ce45b	0.038303714
20	0x3d6c6f7c	0.057723507
21	0xbd8f7685	-0.07005028
22	0x3d20ac6a	0.039226927
23	0x3d1b487a	0.037910916
24	0xbcbbc11c	-0.02291923
25	0x3c85f97e	0.016354319
26	0x3c3c3202	0.011486532
27	0x3d93a494	0.07209125
28	0x3dab4fca	0.08364828
29	0xbd1d997a	-0.038476445
30	0xbcb1ace6	-0.02168889
31	0x3cf9851b	0.030458977
32	0x3c5b192a	0.013372699
33	0x3b8173bd	0.0039505647
34	0x3cd544f2	0.026033852
35	0xbbd535a4	-0.0065066386
36	0xbd3342ea	-0.043764986
37	0x3d13fbbc	0.036128744
38	0xbc20ee4c	-0.009822439
39	0x3c65a7e6	0.014017081
40	0x3d2d5304	0.042315498
41	0xbe0d5b27	-0.13804303
42	0xb8fc0a84	-0.00012018255
43	0xbd1a7852	-0.037712403
44	0xbcca7c10	-0.02471736
45	0xbd133db4	-0.035947517
46	0x39e6b374	0.00044002722
47	0x3db3672e	0.08759914
48	0x3ccb9207	0.024849905
49	0x3cd2b555	0.025721231
50	0x3d1d15c0	0.03835082
51	0x3d61632f	0.05502623
52	0x3ca95ffa	0.020675648
53	0x3cccbad5	0.024991432
54	0x3cf93b89	0.030423896
55	0x3c73eeb7	0.014888457
56	0x3d1891f0	0.03724855
57	0x3d2f1ef8	0.042754143
58	0xbdb0ab56	-0.0862643
59	0x3c937f65	0.018005082
60	0x3c9842e3	0.018586582
61	0xbcaeadfd	-0.021323198
62	0x3bc4cc7d	0.006005822
63	0xbd662429	-0.05618683
64	0x3d286ebf	0.04112124
65	0x3ce263bc	0.027635448
66	0xbd365e14	-0.044523314
67	0x3d843c30	0.06456792
68	0x3d530103	0.051514637
69	0x3d60067b	0.05469368
70	0x3da3645d	0.07978127
71	0x3d28fc5b	0.04125629
72	0x3d87a535	0.066233076
73	0xbd028694	-0.031866625
74	0xbcebaab6	-0.028767925
75	0x3ce2b2ea	0.027673203
76	0x3d835bbb	0.064139806
77	0xbbf9b4c5	-0.0076204264
78	0xbd9cae00	-0.07650375
79	0x3d8a1e34	0.06744042
80	0x3da9036f	0.08252608
81	0xbd194bb2	-0.037425704
82	0x3cec0abf	0.028813718
83	0x3d2ca722	0.042151578
84	0xbc1b8283	-0.009491566
85	0x3d1fa974	0.038979962
86	0x3d5bc315	0.05365284
87	0x3dacf6e2	0.08445527
88	0xbc7abf2b	-0.015304367
89	0x3d84e161	0.064883
90	0x3c8d4708	0.017245784
91	0x3dd30512	0.103037015
92	0x3c12e8f7	0.008966676
93	0xbdb7a055	-0.08966128
94	0xbd565cff	-0.05233478
95	0x3d4a70e3	0.049424063
96	0x3d253f06	0.040343307
97	0xbcf68bc0	-0.030095935
98	0xbc3b9009	-0.011447915
99	0xbc6d20af	-0.014473124
100	0xbd8e4439	-0.06946606
101	0x3be95e73	0.007121855
102	0xbccd2d2f	-0.02504596
103	0x3cc1b3f4	0.023645379
104	0x3c392abd	0.0113016935
105	0x3cd1a466	0.025591087
106	0x3c8c943b	0.017160526
107	0x3d0a85e7	0.033819105
108	0x3ccdeddf	0.02513784
109	0x3d0507e9	0.032478247
110	0xbcd76b1b	-0.026296189
111	0xbbd4bf1d	-0.006492509
112	0x3d0e80f5	0.03479095
113	0x3d592c2a	0.053020634
114	0x3b3122d8	0.0027028825
115	0x3d2c4097	0.042053785
116	0x3d9ed416	0.07755296
117	0xbd12eaf7	-0.03586861
118	0xbcaf0200	-0.021363258
119	0x3d5a815a	0.053346016
120	0xbd6915bb	-0.05690549
121	0xbd00db38	-0.031459063
122	0x3c7fcc5b	0.015612687
123	0xbd2c4271	-0.04205555
124	0xbda515f5	-0.080608286
125	0xbc16b2ff	-0.009197949
126	0x3d340e56	0.043958984
127	0x3c9c99fd	0.019116396
128	0x3d43e6f0	0.04782766
129	0x3c17e24b	0.009270261
130	0xbcacd08a	-0.021095533
131	0x3ce28011	0.027648957
132	0x3dac3722	0.08408953
133	0xbc849b43	-0.016187316
134	0xbcf8b6fe	-0.030360695
135	0xbd69dd5b	-0.057095867
136	0x3d7dc3b2	0.061954208
137	0x3c3240fa	0.010879749
138	0x3ca1118e	0.019661691
139	0xbd08d307	-0.033404376
140	0x3c8c7e1a	0.017149974
141	0x3d3eca8f	0.046579894
142	0xbd84b0df	-0.06479048
143	0x3c047650	0.0080848485
144	0x3c8ff4ea	0.017572839
145	0x3cd10ea5	0.025519678
146	0x3d59c00b	0.053161662
147	0xbc2970f1	-0.010341869
148	0x3c8fd21f	0.017556248
149	0xbbe54dae	-0.0069977855
150	0xbc91ca60	-0.017796695
151	0xbdb01e8e	-0.08599578
152	0x3d105742	0.035239466
153	0xbceb2fe7	-0.028709365
154	0xbd796051	-0.06088287
155	0x3d6d662f	0.057958778
156	0xbcf674dc	-0.03008502
157	0xbd0b7b60	-0.034053206
158	0xbc8c42b0	-0.017121643
159	0x3b9cf871	0.0047903587
160	0x3cd3e52e	0.025866117
161	0xbc9165bf	-0.017748712
162	0x3b1452fd	0.0022632473
163	0xbcb46136	-0.02201901
164	0x3dc39f22	0.095518366
165	0x3c89c14c	0.016815804
166	0xbdb65d61	-0.08904529
167	0xbd4c9e64	-0.04995574
168	0x3ce52076	0.02796958
169	0xbd2068fa	-0.039162613
170	0x3c89e0e8	0.016830876
171	0x3d14dab5	0.036341388
172	0x3d95529f	0.07291149
173	0xbd1ef2b8	-0.038805693
174	0xbd1cc426	-0.038273
175	0x3d3ae035	0.045623977
176	0x3d39441d	0.045230974
177	0x3cdbf348	0.026849404
178	0x3cc1fbf7	0.023679717
179	0x3d894b24	0.06703785
180	0x3ded03ca	0.11572988
181	0xbda62517	-0.08112543
182	0xbdb9369c	-0.09043619
183	0xbca1c28c	-0.019746087
184	0xbcdf037c	-0.027223341
185	0x3d294f4b	0.041335385
186	0xbd88ceab	-0.06680044
187	0x3dd175b3	0.102275275
188	0xbca82336	-0.020524602
189	0x3d6afbb6	0.057368957
190	0x3c847ce6	0.016172837
191	0x3c5eab5f	0.013590663
192	0x3bb5f3c0	0.005552739
193	0xbc26245d	-0.010140506
194	0x3d3b8a41	0.045786146
195	0x3c9d29ad	0.019184912
196	0x3d57f3a9	0.052722607
197	0xbc55510d	-0.013019812
198	0x39efaf92	0.00045716442
199	0x3c456d3f	0.012049972
200	0xbd63c286	-0.055605434
201	0xbca0b1b5	-0.019615987
202	0xbc273283	-0.010204914
203	0x3d658c4e	0.056042008
204	0x3cb648a1	0.022251429
205	0xbd711062	-0.058853514
206	0x3d0fa437	0.035068717
207	0xbd68ca13	-0.056833338
208	0xbc1023f9	-0.008797639
209	0x3cf27e8b	0.029601356
210	0xbd4e6b60	-0.05039537
211	0x3d86ff4c	0.06591663
212	0x3b168ff2	0.0022973982
213	0x3b2b6415	0.0026152183
214	0x3d8ca47b	0.0686731
215	0x3da15787	0.07878023
216	0x3c5b5b73	0.013388502
217	0x3d61b5ae	0.055104904
218	0x3d5925ac	0.053014442
219	0x3ab07360	0.0013462119
220	0xbd032f2a	-0.0320274
221	0x3c78b52e	0.015179915
222	0xbc510ec6	-0.01275987
223	0x3d6a89f6	0.057260476
224	0x3d5c8de2	0.053846247
225	0x3c526e21	0.01284364
226	0x3c7ee6eb	0.015557985
227	0x3ce8b503	0.028406626
228	0xbc8f259e	-0.017473992
229	0x3c8530ff	0.016258715
230	0xbc0e2675	-0.008676161
231	0xbe2f6bf9	-0.17131032
232	0x3d8dc4d7	0.0692231
233	0x3c45bc13	0.012068766
234	0xbb88451a	-0.004158628
235	0x3c80654b	0.0156733
236	0xbcd299aa	-0.025708038
237	0x3c4f98ba	0.01267069
238	0xbcfc1b68	-0.030774787
239	0x3ced67af	0.028980104
240	0x3d852256	0.0650069
241	0x38cabae5	9.6669224e-05
242	0xbcdae157	-0.026718779
243	0x3d455d95	0.04818495
244	0x3baa5d77	0.00519913
245	0x3d94a57f	0.072581284
246	0xbdbcd199	-0.09219665
247	0xbcc4fa96	-0.02404527
248	0x3d33bb06	0.04387953
249	0x3d4b857f	0.04968786
250	0x3d708380	0.05871916
251	0x3d7b5d4e	0.06136828
252	0xbb347cb8	-0.0027540158
253	0xbc106939	-0.00881415
254	0x3c8757a1	0.016521277
255	0x3cc20e8e	0.02368858

network.2.bias f4 [27]
0	0x3cefbf16	0.029265922
1	0x3c1078bd	0.008817849
2	0x3c47227f	0.012154221
3	0x3bee9e32	0.007282042
4	0xb9f4effe	-0.00046718115
5	0x3c57e4e2	0.0131771285
6	0xbbf87019	-0.0075817225
7	0x3c82ef9b	0.015983393
8	0x3d4e8962	0.050423987
9	0x3d1bf826	0.03807845
10	0x3c878c1e	0.016546305
11	0x3c222136	0.009895613
12	0x3db7aee6	0.08968906
13	0x3da089b0	0.07838762
14	0x3d8b279d	0.06794665
15	0x3d98d64e	0.074627504
16	0x3dbc13cb	0.09183463
17	0x3cdcbe58	0.026946232
18	0x3d090185	0.033448715
19	0x3c1aa7e3	0.009439441
20	0x3c167be2	0.009184809
21	0x3d9044fc	0.07044408
22	0x3d426813	0.047462534
23	0x3d3b2fa7	0.04569974
24	0x3d3e8014	0.046508864
25	0x3d35f220	0.04442036
26	0x3d759b55	0.05996259
